fine-tuned models/NO1387_YDR514C.pth (torch, 3863 bytes, 6 tensors)

weight f8 [3, 25]
00000000: a48c 77e3 2a46 ef3f 8613 581d e9b5 cbbf
00000010: aecb a261 2f1d d9bf ac11 d163 493d e6bf
00000020: 061e 48c5 c934 ccbf 170b 2988 6276 aebf
00000030: 4bde 070a 6fb0 c1bf 4ad3 b014 c7dd d33f
00000040: 275e da3d fa5c ddbf 2437 de17 42a0 bfbf
00000050: 389e ae55 a36d d0bf 4a79 d1f1 57a4 c43f
00000060: 4059 8ab7 6dc7 bcbf 6503 eed2 ef55 ee3f
00000070: a1bc d0e9 1498 e4bf 8390 e0cc 673d 803f
00000080: 2f8a 83cb 9a4f cebf e577 a6f8 7794 ddbf
00000090: 9b54 dd19 d0e8 af3f 485e 6c5d 8916 d2bf
000000a0: 9fd2 24a1 d5e9 bf3f b2aa 27cb 5657 d1bf
000000b0: ea73 a2c2 d0a5 b63f 231f 050b c3d4 d7bf
000000c0: 25be 244f 3a83 afbf 3776 58d3 a409 fb3f
000000d0: 6eb2 ee4e 27bf d9bf cab3 3879 2429 d7bf
000000e0: bb79 bbed f005 e9bf 9ecd 80d6 ac85 dabf
000000f0: ebda 4cc9 fa23 d03f 08dd 670c 1288 783f
00000100: 5773 46cf 1b6c e13f 201f 4110 1f88 e1bf
00000110: 4f78 13ac b829 d63f bf69 0ca9 9600 cf3f
00000120: cfe5 d2a5 b272 afbf 43b6 0e8e 535a b9bf
00000130: c721 37c1 7d4a e53f d004 ce38 355a e2bf
00000140: 4845 ea8b 4196 b0bf 2d0c 9f9c c89c ad3f
00000150: 9f93 d9d5 7a26 e1bf 2edd 462f f778 dabf
00000160: 0dd3 078d dc97 d9bf 86f1 ceca f874 b93f
00000170: c358 7ad9 c01f d8bf 4f5a dba7 ac34 d03f
00000180: e2d8 cec5 3455 d4bf 9f02 be56 1a56 c53f
00000190: c2bf d2c8 fde0 94bf 2b13 678b 2c96 d0bf
000001a0: 8754 2035 d275 d8bf 1525 1d28 598b d9bf
000001b0: 4c82 3e69 51f8 c9bf 5f65 bdf6 7355 c0bf
000001c0: 3b42 5f8f df5e 883f 1c32 de45 e419 b6bf
000001d0: 0295 2ed7 9191 dabf 2543 d25e 0004 a5bf
000001e0: 7142 e582 6fe0 cabf ea47 a378 ea7c d6bf
000001f0: a091 1699 e6a4 bdbf 7b13 95e9 022b dabf
00000200: efd8 1137 33f1 97bf 9663 de5a ee85 c5bf
00000210: 65ca ef02 11d8 c8bf e371 756b de09 c0bf
00000220: af95 5a97 61cf cbbf 0f7a 5fa0 320c c2bf
00000230: e790 7608 1ba0 b0bf ad51 7500 0614 b1bf
00000240: 34ac d245 76f0 cbbf 9196 113e a10a d2bf
00000250: e19b 8104 248b cbbf
0.9773153727259296 -0.21648897106947745 -0.39240631613500454 -0.694981284098096 -0.22036096699615387 -0.059496955033429604 -0.13819683065206542 0.31041123409822957
-0.4587998966248698 -0.1235390957137637 -0.25669177405731913 0.16126536662609176 -0.11241803866355315 0.9479903335305663 -0.6435646597582442 0.007929621639114487
-0.2368043416709766 -0.4621868065095199 0.06232309642533914 -0.2826255237900779 0.12466178116012337 -0.2709557517943423 0.0884676432783206 -0.3723609550111055
-0.06154806343181133 1.6898544555364319 -0.4022920866798704 -0.36188613737141095 -0.781975235291433 -0.4144088835484697 0.2521960225889603 0.005989141942783556
0.5444468544334126 -0.5478663747280486 0.3462964706831188 0.24220546011276942 -0.06142195009438078 -0.0990345212764732 0.6653431676614269 -0.5735117063014972
-0.06479272523781276 0.0578367892444692 -0.535947244334796 -0.41363315216900076 -0.39989389202610043 0.09944109870315829 -0.376938068753031 0.25321499244947615
-0.3177005702704162 0.16669015155277564 -0.020389523870733013 -0.25916589368380255 -0.3821912306605743 -0.3991301433312214 -0.20289056433559194 -0.1276078181061093
0.011899706423634906 -0.08633257585297155 -0.4151348687540378 -0.04104615361678147 -0.20997423068412815 -0.3513742616752312 -0.11579743611816307 -0.40887520609640376
-0.02338104270571589 -0.1681497520155772 -0.1940938248004215 -0.125301172704794 -0.21726627245258842 -0.14099724608145478 -0.06494301754588926 -0.0667117835158197
-0.21827581796000717 -0.2818987947597203 -0.2151837369922012

bias f8 [3]
00000000: e343 6caa 4794 d0bf d5b4 89f7 f08a c6bf
00000010: 647a e78b 16ca cdbf
-0.25905028956282034 -0.1761151512795666 -0.23272973853359524

weight f8 [3, 3]
00000000: a56f 850f 302f fa3f 6122 c367 73a5 f03f
00000010: b60d ede4 cf23 f13f 367f 328d 76c0 ff3f
00000020: 3697 a31a 907c e43f 86e9 8458 f0a5 f33f
00000030: c7be b155 8ddf fc3f a6b2 59d0 44d9 f43f
00000040: e21c 5adc 304a e53f
1.636520443563293 1.0403932622158651 1.0712431852742674 1.9844880595700949 0.6402054329198339 1.2280124147206108 1.804578146689822 1.3030441416441731
0.6653065017461837

bias f8 [3]
00000000: da02 ae3c 9cdd e23f 4079 d014 3e75 ec3f
00000010: eced 24a3 f03d f23f
0.5895520386839863 0.8893118292360569 1.1401220677206494

weight f8 [1, 3]
00000000: 992c eb4a 4641 f43f d8fb c024 8962 ca3f
00000010: 5c9c 5d3d df39 ec3f
1.2659361769208657 0.20613207144376022 0.8820644568012415

bias f8 [1]
00000000: ed53 3230 9c17 ecbf
-0.87788209355733
