fine-tuned models/NO1422_YEL011W.pth (torch, 258967 bytes, 6 tensors)

weight f8 [153, 53]
-0.040210838675774276 -0.06363034439606799 -0.05300572484527927 -0.06491013631546412 -0.07184701453221363 -0.024899408842857712 -0.02722635770779616 0.09504606632654915
-0.06462873445517008 -0.2831768606440893 -0.09618839379918742 -0.029915503670494108 0.008164765129828897 -0.036534030044799395 -0.07086577726141903 -0.0368499789823227
-0.05439972024887523 -0.024908963460898954 -0.022788711104341174 -0.04124957531703932 -0.04423358011291549 0.04412549947354045 -0.03889132836907732 -0.058075341900756854
-0.09003513156808152 -0.010606471053784972 -0.025767119516652243 -0.02855363323415362 0.0313053864951974 -0.0545321450146578 0.020758671512627773 0.034440071726235415
-0.05782256069007337 0.08801168835358193 -0.02909599232088061 -0.038879735569519645 -0.029344692266169363 0.04518563246875229 -0.030028140736953337 0.05143818263103942
-0.04145957437198162 -0.03495686719026231 -0.13655556496317434 -0.03534282149584211 -0.061168931823617115 0.0020130383899164164 -0.03315848935996411 -0.02749376621167018
-0.03757684741768795 -0.019097140008380312 -0.027159746049131243 -0.030702710828954267 -0.042614654827675194 -0.034418044329041435 -0.05452388405766309 -0.045191326682082644
-0.05210367189390471 -0.07617768974650374 -0.034314593287902234 -0.031686552679734116 -0.024219431659652683 -0.052498016901584 -0.06067656480492398 -0.03856765995728697
-0.035129371742142736 -0.02335465776183184 -0.04056526788417247 -0.0208515575343487 -0.036668979176703614 -0.011251106254717671 -0.03551827175636299 -0.07131466402271784
-0.0292211381597537 -0.03540401993155737 -0.02612991570181962 -0.036266527928874394 -0.047957635557820004 -0.06783760057087027 -0.04232209648264674 -0.03082683185934778
-0.0323753951091047 -0.05061708755684139 -0.04788798575535163 -0.04269081544745094 -0.02387701116751787 -0.08182674203561688 -0.034130437965047764 -0.036939501812106174
-0.03978214730685235 -0.031708538331080637 -0.03262071167010759 -0.037404996929331524 -0.22706742483735973 -0.042950461168500584 -0.030673029747346692 -0.1111041707488153
-0.03666441906523408 -0.04994313587696954 -0.0339982363645134 -0.038691218105466565 -0.04016165604773818 -0.05428616374552094 -0.04791900659003988 -0.03283174698774019
-0.04045845298752875 -0.043018016059558024 -0.03518131301844487 -0.051651118670444154 -0.04428581860832525 -0.04942825067794197 -0.07672581984478939 -0.036569064828708
-0.03462005382803221 -0.03293124323073817 -0.052797802460483476 -0.056034329012351516 -0.03255377915057243 -0.03741201592847997 -0.026946094925059894 -0.04221543723998644
-0.03138328713035748 -0.03792844993536719 -0.01840531251143357 -0.03667532817451832 -0.05747550308720978 -0.032955650181319955 -0.03697917615247174 -0.027340162397327554
-0.03764109624176502 -0.04649343965730085 -0.06398354666977385 -0.04296517771765505 -0.034424638676951294 -0.03477981440779702 -0.04978711939365354 -0.045983184118428694
-0.04152875389806581 -0.031719984097679434 -0.07118484098690546 -0.035681643769791306 -0.039170904420617894 -0.04039995469971085 -0.03414084635022538 -0.0332641937036169
-0.03949318337051633 -0.23231972186448735 -0.04328459792809396 -0.032698595286979756 -0.10784632271231982 -0.037840742640922326 -0.048168565905922764 -0.037094450889444665
-0.03837235822864387 -0.04153581891342059 -0.049650521070177846 -0.0468036218209663 -0.03518204246749875 -0.041894854975262755 -0.041247634287185496 -0.03890821820028129
-0.0600631715657241 -0.05120591587154889 -0.05723632204468911 -0.07310353112423662 -0.036368007979658806 -0.0372106770027095 -0.02262587498685293 -0.055594210155696586
-0.05232123224855345 -0.03587808532082097 -0.04043928095528471 -0.026803012898714486 -0.04524676975247767 -0.039041888376715336 -0.04254945501002832 -0.03063661228343489
-0.038701068746893226 -0.0639698978331766 -0.02786070133669866 -0.040005826543470374 -0.0267344908685131 -0.041210040601548266 -0.053371222493619114 -0.05078832143914105
-0.04379037751536521 -0.03639878034742433 -0.03756242509155891 -0.049554704577030095 -0.05017152862472641 -0.03991562716145163 -0.03641088496234607 -0.053828177477501
-0.029562773413448325 -0.043199245279665496 -0.04446919116004744 -0.03695406654734045 -0.031553960691469936 -0.044502179121167114 -0.22680861156244833 -0.04834243499213113
-0.03779329656636974 -0.09892367536356031 -0.04267690578419294 -0.056097601535239676 -0.03596631883411108 -0.040922500808281824 -0.0422730564083141 -0.05048519803257211
-0.05376436870530054 -0.03698564283446215 -0.04610424877726718 -0.04043970681011992 -0.04693451163560105 -0.06494705386090877 -0.06943589661543224 -0.07865048274495393
-0.18592182718650963 -0.0023049107257525916 -0.020414539985153957 0.17824174075915789 -0.1567811214500445 -0.6275850518151015 -0.04815312224900428 -0.01740558787349789
0.05617531574394398 -0.038162827342429435 -0.22476340662553265 -0.040987906183718725 -0.0659123033184506 0.001492005672288283 0.1552182590989152 -0.12341796397104576
-0.06315219861627809 0.1917518722329939 -0.037948598727943005 -0.07132414490735596 -0.22918720643864596 0.018760981432964945 -0.020850155792548196 -0.022622122266253836
0.09955251494755507 -0.0850740522441753 0.12090200410341655 0.21501148738216014 0.050338359887379135 0.2406937993997894 -0.012266828610890165 -0.034519450003938947
-0.022534580390858247 0.16748547371814917 -0.026735724068025653 0.2972591338965688 -0.0341826304839111 -0.03498256336688365 -0.4098911538930668 -0.03179266042383577
00000000: 0547 1dda 8396 a4bf 42de 3608 144a b0bf
00000010: d828 6cfd 9023 abbf c560 a760 f39d b0bf
00000020: ff28 bbe1 9064 b2bf e8e1 ad0a 3b7f 99bf
00000030: a8d7 c6ef 39e1 9bbf e368 7c62 f054 b83f
00000040: 2be8 dd3c 828b b0bf eed1 dcd6 911f d2bf
00000050: b04d 9f75 cd9f b8bf 7eef a177 2ba2 9ebf
00000060: 8574 b239 b0b8 803f a28c 77a0 96b4 a2bf
00000070: 7550 be73 4224 b2bf e4ba 2c1d 00de a2bf
00000080: b7cc c2b6 47da abbf 756c c43d bc81 99bf
00000090: 3301 a583 ec55 97bf 30d0 eb11 aa1e a5bf
000000a0: a69f f0a7 c8a5 a6bf b929 5112 9e97 a63f
000000b0: 07e9 e26e 90e9 a3bf d7e5 551c 0dbc adbf
000000c0: 9872 93d9 8a0c b7bf fa72 6a72 d8b8 85bf
000000d0: 8569 8b1e b262 9abf 03d0 b0e3 293d 9dbf
000000e0: 8cfb 5e76 4207 a03f d75d d626 a3eb abbf
000000f0: 3e44 05dd c241 953f dfde 780b 21a2 a13f
00000100: ca09 452e eb9a adbf fdf5 241b ef87 b63f
00000110: 2ff5 d9fd 56cb 9dbf 0316 7f71 0be8 a3bf
00000120: 8ea5 60f6 880c 9ebf a09c 673b 9222 a73f
00000130: f718 b369 b2bf 9ebf 95fc 5400 1b56 aa3f
00000140: 7946 1178 303a a5bf 28a1 b4d2 dde5 a1bf
00000150: fc43 cd1a a77a c1bf 0f2e f24c 7418 a2bf
00000160: aa68 6dc3 8851 afbf 27ec 9bc1 a57d 603f
00000170: de88 c546 26fa a0bf 5758 e46a 5327 9cbf
00000180: 2ed3 7dc5 453d a3bf f1eb 215f 338e 93bf
00000190: 31da 31b4 c3cf 9bbf a2b7 a20b 8870 9fbf
000001a0: 0a61 a189 96d1 a5bf 872e 92ed 3d9f a1bf
000001b0: 74d2 c1f5 8dea abbf b825 534c 5123 a7bf
000001c0: fb58 921d 55ad aabf b864 258e 6180 b3bf
000001d0: d4e7 e4af ae91 a1bf 4502 f746 3839 a0bf
000001e0: 41a8 9f8b facc 98bf f7f1 6423 05e1 aabf
000001f0: 2c09 f1aa ff10 afbf b34b 66ec 23bf a3bf
00000200: 35e7 851d 7afc a1bf d673 2f8d 48ea 97bf
00000210: f0fd d485 f8c4 a4bf d106 b956 1c5a 95bf
00000220: 5cec aec4 46c6 a2bf 2e3e 43eb d10a 87bf
00000230: 0c42 356f 732f a2bf c3ea b385 ad41 b2bf
00000240: 23fe fd62 25ec 9dbf 6c85 81c7 7920 a2bf
00000250: 54d4 8bf5 ccc1 9abf 8db8 c9be 8691 a2bf
00000260: 07ef a038 e78d a8bf 7e18 e413 ce5d b1bf
00000270: 410e 95e8 3dab a5bf e664 b3aa 1191 9fbf
00000280: 109b 60fe 8193 a0bf 55ce 599f 7bea a9bf
00000290: a78f 6129 c684 a8bf 556c 5f10 92db a5bf
000002a0: aae4 5c18 3773 98bf 1e30 fbec 98f2 b4bf
000002b0: 9e50 b775 8b79 a1bf a453 6d00 bce9 a2bf
000002c0: 4e90 4b5b 535e a4bf bb9b 45fe 193c a0bf
000002d0: 1e39 9773 a9b3 a0bf 8073 096d bf26 a3bf
000002e0: 3bea d49d 8b10 cdbf 4637 2254 9afd a5bf
000002f0: ad4e 892e c068 9fbf 89bb d0ab 5271 bcbf
00000300: fdc0 9fc1 adc5 a2bf 42a6 808e 2592 a9bf
00000310: 9351 9d82 3768 a1bf 3a8e cfd8 55cf a3bf
00000320: f674 8e8e 1190 a4bf bb1a d363 65cb abbf
00000330: 7e72 520c d788 a8bf a470 2a9f 52cf a0bf
00000340: a73b db68 f8b6 a4bf 71ad 3a18 7506 a6bf
00000350: 236a b0f9 4803 a2bf 3295 fbf2 0372 aabf
00000360: 5fdd 327d a1ac a6bf 5e0c 52e0 a84e a9bf
00000370: 15fe fda6 4da4 b3bf 1c1e f832 2eb9 a2bf
00000380: 0c4e f43d b8b9 a1bf f3a1 6229 5ddc a0bf
00000390: cea4 bc45 5008 abbf c269 1f15 88b0 acbf
000003a0: 6d36 a091 e3aa a0bf 2fcf c7f1 aa27 a3bf
000003b0: 7009 d5d1 c197 9bbf b006 aa04 439d a5bf
000003c0: 6752 bb5f 7811 a0bf 86e9 1e98 5b6b a3bf
000003d0: 70b0 3c9d d7d8 92bf 6bc4 28ce 1bc7 a2bf
000003e0: 3853 29dc 6d6d adbf 1f8f 7e1f 90df a0bf
000003f0: 7570 6a40 efee a2bf 4e95 743d 0fff 9bbf
00000400: bd1c b09a b145 a3bf 1802 9df5 fccd a7bf
00000410: c4c3 6dc8 3961 b0bf 4d0c 5422 88ff a5bf
00000420: 3a97 9632 1ba0 a1bf 3587 e2ea a8ce a1bf
00000430: 8f96 1d83 b27d a9bf 0cc1 e89f 1b8b a7bf
00000440: 47f1 abbf 4143 a5bf 6589 a80c 9a3d a0bf
00000450: f77c 0274 2b39 b2bf dd17 1e4a dd44 a2bf
00000460: 82f1 e172 350e a4bf 56e9 6388 4daf a4bf
00000470: 8c5f 10b5 e87a a1bf a270 2b20 0108 a1bf
00000480: 808b fb55 7338 a4bf 54d8 cf13 a7bc cdbf
00000490: b618 0b19 6629 a6bf 96f3 c3ca debd a0bf
000004a0: 1d14 0b0d d19b bbbf 14bf 32a0 dc5f a3bf
000004b0: 9eb6 85de 8ca9 a8bf 05d2 dd3a 0bfe a2bf
000004c0: f728 53af 8aa5 a3bf 2c02 b1cf 2e44 a5bf
000004d0: 7d98 7308 cb6b a9bf ae5d 1cf2 a4f6 a7bf
000004e0: 0bd9 9b73 6103 a2bf ca94 fa0f 3e73 a5bf
000004f0: 6306 9af0 681e a5bf 9982 6e29 c7eb a3bf
00000500: a73c 239b 99c0 aebf 1260 0f6c a937 aabf
00000510: f388 a646 144e adbf 3895 66bb e9b6 b2bf
00000520: d45e c9d9 d39e a2bf ccca 9321 470d a3bf
00000530: 929a 72c4 3c2b 97bf 066c ee24 d876 acbf
00000540: d0b4 c93a d9c9 aabf 062a 31c6 9c5e a2bf
00000550: e078 5a1a 75b4 a4bf 4a44 56bf 3f72 9bbf
00000560: 224e aca8 952a a7bf f60f 8163 4cfd a3bf
00000570: a71d 76cb 0ac9 a5bf ef34 453f 345f 9fbf
00000580: 8922 2d61 a0d0 a3bf 6d38 1fcb 5460 b0bf
00000590: 31c7 5604 8487 9cbf bcab 4ec9 a47b a4bf
000005a0: e267 d24f 4960 9bbf f90b 4d81 7b19 a5bf
000005b0: 5cb5 500e 7953 abbf 131f 3347 ed00 aabf
000005c0: 83b0 9d3e b16b a6bf 18b7 6966 dca2 a2bf
000005d0: 9c44 a7d6 613b a3bf f8e5 0af7 3b5f a9bf
000005e0: c15d 4425 15b0 a9bf a7f9 8332 d26f a4bf
000005f0: 786d 4390 72a4 a2bf 4e01 bdeb 5d8f abbf
00000600: 1293 f523 b445 9ebf 8647 6023 361e a6bf
00000610: 2088 6c73 aac4 a6bf 5fd1 8cb6 a4eb a2bf
00000620: e950 753a d727 a0bf e92f da57 fdc8 a6bf
00000630: 2f52 8e88 1008 cdbf 06b5 99f2 56c0 a8bf
00000640: ad6b 8599 a459 a3bf a292 7cde 0f53 b9bf
00000650: 2371 4655 bfd9 a5bf 7fae f427 d3b8 acbf
00000660: e4ce 4c66 2d6a a2bf dbc1 4845 cbf3 a4bf
00000670: eb24 8d65 d0a4 a5bf 2ec6 f624 32d9 a9bf
00000680: 2f07 8fda 0087 abbf c085 ca3c c8ef a2bf
00000690: 24f7 68e1 f99a a7bf 8628 6b64 83b4 a4bf
000006a0: a3a9 0ee1 cc07 a8bf 04dd 4dc0 5ea0 b0bf
000006b0: 4fb8 2109 8dc6 b1bf c245 3423 7022 b4bf
000006c0: b476 b053 49cc c7bf 436b fe85 bfe1 62bf
000006d0: dd7f 6596 8ce7 94bf 60dd ab17 a0d0 c63f
000006e0: e70a a15e 6711 c4bf 7123 203f 2d15 e4bf
000006f0: b4ff 84aa 86a7 a8bf 61c0 bc3a c5d2 91bf
00000700: c2e8 eccf 02c3 ac3f 399e b7fe 138a a3bf
00000710: c1a8 651c 0cc5 ccbf 9061 2ee9 5dfc a4bf
00000720: 9422 28f3 a0df b0bf b6e0 58e4 ec71 583f
00000730: dd33 4921 31de c33f b09a fed6 5198 bfbf
00000740: 9937 ba13 be2a b0bf 52ff 174a 538b c83f
00000750: 935b eeac ff6d a3bf 79d1 ca95 4c42 b2bf
00000760: 1765 28a2 0156 cdbf 6e23 c826 1436 933f
00000770: 3664 fb44 be59 95bf a5dd 32ed 402a 97bf
00000780: 4c2e ef0b 467c b93f 607e 20c0 69c7 b5bf
00000790: cf20 a509 6ff3 be3f 840c 4915 7f85 cb3f
000007a0: 53b1 e612 f3c5 a93f 84d3 62ee 0dcf ce3f
000007b0: 58df acdd 591f 89bf bd86 af89 88ac a1bf
000007c0: ec34 3b17 4e13 97bf 9d56 16fc 2970 c53f
000007d0: 2f38 0712 9c60 9bbf 9e79 a12c 4b06 d33f
000007e0: ac0f 0ac0 6280 a1bf 3f99 2e0b 3ce9 a1bf
000007f0: b9fc 381b a83b dabf f0e1 8ba9 2047 a0bf

bias f8 [153]
-0.043890220058874246 -0.041576682813311554 -0.04176228729871029 -0.04657680393387857 -0.04230531749158803 -0.07222674227597985 -0.03648150207775078 -0.034997288433103665
-0.03680860560062567 -0.042677178787234926 -0.03701135760411602 -0.04199955565029679 -0.04127358242023089 -0.03967744319901188 -0.041686313841171246 -0.04383153302898729
-0.08262194970514115 -0.041712943557115974 -0.042174704507411995 -0.08218693057022126 -0.04149017225204321 -0.03667393171157686 -0.04215986918883882 -0.06722296709580483
-0.04068633330339085 -0.03666046058774351 -0.04134901380750865 -0.04127799335745885 -0.041930240147706875 -0.04421045449998792 -0.0715207890590522 -0.08812580035474638
-0.038255627688415714 -0.08971520494867598 -0.04320070860868786 -0.03900843068349214 -0.03306003810874135 -0.04265226970000138 -0.044543640993186855 -0.03418058700442822
-0.030053491465179955 -0.0351366391088771 -0.03688381196804923 -0.03612267219411678 -0.03604824844424747 -0.03407900983437071 -0.0408831842921409 0.04051457351155229
0.01038125437897423 -0.03731286816372586 -0.04044094421077448 -0.0421425983810181 -0.03173744650946012 -0.05177959215173854 -0.08318227527893148 -0.03739309900611241
-0.07265973557486592 -0.04368776239868654 -0.032686023515822275 0.004734488111507719 -0.02942627283853027 -0.04244462173381761 -0.04431431265307835 -0.034078751914393614
-0.039456467091193874 -0.010630641145010607 -0.023532600760688714 -0.041580084787322946 -0.04299733924611326 -0.0276624093425489 -0.03783142539243882 -0.043908421048165794
-0.06075270049995349 -0.03242468511520259 -0.06275088683867135 -0.041671541396125986 -0.041724937326280395 -0.04253541903355696 -0.0805954500558954 -0.04070574531661793
-0.038601637682606604 0.039672102788457 -0.034373675769381794 -0.04257797742241806 -0.031949716926749444 -0.04157691212358771 -0.04100609640720601 -0.038222805078285786
-0.06498175597717193 -0.03178929488713239 -0.040683257665124 -0.04231798445004208 -0.04297068342823889 -0.039784011304896776 -0.031818495572932745 -0.042272433687023006
-0.042742906560357195 -0.027001973440264528 -0.0343296004561064 -0.04187560092097647 -0.03533158390896015 -0.044591946048172355 -0.04291865428952454 -0.040173875029747966
-0.04301219853134408 -0.040888608470185 -0.08123487192785515 -0.03835264434172199 -0.06791368346218776 -0.030779879113769098 -0.042559534880459375 -0.04051279730095438
-0.037747618709777365 -0.03852984425825208 -0.03770667945597176 -0.02424295451164416 -0.018778389178167435 -0.04121644694283724 -0.0433483931207539 -0.04566162283637363
-0.030166863931047255 -0.04030596142206037 -0.04029920116324094 -0.027466531308967746 -0.038484212860939344 -0.07819135887551146 -0.040799590365625193 -0.04140400304146672
-0.04185351766825722 -0.047916680239420355 0.005840724241307857 -0.03559148156677376 -0.04328533718991681 -0.04359238106695384 -0.0690127911259555 -0.039750768183017864
-0.035516362517299054 -0.03382592824141911 -0.07009958569260855 0.025600704337419573 -0.03846160913689699 -0.03840060627021865 -0.036801256380451876 -0.01856179630825711
-0.06226985732116934 0.03878958936701432 0.04588952506399555 -0.04224327338652621 -0.03661658879021263 -0.06946638639894678 -0.041089915699537016 -0.03437336897614837
-0.042001035366428484
00000000: 64c2 8867 c778 a6bf 672e ebf9 8949 a5bf
00000010: 68e8 4ed4 dd61 a5bf 86e2 4b33 ead8 a7bf
00000020: 4c83 25e6 0aa9 a5bf fbd1 f8a7 737d b2bf
00000030: 4c71 aa14 b4ad a2bf eea7 8922 2aeb a1bf
00000040: aa37 88da 93d8 a2bf e87a 5a7e c8d9 a5bf
00000050: a300 fb14 27f3 a2bf 61da ed3b f780 a5bf
00000060: a907 5e9d cf21 a5bf 7e78 db11 9a50 a4bf
00000070: 8cf9 4695 e857 a5bf 183d c931 1671 a6bf
00000080: 9953 ea4b b626 b5bf 41a0 cb20 665b a5bf
00000090: 2ed5 2741 ec97 a5bf 552d f5e2 330a b5bf
000000a0: f019 db29 333e a5bf 9248 a2f2 ecc6 a2bf
000000b0: 6c49 bd76 fa95 a5bf dc70 373d 8635 b1bf
000000c0: db4b ddcd d6d4 a4bf 0eb2 8fee 28c5 a2bf
000000d0: 2eda 0cac b22b a5bf b092 079f 6322 a5bf
000000e0: 03b0 4b64 e177 a5bf 3cff 6fb0 c0a2 a6bf
000000f0: 7524 feb9 2f4f b2bf 281c 7596 698f b6bf
00000100: ae90 9edb 3d96 a3bf 4d60 355f 93f7 b6bf
00000110: 81d4 463d 671e a6bf 6196 1bbc e9f8 a3bf
00000120: be8e f6cc 3eed a0bf 0461 ecae 84d6 a5bf
00000130: 2ffa 9e92 6cce a6bf f827 af2e 1e80 a1bf
00000140: b5ed e4ab 57c6 9ebf d05b baf7 6dfd a1bf
00000150: be25 4f5c 6fe2 a2bf 5d8b 6fbf ab7e a2bf
00000160: ffd0 4a80 ea74 a2bf 6df7 6fd1 cd72 a1bf
00000170: a26f fb06 a4ee a4bf afac 7c80 53be a43f
00000180: 56a9 6460 c442 853f 0761 f718 ac1a a3bf
00000190: 5ff9 9be9 acb4 a4bf 333f a1f3 b693 a5bf
000001a0: f523 a2fd e33f a0bf beab c8cd da82 aabf
000001b0: 9d0c eeff 6e4b b5bf 7d99 a732 3025 a3bf
000001c0: cfb1 0714 d499 b2bf efbd 790d 3e5e a6bf
000001d0: 0fd0 12f4 38bc a0bf 35b8 a279 7864 733f
000001e0: de4a f0bd eb21 9ebf d5c5 792c 4dbb a5bf
000001f0: eaeb 2d97 5db0 a6bf 55f0 eb29 c572 a1bf
00000200: 1f75 8b57 a333 a4bf 9e39 6d80 84c5 85bf
00000210: 16c0 a01a ee18 98bf a825 a720 fc49 a5bf
00000220: cf0f c14b bf03 a6bf 57ba d1dd 8853 9cbf
00000230: 46a7 a4fd a35e a3bf 4a7c d720 2a7b a6bf
00000240: bcfb 945b fa1a afbf 0248 4ee4 f799 a0bf
00000250: 0760 c42e 7110 b0bf 66c7 f0e6 f855 a5bf
00000260: b6f0 7c92 f85c a5bf e170 57d3 33c7 a5bf
00000270: ff4b 3246 e7a1 b4bf dad1 c929 62d7 a4bf
00000280: c071 d606 98c3 a3bf 5f77 14e0 e64f a43f
00000290: c3ac 8b2a 6d99 a1bf ec43 1ed9 c7cc a5bf
000002a0: b439 a29a b65b a0bf afcf adab 9149 a5bf
000002b0: 74da 0246 c0fe a4bf df94 8b83 f091 a3bf
000002c0: 0034 c2f4 a4a2 b0bf 8867 cebb af46 a0bf
000002d0: ca38 559a 6fd4 a4bf ffba 7dee b3aa a5bf
000002e0: 07a9 05e0 4000 a6bf 979c eae6 915e a4bf
000002f0: b68e c98b 834a a0bf 1a8b 6a80 bba4 a5bf
00000300: 931c a0f3 65e2 a5bf d7e0 69c3 67a6 9bbf
00000310: 59c9 7c3e a693 a1bf 2771 e900 b870 a5bf
00000320: 4b4a cf3a fb16 a2bf 4940 e26b c1d4 a6bf
00000330: 3ba9 1f11 6ff9 a5bf 3a0e d08e ab91 a4bf
00000340: 60d8 0ae4 b105 a6bf e918 5108 5aef a4bf
00000350: 2792 39fe cecb b4bf 8a5c 5332 f5a2 a3bf
00000360: 2ac6 6b89 ca62 b1bf db83 acb8 c284 9fbf
00000370: 4f9b e304 5dca a5bf 5343 f4e6 17be a4bf
00000380: 9d82 b8e7 a753 a3bf 6ab1 040a 2fba a3bf
00000390: a553 3536 4a4e a3bf 22ca 2423 25d3 98bf
000003a0: 4131 915d a43a 93bf 3486 5a77 521a a5bf
000003b0: 2159 93b5 c231 a6bf 0d6e 87d1 f560 a7bf
000003c0: 38e4 06f8 0fe4 9ebf 157e 48a4 fba2 a4bf
000003d0: 9222 1ace 18a2 a4bf cd88 d3b6 2f20 9cbf
000003e0: a9d1 4ce7 33b4 a3bf 223b 3351 5904 b4bf
000003f0: 5001 9f14 afe3 a4bf 8d21 f9cd e732 a5bf
00000400: 7627 3703 d36d a5bf 9755 1ffd 8888 a8bf
00000410: e337 9f79 71ec 773f c6e2 b0f2 0b39 a2bf
00000420: 7409 41e7 7e29 a6bf bf1d 1396 bd51 a6bf
00000430: b143 e480 d2aa b1bf 4783 ac72 365a a4bf
00000440: ef27 f85e 332f a2bf 8883 1bcf a151 a1bf
00000450: a04d 03e4 0bf2 b1bf 42fe 882f 1237 9a3f
00000460: defc c972 3db1 a3bf bb81 2788 3ea9 a3bf
00000470: 2525 3641 9dd7 a2bf 715a 6510 dd01 93bf
00000480: 0628 71b1 d5e1 afbf 8860 83a3 3adc a33f
00000490: 6df6 c1f2 d47e a73f ae9c 570b e9a0 a5bf
000004a0: 89a9 b0d6 68bf a2bf fa38 c191 8cc8 b1bf
000004b0: 00f4 3fc8 bc09 a5bf 4c38 36df 6299 a1bf
000004c0: cb09 98e2 2881 a5bf

weight f8 [153, 153]
0.02347051383066065 -0.011816534270689084 -0.017135453730302872 0.04458397851225805 0.07409902592265698 0.06862594226822495 -0.016574291057792925 0.04991803513793178
0.03379740558826016 0.11989013298206533 -0.030277500890101453 0.040460548484331255 0.08040144390576617 0.0705980016976505 0.01380978437090185 0.12475753641957585
0.07484465033279292 0.017450973153218433 0.115461265048575 0.10802059322740964 0.11671223734622238 0.12498534955738635 0.0071150123272699 0.11512935539995003
0.16941880784128188 0.04514893176832733 0.07630169957448445 0.1017215478272543 0.08752481750814907 0.1285132070919225 0.0556279907878315 0.09335303118118553
-0.05388154748807083 0.13224581106802608 0.07782771932859524 -0.009091914697553978 0.12806278303585775 0.09292711498099729 0.09442659743330183 0.024113299098824034
0.11696974476837434 0.006667816287842929 -0.03173111125035637 -0.008597836831015518 0.0017107067945072215 -0.01287173814208682 0.10860600296885793 -0.26905344318939806
-1.1729521519139101 0.020723801764257994 0.09383660625962399 -0.020668035307372993 0.12246931732754765 0.1183040688383034 0.0838657596089006 -0.01039690195041185
0.03350964665432805 -0.05301947043705261 0.011160629530303416 -1.960938918169316 0.018950574479250526 -0.007663155727963967 0.003860282122044976 0.12456454379060657
0.11849825490241218 -0.9203496996201176 -0.3648411788147557 0.04302014908489048 0.12715728492479766 0.0738158472705842 -0.02269719933852056 0.13063029357176112
-0.036607658786011334 -0.1605054535250266 -0.009788387086034654 0.07345830580947371 0.04153901364023928 -0.023799898076974572 0.03706295643683744 0.10485316269125478
0.10400399743719821 -0.33268732393158357 0.07640688169597125 0.08479407934752081 0.07155512603965362 0.13493658393357955 0.09625068882796721 0.09414311246456167
-4.296487651554498e-05 0.060198450467359 -0.5608514874596028 0.13345674584710743 0.061468311602845487 0.05330845027860044 0.029161017679372254 0.11030243306415993
0.034818736296547546 -0.2888479654725148 0.01729321701151699 0.06448779287202605 -0.1352468173852036 -0.8917912445696253 0.10220471256791859 0.024741314576809295
0.015494714775633755 0.10919692955594056 0.11709341944718785 0.11880331701188453 -0.0021339933806285983 0.03439627075335004 -0.018054554788028573 0.11277872792317453
0.029773111675754516 0.046404671446653875 0.09236571880256747 0.11834917440163176 -0.2740791694583703 0.07675139515571765 0.022586431232224466 0.05891304297489335
0.09223733900556802 0.062649432530427 0.06490748182169657 0.08321286026257335 0.07487947035368768 0.0826702589505556 0.02448742252286499 0.03700929704441145
0.08991035820001798 0.06780246572880187 -0.4464417236800903 0.007599559545484364 0.13475013294523222 -0.09724481748069298 0.08067547374499782 0.06002923089123256
-0.019901808429500897 0.11683016018750304 0.11534774249946002 -0.6104342560360261 0.02373430435763219 -0.029163223592278867 0.07775295934008863 -0.8266637189949511
0.030610490321285575 -0.527292361659421 -1.0636712620992268 0.09589706277139293 -0.012541881310276417 0.10835484992080428 0.11177650424525654 0.06354219784343632
0.10520110387824104 -0.04518697163298906 0.0035857182027268088 -0.08050595210670783 -0.027736215243763 -0.034681072105134915 -0.08900498346930213 0.004367394379796178
0.002127525975251823 -0.05543886187509312 -0.01187690796343106 0.00732977565676536 -0.08169699087288812 -0.013215049556778047 -0.032977751211389794 -0.11062670131130962
-0.146420937922181 -0.07941862527430274 -0.019349639365809378 -0.12602703784402167 -0.06360548461364496 -0.11524955709160334 0.004674776203797261 -0.10364723199218072
-0.01000815902457049 -0.021390013787834956 0.03389732810209695 -0.12482073263454424 -0.034626410887439715 -0.12300335514268294 -0.012720103569558152 -0.10049281484964045
-0.06468160207693108 0.016703074862669108 -0.009230295350491892 -0.13216429208450312 -0.05052057277137969 -0.07379175412325532 -0.11041151508378297 -0.12886414915001365
-0.040848249872587 0.022208569401218247 -0.08502160824040778 0.042480128199376604 0.00650051731521336 -0.036996143138941597 -0.09030923549036152 -0.09907868196509338
0.012886076265952099 -0.135494916247744 -0.05985770125489962 -0.05629865518951051 -0.008686957208078001 -0.1499551858301061 -0.05860860222685818 -0.05625403253774313
0.02820102757791542 -0.0846227755681472 -0.041639508437507605 -0.08420000584217631 -0.06996575358104544 -0.07841935320865645 -0.0933008484486311 -0.03542642958287557
-0.11101218520723588 0.021920239900118477 -0.07343396088324916 -0.0961248101824679 0.0007403025752473965 -0.04005590572740534 -0.08645536771088728 -0.05365440311279707
-0.055854801861929974 -0.11649852628085856 -0.05916189480931078 -0.06103033906950795 -0.0928686170995724 -0.031043482076854884 -0.12603666531053362 -0.10639634895743101
-0.04238644212273021 0.04301562483845162 0.02144441784791909 -0.10239789909990717 -0.10624955958577052 -0.10182506432989395 -0.1236238675098308 -0.06837994454999911
-0.09402219168934607 -0.08705250620027541 -0.019618659015851407 0.043388793336935065 -0.12088698272285413 -0.05858689518419878 -0.13245371571819456 -0.05120032172164903
-0.06746037388950446 -0.015208412621398541 0.004901893296619526 -0.11541363364248461 -0.06648392353795947 -0.0008249844558717724 -0.049388893977996666 -0.10825242154971867
00000000: 58c1 4a85 a708 983f 0717 f561 4433 88bf
00000010: 19be 7ed5 f48b 91bf 727c 4513 b6d3 a63f
00000020: 2bd6 005d 27f8 b23f 71ff b241 7891 b13f
00000030: 97bf 30d8 d9f8 90bf 1cc6 cb50 db8e a93f
00000040: 3fe8 61bf e44d a13f 4a64 45a8 1eb1 be3f
00000050: b1a8 82b0 1001 9fbf 046f 09b9 3eb7 a43f
00000060: a65e 2064 3095 b43f 0751 74ec b512 b23f
00000070: 3c16 e7e1 4d48 8c3f ee02 da22 1cf0 bf3f
00000080: 14bc 75dd 0429 b33f c4e1 e7fb aade 913f
00000090: 87a2 5695 de8e bd3f 60cc 34d3 3ca7 bb3f
000000a0: 80ec 716a dae0 bd3f 86fe d334 0aff bf3f
000000b0: 35a5 1994 a124 7d3f c699 4010 1e79 bd3f
000000c0: f6b7 80f7 83af c53f dde1 c9c2 c21d a73f
000000d0: 7b37 4d18 8288 b33f 4970 3761 6c0a ba3f
000000e0: ad2e c9c4 0668 b63f 4c2d c8ea 1e73 c03f
000000f0: ea12 5aa2 457b ac3f 57d9 e7f7 fbe5 b73f
00000100: af65 a3b8 5c96 abbf 3afb c844 6eed c03f
00000110: d113 3d75 84ec b33f 37aa 4522 c89e 82bf
00000120: eda3 7c7c 5c64 c03f aa48 c147 12ca b73f
00000130: 1f3d d96b 572c b83f 4fca 1c1c 28b1 983f
00000140: 8bd1 66ac baf1 bd3f 57b8 454e b64f 7b3f
00000150: 960a 2c6a 0f3f a0bf e860 0b20 be9b 81bf
00000160: 98ab 116f 3907 5c3f 674c e772 7f5c 8abf
00000170: b988 e65e 9acd bb3f 68fa d7ee 2b38 d1bf
00000180: 9be3 c379 69c4 f2bf 151b 4ecb 9e38 953f
00000190: a97e 0d03 ad05 b83f 51f7 de5e 002a 95bf
000001a0: 6a6d af30 265a bf3f 4bed a4ea 2c49 be3f
000001b0: c540 c6f6 3978 b53f 3299 da8e f84a 85bf
000001c0: 9932 f628 2d28 a13f 6521 2837 5e25 abbf
000001d0: 4ff3 ae56 62db 863f 73da af7c 0160 ffbf
000001e0: 60e2 8386 c767 933f 9bac c5b3 6663 7fbf
000001f0: 7ce5 f52e 999f 6f3f 7962 d241 76e3 bf3f
00000200: d95d 70d1 e655 be3f fb0e 9836 8173 edbf
00000210: e994 cfd0 8e59 d7bf fefc c6aa bc06 a63f
00000220: d69e 199e b046 c03f 0725 f469 98e5 b23f
00000230: c49c 7a43 ef3d 97bf cff8 6053 7eb8 c03f
00000240: 5dc0 8932 3dbe a2bf 121d dc54 718b c4bf
00000250: ec23 5213 ef0b 84bf dc3d 12dd 29ce b23f
00000260: f293 2f02 9a44 a53f 9e11 8e1f 005f 98bf
00000270: c11d 9473 eaf9 a23f 901f a428 a8d7 ba3f
00000280: 7e62 a587 01a0 ba3f 3d1d 05c6 bf4a d5bf
00000290: 5bd3 12c2 668f b33f f028 b195 10b5 b53f
000002a0: 8f93 33ce 6f51 b23f e4ab 831b 9a45 c13f
000002b0: abcc bb98 e2a3 b83f 2acf 2d55 c319 b83f
000002c0: c0b6 84ea a586 06bf e8ea 0dd0 54d2 ae3f
000002d0: 8fa9 91d1 7ef2 e1bf 4005 6c53 1c15 c13f
000002e0: 8f2c 2648 c678 af3f 7214 18c5 3e4b ab3f
000002f0: 5501 01c5 62dc 9d3f 1c07 aebe c73c bc3f
00000300: 630a 5deb c2d3 a13f 1e1e 4e2d 7c7c d2bf
00000310: 4244 0726 50b5 913f 2467 60a1 4582 b03f
00000320: 445d c788 c44f c1bf 4724 c9ca 8d89 ecbf
00000330: 2dee f989 162a ba3f a4a9 de83 c955 993f
00000340: 260e c769 b1bb 8f3f 8331 4479 54f4 bb3f
00000350: 463c 1a97 d5f9 bd3f e1ec 38e9 e469 be3f
00000360: 1f24 f3f8 4e7b 61bf 3ee1 fa53 639c a13f
00000370: 6c06 6fa9 e47c 92bf f650 1d14 11df bc3f
00000380: 0d43 cab3 d77c 9e3f 1671 7d64 5ac2 a73f
00000390: ae4f 879d 47a5 b73f aa48 90a9 214c be3f
000003a0: aeaa 555b 838a d1bf fbbd 1dbc faa5 b33f
000003b0: dc2c e7bd e520 973f f71f c5b1 d929 ae3f
000003c0: 24bd 7fc2 dd9c b73f c1c5 d40f cb09 b03f
000003d0: 5f9d b0d7 c69d b03f e832 6f21 704d b53f
000003e0: 7f96 4f0c 4d2b b33f 8a63 8bca e029 b53f
000003f0: aa9d 981b 3b13 993f ed4a e8f0 e1f2 a23f
00000400: cd6c 0a80 5d04 b73f 8fb3 e49c 805b b13f
00000410: a2a7 b14e 8092 dcbf 47c7 633b b720 7f3f
00000420: 85d2 100b 7e3f c13f 0dfa c84e 09e5 b8bf
00000430: 67f6 52d9 25a7 b43f 8eb8 f6be 26bc ae3f
00000440: cf06 58c1 2361 94bf a117 31d5 94e8 bd3f
00000450: 41de b3fd 6d87 bd3f e20c c16b ad88 e3bf
00000460: 9190 0934 ce4d 983f 6491 4cce f6dc 9dbf
00000470: 086c 8831 9ee7 b33f 04f0 bb78 0774 eabf
00000480: 79b6 603b 5b58 9f3f 0a40 183b 94df e0bf
00000490: 5f94 4628 cc04 f1bf 24b6 62bc b58c b83f
000004a0: eeae 76d0 8eaf 89bf 03d9 c5b8 24bd bb3f
000004b0: 20d0 318e 629d bc3f 224d a72d 4d44 b03f
000004c0: 33ff a8a4 75ee ba3f 57e9 bc2a bf22 a7bf
000004d0: 1f70 3acd cb5f 6d3f c680 6ebf 099c b4bf
000004e0: bb0f 8ce5 e166 9cbf ddaa f6ac b7c1 a1bf
000004f0: 2482 2ed5 07c9 b6bf 11b6 7a80 8be3 713f
00000500: 53ea 85cf be6d 613f 39aa 5c85 7b62 acbf
00000510: e68a 3e9a eb52 88bf cfa5 b9ab d305 7e3f
00000520: dc0c fb0f 18ea b4bf 2082 4aed 7d10 8bbf
00000530: 80a7 e5b5 75e2 a0bf 9349 3210 0852 bcbf
00000540: 27a7 e9d9 ebbd c2bf ae14 3f6e c754 b4bf
00000550: 26eb 0f51 64d0 93bf 7bd5 f96a a721 c0bf
00000560: b407 43f4 7248 b0bf 7840 96b6 fe80 bdbf
00000570: ce35 95ae db25 733f 0733 baff 9f88 babf
00000580: 2a2c a15d 287f 84bf d20d b886 43e7 95bf
00000590: 6996 3d97 fd5a a13f 5c33 8764 40f4 bfbf
000005a0: 66c7 ad8c 8dba a1bf 3bd7 a2db 257d bfbf
000005b0: 1bf4 a966 ff0c 8abf d01e 43a9 e5b9 b9bf
000005c0: 18c4 9235 f98e b0bf 8678 1c61 9c1a 913f
000005d0: 7461 4d45 55e7 82bf edd8 1970 c2ea c0bf
000005e0: 3312 a81f d5dd a9bf bf81 ac32 04e4 b2bf
000005f0: 0efc 62d6 ed43 bcbf 4cf3 1cd5 9e7e c0bf
00000600: f76a 9ad2 0fea a4bf 93a3 13dd d7bd 963f
00000610: 4c8b d8e2 f9c3 b5bf 6c42 b192 f4bf a53f
00000620: 582e 6a54 49a0 7a3f 5d43 b891 28f1 a2bf
00000630: a836 f58c 811e b7bf 2757 c572 385d b9bf
00000640: d594 16e1 0364 8a3f 0477 07bd e557 c1bf
00000650: 8d68 9b2a aba5 aebf 7209 b265 2dd3 acbf
00000660: c431 e2a8 77ca 81bf 9bc1 8045 bb31 c3bf
00000670: 0442 a85b f201 aebf 7713 091c 54cd acbf
00000680: 3e99 a4ec bae0 9c3f 4ddb 8f95 d6a9 b5bf
00000690: 3cd5 eb0d c651 a5bf ad47 6aaf 218e b5bf
000006a0: 4378 788f 46e9 b1bf 4897 676d 4a13 b4bf
000006b0: e2a2 c67c 90e2 b7bf 31eb f1b8 6923 a2bf
000006c0: c02d ec68 4b6b bcbf 5d47 f765 4272 963f
000006d0: c8c7 686c 91cc b2bf 6262 11b4 a29b b8bf
000006e0: bf4c c7ac 1b42 483f 4dc3 382a 3582 a4bf
000006f0: 33c5 e160 f021 b6bf 68cd 4f05 9778 abbf
00000700: 17a2 a426 0099 acbf 6992 68f0 d8d2 bdbf
00000710: 1032 c0c6 774a aebf 6112 bc5c 5e3f afbf
00000720: f974 44d9 3cc6 b7bf 95a1 18d1 dcc9 9fbf
00000730: 9985 cd2d f821 c0bf b99b 2f87 ca3c bbbf
00000740: 1cfe 6bfd acb3 a5bf f9da cbdb 2406 a63f
00000750: 68b2 5a85 86f5 953f 792e d0ab bf36 babf
00000760: 37a2 a2cf 2b33 bbbf f3c1 3519 3511 babf
00000770: d9b2 f553 d0a5 bfbf f366 8b19 5981 b1bf
00000780: 856b 679e d611 b8bf c23e 2ab3 1249 b6bf
00000790: 4e34 75eb e916 94bf 8742 ca50 0e37 a63f
000007a0: d788 4e05 73f2 bebf fea3 94fd 19ff adbf
000007b0: 5525 9f4c 3ef4 c0bf 83a6 adb6 ed36 aabf
000007c0: 6aa0 a143 1545 b1bf 9cf1 a996 9625 8fbf
000007d0: a101 5cf6 0114 743f 8aca 0176 bf8b bdbf
000007e0: 2d28 4e25 1705 b1bf 8694 fba0 7808 4bbf
000007f0: 579b d748 8049 a9bf 2ed3 4442 6eb6 bbbf

bias f8 [153]
0.13284935109158494 -0.05801185929149951 0.09281794448710383 0.13079772936034317 0.05507770455132222 -0.036930472871816666 0.0832619310888987 -0.047563507659185336
-0.06748125409674727 -0.09187745551738807 0.04390274496116315 -0.022601421717267336 -0.01911094286744088 0.08292242447446285 0.06889018772244797 0.13229550668721657
-0.10717598747989696 -0.07945784477846621 -0.024387160430004877 -0.07176704185458493 -0.05471516653945464 0.13460040752487315 -0.0937057770524983 0.046860681259545026
0.017211049329666966 0.026347092757215272 -0.13316539416004913 -0.04284383904218836 -0.0382423079469672 0.01163378529867912 0.04944315628548548 -0.10409548044627129
0.06996194949139568 -0.13949930675773126 0.053843898644252076 0.001140663523181527 0.0019241212335290461 -0.06312612070002115 0.09969413898774049 0.06184952287009505
0.05174637299729473 -0.12108871868347962 0.13995014945825185 0.03012502062888068 0.023974852350553577 0.06687229398067289 0.023038313029839826 0.13602221129241474
0.06294108543740251 0.05510207292757351 0.07740048660081553 -0.036469254983835644 -0.028431082427335753 -0.11778728335735539 -0.06452039336077825 0.1426050635905562
0.10262978036840516 0.04422207141167777 0.07094688084259368 0.052810423546248306 0.06491522140660884 0.11765037083128084 0.04216406816172225 0.031239558008092447
-0.011093510731152962 0.09074983766863104 0.09400911966395965 0.015328213400967088 0.07849022488018588 -0.03204614813278756 0.07548185479922707 0.006242811145542579
-0.1253269623921498 0.015886220587205565 -0.1258746861652991 0.031980328538268724 -0.04975050629079394 -0.018204368461446303 -0.06474642832870806 0.126901393015554
0.02430461858593653 -0.11952909145627456 0.004954481189591528 0.12347214467720591 -0.0624519575806657 0.03247501610643092 -0.08291527450978922 -0.09478929285682748
-0.0020781925222131087 0.06694412318578614 -0.08848155541322081 0.04531754965564955 -0.014215487690898759 -0.11268978799867746 -0.05012064941592113 0.0588159397889528
-0.04692575751804731 -0.008487284821849352 0.07426584361229517 -0.0532270011547878 -0.0011296283286248473 -0.06628197592704209 0.02273026126255054 0.08480364807263267
-0.07168204171156049 0.03315452923853918 0.05622948687724078 0.08510037902653271 -0.11177459017402475 0.08339780465301173 -0.011893050805943188 -0.005335033413239457
-0.009931421726028277 0.11424581435770086 -0.08227566676641809 -0.02331672155473624 0.07236629541737133 0.07580648492821995 0.03109927131052247 0.13110338691538848
0.08328664814097494 0.036952392080885 -0.04993049102242482 0.07321571865300731 0.02664959228692452 0.025222575705391714 -0.0015898377426928918 -0.09833886937499897
0.10123699770763338 -0.06756564358031492 0.007359969296322418 0.12605184094956268 -0.06507208801986783 -0.07452482544610907 0.012189418896629618 0.05264455292430569
0.03917039652957961 -0.08301660737600623 -0.07462801956720688 0.10097535302511494 -0.03284833399602344 0.09783455318716303 -0.13692557588225868 0.03178805520795807
0.006687393276006284 -0.11452774843696686 -0.00813779761579829 -0.12804860900444096 0.032943301728703675 -0.1326027582600384 0.0806244840001642 -0.04827654247586111
-0.0069410124201468824
00000000: d1d8 1d21 3501 c13f 5bd1 dffc bab3 adbf
00000010: 83d6 0db4 eac2 b73f a432 ffe0 fabd c03f
00000020: a1c7 9217 2533 ac3f 38a8 6b0a 8de8 a2bf
00000030: 0254 0767 a750 b53f 9a2c c27b 3e5a a8bf
00000040: cc47 7093 7346 b1bf 24d7 afea 4785 b7bf
00000050: 892a a0ab 6b7a a63f 279e 79bc d324 97bf
00000060: 650e 72aa d191 93bf 900c 396d 673a b53f
00000070: c380 488f c9a2 b13f 5c8e 5025 0fef c03f
00000080: 8e85 24b1 e26f bbbf b2f1 bb6c 5957 b4bf
00000090: 9eea f4a1 f2f8 98bf f833 b229 535f b2bf
000000a0: 52a9 c355 a003 acbf 3d7e 2c0e 963a c13f
000000b0: e201 e30f 1afd b7bf d2bf f48a 1ffe a73f
000000c0: d8c7 00f8 c59f 913f a69a f276 bbfa 9a3f
000000d0: 942c 704a 900b c1bf 20e6 0aaf a0ef a5bf
000000e0: a85c e9eb 7e94 a3bf d293 173b 74d3 873f
000000f0: b3ac 8306 9d50 a93f c29a 2d5c 00a6 babf
00000100: b1aa 07bd 06e9 b13f 8868 2b00 1ddb c1bf
00000110: 8d4b 886f 6d91 ab3f c58d c721 4ab0 523f
00000120: 4904 6171 5986 5f3f 8310 ee8f 0829 b0bf
00000130: 2823 8e1a 8e85 b93f 6122 009c bdaa af3f
00000140: e884 6b27 807e aa3f 9afb a896 abff bebf
00000150: 222b 7ff1 e2e9 c13f e2c8 91e9 17d9 9e3f
00000160: f095 161b dd8c 983f 0bce a7eb 8a1e b13f
00000170: df9b 1204 5b97 973f 2fe8 8302 2d69 c13f
00000180: 4844 872f e81c b03f 3fdb 54c2 5636 ac3f
00000190: fe1d a5ae 84d0 b33f 3a1c ee22 19ac a2bf
000001a0: 4a74 dca4 091d 9dbf 0c8f e7b1 4e27 bebf
000001b0: 6cdb 6893 6884 b0bf b6c6 2efa e140 c23f
000001c0: 9528 47fe f145 ba3f eff5 f27c 46a4 a63f
000001d0: bede f824 9329 b23f 3ec0 09c4 f709 ab3f
000001e0: 4d38 f4b0 489e b03f d126 15af 551e be3f
000001f0: 914e a45b 8796 a53f 09ec f13f 43fd 9f3f
00000200: 8a15 4ece 31b8 86bf bc71 e7a0 613b b73f
00000210: 5182 7b4e fb10 b83f 6929 1bfa 6564 8f3f
00000220: 7984 ea74 ef17 b43f 39dd 624c 5a68 a0bf
00000230: 8fd9 cd61 c752 b33f f089 48db 0f92 793f
00000240: d001 64c2 b60a c0bf 1f30 8437 7a44 903f
00000250: 59b3 3c66 a91c c0bf a2d8 5fc2 b95f a03f
00000260: 23f1 f4fa e578 a9bf 32b7 be7c 2aa4 92bf
00000270: 4261 34d0 3893 b0bf 6fc9 680a 4e3e c03f
00000280: 7297 df57 4fe3 983f c1ac b962 7599 bebf
00000290: 8ada d86a 264b 743f 4807 5bd7 de9b bf3f
000002a0: 82a1 c2f6 b3f9 afbf a577 3ab8 90a0 a03f
000002b0: 92c0 5b78 ef39 b5bf 11bf d470 1c44 b8bf
000002c0: 37c6 5d1d 4906 61bf 710a be03 4023 b13f
000002d0: f28a cc2a baa6 b6bf e867 69a3 dc33 a73f
000002e0: c332 d575 021d 8dbf 8028 0cea 3cd9 bcbf
000002f0: b5fa 30ec 69a9 a9bf ab0d c173 1f1d ae3f
00000300: 8494 c223 a706 a8bf 01f6 ee15 c861 81bf
00000310: 0150 8619 1603 b33f e9ab 72ca 9140 abbf
00000320: 13d8 982e 0182 52bf 6fc0 eb06 dbf7 b0bf
00000330: 283e 0203 9a46 973f f3ae 0d1f b1b5 b53f
00000340: c395 dc18 c159 b2bf 286d 9665 a1f9 a03f
00000350: f9ce 6a7e 1cca ac3f 4bd1 cb70 23c9 b53f
00000360: bc3c 5271 429d bcbf 51fa 8afb 8e59 b53f
00000370: 0fec 1642 625b 88bf 5de2 8620 30da 75bf
00000380: 19ec 20dc ec56 84bf c707 5fb4 363f bd3f
00000390: 3ab3 04a2 0410 b5bf f030 1cb2 56e0 97bf
000003a0: 0c79 26f8 9886 b23f 6867 97c5 0d68 b33f
000003b0: bd1e d5c4 7cd8 9f3f 8c24 99eb fec7 c03f
000003c0: 867d f515 4652 b53f 4524 fe86 6ceb a23f
000003d0: 4a71 0744 7d90 a9bf 2df5 2aed 43be b23f
000003e0: 3ada 4bdd 074a 9b3f 9027 1a67 f2d3 993f
000003f0: 088d 1747 430c 5abf 1428 e473 bc2c b9bf
00000400: d7ac 4cfa aaea b93f a0b9 8265 fb4b b1bf
00000410: ef17 d6b6 7c25 7e3f bc4e 3d7b 7722 c03f
00000420: 0e82 ed79 90a8 b0bf 41f9 0718 0f14 b3bf
00000430: 046a 251c c4f6 883f afaf 3e12 3af4 aa3f
00000440: 2abd 2168 240e a43f 076f b48d 9340 b5bf
00000450: f009 6867 d21a b3bf 7fe6 f14e 85d9 b93f
00000460: 1865 7b30 7fd1 a0bf 268e 5b6e af0b b93f
00000470: f63b 33fb c686 c1bf 1712 0b23 8646 a03f
00000480: dcad a776 3d64 7b3f 1e73 05c6 b051 bdbf
00000490: d876 f8b4 8caa 80bf 7576 fc95 e563 c0bf
000004a0: f615 18c7 f1dd a03f 870a 0b8f 20f9 c0bf
000004b0: e09e 0962 cea3 b43f 0110 32f6 b3b7 a8bf
000004c0: 7cd3 87d5 2d6e 7cbf

weight f8 [1, 153]
-0.24606882159953278 0.7239419983513056 -0.34672193026850395 -0.7385996056415607 -0.3563641720634576 0.6745574502106682 -0.28415971303020315 0.6801267943674343
0.8234488243505745 0.5449300275956567 -0.43777959433423136 -0.521409744572756 0.6403993522344777 -0.25717292728665797 -0.13773934039295796 -0.7492095690338703
0.6902017887587739 0.6346405847602726 0.7292884805776475 0.6622465988182988 0.784511024491379 -0.4024331616336254 0.6935806552281222 -0.3340914646656849
0.6739964676956386 -0.4658081928614702 0.6839215084539665 -0.8104238142631217 0.5207741395726553 -0.6503753869046724 -0.2513634527002913 0.653823961972685
-0.5462741951599395 0.7377839009748193 -0.2474522075601942 -0.1203166693189827 0.6265804735663132 0.773561513982373 -0.14856491503808167 -0.7619115326126453
-0.4143083175758672 0.6066260504328285 -0.1908280218239529 -0.45112953475573786 0.8259561996976447 -0.6159766080198112 0.6740205716098148 -0.4306717466394006
-0.5146114723002808 -0.5083249117190122 -0.1981151059746797 0.6876694729262423 0.7270014319203838 0.6600985656273292 0.7567906300008338 -0.3615094891572599
-0.5173999155834695 -0.24510389531487076 -0.3539538152525222 -0.31875843401831105 -0.2604029359492031 -0.5278275759202629 -0.40439598010968053 -0.3471509602294299
-0.5438928480814013 -0.06316030225724077 -0.4229791532739124 -0.4976616959996263 -0.5367380741343344 0.6182427709939721 -0.3954952221962057 0.7231348486154969
0.6867844632884299 -0.3337266579257527 0.7311808910555777 -0.31548801337361204 0.8326622433447947 0.709498207078703 0.7298084717606176 -0.2525754960935559
-0.4019110162009935 0.7897390329345831 -0.5451444711814171 -0.5889069973768607 0.7042189006260529 -0.2080418273947972 0.7097056654181272 0.659146245585138
0.7452709343796108 -0.8108072876065231 0.6768499502256126 -0.543940175718417 -0.8207894157991725 0.7875047690137519 0.7076992003995586 -0.8629030797924969
0.6818686866452097 -0.4665310950003938 -0.8090733324436916 0.6390507081103425 -0.4702522431529676 0.6705455999859781 -0.7896227590783074 -0.8087316216482928
0.6246015057905513 -0.5522160553383376 -0.2576245081830938 -0.8694287922618235 0.6182190225320662 -0.3826171154622205 -0.33613838276033736 -0.5503632283724604
-0.3526018848348185 -0.2613506889647358 0.5790936004026279 0.6903467669829522 -0.8595200105122249 -0.31075649119698157 -0.5772657199642006 -0.5106079693613659
-0.38369676587431994 -0.17967076599380769 0.6689121756073508 -0.4112588780611074 -0.36133952173822964 -0.5015931503207492 0.7623218627319333 0.6448484264526878
-0.37919593014429087 0.6140797625398277 0.7316397546424843 -0.4194395996010261 0.5547464704834173 0.6902770550547499 0.7363791627325215 -0.627679582723851
-0.47636946296623095 0.7246615750390194 0.6452736676873359 -0.5541629895693408 0.6898562309820809 -0.405221489509326 0.675136257039007 -0.6028907607609685
0.6581450585098216 0.7613968428123207 0.7221761392379343 0.5797163526855613 -0.5828145134664613 0.6317848823691694 -0.362937134681171 0.6544636887228615
0.7940088102641994
00000000: 87e9 aae2 2e7f cfbf f0d4 e368 882a e73f
00000010: 36ca d32d b130 d6bf 4035 e2a3 9ba2 e7bf
00000020: 7ca2 1eac abce d6bf eab1 7d81 f995 e53f
00000030: c88c 9338 ac2f d2bf 5620 5e44 99c3 e53f
00000040: e17d 5059 b159 ea3f 1337 e418 1170 e13f
00000050: 0d63 21b4 9404 dcbf b32e 187d 63af e0bf
00000060: da40 47c8 267e e43f d237 0770 8575 d0bf
00000070: 7b20 2e55 71a1 c1bf 2839 9b58 86f9 e7bf
00000080: 2082 cb0f 2216 e63f 5b4f 88c5 f94e e43f
00000090: e1c6 adcb 5456 e73f 7afa 79c7 1f31 e53f
000000a0: 7957 31dd b61a e93f 18b5 0205 77c1 d9bf
000000b0: 27fa ea0e d031 e63f a728 a72a c161 d5bf
000000c0: c9e9 4b0a 6191 e53f c520 a32a cdcf ddbf
000000d0: 9ee7 fa5b afe2 e53f 261c 45ec fdee e9bf
000000e0: a225 4287 2eaa e03f 1220 1c0b e0cf e4bf
000000f0: 2579 30bc 5616 d0bf 4b71 c03a 20ec e43f
00000100: 8a8a 5b05 147b e1bf 0678 c6fb ec9b e73f
00000110: 0aa3 6591 83ac cfbf 5b80 e3bf 12cd bebf
00000120: baf1 487e f20c e43f 08f4 7f13 04c1 e83f
00000130: 50f6 b5d5 2c04 c3bf 9287 604b 9461 e8bf
00000140: 93be 9c08 0784 dabf 3457 f008 7b69 e33f
00000150: d976 7278 0d6d c8bf 1947 8269 4edf dcbf
00000160: 8f27 34b2 3b6e ea3f a879 5193 14b6 e3bf
00000170: f5a6 fc96 9391 e53f b527 c83a 2090 dbbf
00000180: bea2 757a b277 e0bf 6768 f29a 3244 e0bf
00000190: 0f9e 80f6 d55b c9bf e49f 1569 6301 e63f
000001a0: 73c8 c781 9843 e73f 3d30 f006 871f e53f
000001b0: ecba b8fb a037 e83f 38f1 47b2 f822 d7bf
000001c0: 0f4b 8c44 8a8e e0bf 28f2 3f7f 905f cfbf
000001d0: e174 33e7 2da7 d6bf 52b3 5bc6 8966 d4bf
000001e0: 19ca 6b13 71aa d0bf c024 10a8 f6e3 e0bf
000001f0: cf1d 4dad 9fe1 d9bf 2977 3da9 b837 d6bf
00000200: 9936 61f9 9167 e1bf d7ae 9908 462b b0bf
00000210: dfe0 8c27 1712 dbbf 1894 3271 b0d9 dfbf
00000220: 8499 5d53 f52c e1bf 770a 4d10 a5c8 e33f
00000230: 2ea5 4331 cb4f d9bf d8d8 acb1 eb23 e73f
00000240: e630 2769 23fa e53f 130c 660e c75b d5bf
00000250: 2e67 d177 d565 e73f 250f eea2 f430 d4bf
00000260: d5f4 f849 2ba5 ea3f 4428 7f95 35b4 e63f
00000270: 69c7 d14b 975a e73f 028a df69 322a d0bf
00000280: af10 9ffb e8b8 d9bf b984 daca 8a45 e93f
00000290: 8838 6ad1 d271 e1bf 47d0 c37c 53d8 e2bf
000002a0: 403f 6d13 f688 e63f 6e2c 6e56 1da1 cabf
000002b0: 7f37 d8a7 e8b5 e63f 2238 02de b917 e53f
000002c0: b93b 3a6e 42d9 e73f 881c f41f 22f2 e9bf
000002d0: 5f95 103a c1a8 e53f 721d 363a f567 e1bf
000002e0: 2155 382a e843 eabf 8b75 8b33 3d33 e93f
000002f0: f4e2 23cb 78a5 e63f 4d72 6aeb e69c ebbf
00000300: 40d8 a947 ded1 e53f 2c00 e63c a5db ddbf
00000310: 1e2a ddc1 ede3 e9bf dc39 7a78 1a73 e43f
00000320: d39b 4ddd 9c18 debf c153 cd0b 1c75 e53f
00000330: 5065 cdf2 9644 e9bf 090e 4723 21e1 e9bf
00000340: 83e3 0c4c bcfc e33f 1d23 4001 c1ab e1bf
00000350: a2d8 5281 eb7c d0bf d1e3 9e54 5cd2 ebbf
00000360: 3b4a 7142 73c8 e33f b934 737f cc7c d8bf
00000370: e2b3 3890 4a83 d5bf 78fb 5858 939c e1bf
00000380: 7de7 f77e 0791 d6bf baff 783d f8b9 d0bf
00000390: 74ab 614d ef87 e23f 64ea 621a 5217 e63f
000003a0: ea0a ed1b 3081 ebbf e47c ad31 6fe3 d3bf
000003b0: ee23 8bf5 f578 e2bf 3a7d 2f86 e656 e0bf
000003c0: 0fb7 40e1 7c8e d8bf 5fce fe9f 73ff c6bf
000003d0: 2a27 c481 ba67 e53f 2e93 ddc1 1052 dabf
000003e0: f18c 27cd 2f20 d7bf afce 1014 0d0d e0bf
000003f0: dab3 aed1 f064 e83f 2fb9 cf2a 99a2 e43f
00000400: f4be af01 bf44 d8bf e5ce 279a 8aa6 e33f
00000410: eb92 54c6 9769 e73f 6dc2 bb30 19d8 dabf
00000420: d086 89ab 7bc0 e13f 7e75 14e8 bf16 e63f
00000430: 9b8b ac08 6b90 e73f c84e 057e f315 e4bf
00000440: e431 1058 d67c debf e9bb ae78 6d30 e73f
00000450: 8efc 75f6 14a6 e43f 3753 9b05 b4bb e1bf
00000460: c550 e05f 4d13 e63f b80d 451d 26ef d9bf
00000470: bf71 0a5a b79a e53f e9ec 9090 e14a e3bf
00000480: ac5b ca39 860f e53f 9f02 65e9 5c5d e83f
00000490: a14f 7f22 111c e73f 5ab5 f74e 098d e23f
000004a0: 901f 5f9f 6aa6 e2bf d03f fced 9437 e43f
000004b0: b569 fdac 5c3a d7bf af7e 6fd5 5df1 e43f
000004c0: 6742 1a2a 8568 e93f

bias f8 [1]
0.5396072443678553
00000000: ebd3 6769 7644 e13f
