fine-tuned models/NO1593_YER096W.pth (torch, 161303 bytes, 6 tensors)

weight f8 [120, 42]
000000 ff f9 c9 12 66 39 87 3f 9d f6 41 08 8c 11 72 bf
       0.011339948128122222 -0.004411265374185594
000010 1c c8 57 7c c4 df 7e 3f e0 66 23 9e 3e 1b 83 3f
       0.007537620088884391 0.009329308701512884
000020 34 b0 48 1c 3d 78 6a 3f 52 4d f0 ba 7c d9 78 3f
       0.003231162411131217 0.006066786982972987
000030 fa 36 94 30 d7 bd 89 3f f3 7c 74 3b b2 39 94 3f
       0.01256912343026383 0.019751343611571447
000040 13 4c 52 80 16 dc 84 3f bc d7 ea d7 82 dd 90 3f
       0.010185409346638285 0.016469997814702472
000050 29 ae f6 73 14 78 7d 3f 73 79 93 e6 25 7b 82 3f
       0.007194595236267123 0.009023948763964928
000060 cc 1b 0d 50 2e db 7b 3f d5 f8 07 7e e7 01 82 3f
       0.006800824078545053 0.008792694600739651
000070 a9 7c 7d 22 db 14 85 3f 4a 5b 71 15 09 fa 80 3f
       0.010293685903603427 0.00828940483749609
000080 01 30 a0 3f 57 53 88 3f c9 37 69 34 41 8b 97 3f
       0.0118777099887879 0.022992152046121626
000090 3b b0 b6 3d dc ac 86 3f 97 ff 91 90 b6 8a 6b 3f
       0.011071892388677998 0.0033620420186366118
0000a0 b4 7c b6 2a eb b7 85 3f 5a d3 09 e6 bf fa 87 3f
       0.010604703179352228 0.011708735664095183
0000b0 2d 04 63 7f a6 c9 76 3f 83 84 3b c4 46 3f 83 3f
       0.005563402539508861 0.009398033965626112
0000c0 99 1b ca c3 2e 18 6d 3f a0 ae 94 e2 c3 7b 61 3f
       0.0035515702605297237 0.0021342111473553055
0000d0 f2 25 54 22 b4 ba 78 3f 97 8a 0a 13 df ac 93 3f
       0.006037429474653676 0.019214139496976115
0000e0 da 69 29 29 d2 a6 9e 3f 69 0d e3 58 53 b4 64 3f
       0.02993324638587489 0.0025273921847614356
0000f0 22 89 97 0f 66 63 84 3f 32 c5 a5 11 6d a8 88 3f
       0.009955212927654392 0.012039997197208583
000100 30 b9 fc f2 4b f9 83 3f 23 da aa 8b 2c 4c 7b 3f
       0.009752839424973375 0.006664442068248041
000110 40 62 53 58 7f 2d 9c 3f 5d cc 0d c7 a9 5b 88 3f
       0.027517308965658183 0.011893583666937763
000120 78 a6 38 30 ca 81 88 3f 26 24 e6 82 90 75 88 3f
       0.011966304394337643 0.011942986483307005
000130 85 22 3f db a5 79 90 3f c2 be bc 99 3b 49 7e 3f
       0.01608904982257055 0.007394059004397215
000140 26 e2 bb 79 e3 a1 95 3f dd bd ca 3a b0 23 9c 3f
       0.021125368409203336 0.02747989043080944
000150 f5 85 e4 f0 3f 86 9e 3f 4b 73 4f 0e 66 86 b1 3f
       0.029808997228547757 0.06845701074003079
000160 e6 f5 4d bf 62 08 c5 3f 98 f5 1b 30 8e 5e 4e 3f
       0.16431841221849125 0.0009267992283807256
000170 54 c3 7f 83 29 94 bf bf 78 ea fc 0c 61 13 88 bf
       -0.12335452518869988 -0.011755712708340513
000180 38 f7 e2 4d 37 b7 94 3f 96 2b 00 5f 21 60 c0 3f
       0.020230163697070952 0.12793366564468717
000190 11 78 fc 7f 5e d3 a1 bf 98 a8 86 56 10 8d bb 3f
       -0.03481574356395368 0.10762121307803552
0001a0 fd 5a e1 7a c7 c9 68 bf 48 48 14 e0 82 55 cf 3f
       -0.0030259033292553404 0.24479709569328834
0001b0 df e7 d1 7d ef 2d 8b 3f de 85 83 a0 8b 2c b8 bf
       0.013271208789081555 -0.09442970913689616
0001c0 46 5e fd 66 65 42 ab bf e9 92 07 97 48 74 b5 bf
       -0.05324093706320503 -0.08380559622998941
0001d0 99 4e 77 16 33 9e 9c 3f ed eb c3 86 f2 a4 c5 3f
       0.027947233434885452 0.16909629421556308
0001e0 94 bd 62 51 14 2d 9d bf ba 08 20 75 5b ab ad 3f
       -0.028492276637448535 0.0579479771113411
0001f0 c9 4d 6d de 1a b1 c7 3f aa 4d f0 43 64 f6 6f 3f
       0.18509231434528164 0.0039016683872518847
000200 59 aa 51 b1 20 56 b2 bf 29 e5 20 47 ba 4a a1 bf
       -0.071626704493306 -0.033773251707723446
000210 cd 95 27 9e 20 c2 cb bf 24 ab 76 d9 39 53 cc bf
       -0.216861798500004 -0.22128985517823552
000220 41 ec d4 50 67 bb bd bf da 6e f8 62 05 65 99 bf
       -0.11614080165320308 -0.02479942719047199
000230 73 8b 4f c6 ed 4e 8a bf 10 ae 11 ee 11 72 c5 bf
       -0.012845857252562464 -0.16754364132371835
000240 eb e1 b3 f5 a5 f4 ba 3f 61 c4 2e 7a 18 76 b7 3f
       0.10529553650474781 0.09164574606872257
000250 19 77 81 53 77 08 82 bf d4 77 4b d0 2e db a2 3f
       -0.008805210338489954 0.03682848255787943
000260 b9 c5 0b 21 fe c9 9b 3f b7 84 79 bd 82 15 af 3f
       0.027137728468863396 0.060710988644822654
000270 59 9e 28 45 f1 99 96 3f 36 8f 31 8e 0c 40 77 3f
       0.022071618887052533 0.005676316303922671
000280 9d d9 59 ac 72 92 c6 3f df 43 13 a1 a3 54 a2 bf
       0.1763442365224365 -0.03580199567080177
000290 53 e1 12 2b e5 b1 94 bf 19 fd f5 69 cb 99 70 3f
       -0.02020986628915129 0.00405291994627468
0002a0 41 dd c7 fb 66 13 7b bf 88 50 f1 09 58 5e ac bf
       -0.006610300330513853 -0.05540728684778268
0002b0 37 8a 82 e8 b3 b5 9c bf 8f 77 3b 34 39 b5 8d bf
       -0.028036891046790493 -0.014505812555792889
0002c0 ba 81 bc 90 e9 9c 92 bf 86 1f 52 9d 0c 03 86 bf
       -0.01817669816876031 -0.010748003531503302
0002d0 95 9f 3a 83 2a 66 7b bf b2 8d 8d 4c 03 97 64 3f
       -0.0066892300270992204 0.0025134148058200906
0002e0 8d 9d 5a 50 66 e9 92 bf 30 09 dd ce 4d 5e 70 bf
       -0.018468474058548835 -0.003996185243354142
0002f0 54 d0 6a 36 34 3f 8a bf c4 ec d4 f4 76 79 a3 bf
       -0.012815864477808393 -0.03803607691448854
000300 76 73 72 0c c7 31 8a bf 0c 27 2a 12 0a 8f 58 3f
       -0.01279025561080414 0.0014989469861199116
000310 5e 21 e8 40 b7 4d 83 bf 65 e3 d2 f0 0c 0a 86 bf
       -0.009425574940011113 -0.010761357402189817
000320 bd 5d 53 ad 14 3e 7d bf 0b ee 9f c6 be ff 7d 3f
       -0.007139282960643309 0.0073239757712104765
000330 17 de b9 12 94 aa 90 bf 22 22 4f 36 c0 a0 93 bf
       -0.01627570499701222 -0.019167903246655744
000340 da e9 36 b1 b7 55 a0 bf 88 b7 a0 78 68 de 7f bf
       -0.03190397299063692 -0.007780464258798754
000350 cc 6e b3 a5 a4 73 92 bf 6f f2 43 e7 a1 f9 86 bf
       -0.018019268621045012 -0.011218323583755933
000360 a6 be 68 e4 c5 0c 8f bf 07 fb 4e c0 27 f2 a4 bf
       -0.015161081345552784 -0.04090999815479362
000370 1c 79 91 3b 32 e7 89 bf 45 f0 9c 02 a4 bd 4e 3f
       -0.012648003046873905 0.0009381342726793104
000380 a8 de ef 6b 7e ec 88 3f e1 df 3b cc 48 24 91 bf
       0.012169826191878855 -0.016739976373145175
000390 54 2e 03 d0 2a 9f 89 bf d9 10 f7 55 07 3a 96 bf
       -0.012510618660960628 -0.021705736753362046
0003a0 77 f0 9e f2 44 35 84 bf 63 e0 10 83 4b 98 95 bf
       -0.009867228178215932 -0.021088771700505392
0003b0 f0 72 29 14 48 89 85 3f fb 91 f4 fc fc bf 9d bf
       0.010515750041287103 -0.02905268949429461
0003c0 ab d1 9f 07 28 da 77 bf e0 dc 6e bb 17 e9 78 bf
       -0.005823284498536567 -0.006081669524909489
0003d0 c7 6e 29 e3 6d e1 65 3f 35 2e 23 54 23 f3 80 bf
       0.0026709696042369366 -0.008276248936815648
0003e0 7d de b0 96 5d ec 74 bf 15 a1 86 77 c5 17 77 3f
       -0.00510822828351076 0.0056379045057968384
0003f0 a5 86 4d 57 04 d1 85 bf 8f 5c 5f 59 2d 73 a0 bf
       -0.01065257445742713 -0.032128731879930254
000400 9d da ec 8d 74 6c b1 bf 4e 58 3b e1 4e ba 7d bf
       -0.06806114640208212 -0.007257755398049138
000410 1a 86 12 e6 78 d3 98 3f 18 a1 0f 1b 3e f2 69 3f
       0.02424420265436398 0.003167268085679475
000420 27 43 f1 d8 cd 0e 79 bf a2 96 d3 4b e9 97 a2 bf
       -0.006117633906868736 -0.03631524134270349
000430 6d 33 fc 36 69 9a 8f bf dd a5 69 c8 04 96 9e bf
       -0.015431234350694567 -0.02986915086004226
000440 20 b7 8c ee 08 53 7d bf c6 0f 82 fd 3a 3a b2 bf
       -0.007159266366938671 -0.07120102585946517
000450 1d b3 47 d3 dc bb 46 3f 8c 4e 0e c5 b7 09 a0 3f
       0.0006937816856954247 0.03132414131610259
000460 53 9d 61 47 02 cd 7d 3f 52 64 46 2c 42 2e 94 3f
       0.007275589849178604 0.019707712127999884
000470 54 bf 5b f8 00 85 8c bf 52 f2 c2 73 82 0e a3 bf
       -0.013925559596344485 -0.037220074301761344
000480 53 3e 14 98 b6 f1 83 bf 1a 0c 46 04 d9 b0 96 bf
       -0.009738375202260096 -0.022158995519486614
000490 ad 6d f1 c1 bc 76 b0 bf 4b 3c e3 17 f2 97 78 bf
       -0.06431178793848487 -0.006004281689640466
0004a0 08 4d 3e e7 d6 b7 82 3f 98 e2 63 a6 42 18 6d 3f
       0.009139708454120057 0.0035516072995245944
0004b0 aa 35 e2 6d 76 5d a5 3f 45 c2 af 6f 34 a5 78 bf
       0.041728688157586305 -0.006016926602555876
0004c0 e3 c0 76 9e 46 fa 95 3f ea 8f 30 ab 26 03 4c 3f
       0.021462539121501655 0.000854867821889813
0004d0 71 f4 29 71 a2 54 6a 3f e4 45 e0 e9 ff 38 9f 3f
       0.003214185018178877 0.030490873956358203
0004e0 4e 50 d9 57 92 6b 9a bf ac 02 ee 8b 9f 0e a8 bf
       -0.02580097829043409 -0.04698656638266149
0004f0 36 ec 56 94 19 21 1c bf c0 55 20 b0 fd 88 8b bf
       -0.00010730475067692664 -0.013444883286903742
000500 da 71 05 4d dc fe 85 bf c2 54 a4 71 39 9f a4 bf
       -0.010740014172079638 -0.04027728569250534
000510 89 9a 74 3f a2 22 83 bf a9 56 af f5 83 3c 70 bf
       -0.009343402444369946 -0.003963962047199545
000520 3f fe 6d 2d b3 56 6b 3f 5e 68 a3 4b e5 8a 8c 3f
       0.003337240177131467 0.013936797495649408
000530 26 a2 92 e7 bf 62 89 bf 84 d5 e9 df 16 6d 83 bf
       -0.01239538121656476 -0.00948541518048774
000540 07 3f 54 42 0d e7 75 3f cc 7c b2 c1 fc 6d 90 bf
       0.005347301286078971 -0.016044568369235887
000550 4c fa d5 bb b5 c5 82 bf 16 a4 c3 13 9d 09 69 3f
       -0.009166164202494852 0.0030563419260159026
000560 6d 4b 05 1e f0 49 70 3f 33 c4 a0 b3 5f 2c 70 3f
       0.003976762731627709 0.003948568186431567
000570 42 ca 95 39 a8 93 7a 3f dc 57 82 dc 1d cd 7e 3f
       0.006488473061255608 0.00751983322711244
000580 b2 21 61 43 5e e9 53 3f cd 59 5b e0 20 71 75 3f
       0.0012153072871275814 0.005234840796865159
000590 de da 11 fe 2c 8a 67 3f c3 0f b0 f0 41 dc 86 bf
       0.0028735045203192996 -0.011162295491892743
0005a0 93 0e c9 0c ac 18 6a 3f 0e 25 5d 15 b1 c2 88 3f
       0.0031855926847884158 0.012090095009301052
0005b0 74 ae 78 62 34 75 7c 3f ca 71 cd d7 86 1b 7e 3f
       0.00694771254306269 0.007350470285782904
0005c0 c2 21 8c a6 f3 32 75 3f d4 7e eb 93 7a c3 84 3f
       0.005175544509946341 0.01013847125926707
0005d0 93 5f 54 7f be 5c 63 3f 48 36 0b 4b 4e db 6c bf
       0.002363559785077693 -0.0035225419199836107
0005e0 55 d1 d7 dd 71 a7 80 bf 99 ef 75 81 ec d9 77 3f
       -0.008131875593769303 0.005823062754071539
0005f0 54 fb 08 4b 2f 92 66 3f f3 c5 b1 23 c9 e7 75 3f
       0.002755253190371768 0.005348001194862106
000600 eb de b6 13 ed d7 7d 3f 44 6e 62 a7 b7 5c 79 bf
       0.0072860012837094685 -0.006191937825998976
000610 da 1a 9a 7c a6 51 79 3f 80 09 04 35 f5 a5 89 3f
       0.006181383456015788 0.01252357070962229
000620 73 36 53 bb e5 b4 94 3f 83 c5 b3 af bf e9 73 3f
       0.020221318777478858 0.004861592077973656
000630 3d a0 e3 49 1d c3 52 3f 89 2c b6 7c 19 5c 66 bf
       0.0011451517125866805 -0.002729463367079858
000640 0d b8 32 3a 78 69 76 3f 99 2c ea 6a 40 fd 46 bf
       0.005471677434952593 -0.00070157666580552
000650 1a ff d2 42 27 f6 91 3f e9 96 6a ee 95 f2 6b bf
       0.017540563062310978 -0.0034115722986197594
000660 82 31 80 56 15 e8 78 3f d1 2e 5b 2f 2c e0 7b 3f
       0.006080706931254178 0.0068055845237712945
000670 0a 25 95 8b 0e c9 87 3f 00 8c 3c c8 ca cd 7b 3f
       0.01161395419571189 0.006788055532328308
000680 1e aa fb 01 d9 3d 87 3f 60 22 ea 91 91 67 91 3f
       0.011348433850305869 0.016996645480079287
000690 aa 66 60 fb b1 81 80 3f 16 d0 fb e3 21 31 ae bf
       0.008059874042419441 -0.05896860034945932
0006a0 e4 71 c9 cd d6 73 94 bf 47 e9 38 22 5a 9c 58 bf
       -0.01997314101241611 -0.001502120991871596
0006b0 46 ba d9 ec 00 06 8a bf ae ed f6 63 d9 15 64 bf
       -0.012706763485053629 -0.002451824751657581
0006c0 c0 61 ff 4b 05 7a 84 3f 99 8d 27 b1 20 09 9c 3f
       0.009998360997926947 0.027378569424298147
0006d0 84 ca a5 9c db 86 72 bf 7d e6 eb b7 bf 22 91 3f
       -0.004523141726496708 0.01673411903445875
0006e0 b2 0d 48 e2 c8 2b 6f bf 13 5b a0 fa 7a 28 9b bf
       -0.003805057860746885 -0.026521607920666556
0006f0 9d c8 f8 94 ed 94 6c bf 81 d6 43 18 20 38 8a 3f
       -0.0034889831802270136 0.01280236314822081
000700 28 76 6c 0c b7 b3 72 3f 80 53 c7 45 d9 6c 6d 3f
       0.004565920861549645 0.0035919421772895865
000710 3b 8e 07 02 40 d8 7f 3f 95 97 45 3c 19 69 a2 3f
       0.0077745914754561675 0.03595808850040708
000720 21 c3 7b 54 97 28 58 bf 50 1c f2 f4 56 36 8c bf
       -0.0014745214302218162 -0.01377551970496263
000730 ea da ee c2 28 0d 94 bf 7f 1c 4c 1b e3 38 80 3f
       -0.019581448457496466 0.007921003599689279
000740 8f 0d 7e 3a 4c df 83 bf 62 a5 77 70 6b 7c 61 3f
       -0.009703250441595283 0.0021345232414559526
000750 59 a3 02 37 09 63 82 bf 06 33 1e ee f4 42 a2 bf
       -0.0089779586708844 -0.03566708952630475
000760 aa 31 2a af f6 95 6f bf fa 46 e6 cc 25 2d 9b 3f
       -0.0038556879092707845 0.02653941214663911
000770 f2 61 80 24 70 23 aa 3f 3f 6a a8 1a 9a a4 88 bf
       0.051051620918034404 -0.01203270334103934
000780 b7 01 ed 9c f9 31 3a bf fa b5 f9 4b a5 3a 82 bf
       -0.00039970726077245437 -0.008900920277677738
000790 9f 24 7a 96 a8 5f 6c 3f 59 c0 d6 b4 71 b4 87 bf
       0.003463582299279524 -0.011574638682617587
0007a0 32 18 07 d7 ab f1 a7 3f 37 b7 fa 9f 91 7d 87 bf
       0.04676568031167995 -0.011469972319300232
0007b0 88 02 52 61 7b 2c 84 3f 4a 47 f6 79 b1 1e 84 3f
       0.00985046759365217 0.009824167761312137
0007c0 a0 50 02 69 41 dd 97 3f 84 15 37 cd 0e a4 60 3f
       0.023304960283511478 0.0020313538641142954
0007d0 0d 44 aa d4 0c cf 92 3f 6d 2a de 4e 6c 79 a5 3f
       0.01836795852665678 0.0419420095705235
0007e0 5e ff e8 ed 84 d4 8c 3f 4f fe 17 8a 78 69 ab bf
       0.014077223310891614 -0.05353905378069312
0007f0 23 a0 20 c9 ad fb 83 bf 35 bf 88 58 11 d7 71 3f
       -0.009757383060858221 0.004355495221304119

bias f8 [120]
000000 15 2c 30 3f 1b 2b 64 3f 57 ca fd 06 69 20 c9 bf
       0.0024619609989762294 -0.19630158273101259
000010 14 73 9b 75 88 68 91 bf 14 7b 5f 8e 78 83 a3 3f
       -0.01700032441918882 0.0381124185366756
000020 ea a4 61 94 e9 bb 77 3f ae 23 fe ee 0f bf 88 bf
       0.005794441624041394 -0.012083172303180092
000030 3a e4 b9 86 5d 89 88 bf c7 5e 81 91 39 da 82 3f
       -0.011980753587737526 0.009205293419810258
000040 0a dd b3 cb e3 eb 96 bf c1 c5 f2 25 c3 5e 56 bf
       -0.022384223278064254 -0.0013653665298928171
000050 17 9a 71 17 e0 cc 90 bf d0 f4 db 44 df 7f 70 3f
       -0.016406537466901207 0.004028198379953454
000060 f2 f3 81 81 7b 36 93 bf 44 0d e7 92 ca 2a 58 3f
       -0.018762521533506722 0.0014750459919106876
000070 a8 60 03 97 d9 69 6c bf b8 86 c5 e8 b6 5f aa bf
       -0.003468441944374307 -0.05151149360132251
000080 9f 67 4a c1 4b e5 a8 3f 12 ee 1b af 7d ae 86 bf
       0.04862438902382781 -0.01107500258102959
000090 77 14 a2 4e fa 84 76 bf bb af 22 4e 6f be 43 3f
       -0.005497911226602806 0.0006025355799201751
0000a0 47 76 12 78 c5 75 66 bf e1 7e bf 9f 54 96 8c bf
       -0.0027417046372438 -0.01395860779297159
0000b0 53 07 e2 90 6f 85 ad bf 23 87 e3 d5 d4 0e 84 bf
       -0.05765865939703354 -0.009793913628928735
0000c0 31 ca 76 36 a8 ee 78 bf f9 b7 e1 6b b3 aa 62 3f
       -0.00608697612863067 0.002278662140319018
0000d0 a3 83 5a ef e7 3f 73 bf 41 ef 13 b8 11 d2 71 bf
       -0.004699617382045415 -0.004350728240065938
0000e0 83 11 16 7f 37 82 8d bf 69 7f f2 90 14 10 83 bf
       -0.014408525052893811 -0.00930801455825732
0000f0 b0 da cd 20 c1 a7 9c 3f 1d 17 b3 df 2c 2a 85 3f
       0.027983682276920774 0.01033434922863879
000100 a8 ab 5d 0e 33 e9 9a 3f 70 b5 f0 31 2c 7f 87 3f
       0.026280210258316977 0.01147303130536656
000110 c9 b8 b1 b3 82 32 5b bf 25 60 13 04 fa a7 87 bf
       -0.0016599918733635635 -0.011550858735446987
000120 62 fe bf b5 81 97 a4 bf d2 7f fe 04 1a 6c 51 bf
       -0.04021840423228863 -0.0010633710953484765
000130 1d 91 f3 09 ea 51 8d bf ca 08 f4 41 b5 9c c7 bf
       -0.014316395214742312 -0.18446984978078823
000140 51 2b 6b 09 d3 ce c1 3f 4b 5d dd c5 2e 1c a0 bf
       0.13912427863973645 -0.03146501698818812
000150 6c 05 bd da 9a c9 6d bf 12 f9 50 87 de 5f 8e bf
       -0.0036361717701828746 -0.014831293587232373
000160 f7 26 2d 95 b3 1a 89 bf 10 b6 91 5a 27 1e 73 bf
       -0.012257960309983924 -0.00466742870876892
000170 9c 59 5c da 95 54 7f bf 48 6f 73 6d 65 e4 91 bf
       -0.007649026263399607 -0.01747282486472493
000180 7c b2 d6 a2 fa 4c 70 bf 41 cf f4 d7 74 ac 89 bf
       -0.003979662940235881 -0.012535965767348169
000190 a6 bf dd b1 f0 de 74 bf f6 a8 dc e8 71 cd 91 bf
       -0.005095424856207764 -0.017385272825017638
0001a0 6e bf 6e b1 e2 3c 50 3f c0 0b 7b ac d6 b7 5c bf
       0.0009910787391440262 -0.0017528149054874959
0001b0 74 c5 a5 e7 41 ff a2 3f af f7 98 5d 08 e0 7b bf
       0.03710370972374735 -0.0068054510862207
0001c0 4a 12 76 82 3c 9b 6a bf 01 cc 36 b1 c5 cb 90 bf
       -0.0032478505924607203 -0.016402329388892415
0001d0 2c 02 c4 a5 65 19 a3 bf f5 9f d9 b2 53 02 46 bf
       -0.03730313919550485 -0.0006716641125423794
0001e0 2f 0b 40 d7 d1 ef b1 bf 52 79 96 2b bf 9a ad 3f
       -0.07006560807353134 0.057821249075675
0001f0 6f 36 d3 30 28 0e 82 3f 35 91 76 62 89 9d 96 3f
       0.00881606482507921 0.022085329661096515
000200 77 39 83 97 3d ac 9a 3f 1e 94 b9 6b 13 33 86 3f
       0.026047670719714113 0.01083960697651248
000210 b2 36 e6 fa 35 03 92 3f a9 33 55 31 64 71 99 bf
       0.017590373457599902 -0.02484661627868304
000220 3a d8 3f f2 48 7e 7a 3f b8 99 8a 8d e5 0d ca 3f
       0.006468090959961309 0.20354909335328641
000230 81 e3 ed 20 63 e1 87 3f ce 75 41 73 c7 e4 68 bf
       0.011660360758229295 -0.003038777877050625
000240 9a af 9d 1a 62 6b 8f bf 98 81 2b 05 4e 7b 97 3f
       -0.015341535985235844 0.02293130785517547
000250 eb 0c a0 31 ce fe 9e bf 0c 78 a6 07 c9 41 99 bf
       -0.03026888063324133 -0.024665013400969868
000260 b2 ce 6b 5d 27 08 91 3f b8 f2 33 7f bd aa 7e bf
       0.01663266666123659 -0.0074870493147016146
000270 9a b5 97 a3 73 2b 57 3f 27 ba a3 32 72 16 8b bf
       0.0014141682898939135 -0.01322640625991507
000280 fd 30 59 f8 69 ef 94 bf d8 de 16 f4 d0 92 94 bf
       -0.020444541724189403 -0.02009130945017898
000290 36 bf 13 93 33 d7 8b bf c9 06 7b 3f d1 3b 9f 3f
       -0.013594057966173172 0.030501622676417015
0002a0 da 48 04 0d e3 5a 76 bf 8c 31 be 9f 65 be 62 3f
       -0.005457770268792761 0.0022880539745015523
0002b0 b7 76 0e 2d cd 23 95 3f 24 52 c0 01 5e 6c 97 bf
       0.020644384264975026 -0.022874325615776084
0002c0 50 4c ab 59 89 99 86 3f ec 6e 92 a2 bf 28 7a bf
       0.01103503518007734 -0.006386517118837292
0002d0 21 b9 f0 b9 2c 6d b0 bf f4 57 d0 8a 75 7f a0 bf
       -0.06416587390478813 -0.03222243613724621
0002e0 4e 06 ce d1 e4 7b 8a 3f c8 19 01 ce ec 1e 93 bf
       0.01293162122033489 -0.018672657083038918
0002f0 12 54 cd d6 57 19 91 bf 87 36 0d b4 bf 5b ca bf
       -0.016698238835790198 -0.20592495242674522
000300 1c be 39 63 ce ea a0 bf 16 7c 5b 21 21 4d 84 bf
       -0.03304142915009953 -0.009912737684713274
000310 15 c5 74 9d 1a 5a 7b bf 33 03 67 f1 62 8e 8c bf
       -0.006677726712312611 -0.013943455688492179
000320 d6 41 9b 11 49 d3 ca bf 8f b1 e3 3c e5 3f 5d bf
       -0.20957291946116524 -0.0017852533961174343
000330 f5 1d 5d b7 93 13 ac bf 0f c4 60 f5 ec 53 75 bf
       -0.054836860783833354 -0.005206990832491889
000340 4e bd 87 dc 89 b7 c0 3f 1c 53 7f 8f 0d 94 a5 3f
       0.13060115116193532 0.04214517952610761
000350 b5 75 79 41 65 d4 9c bf e0 bb ce 39 2c d4 80 bf
       -0.028153974648707798 -0.008217187418123773
000360 43 33 fc 31 92 1c 6a bf 6f 70 ab c6 be b1 69 bf
       -0.0031874518753113603 -0.0031365133375925096
000370 5a e7 76 ef ac 2b 9e bf 6e 54 1c 88 01 33 6a bf
       -0.02946348392081375 -0.0031981496730489256
000380 d0 c6 4a 6d 4f 63 b8 bf 12 1f cb 3a 1c 66 85 bf
       -0.09526535433067385 -0.010448666137917981
000390 71 5f 52 8b 1b d7 77 3f 19 82 aa 75 4c ff c8 bf
       0.0058203769632639716 -0.19529109712040407
0003a0 ae bd 3b a0 06 12 86 3f 72 f1 7b 5c b8 a0 47 bf
       0.010776569142278838 -0.0007210636331076838
0003b0 85 7f 73 b4 a9 da 77 bf a6 1c ea ce 17 74 7d 3f
       -0.005823767575947052 0.007190793038382248

weight f8 [120, 120]
000000 cb 6f c0 f1 1f 1a 95 bf 41 32 4f 90 06 31 73 3f
       -0.020607470636704577 0.004685426368223279
000010 95 71 82 bf 06 c4 95 bf f9 ad 99 19 9b 82 8b bf
       -0.021255593718352356 -0.013432704657325255
000020 fc 1b 4b 4a 5a 0f 9e bf 65 32 81 00 9d a5 af bf
       -0.02935544088793661 -0.061810404121023045
000030 f0 81 56 c7 40 cf b9 bf 7f 52 a1 71 e9 17 62 bf
       -0.10081868044517939 -0.002208667702726707
000040 bc 2d 4c 7f b7 64 b6 bf 6b 36 a9 a6 4e e8 be bf
       -0.08747431619501972 -0.12073222702857726
000050 22 c3 03 dd 0f 7f b3 bf d6 af 7a 97 c2 2e 8d 3f
       -0.07615756173960311 0.014249344108371458
000060 f8 98 41 71 af 2f c1 bf 22 15 1b e0 11 5f ad bf
       -0.13426774053659307 -0.05736595020929715
000070 fc e2 d5 ab e2 56 a3 3f 17 cd 55 15 35 4f 75 3f
       0.03777225825883154 0.005202491146849362
000080 dc 1d 64 8e 22 03 b9 bf 06 42 45 b1 b3 0f bb bf
       -0.09770408607811681 -0.10570834234136592
000090 4c bc 66 d3 ba 82 93 bf 35 c1 d5 c8 df 70 9f bf
       -0.019053382065689115 -0.030704018242830606
0000a0 12 10 84 d4 56 59 91 bf b4 e4 77 10 b4 c6 c1 bf
       -0.016942364426555008 -0.1388764458095345
0000b0 a2 00 d1 b4 b4 3d b6 bf 88 da 0d cf a6 02 77 bf
       -0.08687905706847457 -0.005617763134856298
0000c0 2c 2a c2 2f 8d b5 b6 bf 89 43 1f 9d 5c 49 b5 bf
       -0.08870775619485788 -0.08315066181172716
0000d0 0a 48 96 96 f4 6a b1 bf cd 1e e4 e8 07 2b a6 3f
       -0.06803826023522688 0.04329704969319224
0000e0 c2 2b df d3 96 96 a8 3f 0b a6 92 72 5c d8 b8 bf
       0.04802390419316495 -0.09705140874088884
0000f0 25 9a 91 79 a8 90 c0 bf e6 65 aa 16 8c 7e b9 bf
       -0.12941461502050902 -0.09958720734939383
000100 df c8 8c 4c fd 08 92 3f 13 7c f7 6f 79 30 8f bf
       0.017612417027699997 -0.015229176263288157
000110 b1 9b c7 c6 1c 30 bc bf 53 9f db a0 a7 9d a0 bf
       -0.11010913708706373 -0.032452810655569174
000120 15 25 ce cd 5a 2a d7 bf 2a 98 23 1a 51 0b c0 bf
       -0.36196012590569754 -0.1253453614837679
000130 ec 25 b3 94 48 47 bf bf 1e 06 2e 99 77 35 c7 bf
       -0.12218145017973087 -0.18131918887597548
000140 a0 f0 17 ee a5 26 c0 bf b3 17 41 7d 7d 46 85 3f
       -0.12617944837245876 0.010388355622250467
000150 b2 47 00 c9 e8 2e b1 bf 8d 81 87 f9 5c 0a 9c bf
       -0.06712202937367698 -0.027383282404004162
000160 75 67 2b 39 bb 9d aa bf 35 f8 34 67 52 7d 99 bf
       -0.051984644631104006 -0.024892127560853978
000170 ba ba 4f 8a d4 b0 bd bf 33 e1 e9 1d ca f9 5c bf
       -0.11597946526283467 -0.001768538837181377
000180 18 59 9f 91 6c e6 be bf 56 0b 18 56 98 be a4 3f
       -0.12070349269138025 0.04051662493659218
000190 67 23 98 93 49 51 bb bf e1 a2 76 b4 76 24 b5 bf
       -0.10670909741760469 -0.08258764177174839
0001a0 98 10 89 2c 4b a0 ac bf 34 6e e4 ea 12 a0 b9 bf
       -0.0559104434837831 -0.10009878382373288
0001b0 15 0d 3c 1c 2c eb b8 bf c6 ad ec 7e b1 3c 99 3f
       -0.0973384446079318 0.024645589229448615
0001c0 80 8d ee 69 2f 20 b4 bf 0a 6a 18 8f a0 1d a0 bf
       -0.07861610733248448 -0.0314760374714816
0001d0 11 f9 10 54 d2 71 76 3f 4d 11 4a 72 6f 8a 9a bf
       0.005479642482042261 -0.02591871390406313
0001e0 07 bd 7c 42 a7 91 9d bf e5 89 95 81 2e 6c bd bf
       -0.028875935967502844 -0.11493197120356731
0001f0 12 77 84 7c d5 78 a2 bf f7 e9 d3 70 a6 56 b5 bf
       -0.03607813973415665 -0.0833534265001744
000200 90 90 0e 17 a0 be bb bf 8a e9 4d e3 be cd 96 bf
       -0.10837746203339038 -0.02226923239093418
000210 7e a8 58 52 62 0d 64 3f 9f dd 8f 0d c7 ea 55 3f
       0.0024477882714296064 0.0013377136112902933
000220 d5 75 98 66 40 a4 b3 bf a3 27 15 f8 87 79 b8 bf
       -0.0767250299909031 -0.09560441786484701
000230 c3 b8 53 a3 17 5f af bf aa a7 92 13 d5 d0 b9 bf
       -0.06127237194765336 -0.10084277847150128
000240 73 66 ae b3 f4 be 4c 3f 00 69 85 5c af f2 9b 3f
       0.0008772559007070427 0.027292957326928935
000250 13 cc b5 14 a4 2b 61 3f f9 55 2b 5c 69 6c bc bf
       0.0020960049347933467 -0.11102922916628434
000260 31 7e 84 bb 48 d2 b6 bf a8 5d c3 90 40 68 9a bf
       -0.08914618089738081 -0.025788315616265628
000270 80 a0 3e 70 6e 90 8f bf 65 74 f6 48 fc 03 a5 bf
       -0.015412199783739533 -0.04104603186281323
000280 23 9a 5e 8f 33 08 c0 bf 95 bc f5 2b 60 cc 71 bf
       -0.12525028706041139 -0.004345298453116393
000290 11 61 e2 8f 5a a6 7a 3f 7d fc 6b 1d 12 37 81 bf
       0.0065063035564423425 -0.008405820391543134
0002a0 e2 bb 64 76 60 34 8f bf 82 f8 b4 9e d1 7a be bf
       -0.015236619580347669 -0.11906156658821668
0002b0 4b 87 c3 0d fb e1 73 bf 06 cc 1d bb 3f 77 b8 bf
       -0.004854183844345726 -0.0955695945574889
0002c0 2d 7d 0d 98 7a 44 ae bf 7c 56 c2 3b b4 e9 b7 bf
       -0.05911620241271929 -0.09340979060137927
0002d0 a3 7b 56 4d 1c 2e bf bf 2f 22 d7 71 c3 75 4c bf
       -0.12179734123354406 -0.0008685306854028847
0002e0 12 20 f8 80 04 08 76 3f df b7 d0 99 0c 3a b9 bf
       0.005378739922441882 -0.09854201083427892
0002f0 95 38 12 04 2f e6 79 3f 58 3e 61 3e d6 42 b2 bf
       0.006323035865660871 -0.07133234999604932
000300 c9 d8 d1 88 85 9f aa bf fd ae 20 67 df 69 91 bf
       -0.051998303367257366 -0.017005434674657306
000310 09 21 57 b4 d8 65 8d bf a7 49 24 bc 05 b9 7f bf
       -0.014354413035917906 -0.007744810487809429
000320 69 71 54 7f 13 88 c3 bf e3 88 df aa 03 ae 93 bf
       -0.1525902148940859 -0.019218499473830596
000330 8c e4 3f 66 9d 0b b2 bf b8 6c f5 52 6c b8 9f bf
       -0.07048972841575302 -0.030976955951115243
000340 d8 d7 8a 02 93 2c ac bf ae fc 81 e8 eb bb a7 3f
       -0.055027574596735185 0.04635560239057078
000350 33 68 7a 20 b1 43 a3 bf 68 72 a4 51 5b ca 92 3f
       -0.03762582322561094 0.01835005460553632
000360 81 5b f6 ba 1a 2a 92 3f 1a e5 a3 2f bc 7f ba bf
       0.017738740597987416 -0.1035115829762571
000370 48 a5 f7 a2 2a 82 9a 3f 9a cf d1 2c e5 b3 b7 bf
       0.025887170979250557 -0.09258873314121133
000380 38 c0 3e a1 d3 db da bf c6 53 70 17 72 9d 8a 3f
       -0.4196671557101612 0.012995616283697841
000390 4d fa f5 f5 7f 9e 9c bf b9 de 9b 28 f3 ed be bf
       -0.027948378932246155 -0.12081832639148161
0003a0 06 e1 89 32 b1 50 99 bf c2 8f ca 3f 89 d4 9c bf
       -0.02472187872851441 -0.02815451099253586
0003b0 1a 43 89 5f f2 89 c1 bf 73 ce f1 84 1d 7b 74 3f
       -0.13702230133869692 0.005000224408934539
0003c0 a9 58 93 30 e0 6e bc bf f1 f2 65 38 da 43 ed bf
       -0.11106682954718629 -0.9145327664878932
0003d0 3c 73 70 5f 87 46 81 bf d7 4b db 37 e9 ab cc 3f
       -0.008435304260325453 0.2239963076341087
0003e0 16 e0 94 21 fd 84 b2 3f db c9 14 81 04 69 ac bf
       0.07234174795019074 -0.05548872066210083
0003f0 28 48 24 3c 1b 68 b3 bf cf e2 b5 3b a5 d6 79 3f
       -0.07580728739074571 0.006308217470512203
000400 fd 8e 0d 5d 02 3b 90 3f e0 3d b5 68 34 77 a7 3f
       0.015850102357389585 0.04583133485959556
000410 77 56 fc df 0f b4 ab bf 52 b6 9a 4d 6d 26 a9 3f
       -0.05410813912582751 0.0491212994796625
000420 a9 7a 2e 7c 17 a7 b2 bf 12 cd 55 9c 8f b4 9f bf
       -0.07286211759353968 -0.030962222973767224
000430 65 58 fa e0 79 51 86 bf 50 e9 7a fa 3f 3c 89 3f
       -0.010897590807229027 0.012321948844477376
000440 dd 7c b4 35 d7 5d d3 3f 63 56 3c 30 67 e4 a4 3f
       0.3026025795424639 0.040805077207704675
000450 3e 0b 43 59 65 e6 8d bf 46 fc d2 0f 3f 0c a2 3f
       -0.014599601542050086 0.035249682122860324
000460 73 0c 06 b7 ef f7 80 3f 8c 24 f4 34 7a 01 a1 bf
       0.008285401127755975 -0.03321439644248256
000470 66 ab 19 c5 4a 57 c1 bf fa 87 44 36 9e 74 84 3f
       -0.13547644256626795 0.0099880562125385
000480 f2 c0 5d a1 90 e5 b2 bf f1 59 4a 26 10 d7 c0 3f
       -0.07381538333516227 0.13156320447588102
000490 e1 88 51 39 fd 88 90 bf 84 53 7e 98 54 46 a7 3f
       -0.016147572158282556 0.045458453764843504
0004a0 3d 64 74 5d 8a 2b b7 bf 2a 89 4a 6b dc 7a 89 3f
       -0.09050812512977387 0.012441370033518046
0004b0 00 10 1f b0 5b 29 9f 3f 82 91 16 e4 74 74 be 3f
       0.03043120634517038 0.11896448677595653
0004c0 9e c7 e3 53 6e 56 c7 3f dc 63 51 08 a4 40 b4 3f
       0.1823251638048164 0.07911133959841216
0004d0 23 84 48 bf 45 93 8d 3f 1f 1a 77 4d 4d 46 af 3f
       0.014441056156160375 0.06108323641415247
0004e0 f1 5f e4 be 6d a2 d2 bf bb 45 b8 6f 1d 3a a7 bf
       -0.2911638607197338 -0.045365257156059845
0004f0 fc 42 90 95 9a 26 9e bf 66 9b 37 29 65 4f ee bf
       -0.029444136980660382 -0.947191792013524
000500 5d 8d 22 e4 33 52 e0 3f d8 31 93 9f 7d 63 c0 bf
       0.5100345092545627 -0.12803621570345913
000510 de ba 8c 83 39 47 b1 3f d9 df 45 9c 4f a7 b6 bf
       0.06749305211699716 -0.08849046292550557
000520 dd 46 f1 f6 34 c9 a7 bf 0b 82 65 e4 f9 1c c0 3f
       -0.04645696176943457 0.1258842816560136
000530 d9 c0 f7 ac 42 1b b3 bf 3f dc 5a 21 67 6d a6 3f
       -0.07463471148344371 0.0438034275261363
000540 d0 be ed ab f2 c7 ac bf 1d d4 e8 13 c6 1f 92 bf
       -0.05621298168887068 -0.0176993322040354
000550 8f ee f1 13 29 80 b2 3f ad eb 11 cc 54 ec af bf
       0.07226807343425377 -0.06234993926133057
000560 17 eb a3 f9 37 9b 85 3f d3 96 cf b8 1b 99 92 bf
       0.010549962335507907 -0.018162186770402777
000570 83 47 d4 ec 1b 51 cc 3f 2a 47 5a 72 22 b1 aa 3f
       0.22122525276114055 0.052132679423392794
000580 15 c6 42 1b 83 fa b6 bf aa 97 da fe aa c1 b2 bf
       -0.08976001182124833 -0.07326763841646647
000590 42 92 9c a9 c8 95 5c 3f 65 25 85 c2 40 b4 a6 3f
       0.0017446956248444866 0.04434397100937807
0005a0 48 28 1b 7f 73 8e ce bf e5 a9 34 2a cc ec d3 3f
       -0.23872226435043076 0.3113279735722741
0005b0 d4 b2 52 ac 82 1e b6 3f fb 9d b9 f5 6d 92 b3 3f
       0.0864030523977804 0.07645308732173099
0005c0 7c 86 1f 93 ea 99 c1 3f 08 ac b7 dc 32 4b a5 bf
       0.13750965293643336 -0.04158934540085829
0005d0 32 be de 72 d8 32 bc 3f 41 f8 d4 42 36 32 a3 bf
       0.1101508408016734 -0.0374924618322301
0005e0 ae f1 82 fa 89 af 54 3f b3 f4 31 c0 0c a2 f5 3f
       0.0012625548788910246 1.3520629413244876
0005f0 bc 5a 67 2e 8a ed b0 3f 42 d6 72 ec da 76 71 bf
       0.06612456925300142 -0.004263739748400721
000600 12 fc a8 3a b4 fb 97 bf ac 6b 2f 56 ca 60 b7 3f
       -0.02342111213715376 0.09132065395480876
000610 24 38 7d d4 54 b9 c9 bf 9b 0f e2 31 3e bf ba bf
       -0.20096836448141275 -0.10448063581321636
000620 15 cd ea 7a 17 48 98 3f 97 7b 67 8a 27 36 93 bf
       0.02371250808455468 -0.018761270353816775
000630 c9 b4 01 01 98 f1 a3 3f 86 15 3f d0 5e 57 a1 3f
       0.03895258915222539 0.03386970798559745
000640 9b 9f 3b 04 6d 77 a0 bf 3a 6f 5f 98 d6 40 a1 3f
       -0.032161146895133906 0.03369780168551846
000650 a3 f1 d3 44 c3 9e b0 3f 86 32 e4 38 4f c4 c2 3f
       0.06492252760285182 0.14661588933849518
000660 18 84 cb 20 ff e2 a3 bf 47 19 6a 87 68 16 88 bf
       -0.03884122157411002 -0.011761490471383097
000670 ca c8 b3 e2 a0 57 b6 3f 54 22 28 46 75 d0 0f bf
       0.08727460417483993 -6.068094150541285e-05
000680 a0 c4 a7 1f 87 a6 9e bf 64 bc df 42 39 65 8e 3f
       -0.02993212824543845 0.014841506341296724
000690 29 6a 50 d2 ca a0 c1 bf dd 81 81 9c da 1a c1 bf
       -0.13771949071163306 -0.13363201753510526
0006a0 55 af 15 21 0f 8f b3 3f 2a 17 ec c7 0b 2c 7b 3f
       0.07640165860874266 0.006633802432366479
0006b0 75 eb 9b 0b 17 d1 ac 3f fc 72 b2 84 c8 90 ed bf
       0.0562827302619188 -0.9239237395991888
0006c0 20 55 11 b3 77 6c c5 bf ec 5a 1c b0 76 c7 92 bf
       -0.16737266772785464 -0.018339018343875788
0006d0 0f 1f 29 f4 f4 47 ba bf 7a ab ca 67 4d 56 98 bf
       -0.10266047440483937 -0.023766717395726535
0006e0 88 78 2e e3 58 09 e7 bf 4b 73 41 bb 21 12 b0 3f
       -0.7198910176409905 0.06277666875525971
0006f0 01 d5 09 d9 7c 80 5c 3f 15 93 8a c1 04 eb a6 3f
       0.0017396182267053752 0.04476179945530682
000700 5a f2 6a 74 60 b2 db 3f 19 38 ce 9b 80 7d c5 3f
       0.4327622544185822 0.16789252860729745
000710 95 85 32 39 93 c2 b0 3f 97 22 10 81 7c c7 b0 bf
       0.06546898027820298 -0.06554392004921748
000720 c1 01 d9 b4 81 6b 93 3f 61 db c1 eb 2d 59 95 bf
       0.01896479288393649 -0.02084800483177263
000730 b1 22 eb 3c c4 13 a2 3f 05 b9 d1 cb bd 90 a0 3f
       0.0353070568431283 0.03235428917911246
000740 1c 7e 38 7d a7 b6 e4 bf 82 67 f7 ee 62 97 98 3f
       -0.6472966619221014 0.0240149935105829
000750 94 d4 b9 e9 58 9f 21 bf 65 cc db 20 ac 2f ed bf
       -0.00013444862712544815 -0.9120693818825997
000760 cd aa 7b 3d 8b 3e 86 3f e3 8d 15 5a 27 36 b2 3f
       0.010861480535330337 0.07113882016488264
000770 60 a9 c1 72 68 40 b9 bf 3c db 37 f3 a3 0a c0 3f
       -0.09863903810188424 0.12532472015274176
000780 0d 30 20 6e 10 55 57 3f 63 8e 19 e0 0c 96 bb bf
       0.0014240894747699101 -0.10775833579241971
000790 9f 09 c4 15 db 62 ab bf 96 f2 f3 30 fd 55 9a bf
       -0.053488584906534735 -0.025718647110795155
0007a0 30 5a 6a bb 58 9c b6 bf bd d4 3a 4c 72 9b a1 bf
       -0.08832315993854745 -0.03438908749141365
0007b0 11 27 16 16 67 c0 98 bf 30 85 a3 bf 60 99 b8 bf
       -0.024171457980208425 -0.09609036139183469
0007c0 f4 8f 19 8c e4 2d a5 bf fb 16 e2 bb b7 29 79 bf
       -0.041365758993180096 -0.006143300734157138
0007d0 f8 20 5e 71 55 e8 7c bf 8c 74 55 bb 74 3d 9e bf
       -0.007057508240798642 -0.02953131097216448
0007e0 9e 76 d0 d8 7b 47 c1 bf 55 ec 0b 87 fb 3c 6c bf
       -0.13499401175152043 -0.0034470474860177993
0007f0 56 f5 13 da 16 07 61 3f 0a b3 27 5f da 24 ba bf
       0.002078575737526715 -0.10212483237382855

bias f8 [120]
000000 1a 39 08 96 89 09 b2 bf 70 8c 34 69 0d d1 b5 bf
       -0.0704580298699721 -0.08522113626945482
000010 76 be a1 3a da 54 ae bf fc 14 10 c7 a2 42 a0 3f
       -0.059241122872546834 0.031758391189251584
000020 ae d7 c8 a3 83 73 b8 bf 01 f6 83 a2 15 7b a4 3f
       -0.09551260708471318 0.04000156029540492
000030 8c 50 14 3d 07 eb 84 bf 07 aa 4c da f5 c4 7d bf
       -0.01021390586041828 -0.0072679141638141214
000040 36 6d 81 12 65 51 b4 bf 6d fb 8c 1a 97 33 ae 3f
       -0.07936698629184921 0.05898735236268391
000050 1c 28 03 41 bf ca 51 bf 6c 06 e3 1c 67 eb 91 bf
       -0.0010859363283537487 -0.017499552858458875
000060 4c a3 7c c3 3d a1 a5 bf b8 e2 fe d8 8b 29 a0 3f
       -0.0422457982188634 0.031566972960211215
000070 5c dd a0 09 3f 6a 89 bf f2 fe b2 34 4d 3d 83 bf
       -0.012409679871878403 -0.009394267245056185
000080 a7 10 1f fb 5b 63 b8 bf a0 f4 4a c1 08 af ba bf
       -0.09526610260860711 -0.10423330992758162
000090 83 25 67 8a 24 54 c0 bf f9 c4 7b 75 dc 4a c2 bf
       -0.12756783254580392 -0.14290958153245706
0000a0 24 3a ff f2 fa 68 86 3f 42 5f f7 7f ab c5 b4 bf
       0.010942421475104665 -0.08114120363404445
0000b0 0f cd 74 43 7a 06 8b 3f 5b a9 27 f1 24 1c 5e bf
       0.013195948775865078 -0.0018377648126440469
0000c0 50 a5 92 16 83 c7 bb bf 6a 8d e1 9f 15 cd a7 3f
       -0.10851306248755077 0.04648654534028192
0000d0 6b b3 a8 d0 bf 7f b6 bf 9f 13 e9 2b 57 27 b3 bf
       -0.08788679928029601 -0.07481903860123261
0000e0 04 6f e2 87 0c 13 b0 bf f9 37 38 46 fa 1a 8e bf
       -0.06279066388600191 -0.014699893253261808
0000f0 b8 42 55 7a 4f 68 c1 bf ff b5 32 4c 32 f7 7d 3f
       -0.13599580262463973 0.007315823054495406
000100 b8 bd ea 5e 47 df b3 bf a9 88 97 c3 cb 70 a0 bf
       -0.07762571399029283 -0.032110564828842066
000110 70 c9 87 07 bd 5c af bf 9d e3 b1 92 7c 3b b2 3f
       -0.061254412812462244 0.07122019368570283
000120 89 6e 93 7f 0a 07 8e 3f 29 27 b5 1c f9 04 78 3f
       0.014661867159183177 0.0058641177123009225
000130 21 4b 47 37 06 b4 a4 bf b6 65 18 b7 78 1e bd bf
       -0.040435976264822544 -0.11374620885944506
000140 c5 e4 65 21 f0 8f ac bf c8 0f d9 ba 18 5d b2 bf
       -0.055785659863383276 -0.07173304139820325
000150 a9 32 1f 7d 7b 15 ab bf 19 1c b3 f6 f1 17 b6 bf
       -0.05289827253691232 -0.08630287430706608
000160 ac 55 b0 ae 81 7e a5 bf b1 96 6a b3 ca 60 a0 3f
       -0.04198079354697923 0.03198846283093582
000170 ae 37 a4 70 31 f3 c1 bf 7d 57 9a 28 8a cc b2 bf
       -0.14023416519233706 -0.07343352786332775
000180 d6 19 9a fd ee 8c b8 bf db e9 dd 75 25 70 32 bf
       -0.09590047542051336 -0.00028134264527293417
000190 cc e9 47 3e 27 09 be bf 5b 30 c4 79 a2 57 bf bf
       -0.11732716818361338 -0.12243094895183175
0001a0 1a e2 97 71 4d 5e 96 3f b0 b1 27 6d bc 39 ae bf
       0.021844110544380603 -0.059034241032211
0001b0 cb 2d ec 00 1c e2 b1 bf 21 0c e4 08 ca 30 c1 bf
       -0.06985640547298215 -0.13430142816659532
0001c0 c9 34 cd e1 50 68 2a 3f 74 e3 68 12 f9 6e b6 bf
       0.00020147311524923984 -0.08763081263977118
0001d0 d2 64 6d bf ed 30 b5 bf 0f ee e2 ad d3 c9 b8 bf
       -0.08277784274595781 -0.09682963366770302
0001e0 a7 75 6b 86 1c 24 aa 3f e7 fb 65 8e 74 00 99 3f
       0.05105675831667194 0.02441579932337481
0001f0 fd 07 77 cd 03 ab 8e 3f 19 6a a8 72 5d 5e 99 bf
       0.014974622447770253 -0.024774036524926133
000200 da 72 75 d2 20 36 b8 bf e2 cd a8 5a 9b 99 ae bf
       -0.0945759309592619 -0.059765677277393583
000210 40 f6 64 a7 6e 54 b0 bf 7c f1 03 95 72 c3 b9 bf
       -0.06378833376671711 -0.10063854349204421
000220 21 6d 7b fa c0 ae b0 bf 61 90 53 a7 e4 70 96 bf
       -0.06516653170858834 -0.02191502829818182
000230 83 d9 fc 51 ec da 9b 3f d0 70 4b 7f 4d f9 a3 3f
       0.027202312950259887 0.03901140383615742
000240 ed 51 d6 14 d4 d8 98 3f a3 59 f1 7c fd 0c ab 3f
       0.024264634868432045 0.05283348226719233
000250 0f 8e 5f f7 e7 08 b4 3f bc dd 24 ee f0 e5 a9 bf
       0.07826089658151879 -0.050582436628640676
000260 ff f6 98 92 b5 ba b3 3f da ab 69 66 c7 61 a2 bf
       0.07706770733872402 -0.03590224385410297
000270 a9 b7 3d d9 86 d4 bf bf f5 16 e7 44 6d 60 87 bf
       -0.12433665088403124 -0.01141438833736739
000280 7c 95 2f 4d 23 53 b4 bf 2c e6 03 36 95 a2 8b bf
       -0.07939358362599153 -0.013493695937074689
000290 24 b3 4e 13 80 a3 b1 bf 2b f0 aa 5d 4f a2 93 bf
       -0.068901066507078 -0.019173851100944866
0002a0 1e e4 15 fa 7e 00 a9 bf 80 2d 68 c1 bf fa b7 bf
       -0.04883190920640622 -0.09366987678384042
0002b0 6e 38 fe ab 64 57 b3 3f 58 39 d9 a4 ee 6e 9a bf
       0.07555226515816724 -0.025813797771030295
0002c0 3c 6b ce ee 80 9c 8d 3f 43 5a 6f 62 c5 92 a5 bf
       0.014458663261213915 -0.04213539911841171
0002d0 c5 0d de 95 84 67 94 bf 23 b2 02 98 6d c7 b6 bf
       -0.019926139495067625 -0.08898053132242771
0002e0 31 a0 ca 77 2a 62 85 bf 07 e5 1c 6c af c9 bc bf
       -0.0104411428267924 -0.11245247258638723
0002f0 d4 88 fc 9d 27 a3 be bf 21 ee 94 7b 79 87 b1 bf
       -0.11967704398242357 -0.06847342745907571
000300 60 6e 8c 5c 55 58 76 bf 66 4e 32 08 18 26 b6 bf
       -0.005455335086277907 -0.08651876640424802
000310 37 da af c0 b8 3e b8 3f 80 b6 d1 f0 d5 a6 b3 bf
       0.09470705703993408 -0.0767644608437994
000320 3c f2 9a 6e a9 6f a5 bf f9 bf d1 91 f2 71 be bf
       -0.04186753726159906 -0.11892620143930789
000330 72 c0 6f b9 03 aa b0 bf 7a d1 ee 50 2f d2 a1 bf
       -0.06509421612986602 -0.03480670798254244
000340 ac 01 4c 89 70 12 59 bf 7d 7c b5 bc 83 47 a9 bf
       -0.0015302752482853994 -0.04937373808456245
000350 ef 0d 2e 60 8a ef a2 3f bf 66 3b a2 79 fd 89 bf
       0.036983799210272277 -0.012690496695927476
000360 da a4 63 76 0f 58 aa bf 49 3b 67 5e c0 59 92 bf
       -0.051453097535906614 -0.017920499574582114
000370 2e 7c 1e eb f9 73 8a 3f ad 3b fb 27 f4 4a c0 bf
       0.01291651963020798 -0.12728740646568096
000380 ed 52 5b ad 35 e0 9c 3f 14 d8 e2 21 41 df ba bf
       0.02819904203973327 -0.10496909215257261
000390 89 ba cb 92 57 ae 8c 3f 72 26 57 d6 d8 b2 b2 bf
       0.01400440613494182 -0.07304148896141685
0003a0 a9 d4 fa b2 b4 9d bc bf 21 01 5b 90 d6 e0 bd bf
       -0.11178140039085584 -0.11671200775436265
0003b0 32 53 06 0d 28 1d 89 3f 02 13 e3 9e dc ba 9c bf
       0.012262642762644303 -0.028056571195310027

weight f8 [1, 120]
000000 b4 ed 98 4b 89 24 a3 bf e6 7b 6c c5 00 fc d3 3f
       -0.037388124921985094 0.3122560432402096
000010 59 23 f3 e2 d6 a3 81 bf ce 4c ee c8 39 cf d2 bf
       -0.008613280106503462 -0.29389805433420413
000020 b1 92 3b 80 c8 5a d0 3f c6 9f af 0f 4a b3 ad 3f
       0.2555409672043352 0.05800849381904487
000030 56 5d bc bb f5 4a 75 bf 54 b5 63 48 d8 eb 94 bf
       -0.005198440452452621 -0.020430926721862377
000040 15 88 ee 80 92 cd 74 bf 96 c1 98 c1 e0 ea d9 3f
       -0.005078861503450956 0.40496081262519945
000050 42 58 5a 1f 0a f7 b6 bf 9e b7 39 0b 69 7b a1 3f
       -0.08970702424480329 0.03414467107800977
000060 1b 09 d9 b5 8a c3 cb 3f 6a b1 0e 13 79 ce a0 bf
       0.2169049632958114 -0.03282526357301914
000070 94 f3 bf 89 85 e7 90 bf 53 54 4a 0f 45 59 74 bf
       -0.016508184940892415 -0.004967946781694615
000080 09 e0 cc a2 74 84 d0 3f 46 7e 8a d5 24 92 48 bf
       0.2580844487997643 -0.0007498435835095539
000090 b4 90 63 0f ca 3d 5b bf 8b 46 f4 04 22 4d d2 3f
       -0.001662680935219857 0.28595781787689906
0000a0 4e 45 7b 83 ce 1c c8 3f 93 f8 40 d3 40 ed d4 3f
       0.18837911052700423 0.32698078756573884
0000b0 c0 63 9e 2f fb 49 e0 3f 12 af 28 3f ef dc da bf
       0.5090309076359674 -0.4197347752367345
0000c0 4f af 3e c9 23 f7 bd 3f 25 e8 cb 71 2f 02 b1 3f
       0.1170523039169755 0.06643959549174434
0000d0 db fb 71 5d 7b 59 cb 3f 75 53 7d 87 fa f0 ce 3f
       0.2136682707095748 0.24172908416462816
0000e0 66 37 0b 57 cf 74 cf bf 0a eb 3c 5a fd 5f bb bf
       -0.24575225591837152 -0.10693343594622831
0000f0 14 64 a0 22 aa 3a c5 3f 40 b7 2d 92 c6 5b a5 3f
       0.1658528012347068 0.04171581777960265
000100 60 fb c6 09 b7 35 4c 3f 19 64 04 d5 0d 7c e0 3f
       0.000860895513646525 0.5151433144084222
000110 46 de e1 30 73 52 ba 3f 7d de be 58 02 6f 7e bf
       0.10282058661857105 -0.007430085341119883
000120 81 2a d0 45 ac 6c d8 3f bf da 48 0d e7 cd 61 bf
       0.3816328698891667 -0.0021733772976192107
000130 46 34 16 d3 36 36 b6 3f 0c 3b f9 ca 01 70 6b bf
       0.08676474240765328 -0.0033493075386908985
000140 1e d5 18 dd d2 b6 cb 3f 7f c8 a6 f7 07 c4 a9 3f
       0.2165168361258702 0.05032372377481042
000150 b2 12 83 d7 83 2b cf 3f a7 04 71 7c cb ec bb 3f
       0.24351547263190337 0.10908195293542865
000160 11 09 b9 2a c3 52 59 bf 2b 60 0b 29 dc ec 7c 3f
       -0.0015456109930629995 0.007061824799812692
000170 cb b4 e0 6b ea 2d 65 bf 71 6a 59 10 67 fc d3 3f
       -0.0025853708784980604 0.3122804317151014
000180 ea b7 d2 d0 95 35 db 3f 3e dc 06 83 ed d7 d1 3f
       0.4251455821312208 0.27880418582521205
000190 29 04 4a c6 5d ce 67 bf c7 de 2d f5 b0 ef 44 bf
       -0.002906020310831998 -0.0006389249850675343
0001a0 52 33 2b 84 6c d1 cb 3f 7a d1 8e c4 07 29 16 3f
       0.2173286099772676 8.453473959841264e-05
0001b0 0f 9c f8 13 3d 57 6f bf 07 d2 6a e8 b8 31 80 bf
       -0.0038257782869268796 -0.007907337754070388
0001c0 09 fe 12 0a 8e 74 79 bf 3b cb 42 20 d4 3b d7 3f
       -0.0062146709835242476 0.3630266490028366
0001d0 9d 56 f8 08 22 d1 c0 3f c8 77 eb d7 be a3 61 bf
       0.13138223112098482 -0.0021532752428887504
0001e0 ca 54 20 de af 4b a3 bf 30 87 6d 8b 32 08 e7 3f
       -0.03768682085516557 0.7197506640625075
0001f0 21 fa bb 56 fd 18 96 3f dc 6c fe d5 1b d3 ba 3f
       0.02157970277675692 0.10478376364192193
000200 df d1 10 bc 22 37 f0 3f 9a d1 85 22 fe 68 c2 3f
       1.0134608599010944 0.14382912336044457
000210 a0 7b c0 bc e7 20 96 bf 8d f3 ad db 88 26 cc 3f
       -0.021609898467541577 0.21992598272836653
000220 9b 26 ed 26 ec 6b f0 3f 0e e8 e3 8d 2c d1 cb bf
       1.0263482590257016 -0.2173209851096662
000230 ba 0a 86 79 14 3c ad 3f 7c 66 1d 65 6f 07 c2 3f
       0.057098998865531894 0.14085190236328404
000240 eb 2f 0d cf 4c 78 b0 3f d4 e1 b8 ba 72 6f be bf
       0.06433563284843984 -0.11888806399009094
000250 3b 92 3e 76 c8 5b cf 3f 19 8f 80 af 65 6a c1 3f
       0.24498849652913343 0.13605948514406732
000260 dd d3 08 0b 0e db c8 3f df 9b 75 18 5d 55 ba bf
       0.19418502367776017 -0.1028650459971767
000270 ed 57 ca b5 7a e6 90 3f e2 8e 92 de 91 8d e1 3f
       0.0165042088943536 0.5485314700240134
000280 dd f7 de 7c 12 f8 e3 3f 29 e1 a8 a0 b1 ad d6 3f
       0.6240322531591534 0.3543514317457431
000290 86 7b f9 2f d6 0e a8 3f 41 28 81 ca e5 e5 e4 3f
       0.046988194805400105 0.6530636744657913
0002a0 44 e0 c0 fa 30 91 ca 3f 48 a4 fe 45 5d 50 d4 3f
       0.20755588764018473 0.3174050506154953
0002b0 2a e5 82 b3 d6 a2 da 3f 67 49 c1 53 2a 34 76 bf
       0.41618888407136245 -0.005420842495441703
0002c0 99 50 cc 38 ff 9f c2 bf 74 bd 2c 1c ab dc 98 bf
       -0.14550771973938906 -0.024279283136988863
0002d0 c9 cf f2 27 ec 44 91 bf dc 51 f8 c3 23 3d cc 3f
       -0.016864480913412003 0.22061583584640132
0002e0 b6 af 4d 16 6d 54 bf bf c9 53 df 22 75 91 74 bf
       -0.12238199038046002 -0.0050215316423036305
0002f0 51 00 42 5c f3 f6 aa 3f dc 55 af ed 2a 7d 92 bf
       0.052665333759251205 -0.018055601842055555
000300 91 26 7d b6 8e fd b8 3f 39 65 2c f5 7c 7c ac 3f
       0.0976189799813716 0.05563726895179361
000310 4a 54 e4 0d b5 c4 d0 bf b1 94 c1 b2 39 79 d0 3f
       -0.26200605732566784 0.25739901024492
000320 a2 3a fd 5e 0a 5c c7 3f 90 58 73 c9 a7 e3 65 bf
       0.18249635351317745 -0.0026720311248978404
000330 ed 87 3c 74 ae 35 ad 3f 44 10 bb b2 d2 09 ad bf
       0.057050182045955335 -0.0567155688454766
000340 8f 87 5b 3e 13 c4 69 3f 2d c1 07 1d 42 7a cf bf
       0.0031452537394764456 -0.2459185258626432
000350 90 29 3d 0b 65 a9 bd 3f 5d b0 d4 b1 db 27 c7 3f
       0.11586600803744873 0.18090387519021336
000360 4d 38 ec 3f 94 98 a1 bf 3d a1 4d f9 fe 53 cf bf
       -0.03436721115404904 -0.2447508542347893
000370 8c 25 f7 e7 e8 31 95 3f fb 2f 84 c3 29 dd c2 bf
       0.020698203237576915 -0.14737436339089513
000380 a9 8e 17 01 43 ff ce 3f 77 39 ae c0 8a e0 64 bf
       0.2421649699527866 -0.002548476220403713
000390 34 f2 f2 a1 f3 1c b5 3f d5 38 94 60 58 29 b1 3f
       0.08247301772912224 0.06703712804685165
0003a0 c1 27 92 bf b3 73 9b 3f ac 8f e5 0c 06 ee 5b 3f
       0.026808556144295673 0.0017046984754296264
0003b0 12 4c 51 6c fd 40 d2 3f 2e 7b 2f c6 e6 77 4b bf
       0.28521667077910806 -0.0008382679774248997

bias f8 [1]
000000 e0 16 17 ff 4d 6c eb bf
       -0.8569707853536919
