fine-tuned models/NO169_YBL081W.pth (torch, 3863 bytes, 6 tensors)

weight f8 [3, 26]
-0.2740576867927361 -0.12049505628429871 -0.43727710285859905 -0.16142904559164292 0.264180969768108 -0.08130066378829344 0.558585662136601 -0.31450712016591004
0.31267148198613437 0.3823303959437924 -0.3401345916955964 -0.0697198227290792 0.28467137001760084 0.16575033048749516 -0.3304577520794579 -0.11151196366982438
-0.35867145811422035 0.12451367801480406 0.10716204070400318 -0.12506642329455342 0.17577490723932782 0.12663867210927024 0.14228440950564847 0.2955312158483009
-0.33103297147384514 0.09608053399088917 0.7051802648667294 -0.2501172186941824 -0.03776839669069572 -0.3488071550662529 0.1408129905327975 -0.04458243808582349
-0.511702342131412 0.1472454670572841 0.05603437219538651 0.15343429086743612 0.06145233393141015 0.278289456954212 -0.12130823543340295 -0.07205434803337
-0.13054775192209683 0.004148148324636883 -0.13386225185370704 0.3349896534467848 -0.08728399542153115 -0.29874705347207536 0.13803545936377906 -0.24171539919637514
0.3526431724935297 0.21295059426659965 0.26129101841254443 -0.43900892329706825 0.18237709156226492 -0.24059243337987873 -0.060217133894125315 0.08017207109130144
-0.11649035413102962 -0.00921955444755477 -0.4936374584397855 -0.0371655280771353 0.10159516281757178 0.06902675394554701 -0.0795118862862155 0.41187660305705515
-0.1261235453638806 -0.13535501465867025 0.018938201921307567 -0.04266813569965304 0.18135257710906724 0.2906881528602249 -0.00256844903194423 -0.2009260183715823
0.18203727398996522 -0.11538763327013299 -0.04800078709106833 0.09117940003282902 -0.14931313619129327 -0.38401857086256186
00000000: 6a80 7f40 298a d1bf 2a1c 1296 c3d8 bebf
00000010: d34e 041a 59fc dbbf 8f65 b8fb b4a9 c4bf
00000020: 2e4b 584c 57e8 d03f c522 1dcc 1ed0 b4bf
00000030: c484 dc09 efdf e13f c130 de78 e220 d4bf
00000040: 5e6d 613f cf02 d43f b719 b6e8 1978 d83f
00000050: 9f89 e4e0 c3c4 d5bf a21a 8186 28d9 b1bf
00000060: af51 1544 0e38 d23f 9e5b 5f8c 4e37 c53f
00000070: 4905 7945 3826 d5bf 561b 134d 0c8c bcbf
00000080: 4dfd a621 79f4 d6bf 186f fade 20e0 bf3f
00000090: aa41 32b4 f86e bb3f bc5b f032 2d02 c0bf
000000a0: c271 06cb ca7f c63f 9f20 8f2d b235 c03f
000000b0: ec59 c722 6036 c23f 16ff c0c2 fbe9 d23f
000000c0: f42e 98ea a42f d5bf ece8 45df bb98 b83f
000000d0: 1c64 ec33 d690 e63f c34f 9da6 eb01 d0bf
000000e0: cac0 3719 6156 a3bf eeb3 e73e db52 d6bf
000000f0: 805c 98fa 2806 c23f dcee 1b63 82d3 a6bf
00000100: 6ab6 1797 dd5f e0bf 5b65 bf80 f0d8 c23f
00000110: 4ce9 0f88 89b0 ac3f cd27 ae1e bca3 c33f
00000120: 411e ff28 ae76 af3f fb27 1c95 7ecf d13f
00000130: df03 ec77 0e0e bfbf 5382 565c 2772 b2bf
00000140: 5a2e 89ea c9b5 c0bf 37d8 4a16 a6fd 703f
00000150: 14b7 f0f4 6522 c1bf 1e59 8371 7870 d53f
00000160: 7cb8 cc71 3e58 b6bf 6117 1cf6 ab1e d3bf
00000170: 35f0 d35b 25ab c13f 4e77 3ebb 87f0 cebf
00000180: 081d 41ab b491 d63f bff7 040f f741 cb3f
00000190: a281 b4f6 fdb8 d03f 1da3 0de2 b818 dcbf
000001a0: d956 e6ed 2158 c73f b60c 849c bbcb cebf
000001b0: c1de 77b9 c7d4 aebf 21c5 6327 2886 b43f
000001c0: a2cf 4ad5 4fd2 bdbf d500 b0a6 b3e1 82bf
000001d0: 8315 0591 c197 dfbf c87d 422f 5c07 a3bf
000001e0: 52b7 bbfd 2302 ba3f 07c3 bec2 bcab b13f
000001f0: d618 3e17 e45a b4bf 2d87 07af 2f5c da3f
00000200: d4f5 4bfb d024 c0bf db7f a728 5053 c1bf
00000210: fe96 9637 8964 933f e695 d20e 99d8 a5bf
00000220: 1348 ddad 8f36 c73f dba2 777b a29a d23f
00000230: 4a20 ff92 6d0a 65bf fc24 e99a f1b7 c9bf
00000240: 624e 3855 ff4c c73f 6610 423f 0b8a bdbf
00000250: 3b0f 7a25 8f93 a8bf 23bc 357d 8857 b73f
00000260: a403 675e b11c c3bf c053 baa0 c293 d8bf

bias f8 [3]
-0.10649661130525982 0.015226386177628929 0.0720327333413477
00000000: cbdf b0a6 5c43 bbbf 757c 5af5 022f 8f3f
00000010: bd4c f1b9 bc70 b23f

weight f8 [3, 3]
-3.88640831111047 1.8317377180303653 1.1322796106287527 -6.043582263427048 1.1891419736106559 0.920132437930325 -3.5189393047217683 1.7703077027920688
1.3741574709988982
00000000: fcf9 983d 5d17 0fc0 34a4 9c35 cc4e fd3f
00000010: ed3f 9939 d11d f23f 586b 30d4 a02c 18c0
00000020: ae56 efbb b906 f33f abc8 1c95 b971 ed3f
00000030: 9e1c 73a6 c926 0cc0 c894 752b 2e53 fc3f
00000040: cde8 578b 8cfc f53f

bias f8 [3]
0.44183636572698465 1.313399852541232 0.8118950946892919
00000000: f9c6 3e09 0c47 dc3f e5c5 5390 af03 f53f
00000010: 8925 ef6b 0bfb e93f

weight f8 [1, 3]
1.178959783381465 0.3591062109797829 0.9103372272786598
00000000: 1ec3 0eef 04dd f23f 94b6 fc9d 98fb d63f
00000010: fec7 6f89 7b21 ed3f

bias f8 [1]
-0.3836306641621892
00000000: 6d70 14a1 678d d8bf
