fine-tuned models/NO1884_YGL082W.pth (torch, 3671 bytes, 6 tensors)

weight f8 [3, 17]
000000 eb c2 d6 16 1e 23 c7 bf 0c 59 1e b4 8c 03 bf 3f
       -0.18075920214825855 0.12114791295457311
000010 72 ca 3a b5 e0 c2 c1 bf 03 5b d6 db ff 73 bc 3f
       -0.13875969742874222 0.11114501111147139
000020 1d f0 33 48 51 e5 bc 3f f1 f0 47 0a 4c d6 bc 3f
       0.11287410748258293 0.11264491320611449
000030 20 6e f2 94 bc 9e b5 3f 6e 45 a7 be 9c 85 c2 bf
       0.084453379024517 -0.14470252331970407
000040 4f 6d 19 53 de 85 c2 3f 03 3f 85 42 c8 6c e1 bf
       0.14471034104904354 -0.5445290850857137
000050 19 2f d8 db da 93 c3 bf d7 ba c4 8c 37 73 48 bf
       -0.15294967398255535 -0.0007461568107255079
000060 52 ff 08 53 9a 72 c7 3f 6b bb 34 21 cb 9f dd bf
       0.18318490080309374 -0.46287801974079085
000070 33 4e f6 46 df 58 d0 bf f0 26 e2 01 d8 be a7 bf
       -0.25542432718177394 -0.04637789748183063
000080 20 b3 aa b7 4c d8 d8 bf 44 80 29 33 0f 3a ce 3f
       -0.3882018846150448 0.23614683149480886
000090 08 35 ce 72 11 55 be 3f f5 53 b7 c7 b7 0e cc bf
       0.11848553707951137 -0.21919915439380558
0000a0 34 dd 5c 31 7c 9b c4 3f 18 c2 b6 b0 8b 59 b4 3f
       0.16099502954760114 0.07949135841659716
0000b0 35 ba 3a ee 89 ed a0 3f c6 e0 dd f2 76 16 a3 bf
       0.033062277155626076 -0.03728076662713557
0000c0 ca 56 42 2d 81 3d a9 bf c7 5f 99 9c 54 50 c6 3f
       -0.04929736783485124 0.174326492752469
0000d0 a1 61 87 17 23 a3 84 bf 33 ad eb a7 44 d6 cf bf
       -0.01007678428224851 -0.2487264461445676
0000e0 fe 03 6b 69 0a ca d0 bf ce a5 e5 59 b1 30 c8 bf
       -0.2623315839264818 -0.18898598565583175
0000f0 de 2b 2c 42 53 1d ca bf a3 b3 e9 86 28 1c a7 bf
       -0.2040199349506499 -0.045136705845698864
000100 dc b5 bf 1f 3c 8e 76 3f 99 21 0d be e2 6c ce bf
       0.005506739482354441 -0.23769792823646865
000110 da 54 a3 48 9b 35 c3 bf 64 15 0e f7 01 a8 c1 bf
       -0.15007344290521624 -0.13793968737824536
000120 26 06 f4 d7 8d 81 b5 3f a8 10 1b d1 ad b2 9f 3f
       0.08400808832450277 0.0309550436857228
000130 d4 0a 01 f7 4d 95 b5 bf b4 08 52 d1 25 ea a8 bf
       -0.08430945663807715 -0.04866140537434785
000140 2b 24 7d 7e 46 5b b9 bf 89 3a 03 8a 41 62 c2 bf
       -0.09904900158029821 -0.14362353552720133
000150 0a 02 dc 86 a7 e3 a6 bf 13 65 80 b1 dd 05 b5 bf
       -0.04470561524613366 -0.0821207578996062
000160 b2 8c 2c 2b 4d e8 71 3f fc 0a aa 64 d1 77 68 3f
       0.0043719305420239375 0.0029868211470910327
000170 e9 2f 52 f6 96 41 bc bf 4d 27 36 11 93 cb 85 bf
       -0.11037581933686592 -0.010642193758730345
000180 ae d3 82 af 69 22 bd bf b8 8e ad 42 98 9a c4 bf
       -0.1138063481801754 -0.16096785789260593
000190 60 77 66 2f c4 07 a6 3f
       0.04302800253502315

bias f8 [3]
000000 e1 1b b0 7c bb 18 cf bf 58 cd 29 0b 9f 3d c0 bf
       -0.24294227207448585 -0.12688053174097536
000010 5c 7e 13 60 3a 7d b4 bf
       -0.08003582807168058

weight f8 [3, 3]
000000 93 b8 ff 64 e9 88 ed 3f d1 ba 8c 32 60 78 f6 3f
       0.9229628536829914 1.4043886160467773
000010 2b 03 3a 9e e7 5d e6 3f 05 f1 68 e8 5d a7 f9 3f
       0.6989629831660741 1.6033610418808746
000020 e8 38 44 4f 39 28 fd 3f b1 57 6c 9e 12 38 f1 3f
       1.8223202797267337 1.076189631310154
000030 5f 01 2b 99 33 ed f6 3f 9c 43 c1 26 38 c8 ff 3f
       1.4329105361103627 1.9863816751351129
000040 8e 51 45 81 42 91 f3 3f
       1.2229638147010493

bias f8 [3]
000000 f6 c4 0f 0f 0c cf e1 3f ea d2 2a 5a cc f7 cc 3f
       0.556524304787813 0.2263122024793554
000010 a0 9e b2 85 cb a2 e9 3f
       0.8011224375995489

weight f8 [1, 3]
000000 d1 3e 8e 82 59 65 e6 3f 74 10 73 5b f4 c8 ee bf
       0.6998717832484208 -0.9620305811045129
000010 fe 3c 58 22 98 23 e4 3f
       0.6293450041574997

bias f8 [1]
000000 f2 24 e5 57 9a 5a e7 3f
       0.7298099247647356
