fine-tuned models/NO2210_YGR161C.pth (torch, 725527 bytes, 6 tensors)

weight f8 [258, 89]
0	0x3f6d734f6c2cc4b1	0.0035950232717359633
1	0x3f667d8f825e3690	0.002745418826583919
2	0xbf518784367f8a7a	-0.0010699072972718813
3	0x3f670efb22a5c4ee	0.0028147606837413052
4	0x3f6d465ecf44a2f3	0.00357359426029224
5	0x3f646f372ddcb52f	0.0024944379537347387
6	0x3f7ae43f502b082a	0.006565329854028726
7	0x3f628fc7ff713808	0.0022658258635948093
8	0x3f6dfd74850ab1a1	0.003660895898369002
9	0x3f6b0f4d14c6503c	0.003303194569705096
10	0x3f6b6c746322fe00	0.00334761363873759
11	0x3f6aeb28b475b36a	0.003285960676001333
12	0x3f5d1a32e632763d	0.0017762658178876033
13	0x3f74cce773c4826e	0.005078224287246342
14	0x3f923763c26423ed	0.01778941987962306
15	0x3f6751dca0523669	0.002846651945737123
16	0x3f69f104d11954c6	0.003166684539602646
17	0x3f71b5052088e4c7	0.004323024776163815
18	0x3f69aefd8b09e7a3	0.0031351997388897198
19	0x3f686ebb893e0d81	0.0029824889006150883
20	0x3f64b7771488639b	0.0025288892541194936
21	0x3f6531de6640981f	0.0025872558344586373
22	0x3f6f98eab62b0308	0.003857096119958551
23	0x3f6697344ca0cc68	0.0027576467009793777
24	0x3f66a5cca2a3a5a0	0.002764606169070219
25	0x3f72a369fdb0b1b1	0.004550375010734007
26	0x3f61ef8e22f09bca	0.002189424143142803
27	0x3f66e234e6c74e84	0.0027934106094365547
28	0x3f6b0dab55671146	0.00330241645426291
29	0x3f6d09ba9ca0a857	0.003544678188537136
30	0xbf6563a9ed1ab1b5	-0.002610999953352978
31	0x3f646ddbe45cdc74	0.0024937910810894307
32	0x3f725632dc299c60	0.004476736709512513
33	0x3f673f1fbfd91126	0.002837717066343742
34	0xbf78fa90aadfab78	-0.006098332507444286
35	0x3f6792b8373f9845	0.0028775785412902565
36	0x3f674ed9a8516215	0.002845215904511154
37	0x3f6fa7499bc23cc2	0.003863948599309803
38	0x3f7130829af4b6a8	0.004196653534831597
39	0x3f608f07e211c231	0.002021327397010241
40	0x3f668a498b70b24e	0.0027514873904890607
41	0x3f63dfed554550b7	0.002426112691106121
42	0x3f6d356d8342c366	0.0035655154152540057
43	0x3f7278eb3350bde3	0.004509848357926202
44	0x3f7266acfa05a13a	0.004492450418503597
45	0x3f72a02b5dda82e9	0.004547280693856883
46	0xbf55bdeabbb56882	-0.0013270180050626583
47	0x3f3442a0ae3c1e88	0.00030914709917382504
48	0x3f6cc593b485ee3a	0.003512180792481859
49	0x3f7324984177336f	0.0046735713471662685
50	0x3f8f21c5705f872d	0.015201132289749697
51	0x3f6849fd3f436480	0.0029649683220723255
52	0x3f65d280fd0197f1	0.002663852625164325
53	0xbf585728f958bf74	-0.0014856243264027265
54	0x3f63413e9f3992c8	0.0023504469952960495
55	0x3f6e6a2a9a5bcaa3	0.0037127334679721443
56	0x3f6da6da13bff4ce	0.003619600231103171
57	0x3f72a9e6464b405c	0.0045565600491529155
58	0x3f6d31cf11afaefa	0.003563789779482349
59	0xbf9d47edba28af30	-0.02859469841693779
60	0x3f67e8c7c440ed83	0.002918615502520873
61	0x3f62637db627cb7c	0.002244706659661087
62	0x3f64948b23d383ca	0.0025122373177599343
63	0x3f6507cae1e51550	0.0025671923205289673
64	0x3f67a5a2e89bc4ba	0.0028865987595670635
65	0x3f66a6c3db8bbc65	0.00276506665647207
66	0x3f61fad992231e6b	0.002194809859336113
67	0x3f680191d4fd6315	0.0029304359704095486
68	0x3f5f3ef9b6403a73	0.0019071043580002583
69	0x3f5c44712e4f1aa3	0.001725302246300999
70	0xbf73c2211d47654a	-0.004823808053026577
71	0x3f6169614c0a971d	0.0021254444439645762
72	0x3f67cb1ec95ebdbb	0.0029044724751298968
73	0x3f67dd47092d0ba1	0.0029131305140323725
74	0x3f6c14aa8a5a8789	0.003427823149494584
75	0x3f7f5f6cfb5923e8	0.007659364424008587
76	0x3f67b2f4f9917e23	0.0028929505029251664
77	0x3f6acdfdbe58f872	0.003272052376615036
78	0x3f71653e3136e6aa	0.004246943415120144
79	0x3f65f92007537ff8	0.002682268672842266
80	0x3f5b268176a4997c	0.0016571296969885843
81	0x3f686d9cd03a92fb	0.0029819548379513817
82	0x3f6a0efdf73f05ce	0.003180976893390342
83	0x3f689295c77551fa	0.002999584710474898
84	0x3f64d092270eb794	0.00254086060927867
85	0x3f67468d42e7d0d7	0.0028412589083420636
86	0x3f71144dcbbf15b7	0.004169753923581813
87	0x3f62b9e8389fd5fc	0.002285913044938635
88	0x3f609ebe07cb911c	0.0020288192302918683
89	0xbf83ece3b77edf00	-0.009729174649563799
90	0xbf89a5018d2ee6cf	-0.012521755333966848
91	0xbf90a7fc2a809de8	-0.016265812009946062
92	0xbf8806aa1e7a803b	-0.011731461577540006
93	0xbf87392a36b31cb6	-0.011339502138424922
94	0xbf87bf2e08518a43	-0.011595115307675324
95	0xbf7f3bba8582d08d	-0.00762532100650416
96	0xbf8215a64de0b946	-0.008830355884211227
97	0xbf8885e3a777f07a	-0.011974123523934777
98	0xbf765bf8d5c74e56	-0.005458805095674165
99	0xbf88bca5d5e20c62	-0.012078567113581854
100	0xbf8984f045bc03fb	-0.012460591438413706
101	0xbf816a3139af36c9	-0.008503326962365236
102	0xbf88aca1b73b9c9b	-0.012048018841097899
103	0xbf8d5aa242d02a8d	-0.014333026565528395
104	0xbf878bd1ee1ff181	-0.011497154311648885
105	0xbf88ce4a24132762	-0.012112216211238983
106	0xbf874aad608512d7	-0.011372904308367833
107	0xbf85c4dc9b25cb0a	-0.010629390225152874
108	0xbf90d5c5593c6482	-0.016440471240546824
109	0xbf8a3d81a7f4af3e	-0.012812626779655664
110	0xbf98840a0f1cbb3c	-0.023941189930322113
111	0xbf8634a2efccbf50	-0.010842583602055506
112	0xbf815ae075698609	-0.008474114974151641
113	0xbf8cb7197ce882af	-0.014021109699627969
114	0xbf858748024778bd	-0.010511934823565711
115	0xbf8807525af529ac	-0.011732715035255158
116	0xbf8316945a8c9d5f	-0.009320410741181005
117	0xbf775559547e4420	-0.005696629472269371
118	0xbf87bb70cff70e43	-0.01158798346194268
119	0xbf8b5d3e972465b4	-0.013361443507664862
120	0xbf841c59a67e230a	-0.009819698708967834
121	0xbf8332bb8464c775	-0.00937410829337513
122	0xbf8e9d723cd16ce3	-0.014948742371578344
123	0xbf9ce3e350dcca41	-0.028213073549702598
124	0xbf89889aae56e3dd	-0.012467583127419185
125	0xbf8b843bb17748be	-0.013435808518725497
126	0xbf873e1422021485	-0.011348874366613035
127	0xbf84cd535395d368	-0.010157252300567257
128	0xbf7b72c2968a187f	-0.006701240644025329
129	0xbf8bf39fc9fd7250	-0.013648269988771805
130	0xbf8d118097d765a7	-0.01419353927024043
131	0xbf87a51b672b4171	-0.011545385442702312
132	0xbf89a81b68606b12	-0.01252767002374847
133	0xbf8c0981b5662dd6	-0.013690007542002041
134	0xbf84ec52823c99f7	-0.010216374015340242
135	0xbf8f07ee58e83430	-0.015151846016147358
136	0xbf76a68ffab3b75e	-0.005529940051230612
137	0xbf839aa66974da34	-0.009572315305018987
138	0xbf87d545ea8e7de5	-0.011637254925346016
139	0xbf8034b8439fe566	-0.007913055003870805
140	0xbf833601614fd040	-0.009380350858897768
141	0xbf89f5e8a7cda835	-0.012676065083457736
142	0xbf8b8270e4b3c45b	-0.013432390193402968
143	0xbf865950a5080630	-0.010912542377812334
144	0xbf847ef504ceb705	-0.010007776459896709
145	0xbf8b25efcdf45f6d	-0.013255952332243937
146	0xbf871f096b870d07	-0.011289666742305927
147	0xbf83834413aeb876	-0.009527713633215234
148	0xbfa6dd24d931cc97	-0.04465594435978309
149	0xbf8083fc9cc74da6	-0.008064244780064577
150	0xbf8a0c4af076944c	-0.012718759024958136
151	0xbf895ed12374f6fc	-0.012387880224760554
152	0xbf884285b51e5a22	-0.01184563120822896
153	0xbf8709a26a495340	-0.011248844975094152
154	0xbf86873d1d2fd1a4	-0.011000134900293564
155	0xbf852dbd75382157	-0.010341148509738813
156	0xbf7b914e428e0dd8	-0.006730371192023431
157	0xbf7c660573b954d4	-0.006933232590730049
158	0xbf8521a4fd30318c	-0.010318078018848785
159	0xbf6c8c7501a250bc	-0.0034849438935201354
160	0xbf8614cbf8a32259	-0.010781854176813587
161	0xbf880518493784ef	-0.011728467687989822
162	0xbf860bb318e7cfee	-0.010764502713733717
163	0xbf8590a2bb801073	-0.010529776904157217
164	0xbf85e075d2d12d46	-0.01068203019726489
165	0xbf83b74cc7ab38b4	-0.009626960605057945
166	0xbf81b15653c234be	-0.008639025145635745
167	0xbf846bf96797cb7a	-0.009971569513231183
168	0xbf820546c32da35d	-0.008799126464241242
169	0xbf8a10e64099ee1d	-0.012727545591807271
170	0xbf876615ab29a61b	-0.011425179754229344
171	0xbf87c00badcbf174	-0.01159676670203489
172	0xbf8198adbea90579	-0.00859199274157406
173	0xbf9289f95c6aa561	-0.018104454293881193
174	0xbf84aec7f818fca9	-0.010098993548238804
175	0xbf84d8ddb699bb75	-0.010179264197373897
176	0xbf887a5e73a4d16d	-0.011952150253457383
177	0xbf864a4905627bbd	-0.010883875347927114
178	0xbfadec95f29acd25	-0.05844563089831415
179	0xbfb064e87fde8b6a	-0.06403973695573276
180	0x3fbcc4e701877776	0.11237949168522995
181	0xbfad49f0d70fefe5	-0.05720474839469584
182	0xbfa35eeed8c75d63	-0.0378336562750359
183	0xbf9a9cabc2d3eba1	-0.02598827721247299
184	0x3fc25636ead2eeea	0.14325605836881233
185	0xbfb060726bd00076	-0.0639716637815598
186	0xbfc78c6b031ce20b	-0.18397271778100363
187	0x3f94074b1f6b513b	0.019559072296787532
188	0xbf99fbf29b979a85	-0.025375166651338894
189	0xbf965d7404693471	-0.021840870637153068
190	0xbfbaa3a92d27eddb	-0.10405976631584883
191	0xbf906288341298ba	-0.016000869920980355
192	0xbfae7d0865af8317	-0.059547674572746505
193	0x3fbf6eb6d556dc4c	0.12278311451415042
194	0xbfa08cd3a44a52e2	-0.03232442265031012
195	0x3fa13f8497c45113	0.03368772843001202
196	0x3fbc0c509aff0698	0.10956290992819573
197	0xbf839e1e779077e1	-0.009578931831182249
198	0xbf6d35ceee1da0f9	-0.0035656968693055205
199	0xbfa09ee0ad89eeb4	-0.03246214025872743
200	0x3f9197cc93231912	0.01718063018849942
201	0xbfb1ed3fafd70496	-0.07002637904135364
202	0xbfb35cbcd9e0641a	-0.07563381499529989
203	0xbfa814311ea04e8d	-0.04702905176978076
204	0x3fa0effbf843b6d6	0.03308093457768073
205	0xbfae5e48390c0da0	-0.05931306549430393
206	0xbfbdc1587262614f	-0.1162314681299723
207	0xbfa45a237d3f62d5	-0.03975020316983594
208	0x3fc7f4d82ac78e56	0.18715955818980728
209	0xbfaede4daf275990	-0.060289790755336914
210	0xbfbde754667d0cec	-0.11681106092605703
211	0xbfaa4e4cc75caa34	-0.051378630958727106
212	0x3f9b9f397f8b8e7d	0.026974581155526856
213	0xbf9fe1580f8260f0	-0.031133056589710273
214	0xbfa92bf3a56f8e49	-0.04916345018844177
215	0xbfa005f03fd49240	-0.0312953069608608
216	0xbfc867756968fc4c	-0.19065730711915518
217	0x3fbdc80df119ee28	0.11633383880865067
218	0x3f9ab8294bebb7a6	0.026093144663654443
219	0xbfa26806d0d74c4a	-0.03594991015747746
220	0xbf89e0166be12e7b	-0.012634444396233171
221	0xbfa1a38794a6bb9b	-0.034450756927405034
222	0xbfb0489e3f5792b0	-0.06360806509435224
223	0xbf811c5c9b7c9434	-0.008354876990390371
224	0xbf5190c50f8cbaee	-0.0010721134587574027
225	0xbfc8b45e97956324	-0.19300444032230601
226	0xbf68f7ac72398d7b	-0.0030477874841367525
227	0xbfb1876ff3046084	-0.06847285922083485
228	0x3fbcd145f43bbcc7	0.11256825649955991
229	0xbfaab5f06d96fae3	-0.05216933572545714
230	0xbf8b63b10e309f00	-0.013373740430395298
231	0xbfb0d6346f3c526b	-0.06576850619996726
232	0xbfaf4da7b316ecf9	-0.06113933621551299
233	0xbfb435140ceb60e5	-0.07893491092125123
234	0xbfc6eb94e7fa85f3	-0.179064381857685
235	0x3fa550f265ad4624	0.04163320056126121
236	0xbfb830252012e8a6	-0.09448463471463472
237	0x3fb7c3a15417b1fc	0.09282882979432111
238	0xbfb2d146730b1d96	-0.07350578602483035
239	0xbfa6d16bcffdc152	-0.04456650651889284
240	0xbfa2d4595ac4db42	-0.03677634461421643
241	0xbfa6f50e4d583c35	-0.044838377896774174
242	0xbfa323117311cc4c	-0.03737692384392996
243	0xbfa50d17529757b7	-0.04111550219720022
244	0xbf982b9a38a6bf78	-0.023603830058788827
245	0xbfb5f663cc2acc22	-0.08579086050558307
246	0xbfb606ccbeaf0859	-0.0860412564789227
247	0x3fa736870358d676	0.04533788600785453
248	0x3fc503328ba24031	0.16416007822090387
249	0xbf91c2d2a85b7f6d	-0.017344752813073173
250	0xbfa316d951227ed6	-0.037283698228973414
251	0xbfa647f0913048ad	-0.04351760647127043
252	0x3f6959ef802bdbcb	0.0030946424243398544
253	0x3fb449102c8c0351	0.07923985564776827
254	0xbfab2dc13ca76602	-0.053083456663170395
255	0x3fb1f83ed33810df	0.07019417435373353

bias f8 [258]
0	0x3f67994fec4de7e7	0.0028807221410120823
1	0xbf83557907d2c653	-0.009440370131730413
2	0xbfac1623e0a2aa9d	-0.0548564159119753
3	0x3f8182793859901b	0.008549639732514483
4	0xbfa508af8b7b52ab	-0.04108189180047835
5	0x3f80ce9c2614771f	0.00820657721720469
6	0x3f852bb44ade3acf	0.010337265524666432
7	0xbf9b5ee49feac892	-0.026729175816122615
8	0xbf888dcef3d463e7	-0.011989228073206305
9	0x3f9099d176a79be3	0.016211769930943986
10	0x3f8f1c17e9a20f24	0.015190302674688967
11	0xbfa16815ca7eafb8	-0.033997231453525456
12	0x3f87a4d5e101060e	0.011544867447926623
13	0x3f91b07ba8f84ea9	0.017274791896922412
14	0x3f900874164c84e0	0.015657247410790442
15	0xbf8109f0d5be8987	-0.008319741747816035
16	0x3f7febe0b1bb8675	0.007793309890730894
17	0xbfa22453cdd5e029	-0.03543340575828353
18	0x3f878f7b7e5f89ed	0.011504139703849748
19	0x3f60f1d0c7f98d61	0.0020684316403262602
20	0xbf8a4ad7af8f018a	-0.012838063283084695
21	0xbf9cc4a971659874	-0.02809395556087009
22	0xbf7131069b7fe605	-0.004197145281062746
23	0x3f89f5ed109071c4	0.012676097934723247
24	0xbfb6967c01203b59	-0.08823370959747247
25	0xbf9d4aff2343218e	-0.028606401946292652
26	0x3f93be59eac19bcc	0.01928081984842915
27	0xbf9fc0f5355cf56d	-0.03100951326563488
28	0x3f74c1346f2f7177	0.0050670669761213516
29	0xbfa1ee4a622c6a90	-0.035021137699193905
30	0xbf3ec9f80321fd9b	-0.0004698019503237228
31	0x3f88f8569fe400b7	0.012192417864298795
32	0xbf840d870623976e	-0.009791426539276418
33	0x3f7e1d5f136db5c6	0.007352229490476819
34	0x3f7fbf02f6eabad8	0.0077505222131281845
35	0x3f8c9f34cc95835b	0.013975536816987313
36	0xbf96186ab18ac120	-0.021577517591766626
37	0xbf947df26c4dca89	-0.020011699543327075
38	0x3f89b8447eaa67bc	0.012558493724373558
39	0x3f9094a8f64ed918	0.016192092927405616
40	0x3f882f46788001d5	0.011808920433396356
41	0xbf74137e8f3fcc63	-0.004901403783139721
42	0x3f8cba184b1f46f7	0.014026822845980542
43	0x3f8b65578adaf07f	0.01337688820364513
44	0xbf850be94c15e7e3	-0.010276625284621537
45	0xbf7b3007dda030d5	-0.006637602544298645
46	0xbf8019d02abbfc74	-0.007861734680316902
47	0xbfa103736e18bae7	-0.03322945326759968
48	0x3f8ce376719a58f6	0.014105725614438996
49	0x3f8931dc303a7da1	0.012302131864372625
50	0x3f908446602eb4b6	0.01612958871890121
51	0x3f86d9f3716c0deb	0.011157895945422566
52	0x3f8aafd900e5d2a9	0.013030715312859558
53	0xbf86064ea414a5d7	-0.010754217512459014
54	0xbf735e18fec7f7cd	-0.004728410375262682
55	0x3f826a80cdcc4426	0.008992201118902154
56	0x3f709f929c101041	0.004058430379704049
57	0x3f90a4f3ff71ccad	0.016254246202561152
58	0xbfa162632a97f943	-0.033953761052532026
59	0x3f85b9d410516d1c	0.010608345745075236
60	0x3f802cd85edff36a	0.00789803542647301
61	0xbf9d217dba325e43	-0.02844807099299219
62	0xbf9f0626335fbc7a	-0.030296894918077723
63	0x3f87832e8c351625	0.011480678228177396
64	0xbf971557aad67788	-0.022542352487668477
65	0xbf604d2b4acc4371	-0.0019899220991494372
66	0xbf8be1e4263d0e66	-0.01361444703764576
67	0x3f8f1b5ad5dd3ff6	0.015188893939608743
68	0xbf71771397c00152	-0.004263950857421444
69	0x3f8d33f2ac180e25	0.014259239079371497
70	0x3f8bedc4329e9d0b	0.013637097162997344
71	0x3f8a365e2b1fe18e	0.012799010935837154
72	0x3f8f8f6ccff63f76	0.015410280319684704
73	0x3f8a4be5d6f9a13a	0.012840076087016972
74	0x3f893f00621b49d0	0.012327197069144896
75	0x3f8f6c0321eef06d	0.015342735741676184
76	0x3f90b5fb9724597d	0.016319209194159513
77	0x3f92aecd827db6a4	0.018244944657843334
78	0xbf9c763d2ed2b1db	-0.027794795973635416
79	0x3f84df2e8ec309a7	0.01019131062674179
80	0x3f838df7d0000dca	0.009548126254236861
81	0xbf8165d8000c08d7	-0.008495032788691166
82	0xbf977ab3e8b3b712	-0.022929011419299768
83	0xbf76e6653b6c4c98	-0.005590815961812677
84	0x3f73845e17790f99	0.004764907403629248
85	0xbf910726ba79b282	-0.016628842479280433
86	0x3f84f76edc2aa9f4	0.010237566083863371
87	0x3f75cd2acb987e5e	0.005322615784762867
88	0xbf905a99535ad648	-0.015970607483458715
89	0x3f86f33e3b60e12a	0.011206136881910373
90	0x3f8a2726581725cc	0.012769984782511033
91	0x3f752be7841164d4	0.00516882358450595
92	0x3f7c6ce85fa9d26e	0.006939799985606327
93	0x3f82677ed36d2772	0.008986464335652509
94	0xbf851275b421fb82	-0.010289115485873305
95	0xbfa19c9f80f7b99d	-0.03439806412994815
96	0x3f8875c24c1a6b82	0.011943357417569581
97	0x3f2353bbf8a74cad	0.000147453971591637
98	0x3f891aff2f3234e0	0.012258523586093195
99	0x3f90da0e0ab0f480	0.0164568132424745
100	0x3f8b91070678884e	0.013460211644147926
101	0xbf8931c1961bd5a7	-0.012301933663802013
102	0xbf4a2b3d0aae3230	-0.0007986114554668407
103	0xbf51e6da6a841771	-0.0010926373452675132
104	0x3f8a55ffcf495bdf	0.01285934306467412
105	0xbf9e56c3b21b333e	-0.029627855058424794
106	0xbf6764122772c260	-0.0028553347179570004
107	0xbf5bc9e1edc3df1f	-0.0016960817657131822
108	0x3f8254217e356d0c	0.008949529327472415
109	0x3f935cf3f352c7ab	0.01890927479389119
110	0x3f890be88077f1df	0.012229744358585868
111	0x3f820bd26438b214	0.008811610873714883
112	0xbf594cd69c41201c	-0.0015441985897428684
113	0xbfb079af505969f5	-0.06435676299717115
114	0xbf84363512491a00	-0.009869017239123146
115	0x3f7b2b60b33cd586	0.006633165106724964
116	0xbf67a3412b07a1ee	-0.0028854630293049166
117	0x3f8d1d48605bb6fb	0.014216008606549027
118	0x3f55456e27a34aed	0.0012982917528929175
119	0xbf71a0f94ac33827	-0.004303907200847979
120	0x3f87c5cbc3ea0a22	0.011607734600379397
121	0x3f83fea69c226948	0.009763051643223122
122	0xbf692be75956d6bf	-0.003072692731360543
123	0x3f809b17bc38b49f	0.008108315879406467
124	0xbf54930947aefd34	-0.0012557592988143408
125	0x3f8be72d32ba192b	0.013624528036655
126	0xbf7c1ccbb125f2c2	-0.006863399192636068
127	0x3f92d3a6ba9babb7	0.018385510577825417
128	0xbf9f767c7cf32c12	-0.030725426794372686
129	0x3f847ee167fb7fd5	0.010007630334655385
130	0x3f8a65bdb890286f	0.012889368243140546
131	0x3f9021a8b756fb73	0.015753399076625606
132	0xbf7dfaa5c83834cf	-0.007319114290578812
133	0x3f743c3e8c789224	0.004940265971104672
134	0xbf8467b774e847dc	-0.009963448767880516
135	0x3f93f53e655f9529	0.019490218102778876
136	0x3f91675cd38ac8f9	0.01699585953856173
137	0x3f894d6d888338f7	0.012354713181050843
138	0x3f8caf5f9e844b30	0.01400637342934416
139	0xbf9c6cbd993f459a	-0.027758562544311617
140	0xbf70dc8dd491445b	-0.00411658670880496
141	0xbfa2e07dde805b9a	-0.036868985567870285
142	0x3f26dc94a5ec25bc	0.0001744204955332183
143	0xbf94f94f61ceea71	-0.02048229250406525
144	0x3f7f0bba323e8d7a	0.00757954342762745
145	0x3f8a678fc4e6bff0	0.012892840572789027
146	0x3f8aaced01ced035	0.013025142305061002
147	0xbfa2704df30604db	-0.036013065257984166
148	0x3f85fba30271fd7a	0.010733865272640076
149	0xbf8af84e6617a755	-0.013168919077503874
150	0x3f8a94204e434c92	0.01297784079398515
151	0x3f8ebe19c99ed792	0.015011025872677473
152	0x3f69fd03e063567f	0.003172404834098696
153	0xbf9c0dc55959fce6	-0.02739628179415101
154	0x3f89f42ff7b2a1f9	0.012672781702648616
155	0x3f7ba9f03344cd5e	0.006753862650202917
156	0x3f8c15ca34235adb	0.013713435855988212
157	0x3f7a78586f573aba	0.006462426613736022
158	0xbf9fe5847e0897c6	-0.03114897746322478
159	0x3f91524c96b4892d	0.016915508936230218
160	0x3f940d9eeb7153d3	0.019583209152489744
161	0x3f7642eebf5f6542	0.005434925658812264
162	0xbf967bf2a1f8e7e7	-0.021957198272708835
163	0xbfa260bb832d9e99	-0.035894260180439015
164	0x3f7aa791f38bfc6e	0.006507463572005807
165	0x3f7508f9c53c82b7	0.005135512986982497
166	0x3f50d7145c792a5f	0.001027841457374244
167	0x3f7229887e1e6c2f	0.00443414037172389
168	0x3f81d1ed496df0be	0.008701185038937683
169	0x3f758d3fe3e6def9	0.005261659213310337
170	0xbf925dcd8ab19045	-0.017935954656778347
171	0xbfae51ede4a2c3f9	-0.0592188207241477
172	0xbf9364ab6b6910a1	-0.01893871157723537
173	0x3f0272546e31e123	3.518409882813575e-05
174	0x3f80a65bf011f2d7	0.008129804862841023
175	0xbfa111bea810defe	-0.03333850671373105
176	0x3f87393f4d7b4fb4	0.01133965926366174
177	0xbf9bd5595630a0aa	-0.02718104923783985
178	0xbf686d175e64a97f	-0.0029817062778835775
179	0xbf577bd06766b0df	-0.0014333281702461548
180	0xbf9fbd682b6fe8e6	-0.030995967532342038
181	0x3f90ff03fd992f6c	0.01659780726758646
182	0xbf809667ea5f95d6	-0.008099376525886475
183	0xbf9ebe30a7c8faa8	-0.03002239250258279
184	0x3f8868b24054426a	0.01191844233338309
185	0x3f8a20c14c838f32	0.012757787845152888
186	0xbf96f4870dc7180b	-0.022417173591541977
187	0x3f907e280be3cc67	0.016106248593996144
188	0xbf9aa38c45d000ec	-0.02601451088048716
189	0xbf91af21ac0fd826	-0.017269636275124033
190	0x3f6aa45c701b1f53	0.0032522015979771584
191	0xbf6a9e77da9839ab	-0.0032493916412541144
192	0xbfa24c8c9e31f9f2	-0.03574027472585674
193	0xbf833d235175906f	-0.009393955157698223
194	0xbf43e825d6323309	-0.0006075081586388319
195	0xbf46993c20982e56	-0.00068965373901748
196	0xbfa1548677ccc6dc	-0.03384800159836995
197	0xbfb7435f32202792	-0.09087176297921776
198	0xbf7f5a68201e215d	-0.0076545779610416005
199	0xbf6efe8fb719ec8f	-0.003783493703676983
200	0xbf74b6b6736d711d	-0.005057060908111558
201	0x3f930531954bc594	0.01857449983339661
202	0xbf994dde44a850a6	-0.02471110624362951
203	0x3f8ad40c546593d8	0.013099762273393198
204	0x3f7017154002a5d2	0.003928263671846692
205	0x3f8c6045aa22fb8e	0.01385549951043943
206	0xbf698de3841f6ff1	-0.003119415633575422
207	0x3f90dc29730a6a7b	0.016464851042295763
208	0x3f835799dbc469ab	0.009444429415954433
209	0x3f84459a252e79b4	0.009898380527201357
210	0x3f93ce5134c60596	0.019341725202598768
211	0xbf82b72d12efa573	-0.009138443127045126
212	0x3f71aa0dcd08759f	0.004312566671186429
213	0x3f925c927a0852b5	0.01793125982119888
214	0x3f859405dab7ff7d	0.010536237466112425
215	0x3f29669dfe91106b	0.00019379309313383454
216	0x3f789e071ab08df4	0.006010082007410034
217	0x3f903b8c9faefdba	0.015852162596045473
218	0x3f93665ccd9abd20	0.018945169495677594
219	0xbfb3ff5eb6cc1a38	-0.0781153866083536
220	0x3f856377f9bf62d2	0.010443627652351326
221	0x3f87721b16747482	0.011448108313340425
222	0xbfa1bcaa2aed31dd	-0.03464252256398812
223	0xbfa185590b403bd2	-0.03422048818912739
224	0xbf6fe7d4a58ea742	-0.0038947251564040173
225	0x3f845a3ae8cffcee	0.009937725286361911
226	0x3f723a5f5cc02aaa	0.004450199612629527
227	0x3f90437607bec1e7	0.015882343504644594
228	0xbfa3d4a5ae874df1	-0.03873174434161431
229	0xbf7b6aa8796f3b98	-0.006693513968413799
230	0xbf96608755ef771b	-0.021852602596360442
231	0x3f82114847218f46	0.008822025938748045
232	0xbf947666668b4208	-0.019982910164630524
233	0x3f729d31b1ba8493	0.004544443243191715
234	0x3f92df08ba5dbda6	0.01842893254746305
235	0x3f7f2b830992ee83	0.007609855522953904
236	0x3f8dbf7fa12fee7f	0.014525410753768895
237	0x3f8c2e983e75002c	0.013760747343099032
238	0x3fa011e848452b88	0.03138662225918326
239	0x3f64771911da2d68	0.002498196567847156
240	0xbf9bd4f8a692bd2d	-0.027179608504124864
241	0x3f90db9ce0db06c4	0.016462756370635004
242	0xbf51a23e35e80ce3	-0.0010762794041745897
243	0xbf90ea0ed9354679	-0.01651786041958878
244	0xbf7e09e866800183	-0.007333667577768546
245	0x3f8d58df2d5dc0de	0.01432966572949151
246	0x3f885b915d2adee7	0.01189340177130256
247	0x3f846e9e99df7414	0.009976615019633463
248	0x3f7b5159471bf308	0.006669377080240187
249	0x3f6962436e46fb57	0.0030986134536016663
250	0xbf9e93b28202d2e0	-0.02986029547237734
251	0x3f7670924bd3140b	0.005478450269213129
252	0x3f83bd2b4d0c3dd9	0.009638155258953883
253	0xbfa1ca383ba9d10e	-0.03474593857109386
254	0xbfa53b4741487ab5	-0.041467882842188976
255	0x3f916b5c3e9764e4	0.01701110965754972

weight f8 [258, 258]
0	0x3f9f1aacca469799	0.0303751944026299
1	0x3fbad15e8df0191f	0.10475722279816012
2	0x3fb6aadbbc0f2b52	0.08854459134378814
3	0x3fb5958cecbd8b77	0.08431320934100293
4	0xbf8c628602f05d30	-0.013859793629349498
5	0x3fb6accf3f084701	0.08857436455607727
6	0x3fba655f792d61f0	0.10310932835034925
7	0x3fb5f987cf61f6a8	0.0858387833886477
8	0x3f9be8d0626425a4	0.02725530243427489
9	0x3fa2b96b1b83eb04	0.0365708800399798
10	0x3fbd5ff8c61cbfca	0.11474566303945646
11	0x3faa2476124ab6ea	0.051059427006618766
12	0x3fbb11a4f202adda	0.10573798092325806
13	0x3fafab2e68909b67	0.06185288454462672
14	0x3f8600ff45692e7b	0.010744089418174277
15	0x3f8cf34dc3eed0f7	0.014135940114876606
16	0x3fbd254941092aba	0.11385019147671019
17	0x3f7e86cb566cf4ea	0.007452768599987206
18	0x3fa003d9d2400efe	0.031279379763899925
19	0x3fb8014ca10035b1	0.09376982622798981
20	0xbf8afc700d670557	-0.013176799210557517
21	0x3fb435d618352114	0.07894647685055062
22	0x3fa63d00c7d3418a	0.043434166329123405
23	0x3fa514e81401a858	0.04117512935847917
24	0x3f9b055fdf139ad0	0.026387689581407525
25	0xbfed6712ab080f81	-0.9188321438273165
26	0x3fa08385ecaf0914	0.03225344194608418
27	0x3fac6c1845fac279	0.0555121980118018
28	0x3f908902548bf906	0.016147648248982648
29	0x3f961a2e49f87219	0.021584246887970424
30	0x3fa40a680cf8e2e7	0.039141894897005085
31	0x3fb7497c79da4cf0	0.09096506094856571
32	0x3fbc3bece9093cbf	0.11028938950879573
33	0x3fbb6c40b707a8a2	0.10712055653098898
34	0x3fb4cd0d33991b66	0.08125383863180743
35	0x3fb1f32ecaea0292	0.07011692480046808
36	0x3faf3e1c57397928	0.06102074208023317
37	0xbf8c9469ffcfa5f4	-0.013954952353702567
38	0xbf7498cc57643074	-0.005028532227026362
39	0x3fb235cbe5213004	0.07113336891160321
40	0x3f93cc2d9bdbea54	0.019333565366631625
41	0x3f99d9b2501107c6	0.02524450887381826
42	0x3fb107e6856bfcaa	0.06652680165642502
43	0x3f9e5259755d0f13	0.02961101321058297
44	0x3fb89d6caba42da4	0.09615210714780759
45	0x3fa08339d22cc1db	0.03225117388354067
46	0x3fadd42cf443b6fd	0.05825939637894171
47	0xbf8617eb85fbcfaf	-0.010787811304432042
48	0x3fa2d1ce61c1d65a	0.036756944115876336
49	0x3fb7110e89f505d0	0.09010401599973439
50	0x3f9918c4edc9c13d	0.02450854970305837
51	0x3fb231b3e7ce1ef6	0.07107090386682188
52	0x3fa4ecf9e5519aff	0.0408704845838681
53	0x3fb9e87597f3036a	0.10120329818438525
54	0x3f9ad8228103917a	0.02621511375845518
55	0x3fb91017a4ae331e	0.09790179987448908
56	0xbf9b3b479f5af133	-0.026593321896812582
57	0x3fad5fc9b1ba16ee	0.05737142843740438
58	0x3fb59528b2b83fe7	0.08430723536753214
59	0x3fb2cc8298d97908	0.07343307716061898
60	0x3fa2ff4798cbed17	0.03710387935822206
61	0x3fb3f4b26297ac72	0.07795252711336945
62	0x3faf58e347a1b48e	0.06122503518495491
63	0x3fac8fea01ad8783	0.0557854773567348
64	0x3fa96a49bda92268	0.04963903846925605
65	0x3fb1c250f8ac4839	0.06937128134839633
66	0x3f8f1e282cf1c604	0.015194238540263257
67	0x3f8784b389823806	0.01148357642548704
68	0x3fa9c57516a4e647	0.05033460523050031
69	0x3fb4579c0b0d4e56	0.07946181554626128
70	0xbf8df152e3d73d49	-0.01462044484915616
71	0x3fb8f59e1dbb96c7	0.09749782777688686
72	0x3fa3ca9fe5dfbb80	0.03865527802542257
73	0x3fb7e0ccc460ad4d	0.09327392382026752
74	0x3f78b22b932ef6e4	0.006029291357604303
75	0x3fac104e595368e6	0.05481190529254025
76	0x3fb1364ee42f3217	0.06723492689997844
77	0x3faa0fc7274cafc2	0.05090162615519446
78	0xbf99929b77903b90	-0.024973324940272656
79	0x3fa77c1dacc37ede	0.04586880430156069
80	0x3fb22e0ee2b2ad33	0.0710152915441327
81	0x3fb513d4b392a5bc	0.08233384498694013
82	0xbf9013d4df50c0f9	-0.015700651292889643
83	0x3faf1a135f947c7c	0.060745816628917176
84	0x3fa0059a69dd5617	0.03129274885456484
85	0x3f7c7191eb793b6b	0.006944246291438509
86	0x3fb431aeff690405	0.07888311133957877
87	0x3f808c1d93094c0c	0.008079749154751091
88	0x3fbaa6c33d6edce0	0.10410709619360459
89	0x3fa1e5408af453c6	0.03495217987271064
90	0x3f95f32d6c8ed9a1	0.021435460806708332
91	0x3fb23f6062347da8	0.07127954862197916
92	0x3fa165c4619c9649	0.033979546466338
93	0x3f8347b8105e1815	0.009414136886118066
94	0x3fa65cf92b83a31f	0.04367808014087004
95	0x3fb4ed2391c0158f	0.08174345310552254
96	0x3fa7ad91786a700f	0.04624609560889336
97	0x3fb65cad231b7099	0.08735162837132505
98	0x3fab82dbfc33ace6	0.05373275235782575
99	0x3f758094a01e8a71	0.005249577110506652
100	0x3fabeda8ef40b838	0.05454757614676037
101	0x3fad4ec8a2a68537	0.05724169717292187
102	0x3fa1559781faf870	0.03385613881754146
103	0x3fa8626e18b41fc9	0.047625961795403855
104	0x3fbe72e53343bbd2	0.11894066335274481
105	0xbf84d5e8cb7405ed	-0.010173624714755436
106	0x3fba63173e841f1f	0.1030745055796811
107	0x3f85f242d4ed3eeb	0.0107159825544438
108	0x3faa169d46fadf96	0.0509537839074589
109	0x3f758494b789d59e	0.005253392148565265
110	0xbf323ad34784b44d	-0.00027816446483336783
111	0xbf82766b5dedb2f7	-0.009014929584475235
112	0x3f9a3aebe49e1401	0.0256153925215763
113	0x3fb326daf82d7504	0.07481163558027865
114	0x3fbe3b0690a6d487	0.11808815986190001
115	0x3fb675d5461f97c6	0.08773549043652826
116	0x3fa2531955ba19c8	0.0357902447840846
117	0x3fbb492d900d39c3	0.10658535735021872
118	0x3faa1bfb7bb29682	0.05099473843556003
119	0x3fb4d7332e0ea0bb	0.08140869020883461
120	0x3fb9b3adb26fc29f	0.10039792639123356
121	0x3f922940006b4c0b	0.017735481286603554
122	0x3fb7b315cda2fbd9	0.09257637281824262
123	0x3fb74b2237fa6a5b	0.09099019877104679
124	0x3fb785d71aeb629d	0.09188599021161754
125	0x3fae9eef36749a88	0.05980632343044073
126	0x3fb7442a0ea3efe3	0.09088385446005946
127	0x3fb026532bd4e81a	0.0630847913752465
128	0x3fa8d9730c10edc2	0.048534007285038
129	0x3fa5f891a7dbed14	0.042912055721865766
130	0x3fb1393e7eee76fb	0.06727972601808212
131	0xbf42a67caa805422	-0.0005691632004550843
132	0x3fb420403e5bfa15	0.07861711046641802
133	0x3f9854cab7f37406	0.023760955312230457
134	0x3fb04ce21c8ee053	0.06367314526767247
135	0x3fa3b0f9cb3e2f12	0.038459592876362816
136	0x3f956dac07de725c	0.02092617795971062
137	0x3fb8a1f00aa8b136	0.09622097263553972
138	0x3fb088a427203161	0.06458497958391753
139	0x3f9e80715794c837	0.029786845179110535
140	0x3fb9da8e25675473	0.1009911385838949
141	0x3fa6e1c17960e475	0.04469112974806758
142	0xbf817a7a1a546bb1	-0.00853438752033306
143	0x3fb2979b132590c4	0.07262582032632553
144	0x3fb52ef5b0d7b38b	0.08274779860921748
145	0x3fb46fb2848fe0c4	0.07982936607720875
146	0x3fa2cdbe840b59f6	0.03672595369214442
147	0xbf6fde47ebcb2f47	-0.0038901715000515843
148	0x3f99327217026e28	0.024606497434986135
149	0xbf861519cbe87feb	-0.010782434020313722
150	0x3fb14c22ab1ffaea	0.06756798436979819
151	0x3f3ad209c18b1a77	0.00040924776253029683
152	0x3fb4e8a14c5749a5	0.08167465318482543
153	0x3fa0dc3dfbc6a035	0.03293031404911099
154	0x3f8c446925a20cac	0.013802358113258549
155	0xbf7f9697822f43b9	-0.007711974935731663
156	0x3fbe3bab1a9615c6	0.11809796713904239
157	0x3fb996679cd4207d	0.09995124415229557
158	0x3fb3c238b84c7e7b	0.0771823358486418
159	0x3fbd536e065612af	0.11455428747837958
160	0x3f6c381afb7073fb	0.003444721889094724
161	0x3f870ff46d787279	0.011260900107168613
162	0xbf8accc0f8ee23df	-0.01308584937739171
163	0xbf78ac8511788c0f	-0.006023902700266439
164	0x3fbc6cee515b9388	0.11103715406677683
165	0x3faac98399302e5a	0.05231868023846849
166	0x3fb73ef1961b633c	0.09080419459077133
167	0x3fa8952ca332b2aa	0.048013110086093505
168	0x3fb19611c0922c75	0.06869612647476393
169	0x3f9c0fc2e444e6b2	0.027403874571268978
170	0x3fb680a1fbf89c3a	0.08790028001441011
171	0x3fb18b23767858b1	0.06852933542572505
172	0x3fb25d8a7737da7f	0.07173982058143656
173	0x3fb6f83dcbe3eb26	0.08972536304274267
174	0x3fb0b6a60ddaa148	0.06528699720604891
175	0x3fb6118c3096c7cb	0.08620525537733596
176	0x3f9dd47ae70c3130	0.029130859710719992
177	0x3fa2bd596680b18d	0.036600869905984636
178	0x3fbe1f26853dc217	0.1176628184600833
179	0x3fa95b60518bb53e	0.04952527041846587
180	0xbf8971d60f011273	-0.012424156506434891
181	0x3fa0719a64be4808	0.03211672286774109
182	0x3fad9847d00effbf	0.057802433154847226
183	0x3fa524b5eb7fa3ec	0.0412957048391219
184	0xbf8b969ac0b76788	-0.013470849043119917
185	0x3f99f429735bdcb5	0.025345466295189484
186	0x3fb34e1ad1d3b8af	0.0754105341218032
187	0x3fb6be958e1b16b0	0.08884558410053489
188	0x3fa9694ada6815aa	0.049631442223510305
189	0x3fb167f9c07fd60b	0.06799279164973641
190	0x3fb18f7858caba92	0.06859543006678795
191	0x3faf85b1f7f82302	0.06156688835114289
192	0xbf9cecc9a52a4310	-0.028247023301960772
193	0x3fb6e48dfe22dc1e	0.08942496733185165
194	0x3f8ed0e9e09f6d9c	0.015046908538286989
195	0x3f954a19d05b579d	0.020790484754648387
196	0x3f7ba38c520241bf	0.0067477685226013375
197	0x3f9aaae379adac4b	0.026042513181362897
198	0x3f8ed306073fc2a2	0.015050932975982537
199	0x3fb4ce1d1e6cb14a	0.08127004616534808
200	0x3f9e31b162461fd7	0.029486438391842142
201	0x3fa82cd264c7c905	0.047216963579460404
202	0xbf97eb705960ea97	-0.023359065489993638
203	0x3fb170a0a707bc56	0.06812481000791712
204	0x3facf1da5f417f84	0.05653269207755243
205	0x3fb9e2e8cc916a21	0.10111861223541797
206	0x3fa2c9883f1c0eb3	0.03669381876355029
207	0x3fab99fbc227d68e	0.05390917534888927
208	0x3f92d18cf4d13801	0.018377497141322866
209	0x3fa8f1e89ef36e11	0.04872061672514517
210	0x3fbd7e5c6e8bad6f	0.11520936678760106
211	0x3fb9bcb73218b3fd	0.1005358216577434
212	0x3f7ddb418d8f0d2e	0.007289177004113951
213	0x3fa39c5bdf0a6a1a	0.038302298523564995
214	0x3f7dcf248dbca063	0.007277624881489061
215	0x3fa28c44176e4904	0.036226394520001676
216	0x3f7c19f447714332	0.006860689368367189
217	0x3fa0fcd27f18fe96	0.03317888070568846
218	0xbf582beb8cec1884	-0.0014753151223785574
219	0x3fa97fcb49e36a86	0.04980311657864882
220	0x3fb75b49edb06cb2	0.09123670628507588
221	0x3f862a462bd5f3c6	0.010822818959008173
222	0x3f9b295be3adb0ef	0.026524959346191087
223	0x3fb4230f4ec7c1e1	0.07865997002932758
224	0x3f8e0ec7d4dbad08	0.014676629241384478
225	0x3fada5b5c9efcfec	0.05790489282654207
226	0x3fa3b95988f925ed	0.03852348134075698
227	0x3f949ce27a6f46fb	0.020129717562503462
228	0x3fa9949d91a43af5	0.04996197131014483
229	0x3fb66165a2dfb96f	0.0874236605302252
230	0xbf6de3a91e01028d	-0.0036485961027497627
231	0x3fbb9ebd50c4f04f	0.10789092275530375
232	0x3fb657066d96ec10	0.08726539779210918
233	0x3faf37070d9f5b40	0.06096670190134157
234	0x3facda963f7b23f1	0.0563551857463337
235	0x3fba33ffe9a71893	0.10235595182811812
236	0x3fb4ec18e65731aa	0.08172755836057513
237	0x3f937f4657e4947f	0.019040202250057533
238	0x3fb3d3ce7ba821d5	0.0774506618400957
239	0x3fba40d1b35baf26	0.10255156163082954
240	0x3f4df8fb83db0c85	0.0009146907902607559
241	0x3fb516e985c8aefe	0.08238086239060391
242	0x3fb007c99b9799f5	0.06261882828366779
243	0x3fae3a8a18ec96c1	0.05904037050485789
244	0x3fa2de7fc18a715a	0.03685378301199434
245	0x3f93df239aab1512	0.019405895533755553
246	0x3fa0198bcbd258c3	0.03144490111405809
247	0x3fb0d5cb2e3563f3	0.06576223257196982
248	0x3fb25a72e9dacee4	0.07169264039367423
249	0x3fa505bbfc931318	0.04105937441048563
250	0x3f98416c734ac8c8	0.023687071358559547
251	0x3faed21e6cc0d382	0.06019682958177609
252	0x3fa2608fd44707a1	0.03589295831945028
253	0x3f827ba948c81b79	0.009024927648182178
254	0xbf8cdc94fa01a1c5	-0.014092601661290236
255	0x3f9140d0513d50f6	0.016848807295290556

bias f8 [258]
0	0x3fb0e88a33e18922	0.06604827658296533
1	0xbfb5513f2aa26de4	-0.08327097693329893
2	0x3f75cd78f1da28a7	0.005322906914111559
3	0x3fa2ee4c47d4919c	0.03697431923709191
4	0xbf85ae42032ce486	-0.010586276742843969
5	0x3fbc424a15432747	0.11038649577235758
6	0x3f86b81623497513	0.011093304588195829
7	0x3fb664b19cf2fc8b	0.08747396547095058
8	0x3fa961f9f7abca16	0.04957562588051105
9	0x3fa707196d1d0940	0.044976038522252626
10	0x3fb8ba1c41db882a	0.09658981902933364
11	0x3fa835ef2d3d6b03	0.04728648593182607
12	0xbfa0d8be40e210bb	-0.03290361921338688
13	0xbfb2585d58fafe30	-0.07166083738683748
14	0x3fa5d2a355c78578	0.04262266561614586
15	0x3f6972f63e42cf38	0.003106575912250078
16	0xbfb6d9e9422d1143	-0.08926256051660623
17	0xbf9632731f61268e	-0.02167682532334552
18	0x3faf5e335f9fc48a	0.0612655691364888
19	0xbf989b2514593d14	-0.02402933060357977
20	0xbfb7e8fe9ff1e74e	-0.09339896588235527
21	0xbfa87cbd72d437e3	-0.047826690928658676
22	0x3fbabbcfab2169a1	0.10442827156058467
23	0x3fa8138b59c83cf8	0.047024111470927055
24	0x3f70aee22a624e18	0.004073031863430575
25	0x3fa504562dfa8891	0.04104871093046925
26	0xbfb48c3d7ff58457	-0.08026489614486941
27	0x3f9695c5ebd6282e	0.02205571414882728
28	0x3f919d52be4efd43	0.017201702943336682
29	0xbfb1e27a969db6c8	-0.06986204316282418
30	0x3f71588fc5e3c181	0.004234849561030153
31	0xbfb0b08d56971235	-0.06519397129074707
32	0xbfb8e781b9c7b48f	-0.09728251252791352
33	0xbfb61a015b2f9a4e	-0.0863343093511528
34	0x3f8d1780a7687fc9	0.01420498381509096
35	0x3fba66cd4a730e87	0.10313113277066509
36	0xbf6579906441237b	-0.002621442808991179
37	0xbf9f7f179ccb0a17	-0.030758255906002754
38	0xbfb80a462bc09872	-0.09390677040264153
39	0x3fb36ca543e06b4b	0.07587654978889906
40	0x3f9fa1132f9acbe6	0.030887889652785015
41	0xbf7d4c65d668071f	-0.007152936747390175
42	0xbf88f1f8f388a8ed	-0.012180275852263079
43	0xbfb880a3edb163f2	-0.09571289589929657
44	0xbfb7de71e777faa0	-0.09323799038973357
45	0x3fb41c5a5b41dcaf	0.07855763175926954
46	0xbfaec337d9f03eab	-0.060083146432700595
47	0xbfb093301d304686	-0.06474590981113168
48	0x3faf1a1d4ed45195	0.0607461127021082
49	0x3fb7e0a690404372	0.09327164670709268
50	0x3fb21089a3864c6b	0.07056484453487293
51	0x3f6c7e8d91190159	0.0034783139206241817
52	0xbf72969f10a4e8c3	-0.004538174960823041
53	0x3f96e118a3b0d968	0.02234304904069387
54	0x3fabcac0980c4be3	0.054281252441931625
55	0xbfb15a2d1580a6c1	-0.06778222823109116
56	0xbfb017779d3330ee	-0.06285808170213489
57	0x3fb98d5436637064	0.09981275871126766
58	0x3fb09dc3fa8bceda	0.06490731112335926
59	0x3f8df758b2e69895	0.01463193222009477
60	0x3fb9715ec4e733c9	0.0993861418457548
61	0x3f9a7a2acb3b2898	0.02585665574478266
62	0xbfb08e7f9911eb8b	-0.06467435347614818
63	0xbf027be9130cd425	-3.525548016229005e-05
64	0x3fb934a99a008623	0.09845981607261271
65	0x3fbabdb8b3d9eb43	0.10445742026233255
66	0x3fb107ef7f3a51db	0.06652733665607206
67	0x3fb71a1c354220a0	0.09024215984584538
68	0x3fbc63dc314f73e9	0.1108987446200015
69	0xbf7b88a7f68fda90	-0.006722122293459379
70	0xbfb202356a8fb6ef	-0.07034620143505398
71	0xbf9d2236a33ba09b	-0.02845082637114214
72	0x3f8535bf90d4f946	0.01035642300359697
73	0x3fa1c952c82155ba	0.03473910038944035
74	0xbfacd5075f442721	-0.056312780741860864
75	0x3f9362e503086806	0.018931940374479005
76	0xbf881d106138dfa9	-0.011774185149178456
77	0x3f96fab546357d37	0.02244075051328062
78	0xbf8a6504ac68c74c	-0.012887989532007225
79	0x3fbbb7b09fda8f95	0.10827163603477026
80	0xbfb5f89d9d4b0124	-0.08582482423935694
81	0x3f61723b32ffeefd	0.0021296650156709105
82	0x3facf7450588c46e	0.05657401745373468
83	0x3f7bb3aec9aa15ab	0.0067631557127518045
84	0x3f801c6b0b583a70	0.007866703304015149
85	0x3f75ef0a43ac6e97	0.005354919524304023
86	0xbf922d1202315b6c	-0.017750054725492445
87	0x3f87b39666fd0657	0.011573004739719268
88	0x3f5de40e74462f26	0.0018243924288041196
89	0xbfb301857eccce70	-0.07424196572974906
90	0x3fbba5cc01b899ab	0.10799860994357029
91	0x3fbc60afb3462945	0.11085031630333216
92	0x3f689017ec23662a	0.0029983966097517816
93	0xbf91712454a297f8	-0.01703316465923163
94	0xbfb6efdf5433fc09	-0.08959766202677612
95	0xbfaadd286c6eba41	-0.05246855090750958
96	0x3fa572bce2efb411	0.0418910052320386
97	0xbfa3d55e30f36d36	-0.038737243152093745
98	0xbfa6f007bfefb026	-0.0448000356480807
99	0x3fb5a68d2eb11d65	0.08457262411058293
100	0xbfa0d8c164362a0c	-0.032903712733134055
101	0x3fba59b9f321f6d3	0.10293161569458258
102	0xbfa11f2a78375683	-0.03344090192301243
103	0xbf8b9966c7fca04d	-0.01347618387042373
104	0x3fbaf09cc5169a15	0.10523395358777805
105	0xbfa2d5fe8afa21c7	-0.036788897004103975
106	0x3fab425216bddcb7	0.05324036147697469
107	0xbfa5fc40a9828a35	-0.04294015950405986
108	0x3faf1c681f5b496d	0.060763601138790736
109	0xbfa4830dd76e075a	-0.04006236319311425
110	0x3fa6f6a0c82305cf	0.04485037272526037
111	0x3fbb8f0c09374a57	0.10765147423743691
112	0x3fb8744a4e68b911	0.09552444853099852
113	0x3fba8677a5000d31	0.10361430910420634
114	0x3fb556350b2d63cf	0.08334666750796703
115	0x3fa5bcf8bac8432f	0.04245736389214582
116	0xbf8818f5ba816071	-0.011766357187454642
117	0x3fb3791b32252d20	0.07606668447731524
118	0x3f99272da1e683bd	0.024563515669459458
119	0x3f964fb9cd8c7e56	0.021788504763320247
120	0x3f5b5d3ebf2411ff	0.0016701805839726134
121	0xbfad4ed4c9b4f8f6	-0.057242059347560145
122	0x3f8c34e14f7822db	0.013772735822401063
123	0xbfb3d392494d7819	-0.07744707383741946
124	0x3fae605e60617eee	0.059328984513511304
125	0xbfb71afdef9f3bb9	-0.09025561428209884
126	0xbfb9b85c24d0ab81	-0.10046935938650671
127	0x3fac9e04f9508d24	0.05589309256927269
128	0xbfa3e2f6c772503c	-0.03884097275400264
129	0xbfb7e300a59ceb8b	-0.0933075336769617
130	0xbfa63a18bfad7902	-0.04341199245276252
131	0x3f86ef6ba395ab49	0.011198845796305828
132	0x3fbb998e82cca497	0.10781183904022594
133	0xbfb1e43827210197	-0.0698886008767715
134	0x3f9d2e9a6231665d	0.0284980890686256
135	0xbfbb00ce71c09884	-0.10548105504185129
136	0xbf9e1b6e1c199827	-0.029401512589537184
137	0x3f92523e323b1b8a	0.01789185697159782
138	0x3fa9dad6c9a111b8	0.05049773417752895
139	0xbfa81c928af21599	-0.04709299036134524
140	0x3fbb5103eb2b81d2	0.10670494548276757
141	0xbfb68e14e5bb7ff7	-0.08810549362851804
142	0xbf973349fd52012c	-0.02265658959049792
143	0xbfa098c29d7d8ede	-0.03241546795359594
144	0xbfba8dbe00bdb963	-0.10372531431287295
145	0x3fb8549f1d09ae49	0.09504122218066259
146	0x3f9eaac7d23a5c7d	0.029948351103112437
147	0xbf92b54ddc34e882	-0.018269745412205392
148	0x3f6a5dbc1131a939	0.0032185242831036767
149	0xbfba0cba025dd282	-0.10175669248367039
150	0xbfb4952d625c85af	-0.08040126468087892
151	0xbfaab6291ade8faa	-0.052171024827912874
152	0x3fa79ca597e14593	0.04611699561122431
153	0x3faaf3425c2fb20f	0.05263717055627037
154	0x3f96bc7ecf9833dd	0.022203427715840596
155	0xbfa668e822422ccb	-0.04376912515825778
156	0xbfac074d08f8e6b6	-0.054743201585052345
157	0x3f8c37d27b0d9959	0.013778347378047217
158	0xbfa0f0560cb495d7	-0.033083619166329896
159	0x3f91e48ea6b6474c	0.01747343914536907
160	0x3f9a527d3e45d30c	0.02570529644568169
161	0x3f9a3a3f4df991eb	0.025612820753297
162	0xbfa0755334a2f2d7	-0.032145118880611605
163	0xbf914b489f167a67	-0.016888746938656853
164	0xbf7280b8c461d4ff	-0.004517289873651408
165	0x3fa0d8100165a9af	0.032898426218554426
166	0xbfa2bfa10b4486a0	-0.03661826384110367
167	0xbf8731bc50a6ef0c	-0.011325331889444644
168	0x3f7850653979003c	0.005936046035969918
169	0x3fab07b5ad32d912	0.05279319514504456
170	0xbfbcef6e1c804502	-0.1130284137327813
171	0xbf8279bb3ecfc496	-0.009021246771199903
172	0x3f661521d2e1aef9	0.0026956234569775997
173	0x3fb7d1a0a3ecda85	0.09304241182403857
174	0x3fa4262f221ac110	0.03935382167162704
175	0x3fb4d7dd9a7e8ede	0.08141884824595588
176	0x3f81e612edae2a76	0.008739612463405804
177	0x3fb5a05c294f6821	0.08447814949559575
178	0xbf9356c4472fa260	-0.01888567623601245
179	0x3fab783a491a8de0	0.05365163938884243
180	0x3fb925bcb7321a55	0.09823207352210635
181	0x3fbc124972278d02	0.10965403592085823
182	0x3f581f1a0a3d0863	0.0014722589775862042
183	0x3fb925a343c16c7d	0.09823055652798192
184	0x3f8ddc06139c277c	0.014579818223427791
185	0x3fb15cd47ba3c986	0.06782272356557514
186	0x3f89915a0963eeb6	0.012484267627307016
187	0x3fb77d9b7e06b486	0.0917603666955121
188	0x3fb065286a60e152	0.06404354664926373
189	0xbfb3404461476fa4	-0.07519938826538791
190	0x3f70ed8e4f3c3d6c	0.004132800957236209
191	0x3fb642b42defab14	0.08695531960954056
192	0x3f8b93131eb6bdd6	0.013464116453945001
193	0x3fbdaed07b45640d	0.11594870576426804
194	0x3fa4b1d7e829c82e	0.0404193373586995
195	0xbf8324f9bda38165	-0.009347869014562258
196	0x3faa0096557a0e55	0.050785730299165145
197	0x3fbe90b89535898c	0.11939576762009646
198	0xbf795653a73b8af2	-0.006185843248860167
199	0x3f9eb610b12137c1	0.029991398631231684
200	0x3fa3f067a7b5c3bc	0.03894351885072164
201	0xbf9c04c2e5b29a3f	-0.027361912984497968
202	0xbf99f7c645f38692	-0.025359247226225685
203	0xbfa8cf7b1927f9af	-0.048457953282184156
204	0xbf96c6ed19df4336	-0.02224321813975224
205	0x3f961260a3164ea9	0.021554479555176673
206	0xbfb4c9d011b5a37b	-0.08120441849099606
207	0x3fb7dc7a9e8df1b1	0.09320799227675171
208	0xbf9749d0d5c74094	-0.022742522285455438
209	0x3fbe8cff16532142	0.1193389348510481
210	0xbf9fa188e2a363b6	-0.030889643509769825
211	0x3f973a4385746a60	0.022683196087294966
212	0xbfa8083d8d2e3d57	-0.04693786953350337
213	0x3fa0a536938ef74f	0.032510476601130926
214	0x3fb0735fe3a8b629	0.06426047618943954
215	0x3f9344a76ca628c2	0.01881658173218948
216	0xbfa6a1b3932e29e0	-0.04420243426928372
217	0x3fa11fdf4b4b0b22	0.03344629091363617
218	0x3fad4574f30e3599	0.0571705385874381
219	0x3fb4a64ec96c8b02	0.08066265504434614
220	0x3fbc382d82370757	0.11023220471454685
221	0x3fb893379621fccf	0.09599635520315818
222	0xbfb00e2ae5676213	-0.06271617985419935
223	0xbfa98d3e0c7a33cf	-0.049905718825449356
224	0x3fb0ba96eabc0654	0.06534713011571941
225	0xbfa6aa580a3cf12e	-0.0442683708665491
226	0xbfba60d8f48a56e3	-0.10304027528976749
227	0x3f6ac5ff50012c7f	0.0032682406017890404
228	0xbf8d26d163ee2527	-0.014234195577744814
229	0x3fbd631422c69107	0.11479307030692008
230	0x3f9e3e056e59c606	0.029533467159529557
231	0xbfaa2bf4f212df92	-0.05111661391259682
232	0xbf9f777cffc0be0f	-0.030729249105375497
233	0x3f9faef5a02b60fa	0.03094085493180019
234	0x3f7f04b042184152	0.0075728306851633054
235	0xbf9af5ba3fa443e4	-0.0263280011504924
236	0xbfaf2e04adf92b2d	-0.06089796661088651
237	0xbf6a3d3c58a1c29e	-0.0032030275952411166
238	0x3faad95f0d8437ef	0.05243966140743327
239	0x3f863864f8bf4f29	0.010849751320996486
240	0xbfa8bf975af93b12	-0.04833672509686528
241	0x3fbdffb0efac8e4b	0.11718278743188042
242	0x3f8c097860489f0e	0.013689938009590754
243	0x3fa4b407a9c97df3	0.04043601939769905
244	0xbfbaebabac89b934	-0.10515854799607355
245	0x3fb63699ad09fe06	0.08677063440881491
246	0xbf9340308e94c833	-0.01879955168005427
247	0x3fb04817cf53ffeb	0.06360005199167033
248	0x3f8d0c4e67b40dd1	0.014183628597044614
249	0x3fb0d0678c82a01e	0.06568000011850514
250	0xbfb151933ab3e29d	-0.06765098746462646
251	0x3fac7a730d7fb01d	0.05562171497135202
252	0x3fbc048f7f32ed0c	0.10944458823626152
253	0x3fbb68ec452ef35a	0.10706974686668272
254	0xbf4a0871385e56a8	-0.000794463427825594
255	0x3f903855e9214a2d	0.015839903215530683
