fine-tuned models/NO2318_YGR271W.pth (torch, 92375 bytes, 6 tensors)

weight f8 [90, 31]
0	0x3f3181a14962177c	0.00026712596571375874
1	0x3f318e948fb7bde0	0.00026789786326639024
2	0xbf2fdc811688194a	-0.00024308276921676037
3	0x3f468c24f8638e86	0.0006880932349102177
4	0x3f318849b5248ba3	0.0002675228071373164
5	0x3f3186407b49fb16	0.0002674014497542771
6	0x3f4e9d0d87870f5a	0.0009342495023294359
7	0xbf816b710001884a	-0.008505709469492601
8	0x3f318cd8f6920d1a	0.0002677945800046586
9	0x3f318f2a3c063f6e	0.000267932711744293
10	0x3f4951276b70681d	0.000772613761799382
11	0x3f318d8741e1b164	0.00026783516103170133
12	0xbf917ba7d789a4ab	-0.017073271303534792
13	0xbf4682cf1baff1ec	-0.0006869803686409526
14	0x3f7404768fefa1a8	0.004887068876066193
15	0x3f3188fb9802f421	0.0002675642244971983
16	0x3f317a0a3537ac54	0.0002666735574325442
17	0x3f31921ab53f763f	0.000268107910640445
18	0x3f45cc20402697d1	0.000665202853544095
19	0x3f318429d43e8427	0.0002672769662642204
20	0x3f318f929be8de53	0.00026795701333834804
21	0x3f31853283942f27	0.0002673385930200716
22	0x3f318f48c2358b0a	0.00026793981870391946
23	0x3f318027e15d0224	0.0002670380939555925
24	0xbf6136fad293b788	-0.002101411712479743
25	0x3f318070e5108034	0.00026705509395874853
26	0xbf615b56af204603	-0.0021187489555891683
27	0x3f31912a33c3c602	0.00026805191352172197
28	0x3f3189d7bbdc27bb	0.0002676154798427717
29	0x3f4e687c26425843	0.0009279829214559127
30	0xbf74918b0fea64a3	-0.005021613322832827
31	0x3f4a194f99d02318	0.0007964743305147485
32	0x3f4a1a3a98fb84a9	0.0007965837594065178
33	0x3f43c002f5165382	0.0006027235451023657
34	0x3f4c9d8d5a8aae31	0.0008732738688954131
35	0x3f4a1cbebf597151	0.0007968837150645146
36	0x3f4a16cab7e1ed86	0.000796174033680528
37	0x3f4abd5ab69908ca	0.0008160298286344011
38	0xbf46c3a116c6479d	-0.000694707543106288
39	0x3f4a1dfca052e4ab	0.0007970317389186706
40	0x3f4a19d61bd1c5c5	0.0007965369656074908
41	0x3f4bda7f70f6f095	0.0008500215789619842
42	0x3f4a1aff7270a312	0.0007966754245717098
43	0xbf54ba584d664759	-0.0012651312186772927
44	0x3f67eecda5d18a5e	0.0029214874798964416
45	0x3f59eb75c85d30fb	0.001582016966000187
46	0x3f4a183ab5621611	0.000796345392487909
47	0x3f4a1d22f302375d	0.0007969303751609137
48	0x3f4a1ebf96b3112e	0.0007971225253631581
49	0x3f4d742a5e350dd6	0.0008988577723489332
50	0x3f4a1dc627fe08c0	0.0007970063743274677
51	0x3f4a1b9fb32ac249	0.0007967500481154767
52	0x3f4a192370b2d51e	0.0007964537666313198
53	0x3f4a1687384572c5	0.0007961426022507703
54	0x3f4a14f15db3c55a	0.0007959536118546204
55	0x3f37c14afcc98c56	0.0003624733042554886
56	0x3f4a1664e25169ab	0.0007961266134189257
57	0x3f32fc13fb48a80c	0.0002896832259319255
58	0x3f4a1ef27dff6cd5	0.000797146229156632
59	0x3f4a19f66d407367	0.0007965520148932426
60	0x3f4e137af2fd0d96	0.0009178495729220023
61	0x3efa3b4ee73aa5c4	2.5016472547411688e-05
62	0x3f621148255e4265	0.0022055062390296414
63	0x3f6228d8e9538fe7	0.0022167431403534612
64	0x3f5f8838a91dd4c7	0.0019245675398143357
65	0x3f62f8e80473d12a	0.0023159534063045455
66	0x3f622f1d9c9d943b	0.0022197321276729277
67	0x3f6204229726ee35	0.0021992374033439573
68	0x3f617d74071f5d84	0.00213501607593586
69	0x3f34a820f6cc1521	0.000315197036613606
70	0x3f61fa539a9d38d9	0.0021945603265641597
71	0x3f61f6d3cc6569c9	0.002192891758722147
72	0x3f628cb1be6c017c	0.0022643539008415075
73	0x3f61fd466908ccb4	0.0021959662629114866
74	0x3f7494292060618b	0.005024109506870276
75	0x3f5c60aeef5e53f8	0.0017320354795391495
76	0x3f6a2257f4dbfcbc	0.0031902044200929607
77	0x3f621df0150b8f94	0.002211541090547395
78	0x3f620aa6461c7e03	0.0022023437058036346
79	0x3f620be046c7ac93	0.002202928581245775
80	0x3f633707bbb3dfe9	0.0023455763854336354
81	0x3f62296ebbac808e	0.002217022204959624
82	0x3f6205ae7fb1d0f2	0.002199974840147439
83	0x3f6207a72cf97886	0.002200914874079865
84	0x3f62083e8fc65aa1	0.0022011968523643764
85	0x3f6201cb4796e55e	0.002198121100005209
86	0x3f5ad6fdcd670007	0.001638172010288487
87	0x3f620eebfe4ab103	0.0022043809170410058
88	0x3f5806511bcd2346	0.0014663497997437643
89	0x3f61faa41363d5b5	0.0021947102169359253
90	0x3f61ff4610f7c194	0.0021969192964592186
91	0x3f635f23a4bbf3c8	0.0023647018587084935
92	0x3f55e66101501ea6	0.0013366648975096456
93	0xbf3950ed51a9a837	-0.0003862933532788911
94	0xbf3946c261e78f56	-0.0003856873098852983
95	0xbf4358a76c790136	-0.000590402364601095
96	0xbf2e2c14c90694c2	-0.00023019555784490302
97	0xbf394cf8b862a921	-0.00038605758926259405
98	0xbf39632683e89fda	-0.0003873795539299764
99	0xbf1eaa1a53010574	-0.00011697564764381001
100	0xbf6e1d22158340f9	-0.0036760011390485317
101	0xbf3948f0d3b36c7d	-0.00038581733288162845
102	0xbf3961f985251022	-0.00038730947303045233
103	0xbf2925561b86c4ae	-0.00019184757344484687
104	0xbf394bda7b558027	-0.0003859909441725783
105	0xbf847704e9c5bc86	-0.0099926360932996
106	0xbf3f615b4e6b3042	-0.0004788253703906822
107	0x3f55f23ab853b799	0.001339490264679699
108	0xbf39489b23c0d142	-0.0003857973822534341
109	0xbf3950f0af4a2e09	-0.00038629413692412067
110	0xbf3951e59bbdafbc	-0.00038635116265228384
111	0xbf2eabcdc219c222	-0.00023400198647351248
112	0xbf39479bcedc7568	-0.000385737933230454
113	0xbf39665d3f22c6cc	-0.000387571111001167
114	0xbf39467e7c41d815	-0.0003856715013691459
115	0xbf39462ac93dc3b6	-0.00038565201361167743
116	0xbf39471de973845f	-0.0003857086207528833
117	0xbf54c9b92d974bf5	-0.0012687977199348198
118	0xbf395a4879ecb686	-0.0003868510192884606
119	0xbf54a6e3135ee51a	-0.0012604920898254325
120	0xbf394e9c054701f5	-0.0003861552152351338
121	0xbf394a0547c7e878	-0.0003858816997134372
122	0xbf227cdd38ac57df	-0.00014105034309669273
123	0xbf6383406a308e09	-0.0023819215871456784
124	0xbf4182dd75b55d55	-0.0005343991610215296
125	0xbf417aa4c7b386ea	-0.0005334190931558212
126	0xbf498b8cefb561a4	-0.0007795751729800415
127	0xbf38efcbf1042c03	-0.00038050393142502486
128	0xbf4164189c72a86e	-0.000530731217528014
129	0xbf418aa8dedef6e3	-0.0005353283465791805
130	0xbf33cc0091d30bc5	-0.00030207647234819737
131	0xbf6e75268b196f72	-0.0037179711151064604
132	0xbf415c0e10b60017	-0.0005297726324187149
133	0xbf41a47708532935	-0.0005384045804473272
134	0xbf37e7a12a875206	-0.00036475834579377563
135	0xbf418890955b9812	-0.0005350786184095144
136	0xbf917e123e0f0588	-0.017082486188660734
137	0xbf5b83e0d2915a2a	-0.001679391434910147
138	0x3f52a6fce0094937	0.0011384458049588772
139	0xbf41820f537262da	-0.0005343031724747941
140	0xbf417f19b6fb4d3b	-0.0005339503822718092
141	0xbf417039af85ddf7	-0.0005321771305223923
142	0xbf3903bb8c468c10	-0.0003816922074070814
143	0xbf418c911159205e	-0.0005355556811048703
144	0xbf417f0ad36579e8	-0.0005339434490386182
145	0xbf41a0cd7b8911dc	-0.000537967999726659
146	0xbf41afa1e34822fc	-0.0005397358386867997
147	0xbf417c58fae85644	-0.0005336222146207843
148	0xbf56e28601fe1641	-0.0013967808408507228
149	0xbf419e8bcd9f275b	-0.0005376989968166422
150	0xbf575590bb660404	-0.0014242089651761445
151	0xbf41995cc91ada07	-0.0005370810560723645
152	0xbf416b14ae3baf13	-0.0005315638522609155
153	0xbf334bc45f3b7615	-0.00029443306196505595
154	0xbf639160297a2c8b	-0.0023886564411604353
155	0xbf9d0ff152141b3f	-0.02838112891643196
156	0xbfa1a4a9e970532a	-0.03445940947145794
157	0xbf9b6516ad636b44	-0.026752809841904993
158	0xbf9318610cce541c	-0.018647686392416415
159	0xbf7a40ce8a3284c1	-0.006409460827087433
160	0xbf8d38e2b73f9702	-0.01426865693788271
161	0xbfa25163a7cb37a0	-0.0357772009207189
162	0x3faf08ea8766285b	0.06061489966221308
163	0xbfa17c7989322131	-0.03415279197457933
164	0xbf886049c5c8de32	-0.011902405117424218
165	0xbf92ab5aeb70bc73	-0.018231793041362864
166	0xbfa1bdccf6496e26	-0.03465118891173473
167	0xbfd2f6f677e091b0	-0.29632341105232296
168	0x3fa41499a1d53c67	0.03921966648578561
169	0xbfafecc60be2ba71	-0.06235331435288039
170	0xbf6534a3ce94c7e0	-0.0025885772089617592
171	0xbf7f2ae92d3a0f56	-0.007609282347065113
172	0xbf929ea3aa3a7dcb	-0.018183285965845102
173	0xbf9f7fd1a2bafce1	-0.030761027867581062
174	0xbf9a69e8d1cce2d4	-0.025794637494274422
175	0xbf7f77b20e48a563	-0.0076825099281817326
176	0xbf9191d335463edb	-0.01715784084950554
177	0xbf9a0c35f7c08008	-0.02543720554979248
178	0xbf8cb98977bacc85	-0.014025758711204492
179	0xbf93895664415cb1	-0.019078588360881003
180	0xbf735bf8739f5e19	-0.004726381792316236
181	0x3f7dd0db62ee009d	0.007279259661004425
182	0xbf9767993b85d3e1	-0.022856134660702913
183	0xbfa09d36ba121250	-0.03244944592828303
184	0xbfa322039b7df48b	-0.03736888192268236
185	0x3fa438df4d088bd1	0.03949640097950858
186	0x3f42720a29ee3cde	0.0005629109981430088
187	0x3f42723255c1c46e	0.0005629297043140532
188	0x3f3c83bdb9b9f034	0.0004350984761243321
189	0x3f44fb60ede3fbee	0.0006403182303812407
190	0x3f4272d75ecf74fe	0.0005630065548946348
191	0x3f42726cd69b77ba	0.000562956947046215
192	0x3f44b619f0493a8e	0.0006320597318082031
193	0xbf50a2ab7647620e	-0.0010153459962706254
194	0x3f4271be6bd3c951	0.0005628757277505258
195	0x3f426fcd017eb357	0.0005626441006732857
196	0x3f450b9ccec927ac	0.0006422534621119877
197	0x3f42712ca64b51da	0.0005628078475532997
198	0xbf58ea5b73b4a778	-0.0015207188687988687
199	0x3f4d7a83dcf7b612	0.0008996147025165954
200	0x3f56da060cf15a9b	0.0013947543227651796
201	0x3f4272df25269a11	0.0005630101753027491
202	0x3f42726d21b74ebe	0.0005629570836682347
203	0x3f426fbe3e773f2c	0.0005626372266593674
204	0x3f4554c8957aa4fb	0.0006509761251055896
205	0x3f4272c0862dd9b6	0.0005629959162963191
206	0x3f4272b507757231	0.000562990563519222
207	0x3f4272d580b6210c	0.0005630056852377343
208	0x3f4272e219d467fd	0.0005630115516936926
209	0x3f4272d1d6a3129a	0.0005630039788902697
210	0x3f205d473eebf6ce	0.00012485022258339754
211	0x3f42724bc65f2996	0.0005629415506914089
212	0x3f146d89340e68b9	7.792615816840349e-05
213	0x3f427280a8e09777	0.000562966177089604
214	0x3f4272e04c377d81	0.0005630107120246226
215	0x3f466e45b1962a14	0.0006845321942575166
216	0xbf353559a39235c1	-0.00032361448717995947
217	0x3f50ba511735b241	0.0010209838772780174
218	0x3f50bcbe88d3f676	0.0010215626419375601
219	0x3f4b652fdf6be44b	0.0008360370401013865
220	0x3f520e5ab1d225f1	0.0011020551385477718
221	0x3f50be70953280a9	0.0010219668809341809
222	0x3f50bb363085c174	0.0010211972422347866
223	0x3f50e2fec905fc92	0.0010306823861297204
224	0xbf416c9ac8d474c9	-0.0005317455085422025
225	0x3f50bac7fb7dcd9f	0.0010210946038256908
226	0x3f50bb3707cb73e3	0.0010211980253906842
227	0x3f51a0fb04855d96	0.0010759784073196325
228	0x3f50ba2b18cfccef	0.0010209484928481135
229	0xbf3ac6c4c43c54ba	-0.0004085760485719837
230	0x3f5e073e522df09d	0.0018327816585204445
231	0x3f5e2cd32ddaa544	0.0018417417808598993
232	0x3f50c6bb1f531866	0.0010239436499417608
233	0x3f50bb144e22e9c4	0.0010211656850019771
234	0x3f50ba328d4c7dcc	0.0010209554358836413
235	0x3f5264bbc824b119	0.0011226495558487924
236	0x3f50bd913275580d	0.0010217588367900127
237	0x3f50ba2c9c16a5e2	0.0010209499017527148
238	0x3f50ba590d3d97e5	0.0010209912915910499
239	0x3f50bdc5fcf6a9b6	0.001021808002273345
240	0x3f50ba5965583c4f	0.001020991612111794
241	0x3f428f14085e43d9	0.0005663726631032164
242	0x3f50bb5a13ad1238	0.0010212306649047941
243	0x3f3fa52de6af2ec8	0.0004828679145105594
244	0x3f50ba352d454e3d	0.0010209578805032836
245	0x3f50baf966553766	0.001021140627318806
246	0x3f52d0a095db1e89	0.001148373433737778
247	0x3f298c7d273df965	0.00019492175817599068
248	0x3f245ff7f961a50a	0.00015544797924186448
249	0x3f2464228aaa4e26	0.000155572144042369
250	0xbf04c0086bf180f0	-3.9577729233243836e-05
251	0x3f327cafcf8ec2a0	0.00028209011321237744
252	0x3f2483e6d53c4358	0.00015651886735004272
253	0x3f245dafbe16a6c4	0.00015537996573060907
254	0x3f34072f0185a50a	0.00030560395818797546
255	0xbf63bedf4bb4116d	-0.0024103509182415357

bias f8 [90]
0	0x3f31904dacbb88f6	0.0002680005679690645
1	0x3f4a1c034463beeb	0.0007967964127412996
2	0x3f61fdf0a14e5990	0.0021962833220172187
3	0xbf395d4093043716	-0.00038702799339850166
4	0xbf418b8ef212d04a	-0.0005354354836044708
5	0xbf9ca0a43c72411c	-0.027956548871373874
6	0x3f4272d9b36cd685	0.0005630076401305783
7	0x3f50c2d34e3ebeec	0.0010230124980629652
8	0x3f245ac8709736df	0.0001552934339045719
9	0x3f73cff456b924a4	0.0048369926913177964
10	0x3f47a7d6a0b4772f	0.0007219121920660538
11	0x3f27161c5e1b82dd	0.00017613502773541112
12	0xbfb52ee7a2cb75a6	-0.08274696087342778
13	0x3f52a65ac5b339d1	0.0011382948348913522
14	0xbf40188825a9355d	-0.0004912056713891989
15	0x3f37bbd467d228c3	0.0003621476715315425
16	0x3f57e3fcf9b9ec9c	0.0014581652129937233
17	0xbf1f7885c8b70f55	-0.00012005154183386314
18	0xbf891a31bed14730	-0.012256992946422324
19	0x3f5ddca69cf5990b	0.0018226267892145788
20	0xbf5000b913c656c0	-0.000976734866616466
21	0x3f574d5bf616a1d5	0.0014222524699595192
22	0xbf8cf6b35c3c54ac	-0.014142419102009939
23	0x3f4de38fc2f81ff8	0.0009121372185640899
24	0xbf3cca58d1e36f19	-0.0004393069119836709
25	0x3f5bc736063cd669	0.0016954448301026665
26	0xbf535d532da7668e	-0.0011819183624680904
27	0x3f26fc6d98a41ff9	0.00017536962361242007
28	0x3f5cbb39c1529555	0.0017536224379822347
29	0xbf2afe16112eef63	-0.00020593661665013326
30	0x3f644e825108c206	0.002478842281810725
31	0xbf4606098066f565	-0.0006721063990010988
32	0x3f5d394d1b12ea69	0.00178368120059127
33	0x3f5a5494680a128b	0.0016070794373785082
34	0x3f69134a33f9e161	0.0030609559324227685
35	0x3f47cb42eb42213c	0.0007261349442311614
36	0xbf8bb35586fbfc23	-0.013525646383184825
37	0x3f7590add07900e4	0.005264929735460753
38	0x3f61465c2fd195a3	0.002108745624854706
39	0x3f500e8d95bd35dd	0.0009800322213381265
40	0x3f4cd89ef943cf85	0.0008803154219365483
41	0xbf9055a888b8888a	-0.015951760620858603
42	0x3f4202740afbced1	0.0005496088615175259
43	0xbf5118739d34d9fe	-0.0010434273761582564
44	0xbf387c0c3c21ee7b	-0.0003736047621101035
45	0x3f5555d2c27aab3a	0.00130220014572542
46	0xbf47e051092ef114	-0.0007286449130030925
47	0xbf1de2941d6211c7	-0.00011400250454768951
48	0x3f3d69811e025a9c	0.0004487934329601513
49	0xbf3c069c297f75c7	-0.00042764008094117425
50	0xbf431207e7ef0db0	-0.0005819834331010545
51	0x3f43b438fff77a8f	0.00060131819912697
52	0xbf4b99f445f3bb7c	-0.000842327379272464
53	0x3f605be28733bec2	0.001996939122925174
54	0xbf2200b70e5efabb	-0.00013735041210157458
55	0x3f56c8e25a277112	0.0013906679602007682
56	0x3f306a32854b2fa5	0.00025047048010828416
57	0x3f60b09bf57b0fa3	0.0020373388359491026
58	0x3f65aaac751e147f	0.0026448601065021666
59	0xbf6031ee42848e88	-0.0019769338142781624
60	0x3f53c6e794039d65	0.0012070905213990787
61	0xbf8670f1a6279f79	-0.010957610972539321
62	0x3f334e217923bf0a	0.00029457394806707614
63	0x3f5280479ee9d486	0.0011292170926513758
64	0x3f4d36377ef0a52a	0.0008914729095340957
65	0x3f63df365f0e62bb	0.002425771898242194
66	0x3f61f015c54ce76e	0.0021896767815662776
67	0x3f4a171f89f853b5	0.0007962135313755921
68	0x3f432977d135860e	0.0005847773594888654
69	0xbf49971022dfc3e0	-0.0007809475698633515
70	0x3f455b584b69be44	0.0006517583013429602
71	0x3f55139367a00a12	0.001286405515657511
72	0x3f56ad34dcb29a98	0.0013840690833519017
73	0x3f64dde11a0b8335	0.0025472065466235713
74	0xbf618510fcf57b5e	-0.0021386462973817374
75	0x3f5a1fad76582a79	0.001594466587791969
76	0x3f6e62c3f5737615	0.003709204418199228
77	0xbf80be8d68ac2150	-0.008175949818465839
78	0xbf2ce981062e1733	-0.00022058200837820618
79	0x3f2b760beb092e35	0.00020951171383597344
80	0xbf2661e52597fe02	-0.0001707641811634492
81	0x3f46b4c4804db259	0.0006929358938641646
82	0x3f6bcfd59881149c	0.003395001582279079
83	0x3f68eb89c38bb090	0.0030420008373451338
84	0x3f410346c3fba653	0.0005191894087747763
85	0xbf4ac1e12501a812	-0.0008165692652373233
86	0x3f53453581df6513	0.00117616868327836
87	0x3f569449e50e8bff	0.0013781282070588483
88	0xbf3c46d1b48ca9a8	-0.0004314672446975817
89	0x3f6ffec0c6e7304b	0.00390565540076263

weight f8 [90, 90]
0	0xbfa7dd52a9a87e5e	-0.04661043473265346
1	0xbfb25016fb96dc4f	-0.07153457300488351
2	0xbfc6d013cde67f01	-0.17822501710633534
3	0xbfb6ccb899c85de9	-0.08906129602870973
4	0xbfaea3a2632e7839	-0.059842180831069354
5	0x3fa3062604e1815c	0.03715628442364746
6	0xbfb16ff60a3acc9e	-0.06811464071033632
7	0xbfbea7766e00d50d	-0.1197427767336487
8	0xbf9ac233c42fb183	-0.0261314476482979
9	0x3f90123d7d072599	0.015694580799196698
10	0xbfae7adb7bce9bad	-0.05953107725445448
11	0xbfb0e3c62f26ef13	-0.06597555781530344
12	0xbfc5de93cad19884	-0.17085502055414648
13	0x3fa532b47ba32c7d	0.041402473537879715
14	0xbf91bb5ec37d77d6	-0.01731632297684612
15	0x3f9a9debfeb02dea	0.025993049068388098
16	0x3f8ed2af158cf87b	0.015050285191702031
17	0x3fa12f97786171ea	0.033566220707800756
18	0x3fb50a666a30a167	0.08218994228866948
19	0xbfb03489df84b5fd	-0.06330167490951762
20	0xbfc32bc8b271359d	-0.14977368081092104
21	0xbf89310d8278751c	-0.01230059198774796
22	0xbfc0add724d0b9a5	-0.13030518815635364
23	0xbfaf54632192c9eb	-0.061190698478998794
24	0x3f7feec7344a5e7d	0.007796075956001067
25	0xbf99f4aad478d09e	-0.025347394197709698
26	0x3fa8bd576b858c8b	0.04831956088562447
27	0xbfc0298802c11e06	-0.12626743444910477
28	0xbfc29887fadb8a1a	-0.14527988194375113
29	0xbfb82b54fcea0fd2	-0.0944111936060488
30	0xbf91cff41ec87e6d	-0.017394842509132525
31	0x3f85a46eb86c49d2	0.010567536357062677
32	0xbfa163946e60cfbb	-0.03396285865201728
33	0x3f7165d704b61054	0.004247512736927989
34	0xbf777036aea1e716	-0.0057222496053499685
35	0xbfa2a9028b0544cb	-0.0364456934645517
36	0xbf83a726df0b80d0	-0.009596160585204322
37	0x3fa6c13c8cdb3535	0.04444302768170375
38	0xbf9b164edcfe4dba	-0.02645228599392422
39	0xbfa4358b1985c080	-0.03947100340417453
40	0xbfaf399a0b44197b	-0.06098634135746558
41	0xbfba73c9e953464f	-0.10332929560106517
42	0xbfb01bc78b9277f5	-0.06292388112566967
43	0xbfbaa0f60d6aa44a	-0.10401857211640322
44	0xbfbd03f0ff374aed	-0.11334139090403612
45	0x3faeb6470aec254d	0.05998441704111688
46	0xbfb6be404b5a4119	-0.0888405021635247
47	0xbfbeb6b3dd94363f	-0.11997532043115998
48	0xbf9a032449e6e115	-0.02540260983525496
49	0xbfbe167886ade469	-0.11753037727420836
50	0x3f76f5852c792c38	0.005605240068301369
51	0xbfb50b0f135b0bc3	-0.08219999525594716
52	0xbfa21fe667d4db21	-0.03539962785219176
53	0xbfb01616fbd31a12	-0.06283706329404762
54	0xbfb6a316e6763b3d	-0.08842604757795143
55	0xbfc2863dcc835ad4	-0.1447217224692482
56	0xbfbf4e72fdafee34	-0.12229078954254008
57	0x3f9042f661e89e14	0.01588044140421914
58	0x3f7c5face1ebeb92	0.006927180597581366
59	0x3f62f29ffcaf5a9e	0.0023129582163890624
60	0x3f9867a302eed136	0.023832842878350045
61	0x3f7880c48766a52c	0.005982177439741759
62	0xbfbbbe55ac35f683	-0.10837302641263062
63	0xbfc0a26b6c2a766f	-0.12995665341889004
64	0xbfc21fd61180fbb1	-0.14159656386069977
65	0x3f7898b5a9fcaacd	0.006005010247273912
66	0xbfafc58a867d18f6	-0.062053994099686635
67	0xbfb00ed8ba619227	-0.06272654104538643
68	0xbfa74ea4b7dea1a9	-0.045521876759554054
69	0xbfc0d5d549e3be91	-0.13152567012683794
70	0xbfc34a02bef3d483	-0.1506961281189981
71	0xbfc1ee9299f4e1f7	-0.14009315984164036
72	0x3fa1d5b98d4bf8ac	0.03483371591390613
73	0xbfbaaa7858e016c5	-0.1041636673909024
74	0xbfb54f3e69af684e	-0.0832404144306633
75	0xbfa3f0f95bea61c4	-0.03894786116615337
76	0xbfbf9fd97abb5130	-0.12353286024455623
77	0xbfd96cfdde2ad634	-0.3972773236849634
78	0x3f9e6b7ce71deb75	0.029706908804182548
79	0xbfc124d57e38d5b5	-0.1339365831678784
80	0xbfb9614cd9a143b8	-0.09914093316298433
81	0xbfb4d2fcda20a0c3	-0.08134441686036369
82	0xbf653a5053027b02	-0.0025912827332627017
83	0x3f965b0bbe654eb3	0.02183168744643522
84	0xbfbcdde823828861	-0.11276102892819174
85	0xbfbed4f2b65dba34	-0.12043683006570732
86	0xbfbf5f05cfdc26e2	-0.12254368138033159
87	0xbfaf7edaa1268174	-0.061514694377595186
88	0x3f8374873742d926	0.009499603628097274
89	0x3f9666668ca29b4a	0.02187500222558051
90	0x3f95f6184eec993b	0.021446590249206237
91	0x3f8670e2cbc59f59	0.010957500308634559
92	0xbf97fb4d5da5bd2e	-0.023419579354080948
93	0xbfb86edba7d80873	-0.09544155929327917
94	0xbfc4a9df27fdc3f9	-0.16143407299708182
95	0x3fd56727faa8d4bb	0.33442115286318214
96	0xbfc016885bfb6665	-0.12568764201459995
97	0xbfbe7088591254db	-0.11890461134528911
98	0xbfba95f858abc8be	-0.10385086216755021
99	0xbfb16b258511bd69	-0.06804117678415413
100	0x3f9df472787f428a	0.029252804379043464
101	0xbfb300e3dacc886c	-0.07423233119746592
102	0xbf5c9c23de195401	-0.001746211077621185
103	0xbfb4d62e234699c3	-0.0813931308863181
104	0xbfc6b04236960639	-0.1772539869817125
105	0x3f52aacd29b3097c	0.0011393550437764624
106	0x3f8b3dcf9e18ca4d	0.013301488888008662
107	0xbfa7bb81a29ee7e9	-0.046352435208475935
108	0x3fd08af470347343	0.258481130194742
109	0xbfb48bdec48ff868	-0.08025924967657405
110	0x3f903de7310a78d9	0.01586114155599536
111	0xbfc143a612fb0624	-0.13487697531495357
112	0x3fca113cc07eea96	0.2036510410233247
113	0xbfb843b226b1b1ff	-0.09478295750313491
114	0xbfc2d6fd39e96970	-0.14718594863627343
115	0x3f9e80e891d8db4b	0.02978862180881529
116	0xbf9f344222669d5f	-0.030472787236843654
117	0x3f8b5dcf3752c1c2	0.013362521053154167
118	0xbfba6aaef63f8736	-0.10319036018293279
119	0xbfbc6331e54701ca	-0.11088859412757937
120	0xbfbd813345987110	-0.11525268982990533
121	0xbfb54e12ee0c7304	-0.0832225638554967
122	0xbf833325f0c1267b	-0.009374901208633482
123	0x3f7907a6ed55afbe	0.006110813197079011
124	0x3f9c16a7fb669656	0.027430176467211652
125	0xbf9144df993e194a	-0.016864293792900477
126	0xbfbaaf70463911b4	-0.10423948015620149
127	0xbfb3a0ea5295ef92	-0.07667412296535606
128	0xbfae19fac00cf7ce	-0.05879195780151712
129	0xbfabbfe4d1ec796a	-0.054198408723311456
130	0xbfa61bfc1123931e	-0.04318225583282341
131	0xbfbdb1ae30c8711f	-0.11599243823042514
132	0xbfc09eb67993c655	-0.12984353004826468
133	0x3f8d5d3667f3ebef	0.01433794502962901
134	0xbfc3165183cdbbd1	-0.1491186040470596
135	0xbfad7c65c2781b25	-0.05758970259562649
136	0xbfa4ce88ade6a749	-0.04063822863402195
137	0xbfb151510906c924	-0.06764704199193666
138	0xbfc32e65df75a95c	-0.14985345278848683
139	0xbfbd0ef2ee242f5a	-0.11350935281751387
140	0x3f96345ff994dcd8	0.021684169395680936
141	0xbfb1ec955d4e98c4	-0.07001622703555471
142	0xbfc183b8f14b1c07	-0.13683234960464594
143	0xbfc1d9d84889185b	-0.13946059743665526
144	0x3f9bb38d78321f64	0.02705212637059108
145	0x3f8985068f7fb47c	0.012460757498013779
146	0xbfc1da93746c9571	-0.139482910011036
147	0xbfc24ab3385f509f	-0.14290466549448852
148	0xbfc4097dad3496da	-0.15653964001938087
149	0x3f9ee8903602719b	0.030184033676606253
150	0xbf96045dfed599cf	-0.021501034430366602
151	0x3f87669e4c697c08	0.011426197726164503
152	0xbfa17c631e3051c2	-0.03415212386622414
153	0xbfa86ec97bac26c0	-0.04772023806260739
154	0xbfb1213dac82c1ce	-0.06691346608818735
155	0xbfb70b3cca39fbe0	-0.09001522004290008
156	0xbf6867351c91161a	-0.002978900655338246
157	0xbfb15c256138332b	-0.06781228660129261
158	0xbfc27d311ecf93a2	-0.1444455528682314
159	0xbfb03cac920f2697	-0.06342581334970486
160	0x3f4f22d6884c73e1	0.0009501979371609981
161	0xbfa6e9c635068a19	-0.044752305958599865
162	0x3f9a727cc1e28a6e	0.025827359517857244
163	0xbfc1520476d7e409	-0.13531547358414311
164	0xbfa1f35288ff64b4	-0.03505952761015277
165	0xbf887fbd2f77b69f	-0.011962392817589871
166	0xbfa925383bb36b92	-0.04911208847780481
167	0x3fe5bfacd2cef2e5	0.679647838339943
168	0x3fab0564c5199c66	0.05277552515035992
169	0xbfb039e58ba124b9	-0.06338343295023464
170	0xbf7f53660c7da9c7	-0.00764789450463827
171	0xbfa246982b6121a7	-0.03569484262021954
172	0xbfc572c3d77b2c54	-0.16756485005893984
173	0x3f9b4b940b64f1ae	0.026655495830014857
174	0xbfabe636a05e37cb	-0.05449076373689329
175	0xbfa963dc46fadf82	-0.04958999983267544
176	0x3f747e153c595fc3	0.0050030545731586966
177	0xbfaf0c3870f622fe	-0.06064010981487476
178	0xbfc106db76e3b28e	-0.13302176766537283
179	0x3f93a000f8485fcf	0.019165053514455906
180	0x3fc7f53f192da815	0.1871718285504477
181	0x3f905680d8fe8454	0.015954983944201764
182	0x3fb7ff0135927e2e	0.0937348132888409
183	0xbf9107efff1c17da	-0.016631841607725885
184	0x3fb43596f4e90986	0.07894271353965196
185	0xbff62979ce4ffc13	-1.3851259287910167
186	0xbfaa42f12a342ad8	-0.05129197731192442
187	0x3fc2459365c7296b	0.14274828405025217
188	0x3fb0f6a64b3a498b	0.06626357399571796
189	0x3f7781098aa6dfbc	0.0057382939070790805
190	0x3fbff24ebb1e76e5	0.12479106968245508
191	0x3f99525c3168f021	0.02472824145864661
192	0xbffaed4c06d91b10	-1.6829338328840926
193	0x3f979869beb5754b	0.02304234720701474
194	0x3f9d8e796a46de5a	0.028863808738348908
195	0xbfa4e74c49521d2d	-0.04082716364887982
196	0xbfa453131616f8e8	-0.039696308561802784
197	0x3fa204fd7cb1562b	0.03519432208183234
198	0xbff266a337d31fb4	-1.1500580006267969
199	0x3fbe166606f0c35a	0.11752927464909871
200	0xbfbfa8a16aaca31e	-0.12366684774736966
201	0x3fb4497d9f74e674	0.07924637930855188
202	0xbfe9ad5288f25b21	-0.8024075197925847
203	0x3fbd05f202b9b1c6	0.11337196890389753
204	0x3f9fa7762833bcbd	0.030912252620450376
205	0x3fc21e98b382eb27	0.14155873074727163
206	0xbfca7aac3316feb3	-0.2068686723196059
207	0x3fa88e60687b5ff5	0.04796124720968457
208	0x3fa831808414ac8b	0.0472526704055208
209	0x3fc082c0d5cf71cb	0.1289902729030373
210	0x3fa3ea506b9762b2	0.03889705003138512
211	0x3fba3ef8e2fcb8b2	0.1025233797233536
212	0x3fb66317e9229f95	0.08744954530504707
213	0x3fba69b8137bf8e3	0.10317564464273547
214	0x3f6b295b7405cda4	0.0033156191058709306
215	0xbfc01add1daca8da	-0.125819816102484
216	0xbfea8a90f3651b97	-0.8294148210342084
217	0x3fbbdee6d046e80e	0.10886995873343627
218	0x3fb88f1498851f2d	0.0959332344401644
219	0x3fb78d9de2ca4812	0.09200464999074168
220	0x3fc5e6a1ab496179	0.17110081542592662
221	0xbfdf4cf536a8d1fe	-0.4890721353324635
222	0x3fc2ef3bfce38baf	0.147925852280506
223	0x3fbe825b8cd36d07	0.1191765993893804
224	0x3fa50cd73c6ded19	0.041113592268596295
225	0xbfb03d910e3693f4	-0.06343943211557229
226	0xbf89c66c56287b7c	-0.012585493449533074
227	0x3fac2567ef528b01	0.0549728850976603
228	0x3fb3a0a49a5c6701	0.07666996735170174
229	0x3fc1ff02c36e47d8	0.14059481184500444
230	0xbfad039a132e59c2	-0.05666810497421039
231	0x3fb62554306bc848	0.086507093259372
232	0x3fbd9cd04c3a7ed9	0.11567403660819355
233	0x3fc006d838bd9aea	0.12520888109721479
234	0x3fc22c25dd80059f	0.14197228732522846
235	0xbf94f3ac492d976d	-0.020460788694797772
236	0x3fc30084771f6d03	0.14845329109707714
237	0x3facddecfe1507cb	0.05638065911854503
238	0x3fc5bfd652edc58b	0.16991690682656854
239	0xbf7ae9e102d3680f	-0.006570700597160708
240	0x3fc9f250bb898040	0.2027073779781876
241	0xbfd3b9f539994236	-0.3082249701010683
242	0xbf96c599392686c9	-0.02223815356558737
243	0xbf8102a973714840	-0.008305858455205706
244	0x3f80f8fd6cc9112a	0.008287410623900888
245	0x3fc05bb87cb6659f	0.1277990921924301
246	0x3f927cc52be5a701	0.018054085544839008
247	0x3f9a914a193b389b	0.025944860258100815
248	0xbf9d5a1bd61bbac0	-0.028664050048002876
249	0xbf964cff21e81049	-0.021778093761909898
250	0xbf7a4199f08cf889	-0.00641021855045499
251	0x3f9d083e59ab82a0	0.028351759169597757
252	0x3f7e65be970fa675	0.007421249859342551
253	0x3f8ba6c76eb4faf8	0.013501699510582096
254	0x3fa831e4432702ce	0.047255643079102336
255	0x3fa6aef6f1d04404	0.0443036241705457

bias f8 [90]
0	0xbfc24b2a7fe64526	-0.1429188847073785
1	0xbfac1af6fedd6d29	-0.05489322529930469
2	0x3fb2e2dd17a4bb68	0.0737741644595481
3	0x3fbae1f41270ed0c	0.10501027536604485
4	0xbfb282b05cf07a24	-0.07230665463473734
5	0xbf8213c8de0bd146	-0.008826798702536675
6	0x3fb024e6cf63cb97	0.06306307376125485
7	0xbfb16f51e865531a	-0.06810485767102784
8	0x3faccd2cf62cf915	0.05625286583971182
9	0xbf90bb462b618cbc	-0.016339393995065107
10	0x3fa402f037148d3b	0.03908491775862407
11	0xbfa44ac852e2bcfd	-0.03963304530895504
12	0x3f87e7025f80517c	0.011671083964792876
13	0x3fb63a3523b28191	0.08682567712322099
14	0x3fb73dad53895e80	0.09078486718623857
15	0xbfbbd169846c8422	-0.10866412623410374
16	0x3fba16f6c295f5ae	0.10191290140752216
17	0x3fc177cb108a3e9a	0.13646829898469975
18	0xbfa2dfb93d0cba3b	-0.036863125517232885
19	0x3fc252792e17eeb3	0.14314188719423768
20	0xbfbbdf38aec22241	-0.10887483851014058
21	0xbfa2e30cb656cdf9	-0.03688850141352513
22	0x3fc17d12e98d6cc0	0.13662945178916708
23	0x3fa2feb5178caa89	0.037099513172809635
24	0x3fc40e3c624c956a	0.15668444442523405
25	0xbfad955619f9ec29	-0.05777997080891623
26	0x3fc1142fb82f0926	0.13342854016634326
27	0x3f9728f9e2123ef0	0.02261724893884226
28	0xbfbcb4b1d57fe3de	-0.11213218176261772
29	0x3fa95d0b07b121fd	0.049537987412410424
30	0xbfa04dbda78482ca	-0.03184311551945525
31	0xbfb4e8e5b7b0720f	-0.08167873129463764
32	0x3fbfc86a22b75d59	0.12415183398785724
33	0xbfa61a78fb4c4649	-0.04317071979143045
34	0x3fa21a0188cbf55a	0.0353546599853682
35	0x3f97a6d6023c4fc0	0.023097366224717808
36	0xbf995320747a055d	-0.024731165990038096
37	0xbfc09a4c383c8fb2	-0.12970879312444833
38	0xbf8b03c2f2107add	-0.013190768253534763
39	0x3fc3e74867e0e951	0.1554956919879467
40	0xbfc08b35954cc6ef	-0.1292483309749097
41	0x3fbc2dc1de29ae66	0.11007320093056591
42	0xbf817c38bffba541	-0.008537715300422579
43	0xbfb5f2298cb07c4a	-0.08572635350036353
44	0x3f8c8b63e1da8432	0.013937740640644323
45	0xbfa984cd297bdd89	-0.04984131938357012
46	0x3fc01216b79189f2	0.12555202449136932
47	0xbfc1fbc622a0a683	-0.14049603167341126
48	0xbfc49a42b4d17952	-0.16095765904442288
49	0xbf73b0f0fb5ae160	-0.004807416282055804
50	0x3fbc7bb9ca20d25c	0.11126290497561214
51	0x3f9530fb5ede75e9	0.020694663682311463
52	0xbf914b2f69e6fff9	-0.016888371313825676
53	0xbf9998cdb66626cf	-0.02499696183944061
54	0x3fb367dc089a4cb9	0.07580352029826799
55	0x3fc0854c597c1ce6	0.12906793946624545
56	0xbfc07b95defe28eb	-0.1287715281326379
57	0xbfa7056f551e0e6b	-0.04496333993941167
58	0xbfb6e517fe6ffb68	-0.08943319284297291
59	0x3fade270e10c3f78	0.058368232223187044
60	0xbf949fd60d4665c3	-0.02014097648643599
61	0xbfbfe24d590ec770	-0.12454684662114146
62	0x3f51c276f877e10f	0.0010839616605818369
63	0x3fc07ae82bab3c3d	0.12875082142133634
64	0xbfa4490a9fa5aeaa	-0.039619762409384876
65	0xbf85b71c6e516476	-0.010603162876735999
66	0x3fc2005c86a539e2	0.1406360299537957
67	0xbfc0c69dcf272c4b	-0.13106129279035125
68	0x3fb9850e1e1b4dc4	0.0996865104200913
69	0x3fad586f4b0239f0	0.057315328508696584
70	0x3fa31b96f4edfada	0.037319867514261154
71	0xbfa1213acbbb5c8f	-0.03345664727174224
72	0xbfba06c12fb85fcf	-0.10166556754154431
73	0xbfa6123b1e6cdd5f	-0.04310784098054898
74	0x3f705f985e76d801	0.003997416678819477
75	0x3faaad9adbce644a	0.05210575040036554
76	0xbfc3b6f64dbeb80f	-0.15402106090681442
77	0xbfa25b9d154c2e55	-0.03585520634632348
78	0xbfa701c277683c3d	-0.04493529994589849
79	0x3fb4a166f588ac3e	0.08058780188064049
80	0x3f9490cd84e7fc76	0.02008362888045353
81	0xbf737fd2667298f8	-0.00476057231495574
82	0x3fac33d8d4237cd5	0.05508306111891562
83	0x3f66b3f640fe8859	0.0027713594099206093
84	0xbfc2ba273706f6e2	-0.14630594431758143
85	0x3fc4982c652ba9da	0.16089396419495366
86	0xbfa80b585012b3da	-0.046961555265944546
87	0x3fa50928bc3edf2e	0.041085503558348044
88	0x3fb17977f8da6fce	0.06825971436995745
89	0xbfad36e3db041b0c	-0.05705940292869202

weight f8 [1, 90]
0	0x3f921f564091bf46	0.017697665873526412
1	0xbf80ef6cc98bff4f	-0.008269166851732427
2	0x3f84a3ee7ca93002	0.010078299693439877
3	0x3fc0270448e0bcfe	0.12619069632044239
4	0x3fcc95d4fb2bd784	0.22332250847074075
5	0x3fc1dfb149d10070	0.13963905433957136
6	0x3fb78204ed627c0b	0.09182768626713782
7	0x3fbd1fd5d487ae35	0.1137670177337718
8	0x3fb1d8199b333f2f	0.06970367468897785
9	0x3f70c5b1d18c3179	0.0040947862660342055
10	0x3fa9e1934727a211	0.050549127994433125
11	0x3fbb2c23b5cc9524	0.10614226520973041
12	0x3fb7e04878d19bc4	0.09326603841473885
13	0xbf962c1df3278543	-0.021652667966809657
14	0xbfab9aa2cf1d2af6	-0.05391415384527491
15	0x3fc134cdc2ccdda9	0.13442394267779648
16	0x3fba5f6c5cc5ade3	0.10301854386278068
17	0x3fa929dfbcad0eb2	0.049147598058451605
18	0xbfabe477d245e654	-0.05447744790849343
19	0x3fa3150b082b91c5	0.037269921061838164
20	0x3fb94788d5d12f5c	0.0987477800383067
21	0x3fb0ea9a88e8cc23	0.06607976763261596
22	0xbfb2bb0e41ae92e6	-0.07316674331248016
23	0x3fc0934323b86278	0.12949408764031367
24	0xbfc118672352384d	-0.13355721687952596
25	0x3fc36160da85fea3	0.1514092509278174
26	0x3ec155528ff38b06	2.06628931175132e-06
27	0xbfb706232c45c6cd	-0.08993739920495188
28	0x3fb2891460a993fd	0.07240416870043016
29	0x3fc831e68cd74a19	0.18902284504891112
30	0x3fcb274c378aa8cd	0.2121367713164716
31	0xbfb2ea9a55e1f089	-0.07389225575201598
32	0x3fb8bae94c5d7118	0.09660204042797138
33	0x3fb0b335a0e06131	0.06523451974533569
34	0x3fc8aaf112bbf83d	0.19271672644384977
35	0xbfa3323045fc691c	-0.03749228338547736
36	0x3fb2126e946ed988	0.0705937492738028
37	0xbfc34b156e34c762	-0.15072887307320132
38	0x3fc8354861c75f43	0.1891260602412733
39	0xbfc996cfeab92971	-0.19991492234323574
40	0x3fc4d7c5b53e7406	0.16283484792521125
41	0xbf81f41d09d936b2	-0.008766390669872368
42	0x3f75de8789a5e273	0.005339173740474312
43	0x3fae7120732e4686	0.05945683866515332
44	0x3fc3141decf37ae6	0.14905141897084845
45	0x3fc59dbda45dafaf	0.16887636686021554
46	0xbfb9ccc1130691af	-0.10078055109494842
47	0x3fb8b3237007b494	0.09648343548879473
48	0x3fa38ce97391a9a0	0.038184447629493024
49	0xbfbf86d3ff5a8883	-0.12315106376857625
50	0x3fbbe8afcd8713df	0.10901926772847002
51	0x3fc2a03324ad9f66	0.1455139092533912
52	0xbfa3fbcfb5475b03	-0.039030543211699985
53	0x3fa60763e261fef0	0.04302513254606122
54	0xbfa7e426a86e6d01	-0.04666252904936564
55	0x3fc9f338114dbdc3	0.20273495526224225
56	0xbf94461b579033dc	-0.019798686236800353
57	0x3fc9144b000a13ae	0.19593179227754604
58	0x3fc405e6df3622b5	0.15643010996816079
59	0xbf9e951f15a7b2e0	-0.02986572808906629
60	0x3fb092213ff886a0	0.06472976505076611
61	0x3fc353249eb26908	0.15097482441780863
62	0xbf981d4aaaa3f198	-0.023549238839210312
63	0x3f7057039e12cef4	0.00398923314166998
64	0xbfa41f6e1e50daed	-0.03930229301515973
65	0x3fbdf87abf0fa3de	0.11707274593904013
66	0x3fc89c4a8453b3e7	0.19226962529447109
67	0x3fc6ab193ac9ff12	0.1770965134673977
68	0x3fbe2cd99dbc1c53	0.11787185765216295
69	0xbf85c8f6da92ea57	-0.010637215180726729
70	0x3f93749a8389adb7	0.018999494818144416
71	0xbfbc0fad519858c3	-0.10961421243732432
72	0x3fadc05a7264fe2f	0.05810816427628784
73	0xbfc1010124f42125	-0.13284315399528981
74	0x3f926892ae380a6b	0.01797703922603448
75	0x3fc8f68c8ded979a	0.1950240796097063
76	0xbfb047784ca4776e	-0.0635905444255209
77	0x3fc2522538b8d03c	0.1431318785631691
78	0xbf552ff081b3775b	-0.0012931679437353158
79	0x3f95053ef3254d16	0.020527824011265038
80	0x3fb436cedb524c59	0.0789613042309595
81	0x3fb9b53f6f1c979d	0.10042187178313929
82	0xbf83235479961c68	-0.009344730339547705
83	0xbfa3d0333712e783	-0.03869781539238117
84	0xbfaef4e54a6c443c	-0.06046215566141952
85	0x3fc0d7c9d095076e	0.13158533749270468
86	0x3fc9466eb275c7e4	0.1974619265925518
87	0x3fc38343b6279911	0.15244337457915738
88	0xbfb6126ccd39909f	-0.08621864328739769
89	0x3fbb71425ef449de	0.10719694917887732

bias f8 [1]
0	0x3fc01ec64b5da448	0.1259391658780109
