fine-tuned models/NO2893_YJL097W.pth (torch, 80983 bytes, 6 tensors)

weight f8 [84, 29]
000000 e9 75 cc cd f0 62 73 bf 62 a1 7a 36 85 07 82 bf
       -0.004733029022444304 -0.008803406453197386
000010 b3 91 41 d5 9a aa 7e bf c6 eb 4d 29 5c 16 70 bf
       -0.007486920181780143 -0.003927574162726216
000020 7b 64 e3 e3 52 b1 74 bf be 1b a7 55 54 cf 70 3f
       -0.005051921644018904 0.00410397475429297
000030 51 45 d8 8f d9 a2 81 bf 34 14 16 55 3b a8 50 bf
       -0.008611392690940052 -0.0010166720788629237
000040 53 47 c3 00 79 d1 1c bf 7e 46 e7 ca 2b b6 73 bf
       -0.00010993290942742694 -0.00481240374070213
000050 b7 40 3e 39 8c a9 a2 bf f0 49 01 95 1b f8 57 3f
       -0.036449796664898164 0.0014629620891538596
000060 fd 8a 78 40 a5 6e 74 bf a8 e7 da 78 2b 1a 68 bf
       -0.00498833228587858 -0.0029421662391912635
000070 62 90 c9 28 02 4f 91 bf 08 35 d4 35 b1 27 69 bf
       -0.016902955760443546 -0.0030706845415183794
000080 ca 56 43 7e d8 1f 3a 3f 89 95 6d 1c f5 45 96 bf
       0.000398626665867635 -0.021751241550551668
000090 e9 4b 6b 46 b2 26 74 bf b9 b4 9a ec 84 64 71 3f
       -0.004919716250429731 0.004246253238006031
0000a0 02 c0 f6 7b 86 d7 7c bf 74 44 4c 73 2f 69 89 bf
       -0.007041478470839026 -0.01240765638934447
0000b0 a3 ee dd 3a 90 26 74 bf 69 32 34 dc b6 77 86 bf
       -0.004919589422452883 -0.01097052440175013
0000c0 66 4e 61 6a 9e 50 82 bf a7 6b 56 22 a7 6f 85 bf
       -0.008942830678427782 -0.010466867194556985
0000d0 ad 85 a2 c1 12 62 84 3f a3 82 a3 3e 40 ae 93 bf
       0.00995268491198228 -0.01921940214458807
0000e0 07 db af 6e 3f f8 81 bf f3 a2 ea 8a 21 f4 4f bf
       -0.00877427631892892 -0.0009751476080356022
0000f0 59 90 e6 de f5 2d 44 bf a4 5f 64 04 c1 dd 47 bf
       -0.0006158304729990779 -0.000728339430483328
000100 07 a2 1d c8 cd 76 51 bf fc c3 88 c4 c0 63 50 bf
       -0.001065922697728651 -0.0010003454682527826
000110 26 5e e2 39 14 50 5b bf ca ed e5 13 d2 d3 44 bf
       -0.0016670415421112888 -0.000635602547660091
000120 11 dd 0d cc ac 1f 57 bf 94 d0 51 86 45 1a 57 bf
       -0.0014113604995296717 -0.0014100722267161069
000130 04 54 a6 35 1a ec 4f bf c9 7a 5f e9 03 48 62 3f
       -0.0009741905189907256 0.002231605186337891
000140 ce 70 fa b1 c9 e8 59 bf ed 29 ce 67 fc 82 4f bf
       -0.0015813798599202847 -0.0009616596649817934
000150 45 6e 83 82 ff 2e 51 bf 5b 5e f2 40 be 75 28 3f
       -0.001048802872950187 0.000186614488914871
000160 c2 39 74 6f c7 14 56 bf 32 31 db 2a e0 47 57 bf
       -0.0013477275477416927 -0.0014209450850329428
000170 ae 92 2b 49 4f 63 44 3f 2c 7b 14 f6 6f c9 4f bf
       0.0006221902025030557 -0.0009700581250945187
000180 30 13 d6 ec 5c 40 5c bf fc 5f 59 14 21 64 49 bf
       -0.0017243297073445511 -0.0007748757859173945
000190 6c ce 2d 8a be e6 2e bf 5a 30 13 30 3f 04 50 bf
       -0.00023575855183431986 -0.00097757502253428
0001a0 05 3d e2 c4 09 34 42 bf 21 4c 74 f1 e5 6e 45 bf
       -0.0005555198383876697 -0.0006540892381131682
0001b0 20 e7 cf 62 14 00 32 bf 22 14 77 fe bc d7 61 bf
       -0.0002746629496069731 -0.00217806733027938
0001c0 77 3e d4 63 10 69 36 3f e4 66 c3 b8 f6 24 47 bf
       0.0003419556631607321 -0.0007063107200579702
0001d0 d6 f2 ed 89 80 c2 74 bf e4 e1 89 2b c1 dc 82 bf
       -0.005068304161679213 -0.009210118428414078
0001e0 4b c2 57 e7 58 1c 80 bf 82 94 8c cf 88 69 71 bf
       -0.007866568145773153 -0.004251036087940753
0001f0 17 d5 7c d7 3f 15 76 bf 94 92 42 21 66 4a 70 3f
       -0.005391358739691008 0.003977202363021921
000200 af 8c 0e b3 20 50 82 bf b7 a7 eb cf fc 13 56 bf
       -0.008941894020443845 -0.0013475388402022068
000210 4b f2 2a c0 70 bc 39 bf e8 81 a7 ca 3e 1a 75 bf
       -0.0003927016515879219 -0.005151982574233639
000220 02 3a 8f 0e 7c 11 a3 bf 91 59 0a dc fb 79 53 3f
       -0.037242771889953744 0.0011887511792899356
000230 10 e1 23 06 c7 d7 75 bf 80 0b 92 a3 7f aa 6a bf
       -0.005332734525147723 -0.003255128187960421
000240 b6 b6 59 e4 e8 ce 91 bf 5d c6 1e 95 6b 3b 6d bf
       -0.017390860497860948 -0.0035683728428573106
000250 27 30 2c 65 73 94 21 3f ab 39 4b f2 ee e4 96 bf
       0.00013412388451461527 -0.022357686556284822
000260 67 b5 bb c0 7f 8e 75 bf aa c6 df db 15 bc 70 3f
       -0.005262850794435315 0.004085622202170272
000270 07 9a 8d e4 0e 63 7e bf 28 5e 60 f1 4b 4e 8a bf
       -0.007418687987274192 -0.012844651511883035
000280 64 a4 c3 5a 08 91 75 bf 9a a8 bb 46 99 8d 87 bf
       -0.005265267023994633 -0.011500546904660337
000290 d4 7d 6e 2c 85 30 83 bf 3c 9a 97 2c 21 2c 86 bf
       -0.009369888704724362 -0.010826358006807195
0002a0 32 f9 f1 89 f6 55 84 3f a5 7e dd d0 92 3e 94 bf
       0.009929586491349871 -0.019769948957558587
0002b0 a5 d3 7a 86 3e ea 82 bf c4 72 27 66 b8 38 76 bf
       -0.009235847929952199 -0.005425186451671397
0002c0 04 91 da 35 bf 9a 83 bf a4 10 60 a0 9f da 80 bf
       -0.009572500067698282 -0.008229491311802235
0002d0 9c 37 63 b7 5d e7 72 bf a5 7e c6 d1 76 b7 77 bf
       -0.004615179137727934 -0.005790199411790963
0002e0 70 50 79 3b 05 bc 6d 3f 72 95 82 bf 11 2b 83 bf
       0.00362969419419739 -0.009359491974758358
0002f0 03 74 d0 f6 c6 95 5b bf 72 51 4f 68 e9 a8 47 bf
       -0.001683658886810991 -0.0007220401463379612
000300 f2 a6 5e 7b db 89 76 bf 2a ec 17 f2 6e 3b a3 bf
       -0.005502564765188943 -0.03756281571619298
000310 ee 44 5b 3b 8c 1e 4c 3f c7 5b 2c 58 f2 4b 77 bf
       0.0008581337667356284 -0.005687662752072726
000320 b7 3e 54 4c 84 0b 6d bf bd e4 92 9a 4d 37 92 bf
       -0.003545530695767098 -0.0177890897364008
000330 8c 24 5b 2f e1 25 6f bf 05 08 01 4c 13 e8 28 bf
       -0.0038022421020725335 -0.0001900218539976907
000340 2e bd d4 04 dd 46 97 bf 4d fa de 3b 01 06 77 bf
       -0.02273125974641948 -0.005620961017426551
000350 30 53 0f b9 97 b3 6e 3f d8 6c ec 1a b8 dc 7f bf
       0.003747745832223613 -0.007778853569813303
000360 b5 bb 7b fd f1 17 8b bf 56 c5 ce 49 0f 0d 77 bf
       -0.013229265735814491 -0.0056276890945111315
000370 96 6a 68 06 fb 47 88 bf 7c 7d ec cb 09 f7 83 bf
       -0.011856042035153263 -0.009748531852493462
000380 67 85 92 59 3f ee 86 bf 19 b1 c3 70 1e a6 83 3f
       -0.011196608468085413 0.009594190422341374
000390 07 66 d6 81 90 a6 94 bf d9 41 fe b4 af a7 83 bf
       -0.020166643070842507 -0.00959718009087933
0003a0 9d 78 04 6f bf f4 7a bf 3b 45 b4 44 84 7e 86 bf
       -0.006581065929166877 -0.010983498903928015
0003b0 92 45 ee 98 d3 8f 83 bf 64 3b a8 3f 52 79 77 bf
       -0.00955167112786873 -0.005730935367423171
0003c0 8f 88 d0 ff 78 9c 7c bf 97 be f1 5f 98 a5 69 3f
       -0.006985161450787327 0.0031307197637529638
0003d0 a4 bd 6f b4 d9 d6 85 bf 3f 47 71 f5 0e 5a 66 bf
       -0.010663700884804346 -0.002728490082099549
0003e0 34 a0 03 58 bb d5 5a bf f9 ab c9 04 42 50 7b bf
       -0.0016378716973637466 -0.006668336759143572
0003f0 38 53 36 6a 8b b2 a4 bf 8c 6a 2f 97 6e 61 d3 3e
       -0.040424687114102686 4.620693618807359e-06
000400 4c f0 9b 4d 28 23 7c bf a0 3d 2e 48 ad b1 72 bf
       -0.006869466242047716 -0.004563977129591917
000410 bc 13 51 c2 2a 10 94 bf 5b 18 98 ab d1 4c 75 bf
       -0.019592922315741154 -0.005200213455742365
000420 5b d9 59 9a 95 2d 51 bf 4f c3 b2 6a 55 7a 99 bf
       -0.001048465820898756 -0.024880728375765767
000430 ed 75 2b 62 84 d9 7b bf 08 f2 53 61 e4 27 6a 3f
       -0.006799237368537697 0.003192850165417708
000440 8e e2 a6 6e 06 9a 82 bf 1e 6c 6b 47 8c 4e 8e bf
       -0.009082842113330682 -0.014798255853227412
000450 76 0a ab 70 f1 e6 7b bf 2c 1a 6f d1 a9 c7 8b bf
       -0.00681204140227242 -0.013564421371381995
000460 d1 f1 0b 76 8d f5 86 bf 28 22 0d c2 5c ac 89 bf
       -0.011210541882513166 -0.012535786315894873
000470 cb c0 a1 c4 79 62 83 3f 89 e0 ae 0a 40 b2 96 bf
       0.00946517115900782 -0.022164345409436712
000480 c5 57 a6 36 35 c1 86 bf b8 b0 7d 85 82 f4 6c bf
       -0.011110702257422287 -0.0035345601317456586
000490 3d 0a d1 bf ac 75 72 bf 07 1d cf 9e 6d 1d 71 bf
       -0.004506754686249223 -0.004178455547793953
0004a0 91 2c d6 b8 5c 8d 6b bf 40 75 ea 3d 9d a1 6d bf
       -0.0033633051850237646 -0.0036171027307562442
0004b0 c1 98 8b 1f 75 40 54 bf b2 53 11 4d d0 e5 71 bf
       -0.0012360709935648614 -0.004369558025321506
0004c0 0a 04 7c cc d8 f6 67 bf e5 b9 04 40 6e d3 64 bf
       -0.0029253229475902963 -0.0025422242471428874
0004d0 b3 bb f9 8f 4b 64 6d bf 8e 66 19 72 b9 1e 85 bf
       -0.003587863524266288 -0.010312508387119192
0004e0 83 86 74 4b 08 42 62 bf a1 1b be 13 b0 aa 6d bf
       -0.0022287523276112733 -0.003621429348587183
0004f0 52 6d 7a 37 a9 36 69 bf 9f 73 73 25 0e 42 79 bf
       -0.003077822209730443 -0.006166510828930521
000500 72 9b 32 78 39 1c 70 bf cd be 73 75 50 4b 63 bf
       -0.0039331669715129015 -0.0023552485905538934
000510 16 9b 18 10 76 34 7e bf 81 1c 65 44 ed 81 6d bf
       -0.007374249632937665 -0.003601993000447446
000520 d0 49 66 64 c2 8c 55 bf 89 3d 2f ea 57 c4 70 bf
       -0.0013152979241551795 -0.004093497674105059
000530 d9 ef ff 92 b8 2b 75 bf 5c 9b 34 cc 32 90 6d bf
       -0.005168648713148338 -0.003608798231329242
000540 3f 2e b3 40 4b c0 75 bf 14 71 9a 71 88 d1 72 bf
       -0.0053103389320302 -0.004594357474754913
000550 90 31 3a 1d 2e 19 72 bf 52 5b 67 88 85 44 24 3f
       -0.0044185448965773505 0.0001546299938144044
000560 89 ce d1 b2 da 17 7c bf e5 42 c2 14 6b 32 73 bf
       -0.006858686724729454 -0.004686754498963029
000570 f8 d5 cd c1 eb 33 72 bf 32 1d 16 ec 20 23 8b bf
       -0.004444046903576908 -0.013250596241745603
000580 c5 4f 12 13 0d 65 85 bf f7 11 03 78 e8 be 65 bf
       -0.010446645874516389 -0.0026545086294353887
000590 b2 55 72 c9 cd 69 75 bf a1 33 ca 7c 4f 3a 8d 3f
       -0.00522785554416798 0.014271374698432928
0005a0 a5 3b e3 ed a1 bd 8a bf f7 d9 77 bc 52 b8 71 3f
       -0.013057007858518885 0.004326174915596052
0005b0 83 d2 57 b5 c4 2c 78 3f 82 2c 21 6e 78 6c 72 bf
       0.00590206946570915 -0.004497976713604081
0005c0 8e f1 99 bd 27 3d b3 bf fe b1 3c d2 41 52 83 3f
       -0.07515190485896125 0.009434236744334076
0005d0 60 55 20 dc fe 27 74 bf 21 39 bb 7d 6d ac 40 bf
       -0.00492095522533495 -0.0005088362335870269
0005e0 78 2b dc 26 49 26 a0 bf ae 1a d0 83 de aa 56 3f
       -0.031542097085625664 0.0013835118290913928
0005f0 3f 33 c5 47 bd fa 7b 3f d9 50 ed 5b 5d 75 a5 bf
       0.0068309205783634855 -0.04191104647785133
000600 4e aa d5 d4 d0 a2 73 bf 70 69 12 91 2a 69 8e 3f
       -0.0047939450717913844 0.014849026252978986
000610 4a 4a fc 87 37 49 83 bf 39 60 98 00 67 29 96 bf
       -0.009416993939827329 -0.021642312442139853
000620 d7 29 46 4b ee aa 73 bf b1 d3 9f 47 c5 b6 91 bf
       -0.004801684223262068 -0.017298777100183297
000630 0d cd 87 6a c6 a7 8b bf 0b 54 df dd 87 9e 92 bf
       -0.01350359928708269 -0.018182871739401956
000640 1c bd 1a fb be 9f 9b 3f 1b 16 60 db 3e 85 a2 bf
       0.026976570202063774 -0.03617283275529478
000650 3e 7d 2d 38 8f 1f 8a bf 6a 62 54 49 f1 08 75 bf
       -0.01275550737562858 -0.0051354813815796905
000660 c5 a1 b1 5e cf 79 82 bf 6c 6d c3 7c e0 ca 7f bf
       -0.009021396710708349 -0.0077618378674871695
000670 c6 93 9d 05 bc ec 71 bf 1f f9 8d c6 5c 69 76 bf
       -0.004376158199964791 -0.005471575169279568
000680 49 1b 2f 25 cc 82 6b 3f 0a 59 d5 06 59 09 82 bf
       0.0033582675182261307 -0.00880689193824626
000690 f9 f0 c5 35 1b f9 5a bf d8 e6 6c b2 f0 2f 48 bf
       -0.0016463056300315955 -0.0007381367948717478
0006a0 af b9 cc 82 f9 57 75 bf 7c a8 a4 4b 48 08 a2 bf
       -0.005210852291197928 -0.035219439729488905
0006b0 84 97 58 ed f4 38 48 3f 82 d4 b1 1e 6d 0c 76 bf
       0.0007392116482989185 -0.0053829443451053356
0006c0 a2 6d 22 aa fb bb 6b bf 66 9f 30 3a 19 1a 91 bf
       -0.0033855357479077456 -0.01670112054503594
0006d0 8c 82 5b 77 dd 19 6e bf a4 d4 57 b8 f0 21 2f bf
       -0.0036744428169728834 -0.0002375227306143135
0006e0 ac 69 20 ef 29 da 95 bf 1a 9d 2e 36 28 ca 75 bf
       -0.02134004137051597 -0.005319745136979104
0006f0 e1 2d b9 19 db 5a 6c 3f 3a c9 66 58 d6 11 7e bf
       0.003461292200688013 -0.007341229711914027
000700 f3 b3 02 41 5e 77 89 bf 2f a9 49 4b a9 d0 75 bf
       -0.012434707983937065 -0.005325948052453718
000710 05 60 51 92 d7 e3 86 bf 0c 2c 60 8f e0 cf 82 bf
       -0.011176761772887298 -0.009185556769827151
000720 b0 ef ed 03 d4 8a 85 bf 43 b5 51 f4 e4 51 82 3f
       -0.010518699998776387 0.008945263582257673
000730 1c 86 15 ef 2d 64 93 bf 44 3d 0e b9 8c 8b 82 bf
       -0.01893684169534114 -0.009055232427071964
000740 ed 7c f0 08 6a c8 70 bf f9 de 3c cd f0 4e 80 bf
       -0.004097379874138368 -0.00796306730590811
000750 83 25 db 07 94 81 7b bf 0b 0f 8b 9e dd 45 6b bf
       -0.006715372319101023 -0.0033292129995475864
000760 29 a6 e1 16 87 0b 72 bf 7a f6 07 b0 0f 75 71 3f
       -0.00440552491463956 0.004262028960963721
000770 b2 f2 cc 25 34 f3 7f bf 97 f2 10 f4 60 f0 40 bf
       -0.007800296499053049 -0.0005169366269296036
000780 58 af 5e 41 b1 a8 34 3f 1e 86 56 cb 22 10 71 bf
       0.00031523063204973644 -0.004165779032889753
000790 43 18 e9 8e d1 95 a1 bf 29 8e 72 13 b9 ca 5d 3f
       -0.03434615010751021 0.0018183524496543457
0007a0 38 82 37 29 1a c1 71 bf 4f e2 3f 60 f4 a2 63 bf
       -0.004334547225397993 -0.0023970387428529426
0007b0 f8 10 dc 62 b0 14 90 bf 8a 89 b5 c3 1a 5b 63 bf
       -0.015703922304070667 -0.0023627779716416985
0007c0 3b 5d 79 f3 ce c1 49 3f 12 86 f0 98 07 c9 94 bf
       0.0007860432151102556 -0.0202981173607722
0007d0 a4 78 34 1d f5 7d 71 bf f7 35 75 28 20 18 72 3f
       -0.004270513035662091 0.0044175392316225725
0007e0 85 13 97 fc fb c1 79 bf 5b 3f 1d d1 08 65 87 bf
       -0.006288513491601648 -0.011423176652584457
0007f0 d9 ec b6 b5 ff 7d 71 bf aa bb 15 54 05 6b 84 bf
       -0.004270552507871638 -0.009969751003806444

bias f8 [84]
000000 a3 84 51 29 2e 3d 7a bf 72 d4 a8 ca f6 47 4b bf
       -0.006406002347916803 -0.000832553390245251
000010 7f bd d6 38 57 be 7b bf 65 14 22 84 31 36 7d bf
       -0.006773319922486975 -0.007131761000100577
000020 90 d5 fc 7f 15 33 81 bf 8b 6e 77 e2 45 2b 70 bf
       -0.008398216217396365 -0.0039475183361578165
000030 79 1e db 7f 49 6f 80 bf d9 e5 cd 48 89 96 7b bf
       -0.008024763311723181 -0.0067353594466736605
000040 30 25 1e 49 f1 47 77 bf 5e a2 91 03 14 be 7f bf
       -0.005683844110430145 -0.007749632052857251
000050 a0 e5 04 1a fa 33 72 bf 4a 6b b7 98 4e 9f 70 bf
       -0.004444100341339491 -0.004058177011269157
000060 c9 78 ad 92 5f 5f 44 bf f9 29 19 a5 79 8c 7b bf
       -0.0006217209496346628 -0.006725764441919407
000070 24 dd c3 ad 8b c9 7a bf 26 3b 98 66 2b 2c 86 3f
       -0.006539865131564047 0.01082643420070679
000080 2a 81 3c 11 0f fe 78 bf 83 ba e3 7c ac 6f 78 bf
       -0.006101664406543509 -0.0059658754164347875
000090 87 79 b3 e4 8c 63 80 bf d9 3e fe 78 cb 11 80 bf
       -0.008002377252009264 -0.00784644091598301
0000a0 81 92 13 48 c3 21 71 bf e4 0a 29 a1 c8 af 7f bf
       -0.004182589357900058 -0.007735999783622136
0000b0 32 2a 15 80 0a 1c 80 bf 21 f0 0c 7d 1e a7 7c bf
       -0.00786598399522118 -0.0069953146892736415
0000c0 f3 e7 16 b2 9a 93 79 bf bf d8 fe 00 9f c2 77 bf
       -0.006244282035760651 -0.005800839528026624
0000d0 52 dd 69 69 50 2a 77 bf 64 70 87 c8 5b 6f 73 bf
       -0.00565558825348174 -0.004744871643620117
0000e0 8d f1 15 fc 1b 0d 81 bf 7e 26 4f af 2d b2 78 bf
       -0.008325785284562648 -0.006029299217468085
0000f0 5e a9 40 9b d0 f6 7b bf 2e e6 50 e2 88 fe 90 3f
       -0.006827177876440464 0.016595972836716814
000100 b8 ad 53 90 51 94 5d bf 41 65 7f 33 ae 8d 79 bf
       -0.0018053814431436676 -0.006238632653514487
000110 3d c5 4c da 66 74 67 3f d4 5a 54 5a 41 79 77 bf
       0.0028631218759974917 -0.005730872425621942
000120 73 5d f6 ad 73 16 77 bf 2d d5 39 4c 54 b1 73 bf
       -0.005636646149830826 -0.004807786262621944
000130 b8 1c 30 da bf f8 82 3f 96 f3 48 9e 66 7d 75 bf
       0.009263514371936274 -0.0052465446975106435
000140 c8 87 d7 28 c6 6f 77 bf e0 36 0e ca 78 fe 7e bf
       -0.005721830425928283 -0.007566902001497872
000150 4c d4 d7 0b 52 62 90 3f 29 fe d5 25 30 8a 77 bf
       0.016000062916607313 -0.005747020795183335
000160 03 b1 d7 05 89 cf 7f bf 96 d7 e8 6f 74 ab 7c bf
       -0.007766280408287199 -0.0069994495702782236
000170 6e 35 ee 1a ad 41 72 bf ab 4a 8c a6 00 ac 7a bf
       -0.0044571649476784336 -0.006511690656014461
000180 13 f7 4c b7 04 83 81 bf 90 5a 83 0c 9d 09 79 bf
       -0.008550679057971721 -0.006112683746514094
000190 ca ba 12 c9 85 69 7a bf f5 ae 6d 54 4d a4 34 bf
       -0.00644829044283197 -0.00031496894773995417
0001a0 90 ce 5b f5 ec 1b 70 bf 57 fb 47 d3 13 58 77 bf
       -0.003932881945491254 -0.005699231569905225
0001b0 52 b5 d5 77 8b fc 74 bf c4 a3 6b 75 48 a0 7e bf
       -0.005123657986911683 -0.00747707657021918
0001c0 b5 88 cb ad 2a 9d 84 bf b6 08 41 bb e4 1c 58 bf
       -0.01006539671783844 -0.0014717324929880821
0001d0 27 69 1f d6 db 47 80 bf 37 15 3f 38 c5 e1 76 bf
       -0.00794955966187112 -0.005586405171873302
0001e0 68 e3 39 ae c1 f9 72 bf e0 41 12 af 59 c1 68 bf
       -0.004632717671136578 -0.0030218841207629715
0001f0 12 70 38 b0 24 66 71 bf 15 52 c4 ce 75 89 7e bf
       -0.004247802080069378 -0.007455310999166649
000200 61 d7 fc 7c 42 64 7c bf e0 fc 5f 00 8e 5c 7c bf
       -0.006931552619610177 -0.006924204533788031
000210 c4 7c 27 6b 84 da 7c bf 15 b9 41 7b 17 43 6b bf
       -0.007044331798595486 -0.0033278902647487876
000220 53 13 7e 89 81 3b 7a bf 1e 79 55 55 0f 6b 74 bf
       -0.006404405597895418 -0.004984912772981324
000230 8d 75 31 a0 99 ab 62 bf f2 9f 0d eb 4d e7 7f bf
       -0.0022790909293194995 -0.007788948409917383
000240 2c 8e dd ce 11 13 7b bf 44 6f 3c e6 04 f3 5f bf
       -0.006609983027235294 -0.0019500301213559315
000250 60 1d 5c cf 90 c0 7b bf 34 5e 05 db 2f 23 75 bf
       -0.006775441803035548 -0.005160510001892816
000260 bd 2d af c0 39 2c 81 bf 72 1c 25 8f 8c fd 78 bf
       -0.00838513488078873 -0.006101178225725966
000270 82 00 f5 f2 06 22 6a bf 48 97 c4 c0 45 ae 73 bf
       -0.0031900535319949195 -0.0048048710562279065
000280 f6 c6 eb 2d 98 f2 7a bf fc 8a 07 dc 0b 7c 88 3f
       -0.006579012346934246 0.011955349590555546
000290 9e fa b9 a3 c9 a6 63 bf 07 2f b8 15 85 64 80 bf
       -0.0023988664887036456 -0.008004226422620343

weight f8 [84, 84]
000000 87 f2 6c 77 bb 6a c0 3f 27 bf 4d c0 42 c9 b1 bf
       0.1282572110302633 -0.06947724528231146
000010 38 14 69 c1 b9 96 a9 3f 4a 39 7e f9 c5 c8 76 3f
       0.049978070125270724 0.00556256612607193
000020 c6 24 62 2b 41 87 ba 3f 72 cc f9 9a 67 c6 ad 3f
       0.1036263209263267 0.05815433279794825
000030 14 57 b9 b5 0b d6 cd 3f fd f2 5d 5f 73 9f ca 3f
       0.23309465764275983 0.20799104839888818
000040 44 ba d4 86 bd 56 af 3f 20 05 c5 c6 8a 1f c3 3f
       0.06120865126500921 0.14940008836314522
000050 4a be cf 54 a2 f7 97 3f 71 bd 9c 36 54 c5 7d bf
       0.023405586649401657 -0.007268265684430162
000060 f8 db 26 35 2f 13 cd bf 31 71 a2 a5 38 25 c8 3f
       -0.22714796157171668 0.1886359032404328
000070 ef 7a b2 e8 3f c4 c5 3f c8 24 57 b5 db c9 b3 bf
       0.17005156385581396 -0.07729886224037152
000080 50 99 2e 17 f3 05 c4 3f 4c d0 0c 26 2c b4 b6 3f
       0.1564315665429583 0.08868671349483853
000090 90 0f 94 7e b6 8d 53 bf 3e c2 37 06 67 d4 c6 3f
       -0.0011934549496013004 0.17835700801471605
0000a0 6d 30 a8 fa 3f d5 ab 3f ae a3 98 9d 3e 49 97 3f
       0.05436134276178071 0.022740343445693582
0000b0 35 b5 0c 3d f6 c1 94 3f 6d 53 ec 6e 5b 33 be 3f
       0.020271155811476056 0.11797114809117
0000c0 1d fb b3 de 19 87 c4 3f 84 e2 14 13 99 8e ba 3f
       0.16037295698330292 0.1037383720003025
0000d0 33 4a 36 4e 97 25 b0 3f 21 82 14 8c 51 00 c3 3f
       0.06307359370684011 0.14844722118233825
0000e0 26 43 b0 27 fd d5 c6 3f c8 00 88 3f 6c 6a c9 3f
       0.1784054225722908 0.1985602674685707
0000f0 c6 e5 a1 97 f9 74 93 3f c1 ad 3f 63 0a 9e e0 bf
       0.019000911598117808 -0.5192920626117755
000100 4d e4 1b bb 1a 27 c3 3f cb 9d 5b 86 d7 f7 b1 3f
       0.14963087211779894 0.07018801717969507
000110 77 36 bd 6f 28 f6 e0 bf 1e d7 ca c2 4e 77 c0 3f
       -0.5300485784916437 0.12864098082871406
000120 fb bd f8 2f 62 c9 c3 3f 58 7e 42 77 52 03 88 3f
       0.15458323805204074 0.011725086464422649
000130 05 bf 23 e6 0c 70 d2 bf f2 8b 10 41 45 01 b2 3f
       -0.2880890128571852 0.07033188665859294
000140 40 5d 33 6c cb 10 c4 3f 81 10 45 b7 9b e1 b5 3f
       0.15676253112062888 0.08547375892982424
000150 44 4c 0f 39 2a a0 e9 bf a4 ef 5f e7 66 96 c5 3f
       -0.800801383442725 0.1686524038085483
000160 61 6e 26 96 40 7f b3 3f 5b b3 4e 2c 12 22 78 bf
       0.07616046586775262 -0.0058918676267410664
000170 8d 9f 26 41 be ba a9 3f 49 7f 6b 17 6b d6 ab 3f
       0.0502528624086259 0.054370257004619456
000180 57 52 a8 d8 c0 1d c0 3f b0 f4 72 e9 84 ad a9 3f
       0.1259079988382321 0.05015197133750726
000190 64 b0 ea 24 1d 28 91 bf b1 c7 13 4e 81 a9 78 bf
       -0.01675458467313752 -0.006021027658094911
0001a0 8a 6d d2 fa 5e 93 c5 3f 67 3e a6 8b 65 60 c2 3f
       0.1685599064556807 0.1435667926675592
0001b0 64 00 f4 24 9b 7b b4 3f e7 dd f5 95 5d 44 c5 3f
       0.08001107837844895 0.16614885160718915
0001c0 ee ee 42 0a 41 81 b9 3f 85 ab cc ff 04 e0 c5 bf
       0.09962851048015484 -0.17089903345307902
0001d0 cf 5f a7 c5 fc ca 9e 3f 85 9d 6d 70 68 fb af 3f
       0.0300712104452428 0.06246496555723539
0001e0 a4 e7 a0 09 c2 99 bd 3f 40 5e c6 c8 d8 41 b3 bf
       0.11562741026946682 -0.07522349263887751
0001f0 e8 c0 09 f9 d5 29 98 3f 94 45 3e e4 a9 af c2 3f
       0.02359709103115018 0.1459858288258543
000200 09 bc 03 6b 6f 54 b1 3f 03 28 e1 e1 19 77 c5 3f
       0.06769462931309546 0.16769717721246033
000210 76 57 07 0f c4 76 a7 3f 5c e3 b3 ff 5f af 74 3f
       0.04582798655944391 0.005050063128913287
000220 19 68 70 c0 22 71 c5 3f 97 a0 8e dc be 8a b3 3f
       0.16751512905540336 0.0763358391255927
000230 92 a7 ee 1e 50 1a a4 bf d4 98 30 21 b3 ee a5 3f
       -0.039263252044590705 0.04283675937794987
000240 e7 ab 2d d6 a9 42 a4 3f 79 27 c6 a8 bf ce fc bf
       0.03957110156519388 -1.8004757492767267
000250 d1 5b 8d 1e 30 6b c4 3f 56 25 d1 95 40 b0 c0 3f
       0.15952111713224196 0.13037879290849713
000260 7f 99 87 c5 4b f3 a0 3f a0 30 0d ea 2e 61 a3 3f
       0.03310620104075478 0.03785082442354448
000270 a6 77 96 19 29 51 c2 3f e6 7d f5 84 3b c6 be 3f
       0.14310182332422733 0.1202122878653352
000280 b4 bf f0 93 50 22 ab 3f 41 72 84 cc a1 87 f2 bf
       0.05299617582238572 -1.1581132878265097
000290 55 23 91 ae fe a7 ab bf 89 e2 6d 1b 00 63 cb 3f
       -0.05401607399887235 0.21395875300710923
0002a0 62 ab b1 db 2e 55 b5 bf 17 71 07 15 36 0a 96 3f
       -0.08333104003547256 0.021523327859413657
0002b0 ee 73 1b 76 ea 3a c7 bf 2d 06 12 a4 dd ed b7 bf
       -0.18148546950297323 -0.09347329383492627
0002c0 fc dd 2c c3 3a c4 c1 bf db b8 b0 30 aa fb b3 bf
       -0.1388009503368578 -0.07805885018089802
0002d0 9d ad 52 0a 1f 45 ba bf a4 19 98 c2 54 58 b0 bf
       -0.10261720659280234 -0.06384782553514029
0002e0 2f 99 86 4b b3 70 95 bf 26 bc f3 66 c3 33 c6 bf
       -0.020937730297782394 -0.17345469023664
0002f0 4a 0d 62 e3 09 d6 bb bf 90 b7 8a e2 2d fb b9 bf
       -0.10873472024291178 -0.10148894100959027
000300 d5 d4 fb c0 4d 6c ac 3f 14 bd 25 ad f1 29 96 bf
       0.055513791854460294 -0.02164437884624444
000310 57 ae 5d 55 67 81 c5 bf f5 38 38 c2 41 aa d2 3f
       -0.16801158588656293 0.2916416546512573
000320 2d 94 dc ee 76 a5 c0 bf a4 44 ce b4 fe 4f a4 bf
       -0.1300495783154089 -0.03967281300641304
000330 9e a2 ad 02 65 af c6 bf ee 53 b5 5e 27 a3 c3 bf
       -0.17722761755728283 -0.15341655849866193
000340 ea 27 16 3d 64 12 ba bf 43 c9 2a c6 79 67 c3 bf
       -0.10184313289042249 -0.15159532714967314
000350 06 95 e6 c3 17 8c c1 bf 0a a8 18 b5 aa d1 c0 bf
       -0.13708779397453713 -0.13139852373689137
000360 1b 8e 52 82 e6 13 c5 bf a7 c6 9b fd c6 f4 b4 bf
       -0.16466981280710588 -0.0818600052987458
000370 58 1f a4 de 58 8e ae bf a2 8a 44 de bc 4e a8 bf
       -0.059679772546643306 -0.047475721485416914
000380 99 7b 47 a4 47 59 c3 bf 43 58 39 51 6d 74 c2 bf
       -0.15116210481116069 -0.14417807069793484
000390 dd 31 8b 8f 03 0b b4 bf 61 c9 ce 59 0c 44 e0 3f
       -0.07829305891500078 0.5083066705758875
0003a0 00 58 1b 14 5b 2f 9e 3f 00 aa 72 a8 fb 21 8c bf
       0.029477522947523482 -0.013736692503091952
0003b0 79 01 7b 05 47 ff 5e 3f 04 bf c4 b9 58 9d b8 bf
       0.001891917569011607 -0.0961509183441614
0003c0 f4 fe c1 25 b8 fe 99 bf 48 21 81 94 61 6a aa bf
       -0.025385739616921435 -0.051592873933773264
0003d0 5a 6a 46 59 73 bd aa 3f 98 c5 28 29 3b 08 a8 bf
       0.05222664322646571 -0.04693779828483996
0003e0 0b 81 20 a1 4f db b5 bf 75 b1 f1 4b 57 79 bc bf
       -0.08537767108692067 -0.11122651676277491
0003f0 03 05 0d bd 61 49 eb 3f 07 b2 dc 42 db af 93 bf
       0.8527077381515088 -0.019225526767671777
000400 a5 fa ea af 4f 7e c2 bf fd 96 bb be c7 7b af bf
       -0.14447971429577425 -0.06149124339371601
000410 a4 d2 31 a1 be 0e c0 bf 02 96 44 ea 7f b3 ad bf
       -0.12544997092085908 -0.05801009878841158
000420 51 12 f0 4c 71 e0 bc bf c7 34 33 8a 28 49 bf bf
       -0.11279972198833234 -0.12221005796455407
000430 25 36 36 83 2a e6 b6 bf 36 1c d9 2a fe 2a b7 bf
       -0.08944955542957496 -0.09049976869674556
000440 ea 67 b2 ef 3a d0 b2 bf 3f b8 a3 db d7 e5 a6 bf
       -0.07348984100318004 -0.04472231441637619
000450 e6 68 47 ed b8 7b c0 bf 13 10 82 d2 ba 12 b0 bf
       -0.12877570711027103 -0.06278579367977981
000460 e5 93 71 04 1f 61 c7 bf 8f 74 2e 93 12 36 8a bf
       -0.18265140263534288 -0.012798447720167054
000470 3c c7 7f 84 c0 fe b8 bf 06 cb 4a 0c a4 5f 9a 3f
       -0.09763720736353049 0.02575546574616807
000480 60 78 34 9f 47 40 a9 bf 7f d1 17 9f 43 27 c0 bf
       -0.04931854074878639 -0.1261982466527449
000490 88 e0 15 74 57 83 a1 bf 9b 38 90 c9 71 a8 c2 bf
       -0.03420518199976735 -0.14576551763497467
0004a0 4b 39 45 53 c2 f9 9f bf 26 84 5a d4 cd 23 a7 bf
       -0.031226192791387757 -0.04519503800589346
0004b0 3f a2 81 16 94 65 a5 bf fd d9 68 16 84 0e 9b bf
       -0.041790607211457324 -0.026422561519405353
0004c0 b7 34 ca 95 da 5f a6 bf 70 3d 91 da f7 48 c0 bf
       -0.043700056824584825 -0.12722681209786968
0004d0 f2 b4 81 a1 50 d7 a5 3f a3 64 22 b6 f3 bb b7 bf
       0.04265834781186041 -0.09271166988982542
0004e0 5c e8 43 c5 47 90 88 bf b8 6f 34 74 90 5f e8 3f
       -0.011993942935522188 0.7616655606866436
0004f0 c4 6d 57 3b ca e8 c3 bf d0 8d 1f e5 24 41 8a 3f
       -0.15554168603453722 0.012819565050398746
000500 34 82 55 33 03 e7 c1 bf ef 75 82 b9 95 58 9c bf
       -0.13986244207900855 -0.027681674430473476
000510 c4 88 7f b1 41 11 9b 3f f4 97 77 09 59 64 88 bf
       0.026433016260747136 -0.011910148240485065
000520 26 4e b1 93 cb 2f bd bf d0 93 3a 73 ef 5d f3 3f
       -0.11401054721618972 1.2104334355474187
000530 2f cc 11 58 b8 57 7a bf 34 bf c3 fa 87 b0 ba bf
       -0.006431312650522477 -0.10425615188773635
000540 56 76 8e ad 46 fe c6 3f 62 42 a5 89 34 03 a6 bf
       0.17963489031255858 -0.04299320392840823
000550 54 44 e1 14 55 2e 9f 3f 8c e5 f8 33 79 ac aa 3f
       0.03045018138829321 0.052097117990750424
000560 d0 fc 1e 95 06 f4 aa 3f 0d 31 ff d2 32 ea b3 3f
       0.052643018439533784 0.07779233599939435
000570 fa 0b 16 9b 14 62 ac 3f 9b 65 7b 37 3f 6f bb 3f
       0.05543579476491085 0.10716624359647257
000580 47 a0 cd 85 bf d8 c3 3f 0c cb 50 67 3d 00 ad 3f
       0.15505212815628708 0.05664245496918427
000590 9e bc fa d7 8e 03 bd 3f c7 c0 cf 6a 7c 41 c7 3f
       0.11333554051337777 0.18168597426802632
0005a0 e6 34 cc 75 a1 5e af bf a6 ae e6 6d 20 cd b2 3f
       -0.061268849973297 0.07344248469478973
0005b0 e8 8f da 15 07 50 c5 3f 68 de b2 63 40 a2 ca bf
       0.1665047508914761 -0.2080765234766091
0005c0 4b ab a4 87 1f 52 cb 3f 46 86 de 87 37 d0 8c 3f
       0.21344370005803123 0.01406901725187305
0005d0 5c 21 af 58 f0 e3 b6 3f 85 34 52 a9 26 3a b5 3f
       0.08941557088031032 0.0829185641652704
0005e0 92 bf b0 e7 a9 6b 72 3f 15 5a 0c a3 ea 15 c0 3f
       0.0044972073474553054 0.12566884003963766
0005f0 12 a2 36 c8 3a 7a ba 3f 8c 84 36 6d 20 6a c3 3f
       0.1034275759508392 0.15167622883476317
000600 82 92 94 00 9d b7 a4 3f 17 11 9f 53 cd 80 c0 3f
       0.040463358231396476 0.1289307268435855
000610 69 96 57 9c dd d4 ad 3f fd c1 c7 0d 0b e5 71 bf
       0.05826466115449309 -0.004368823222180127
000620 74 4a bc a9 0b f5 c6 3f 55 dd 25 a4 31 83 7b 3f
       0.17935319698206664 0.006716913138340293
000630 f6 59 68 f3 08 13 c1 3f 90 b0 28 49 57 2d e4 bf
       0.13339340100419833 -0.6305347851644161
000640 d9 c8 92 73 79 c4 aa 3f cc fb 5d 7e da 93 c1 3f
       0.05228023086364581 0.1373246304537744
000650 9e 2b 3e e3 1a 42 dd bf 6d 5c a9 fe 12 5e b1 3f
       -0.4571597308319556 0.06784170834849741
000660 62 66 ec 43 c2 2c bf 3f 06 f2 e9 3d 2d 60 b9 3f
       0.12177671583449404 0.09912379037445626
000670 14 31 84 52 1a 7b cd bf c6 a9 d9 e5 4c e3 ba 3f
       -0.2303192999755842 0.10503082858637133
000680 b3 f3 22 d3 5e 45 a6 3f 46 51 49 1a ae f8 bf 3f
       0.043498004220487906 0.12488830701596951
000690 35 ab fa d5 75 bb ec bf b2 50 8b b6 18 b3 89 3f
       -0.897883336952282 0.012548630781943213
0006a0 3f 34 09 32 c0 e7 af 3f d2 2e 01 2f b5 7a 6e bf
       0.06231499300756881 -0.0037206209890764197
0006b0 27 46 9a 69 74 c7 bc 3f af d6 24 a7 88 9b c6 3f
       0.11241843774976044 0.17662151490519792
0006c0 a1 66 9a 46 08 23 bc 3f c2 41 03 07 4c 24 bd 3f
       0.10990955089291755 0.11383509799202954
0006d0 e5 14 f2 0a 1d d8 c8 3f 02 04 6f 84 63 69 a2 bf
       0.19409525904135375 -0.03596030227300419
0006e0 0e 66 bd 68 20 b0 c7 3f f8 e0 d7 92 7f 32 bb 3f
       0.18506245722055364 0.10623929343262606
0006f0 d6 96 e8 6c 81 56 c1 3f 10 72 91 83 3f 99 98 3f
       0.13545244043159838 0.024022095113069908
000700 19 a8 83 d9 a8 a7 c8 3f b0 29 7c d5 ac 65 94 3f
       0.1926165639955009 0.019919109850016603
000710 30 4b b0 0b 91 0a af 3f 7f 6e 10 90 e6 c6 c8 3f
       0.06062749164279635 0.193569965690461
000720 2c 43 8a 2b b7 fa c1 3f a3 ae c5 ae 84 c9 be 3f
       0.14046373010617097 0.12026242510699574
000730 8a e5 e2 e7 52 f0 c4 3f 2e a8 90 80 b8 b1 a8 3f
       0.1635841018922231 0.048230901426294145
000740 d8 56 8d b2 84 1a c2 3f 66 fd 4e 59 99 c0 c7 3f
       0.1414342758022744 0.18556515560883752
000750 0f 58 90 e0 36 f1 c8 3f f4 5b a2 c7 63 72 b0 3f
       0.19486127820044927 0.06424544929392068
000760 a7 fa 54 60 08 ca bb 3f 17 0c 3e 0b 55 44 c6 3f
       0.10855152465681304 0.17396033333724922
000770 cc 54 e2 52 57 16 99 bf be c5 05 16 e9 e3 c2 3f
       -0.024499287065357575 0.14758027625388864
000780 ee b7 fc 05 77 d4 b5 3f cb ff ee 29 68 0a f8 bf
       0.0852732076279776 -1.5025407445937045
000790 f6 4d 9f f4 d8 52 bb 3f c6 18 db 5a 4f 5a b1 3f
       0.10673290226196017 0.06778427093658754
0007a0 05 74 37 ea 5b 18 bd 3f d1 f1 ef 35 47 ce b7 3f
       0.11365293949297957 0.0929913050349065
0007b0 6c d8 85 ae c7 b5 a4 3f 36 73 9f bd c3 ec c1 3f
       0.04044937138944324 0.14003798254898364
0007c0 a9 67 f2 7b a4 94 c9 3f 9d d1 7d a2 52 5a f4 bf
       0.19984870960325665 -1.2720514628718782
0007d0 52 12 74 f9 0a 80 b5 3f 35 07 33 f3 c4 b7 a5 3f
       0.0839850291268445 0.04241767376653486
0007e0 95 51 a6 56 71 06 90 bf 9f 0d 71 3d 3e b1 b0 bf
       -0.015649577058483983 -0.06520451545752913
0007f0 da 09 bd db aa c7 b2 bf fc af 7a 0a 8c ec c3 bf
       -0.07335918297488978 -0.15565634261781713

bias f8 [84]
000000 ad cb 8c f8 19 8c b7 3f b1 c4 1e 67 1b 9c a2 3f
       0.09198152845492187 0.03634725221434943
000010 8f 93 fc f9 78 ec 99 3f 35 56 d5 85 41 b8 ad bf
       0.025316133745167554 -0.05804638632495732
000020 74 62 5e 26 1e a7 b0 3f db 8a c7 14 d5 3a a4 3f
       0.0650500148461875 0.039511355196528895
000030 a6 e6 1c 46 87 b5 be 3f 77 92 01 72 b6 77 72 3f
       0.11995740377178751 0.004508698155494365
000040 ec 0d f1 2c b1 d3 aa 3f 9c f3 de 14 e9 02 a1 bf
       0.052396332489049374 -0.03322533015987192
000050 32 ce 3d a3 15 1e 96 bf 3e 23 f9 95 fb 60 a9 3f
       -0.021599138344255482 0.04956804471709696
000060 dd 33 92 08 84 e6 b8 3f 75 60 de 09 6b aa 9d 3f
       0.09726739129310098 0.028970406033835567
000070 4b 72 8f c6 18 7c aa bf 2a 0d 1b 5a 06 2b c0 bf
       -0.05172803329307792 -0.1263130130738344
000080 62 1a f4 87 fe 33 b1 3f 41 51 c9 f4 c7 d5 a3 3f
       0.06719961947610778 0.03874039519419848
000090 a6 fb 23 6c 3b 3f b1 bf e1 bc b8 9d 05 3e 91 3f
       -0.06737109556341511 0.016838157416881997
0000a0 08 3b e0 ec 71 2d b9 bf 0f ff c0 1f 92 94 84 bf
       -0.09834968598464056 -0.010049001306583287
0000b0 76 b4 5e 2c 38 71 92 bf 42 d8 17 f8 f4 f7 c4 3f
       -0.018010022838712968 0.163817044390898
0000c0 b0 b1 b6 15 c5 7a a9 bf 96 70 2d 79 14 0b b6 3f
       -0.04976478471812429 0.08610656698641814
0000d0 32 79 ab f2 f8 db c5 3f ea 52 70 df 28 4d bc bf
       0.17077552651512345 -0.11055236296699503
0000e0 81 61 03 5b 3b 6e b8 3f 8b de 93 94 b1 d4 77 3f
       0.09543200466158021 0.005818074868549804
0000f0 96 08 f6 12 df 8d c4 3f 19 c9 a9 a6 03 2d c7 3f
       0.1605795710166304 0.18106122625210544
000100 38 f4 d5 61 fc 2a c0 3f fb 23 fe 02 a0 67 c0 bf
       0.1263118245805417 -0.12816238542680466
000110 6c 5e 4f dc 0e 4e c5 bf 77 bf db 24 91 5d b5 bf
       -0.166444642613658 -0.08345896863806766
000120 da 7b 69 6e a5 34 b8 3f 7b 31 4a 92 ef 46 90 3f
       0.0945533175049457 0.015895598701307172
000130 c6 30 22 c5 1b dd a5 bf cb 8e 03 27 e9 83 a7 bf
       -0.04270254880347717 -0.04592827416652553
000140 2c 19 a9 8d 58 99 ab bf be 23 78 ad 35 9d c0 bf
       -0.05390431145910876 -0.1297976586359066
000150 8c fc 68 46 08 8e c7 3f ed 32 32 c2 4c aa 85 bf
       0.18402198255532587 -0.010578727413553557
000160 8c e9 c9 6c c6 89 c2 3f 9a d0 be 30 23 37 c6 3f
       0.1448295623011514 0.17355766182084126
000170 44 51 3b 17 70 82 74 3f 8c a6 16 ad 99 7b 8e bf
       0.005007207731712097 -0.014884186358205008
000180 97 12 41 26 4a 18 a5 3f 4d e2 b3 9c 46 fc bc bf
       0.04120094029398052 -0.11322442365406822
000190 d9 0b 20 f2 7f b1 a0 3f 97 77 a4 54 bd ed c5 3f
       0.03260421591405533 0.17131773598606223
0001a0 e1 36 95 61 1d a8 87 bf a6 0c 80 08 db d7 93 bf
       -0.011551122227185075 -0.01937811126118718
0001b0 f1 e4 89 c4 aa 8e bd 3f 93 29 f0 c3 c2 3f 8a bf
       0.11545817659670711 -0.012816926579053234
0001c0 ea 00 a7 73 31 a3 b3 bf a0 c4 78 6a 4b a8 97 3f
       -0.07670888017219438 0.023102930425186075
0001d0 9e d2 e2 a6 a3 60 c1 3f ed 3c 71 96 bf 3c 91 3f
       0.1357616963265586 0.016833299214622
0001e0 63 d1 e3 2b 02 40 a4 bf 86 5e 43 d6 ee 4b c1 bf
       -0.03955084596410321 -0.1351297899443475
0001f0 4b b4 d7 2a 5f 4e b7 bf d4 b1 40 ca c0 96 b1 3f
       -0.09103960796319759 0.06870655954180133
000200 a2 8f 22 da 4f 2a 82 bf 9f b3 37 88 bc 1c bb 3f
       -0.00886976608700946 0.10590723348259566
000210 bc 07 b0 94 81 4c b1 bf c7 82 09 3c 6e 5f a0 3f
       -0.06757364158695983 0.03197807772517574
000220 ac 4d e6 16 c7 a5 c4 3f 7b ba 3b 53 5e 1e bd bf
       0.16130913370271338 -0.11374463588775001
000230 30 55 6f df d2 7e c4 3f 65 52 c5 1d 99 18 a3 3f
       0.16012035283953585 0.03729704368985124
000240 df cc 32 b3 a6 96 c2 3f 1b 5f 10 45 0a 06 9e 3f
       0.14522250890659102 0.02931991621525674
000250 c1 b9 f9 83 80 49 c2 3f 5d 02 a0 36 b1 3a b3 3f
       0.14286810344806436 0.07511432250613255
000260 d3 cc d6 a6 cd 1c c1 3f 97 26 8e 0b ad 6a a0 bf
       0.1336915077823507 -0.032063872967296785
000270 71 4b 22 68 79 da a0 bf ec 1e 4a b9 f4 4f aa bf
       -0.0329168262116103 -0.05139126550517212
000280 6a 8f 30 14 29 5b c1 bf 95 57 1f e3 4a 97 9e bf
       -0.13559449659180284 -0.02987401019330312
000290 6c c0 8b 8d cb 13 b6 3f cf 7c c3 8f e0 82 b9 bf
       0.08623954969130104 -0.0996532774911316

weight f8 [1, 84]
000000 5c b9 61 ce 68 84 b9 3f 88 bf b4 dd 68 83 d6 bf
       0.09967665709129875 -0.35177060748082356
000010 70 d5 da 4a 27 fc 94 3f 34 d1 4c 87 e5 ab 92 bf
       0.020493139213348 -0.0182338584738357
000020 60 06 56 39 6f 04 c1 3f 94 23 e2 b8 a9 5a bb 3f
       0.1329478292428119 0.10685215724710267
000030 c5 c7 42 17 5f ac bd 3f b5 49 85 fc 65 fb c5 3f
       0.11591142957584484 0.17173456983671334
000040 b0 74 e2 55 81 1c b8 3f e1 46 a3 df 6f 58 6c 3f
       0.0941849550894911 0.0034601388007125954
000050 a9 1d eb 3c 25 e5 a2 3f 69 a2 14 37 74 f1 90 3f
       0.03690449112542222 0.016546073781827184
000060 ab 99 37 ae bd 47 ba 3f bb c8 6c 59 6b 6c 83 3f
       0.10265717986440019 0.009484137217075852
000070 40 17 41 b5 37 99 b5 bf 94 bd a9 79 2a 57 71 bf
       -0.0843691651835714 -0.004233518523150254
000080 3c 12 e6 5b 48 d2 c4 3f 51 5c 72 6d 12 1b c7 3f
       0.16266731726877193 0.18051367134168797
000090 fa 75 63 e9 51 31 74 3f f4 14 4d db b1 3d 84 bf
       0.004929847686268024 -0.00988329840186928
0000a0 c9 df 38 ea 62 ad 7b 3f 72 7e ca c2 e9 1c c8 bf
       0.006757151018568616 -0.18838235865858938
0000b0 f1 1a cf a0 d0 73 a5 bf 6e 45 a5 f5 12 c5 b8 3f
       -0.04189922297478244 0.09675711152273944
0000c0 dc c9 d9 27 98 50 7a 3f 8b 24 28 b7 e7 0e c4 3f
       0.006424517019342404 0.15670486872867104
0000d0 98 cd e0 ae 81 7d c4 3f 9d ff ca 7b a0 bb 49 3f
       0.1600801566979555 0.000785306321255053
0000e0 d0 d5 72 da 3a 2b be 3f a2 55 c5 21 a3 c5 4e bf
       0.1178471358606068 -0.0009390875380101314
0000f0 0f f6 48 a2 50 ed b8 3f cd b4 87 25 eb 1f c7 3f
       0.0973711391643166 0.1806615765812353
000100 16 83 c4 9c f8 fd c0 3f 22 64 3b 18 69 04 6c 3f
       0.13275058417004776 0.0034200718526844623
000110 5d 7b f4 42 c5 06 8a bf e1 bb 1c ea aa b6 69 bf
       -0.012708226304821652 -0.0031388605283590863
000120 87 fc cc 51 1b c3 b8 3f 1d 4f 70 b4 cd 18 92 bf
       0.09672709223831265 -0.01767274297533482
000130 a1 b3 05 51 28 61 80 3f 8a 35 e6 cb 55 08 9c bf
       0.007997813198665162 -0.02737554604532514
000140 b7 ce 87 fd 27 ed 60 bf 05 cf 96 d0 a6 5a 7f bf
       -0.0020662098943321178 -0.007654811497036955
000150 fa e3 62 a5 e7 0b 49 bf 81 0d fd 63 aa 3f 8f 3f
       -0.0007643586239033378 0.015258151222616647
000160 0c 52 22 4c 78 12 bc 3f 87 01 5c 02 b4 b7 a4 3f
       0.10965682848684127 0.04046404389191865
000170 01 86 eb 93 43 0d 84 bf ac f8 41 42 3a 54 93 3f
       -0.00979092402616555 0.018875990194367517
000180 7d 51 50 a5 40 a5 c1 3f 0f 88 d0 99 46 a1 74 3f
       0.13785560676536682 0.005036617073558971
000190 6e 8c 08 b9 ff 2a 89 3f d4 cb 71 1d 5c 4d bf 3f
       0.012289045175810833 0.12227416724071755
0001a0 e9 4a a6 23 f6 de b7 3f d4 67 28 93 e2 43 b9 3f
       0.09324587221480453 0.09869209377976002
0001b0 f7 ab 03 4d 06 cb bf 3f 44 fe 07 fe f7 29 ab 3f
       0.12419165973885514 0.05305457092253765
0001c0 9c 66 ff d7 4d 97 a6 bf cf 53 6f 2c 98 2e b7 3f
       -0.04412310849847964 0.09055472454868084
0001d0 7f 48 f4 c8 03 09 bc 3f 36 c9 e9 ac a2 44 66 3f
       0.10951255470379982 0.0027182748083812948
0001e0 64 40 5e 16 f1 96 b6 bf df 2c a8 92 77 7b 67 3f
       -0.08824068828676129 0.0028664908798013834
0001f0 c8 93 d1 40 47 5c 72 bf 78 4f ec 30 40 c1 c5 3f
       -0.004482534725956229 0.1699600447542442
000200 12 23 0e b3 98 58 b6 3f e7 e2 72 0e e6 ee be 3f
       0.0872893750330486 0.12083280422929087
000210 c8 20 de de 73 62 75 bf 48 2e ce 4e 26 3b b4 3f
       -0.005220844859543834 0.0790275518794995
000220 bc db 62 1f 7b 69 bd 3f 1c c6 45 b2 0f 3b 74 bf
       0.11489076153053096 -0.004939137758229541
000230 8a 0f c3 a4 8d 4b b9 3f 24 7a d1 1c 2e 19 a4 3f
       0.09880910179623306 0.03925460912499926
000240 49 42 4d 00 87 1e c3 3f 52 d2 7e 18 ae 7a 86 bf
       0.14936912073837252 -0.010976181147136863
000250 c9 99 e0 bb 7a e3 b0 3f e6 0e a2 e0 d3 8d b6 3f
       0.06597106062745363 0.08810161813931536
000260 e0 39 16 bd 5e e4 c2 3f f0 24 d4 99 78 88 b7 3f
       0.14759430153613007 0.09192613368590563
000270 0b 43 02 04 f8 8c c4 3f 29 e6 49 44 6d 51 85 3f
       0.1605520267080681 0.010409215590004699
000280 e4 5a fd 50 d3 18 83 bf c6 42 15 2e 7e b3 c0 3f
       -0.009324694546803021 0.13047768831395085
000290 d8 72 d4 8f ba 72 bb 3f 6a 42 2a 1c c8 6b d7 bf
       0.10721937190505615 -0.3659534716653413

bias f8 [1]
000000 88 09 1c 51 1b 71 d6 bf
       -0.35065348549701314
