fine-tuned models/NO3078_YJR073C.pth (torch, 116439 bytes, 6 tensors)

weight f8 [102, 34]
0	0x3f839f332b0fe0cb	0.009580993415497471
1	0x3f8685365ea27e63	0.010996269953749754
2	0x3f85ea3064e67257	0.010700586394528573
3	0x3f7c61c7baa6801e	0.006929187957581488
4	0x3f871effaa2014db	0.011289594058335009
5	0x3f8b9db964403ff6	0.013484428760449401
6	0x3f8d1be891a5add3	0.014213387436675362
7	0x3f8307230d15f4e3	0.009290956341596551
8	0x3f87edbcdd48fd28	0.011683917525373191
9	0x3f909868cdffa654	0.016206395695837664
10	0x3f85fabc42d65ad7	0.010732146062577481
11	0x3f874cdcee13b62e	0.011377073302777676
12	0x3f8ea6e9f2664cab	0.014966800413083034
13	0x3f87dc726be81842	0.011650937955902777
14	0x3f807b82ffa14bfc	0.008048079897127629
15	0x3f903e917efadb9a	0.015863679290045597
16	0x3f8c3df280ae8b49	0.013790030052239681
17	0x3f7a209ca254f4f0	0.006378757335651061
18	0x3f77ddd410da288f	0.00582678640570057
19	0x3f84cc80ff0ed9ff	0.010155685218575348
20	0x3f8b7b1adf415aa2	0.013418397844515543
21	0x3f8337f7ba716a3f	0.009384093644418388
22	0x3f8f5b4508989f60	0.015310801815828945
23	0x3f87d2fc728816ed	0.011632892842509313
24	0x3fa68c413e17717f	0.04403880961374095
25	0x3f866cb52118858b	0.010949530670645987
26	0x3f84336026fea8ed	0.009863616170907774
27	0x3f8e82dd7287f37a	0.014898042733870066
28	0x3f5a8f2a9f78a609	0.001621047615012807
29	0x3f973d8628b76653	0.022695633158809802
30	0x3f9f6bb95ba57351	0.030684372156758958
31	0x3f74ebe7d1c2c61a	0.005107789558836307
32	0x3f7aacb99edda167	0.006512379722927931
33	0x3f885c2db61e1d62	0.011894566650666408
34	0xbf80c8cf647bb764	-0.008195514921194032
35	0xbf848aabe8da5f00	-0.010030119937524784
36	0xbf867d24f95c27f9	-0.010980881557333776
37	0xbf60fff5c7b6f3a3	-0.002075176276518724
38	0xbf79b861e25332a0	-0.006279356345839787
39	0xbf969dad381d1304	-0.022085863637829398
40	0xbf92a5a6c68ebf7e	-0.018210035199160306
41	0xbf7ba8faed07d2a9	-0.0067529489319794545
42	0xbf9cad9f05006728	-0.028006062202712872
43	0xbfa274ab722313cb	-0.0360463692500513
44	0xbf89d44ae46d6800	-0.012611947151231817
45	0xbf8b7e4ce8a64985	-0.013424492692853071
46	0xbf987f4b587e0184	-0.023923089290748503
47	0xbfa12cb4407e0663	-0.03354419028529489
48	0xbf837d2a276763fa	-0.009516076400290164
49	0xbf74f55ef7b2c5e2	-0.0051168164892927154
50	0xbf9444ca1e1e7444	-0.01979366120177796
51	0xbf519847dde2e8c9	-0.001073904211394127
52	0xbf6fbca453c7019f	-0.0038741311566072435
53	0xbf9781b10dd986bd	-0.022955671758956287
54	0xbf87a2ed0f341c9e	-0.011541225458598977
55	0xbf7f6b4d08a10d86	-0.007670689499778565
56	0xbf9cdaf377cc806d	-0.0281789819592863
57	0xbf919a8eddf4b380	-0.017191154763327443
58	0xbfb1c89e0a9a6425	-0.06946742781509892
59	0x3f4dfd965ba2d8c8	0.0009152397317595757
60	0xbf7fb03c80f9d39a	-0.007736431448951553
61	0xbf95aae1653c36aa	-0.02115966968908959
62	0x3f938b4d8ac6c049	0.01908608588718178
63	0x3f6d5ef3f8a9bfa9	0.0035853161874043926
64	0xbf0ee05b293eec61	-5.889204217576143e-05
65	0xbf70d689f2c1b592	-0.004110850201056409
66	0xbf96dd4667438f68	-0.022328472187737175
67	0xbf881409322e9352	-0.011756965488368163
68	0xbf81fbf330cfe941	-0.008781337668541613
69	0xbf8337c153f17af1	-0.009383688329930947
70	0xbf848682bd30873d	-0.010022183798415457
71	0xbf7f48de46419893	-0.007637851962590275
72	0xbf82f5698a3714d9	-0.009257149248592377
73	0xbf8614990a5787d4	-0.010781474712476959
74	0xbf85911402a4ac16	-0.010530620890298475
75	0xbf8129e84fee5a1a	-0.008380713404943885
76	0xbf86fc52007e3f1f	-0.01122345031743027
77	0xbf89c553f36ba4d3	-0.012583404413322096
78	0xbf8369bec154e17e	-0.00947903659344784
79	0xbf846a0fd7ddfad4	-0.009967921996346808
80	0xbf87018711b02985	-0.011233382441805837
81	0xbf88391ca4ce42e6	-0.011827682284804419
82	0xbf80583cfc48c828	-0.00798080105696293
83	0xbf8243e2ba65feac	-0.008918544114521275
84	0xbf86064bbf0589cf	-0.010754195944802895
85	0xbf7e71a52f2b3474	-0.007432599307049082
86	0xbf7df89721cd89a5	-0.007317152366200484
87	0xbf8564999414957e	-0.010445785361819612
88	0xbf84debbb9358184	-0.010190455045347553
89	0xbf808027b9dd959a	-0.008056936607043142
90	0xbf883633c4befdbb	-0.011822132531846266
91	0xbf8509e925acc552	-0.010272809469457887
92	0xbf98e4dbb61e31d9	-0.024310524931523723
93	0xbf83ce68890b96ff	-0.009671036417283839
94	0xbf8213c1abda0d9b	-0.008826745087623425
95	0xbf87252d873d072a	-0.011301379861496114
96	0xbf753ee8bd9945a9	-0.00518694795899092
97	0xbf8c91645cdc18da	-0.013949188312392048
98	0xbf9430643b00fbcd	-0.019715849019345023
99	0xbf7e0d5a3e834885	-0.007336952701921477
100	0xbf85c548e9d1bf33	-0.010630197177504996
101	0xbf8457324f2cd3d6	-0.009931939164383435
102	0xbf60bdcbdd584e87	-0.002043626950362146
103	0xbf63cfcba29b62ff	-0.00241842052933483
104	0xbf51ef994501eca5	-0.0010947224400570746
105	0xbf69a75b6e7e153b	-0.003131559922567332
106	0xbf8148071e6545fa	-0.008438163390255039
107	0x3f80686c4e067202	0.008011671191348494
108	0xbf444b2c15c5bf69	-0.0006193127879168095
109	0xbf6c0a9599f4c597	-0.0034230157758876156
110	0x3f8dd03f05e730ea	0.01455735432400514
111	0x3f8f4a2128b44752	0.015278109602636345
112	0x3f2adb8a38e334e3	0.00020490705759926902
113	0x3f0cadc634553e4d	5.4700480670019475e-05
114	0x3f7612eba05d109f	0.005389137664512016
115	0x3f9866e6b274dc8d	0.023830036775703212
116	0x3f667b026113c833	0.0027442022770794105
117	0xbf90ece6e3dce198	-0.01652870908512369
118	0x3f65f8578e17e3fe	0.002681895261727351
119	0xbf6db509adc259a5	-0.00362636461620554
120	0xbf402e12cd55980e	-0.0004937736327235169
121	0x3f86cf47535708b3	0.011137540083727115
122	0xbf6f38018a8e8775	-0.0038108854391375965
123	0xbf5365973fc1fad2	-0.0011838891068973079
124	0x3f838b8c18790479	0.009543509003494531
125	0x3f6e854be745b856	0.00372567009815498
126	0x3f89beb1a4af6c5b	0.012570751035971542
127	0xbf89854616541ef9	-0.012461230808653566
128	0xbf6713c819f4c19f	-0.0028170498113910393
129	0x3f68054d20daa6a3	0.002932215348512583
130	0xbf934aca562e608c	-0.018839990148621186
131	0xbf9efd67609b0afc	-0.030263533850994215
132	0xbfa18b97ec07ab22	-0.03426813846802747
133	0x3f5661f7a49a6a12	0.0013661306751716657
134	0x3f933acc05e8a676	0.01877898012222664
135	0xbf614e25e60599a0	-0.002112459202339781
136	0xbf76c54d1d5a4bf5	-0.005559254864823328
137	0xbf78314a0c368ef9	-0.005906380890710266
138	0xbf70739701d1e6ae	-0.0040164850917051974
139	0xbf8540d88c5b885b	-0.010377589972851256
140	0xbf9d3a9abb230ad1	-0.02854387061303038
141	0x3f9da4b45f694b60	0.02894861061424636
142	0x3f6f12ea6fb7e55c	0.0037931994281705083
143	0xbf8344a1f9d92034	-0.009408250272045483
144	0x3fa85bb4f94b516c	0.047574668342039356
145	0x3fac5a8d2c6b3fee	0.055378352806314854
146	0x3f60feb662700680	0.002074581355828553
147	0x3f64f59dbc3fdc54	0.0025585251587432554
148	0x3f97335f9d88a7eb	0.022656911840535015
149	0x3fb7491a426fd8b3	0.09095920679087292
150	0x3f84856cab3649d8	0.01002011201379542
151	0xbfad83af9f9597e0	-0.05764530966807491
152	0x3f8b0fa4b4875cc3	0.013213431128788483
153	0xbf8b6f53ea9d3cf5	-0.013395934674603963
154	0xbf69adc7cca17860	-0.0031346227961384504
155	0x3fa5772aa70d25c9	0.041924794094096614
156	0xbf848f4f1dabacfa	-0.010038965313887694
157	0xbf61619e9340498c	-0.0021217438861722056
158	0x3fa29c1ecd1eb42f	0.036347353495650096
159	0x3f9107909a65a5a0	0.016630420135162916
160	0x3fb181666cd89aa6	0.06838073880553938
161	0xbfa3c2cf338c8d4e	-0.0385956526208938
162	0xbf823b58c7fa331c	-0.008902257540535134
163	0x3f8f5138f1853353	0.015291638250937522
164	0xbfb1f619112765e9	-0.07016140621944768
165	0xbfb887587870575b	-0.09581520977402873
166	0xbfb8d56067f4bf88	-0.0970058683203644
167	0x3f6c873b21f5b49d	0.0034824519095111987
168	0x3fae286868be636a	0.05890203741655038
169	0xbf7089908fab7cc8	-0.004037441913822444
170	0x3f8f5e602e65a481	0.015316726127553306
171	0x3fb25611e8822fbb	0.0716258232734494
172	0x3fbc919dc45bf5d2	0.11159692806173574
173	0x3f7e2f134832d6d8	0.007369113274014537
174	0xbfa6fc2d29bcb40d	-0.04489270338522298
175	0x3fb3f8e7b7c344bf	0.0780167411460466
176	0x3fb13574b5de7e5e	0.06722192230380972
177	0xbf9f0058c83aa239	-0.030274760457048997
178	0xbfd375f0039da41b	-0.30407333710769685
179	0xbfd1f94d6a30fd65	-0.28084121103525767
180	0xbf86b9c5134e9286	-0.011096515323353328
181	0x3fa90c02b61563a8	0.04891975853633507
182	0xbfb7be579437d8d1	-0.09274814003569821
183	0x3fbb5b1d6747fe19	0.10685905238641914
184	0xbf9a5d67109779ec	-0.02574692763107038
185	0x3fa88980131b1d91	0.04792404397226869
186	0xbfae84d3eedd3837	-0.05960714617559442
187	0x3fcbe40b4f8893e4	0.21789685615036014
188	0x3fb711ee02737ac2	0.09011733589020834
189	0x3fa0fbdbf1bc5827	0.03317153287768831
190	0x3fb5f243a2212e07	0.08572790821306607
191	0x3f6c645507865ad4	0.0034658108454082934
192	0xbfcc2e57f6940ccf	-0.22016429462391904
193	0xbfbddbb48767fc37	-0.11663368516745796
194	0xbfdf1d3bf0f971db	-0.4861593106523096
195	0x3fcd52e3495e5a72	0.22909203607987966
196	0x3f9a9b26f0108f2f	0.025982483293901012
197	0xbfc3c022dfa927c2	-0.1543010322660035
198	0x3fdb9aa0988497e5	0.43131270307855935
199	0xbfc3888d9acb9021	-0.15260477121694385
200	0xbfbf66da2c746ae6	-0.12266315064736552
201	0xbfb45a032ffd4e89	-0.07949848100298075
202	0xbfd5e146c8f22c3e	-0.3418747866023216
203	0x3f902ad0844490e3	0.015788324425685906
204	0xbf81384bc6286c1b	-0.008408157334136182
205	0xbf8d4a7d6dd4ddbd	-0.014302234567920341
206	0x3fa548c41f9eebbd	0.0415707863425818
207	0x3f97597eee34583b	0.022802336968276143
208	0x3fb4a131cc0c3647	0.08058463317521457
209	0xbfc22644d478b17d	-0.14179287314017222
210	0xbfb1eb4bb857ef1b	-0.0699965786988596
211	0x3f28c6fabd4898cb	0.00018903551848942763
212	0xbfad91ca9d440ca9	-0.0577529255843044
213	0xbfaa8440a01de7ee	-0.05179025606680897
214	0xbf95a88fcaf29267	-0.021150824319777686
215	0xbf96d9fa095fb0f8	-0.022315890142565714
216	0xbfad71649d401e57	-0.05750574512063327
217	0xbfd0f9640d7d563d	-0.2652216083273265
218	0xbf8532cb4bd89e49	-0.010350788356915734
219	0xbf71f51e3d4b374b	-0.004384153483170848
220	0xbfae4a32bd506b97	-0.059159837350498616
221	0xbf8289759a2d7832	-0.009051245467784328
222	0x3f87da6e0396130a	0.011647090420191759
223	0xbfa7c2a69546bc95	-0.04640694210262911
224	0xbf8d7bca9db90b15	-0.014396269739454884
225	0xbf6b6cb647b3f038	-0.0033477363737102438
226	0xbfb15ecfa789f5d8	-0.06785295334153518
227	0xbfa4a25e6a8df235	-0.04030127573694068
228	0xbfc7761509b0db72	-0.18329108212648354
229	0x3f8b5f7d226cd165	0.013365724194593207
230	0xbf7e103563f5478c	-0.00733967643403045
231	0xbfad122a07e8eeb5	-0.05677920671993545
232	0x3fc0142bb1b068d4	0.12561556030488552
233	0x3fb080b2eb8d16c4	0.06446378947029091
234	0xbfa4c6eedd4781f0	-0.04058023883021977
235	0xbf833a36ff5589bb	-0.009388379733256671
236	0xbfb3db51724cb6e2	-0.07756527939337901
237	0xbf965ab848ba0123	-0.021830443800810017
238	0x3f73ea642500623d	0.004862204732511585
239	0x3f77557d12f34b5f	0.005696762628946
240	0x3f77e5fc2ca1dd0f	0.005834565216097389
241	0x3f630f2547b87793	0.002326557934579429
242	0x3f670096bc1cbef0	0.0028078979529694223
243	0x3f8a35bde60484c2	0.01279781683166659
244	0x3f827ab308deba87	0.00902309294528193
245	0x3f713347cb62b865	0.0041992954703983
246	0x3f8d032938451ff0	0.014166185407375992
247	0x3f92cf250ed155b5	0.01836831953945302
248	0x3f7bf7dfb0ef5348	0.00682818774563005
249	0x3f7cb5c61f030434	0.007009290610029462
250	0x3f89bbd4a8c75a0e	0.012565289879529675
251	0x3f93268a70ab2b7a	0.018701708914516037
252	0x3f78fa21e252cc9b	0.006097919807120845
253	0x3f6967d93aaf78d8	0.003101276660785062
254	0x3f850880cdd56b5d	0.010270124703927125
255	0x3f5e5f1afff612dd	0.0018537295980831016

bias f8 [102]
0	0x3f862cdde6f86896	0.010827764140277456
1	0xbf8990eb9a532a45	-0.012483444831009946
2	0xbf83812476a7a232	-0.009523663397844027
3	0xbf12a10c20f8d569	-7.106434372235671e-05
4	0x3f52a47360b26738	0.0011378409133499644
5	0x3fa9bdc7bf3e9f35	0.050276033492365015
6	0xbf92ad210aee8bd5	-0.01823856000158826
7	0x3f7b994d5acfde4e	0.006737997214251458
8	0x3f6f3fcb5d8099dd	0.00381459922575121
9	0x3f759c9e1d8669d9	0.005276315343872595
10	0x3f6fde65624a23ff	0.003890226378932215
11	0xbf74bc2f9ee04edf	-0.0050622806720814475
12	0xbf7ded4b5c106bcf	-0.0073063796744703
13	0x3f7cf0af8e08d471	0.007065473328613612
14	0x3f851846677fe884	0.010300207170065308
15	0xbf672aa9704860da	-0.00282795995213912
16	0x3f87afebf0663e21	0.011566012643725422
17	0x3f434f97a224fd03	0.0005893221280429964
18	0xbf6677d9b5a42593	-0.002742696012437215
19	0x3f7b7f295418dd21	0.006713067473860052
20	0x3f8d8ff8dd6db939	0.014434761292900876
21	0xbf5dafc83e29ca93	-0.0018119292732562727
22	0xbf8c126ab7b64878	-0.01370700238365806
23	0x3f8fd4a28b121a4b	0.015542287701703425
24	0x3f52847aff6c2072	0.0011302186155166785
25	0xbf8e4623b076a29a	-0.014782217810379184
26	0xbfa23d5630eb4c79	-0.03562421176106851
27	0xbf7654ccb4f8591d	-0.005451964985260707
28	0xbfa23d9c3ce6697e	-0.03562629931839732
29	0xbfad47ade9f72aa5	-0.057187495050660155
30	0xbf66a073ae5bc6f6	-0.002762056293129751
31	0xbf9410cd41f438d6	-0.019595343733322355
32	0xbf7430513e897ec0	-0.004928891525736112
33	0x3f79df3771a8417e	0.0063163915424556665
34	0x3f7572f714190757	0.005236592436235052
35	0x3f8c2f08ddb64b25	0.01376158644305787
36	0xbf93d1ffc60253cd	-0.019355770550266094
37	0xbf546b5c8dc40bf7	-0.0012463001103817353
38	0x3f711e3240be552f	0.004179188061148849
39	0x3f679b515c8f5699	0.0028816784947405913
40	0x3f80d29e16d3023e	0.008214221068898128
41	0x3f80fdd0b873ab6f	0.008296614293120645
42	0x3f4da9fc47dd0c72	0.0009052736129223761
43	0x3f600075e7dc1395	0.001953344616483619
44	0x3f81b941c34dcfc0	0.008654130718902198
45	0xbf6a00c892d8bcf3	-0.0031742017224797247
46	0xbf4345fa2a8a34b5	-0.0005881759180553977
47	0x3f8bc3b21d020abb	0.013556853780987912
48	0xbf3bb0bf9daee0eb	-0.00042252233623286836
49	0x3f2a851b64aed5e8	0.00020233115568905826
50	0x3f8426d82704d530	0.00983971470905462
51	0x3f616876c47d54b1	0.002125007598730543
52	0x3f690717ac45c723	0.0030551397668937704
53	0x3f8b225cf3850747	0.013249136144284924
54	0x3f74a28afc7840b7	0.005037825503237218
55	0x3f90655f8661c6da	0.016011707856199965
56	0xbf493a35a69ae366	-0.000769878575019961
57	0x3f8fa82041c285a2	0.015457393652755173
58	0x3f8aa9821ed72264	0.013018623891995769
59	0x3f87bcc7fc7c57ef	0.011590540306809031
60	0x3f7dd25f64726681	0.007280705095718099
61	0x3f820f6832721450	0.00881844905803511
62	0x3f8bf168db21cfa1	0.013644046008472634
63	0x3f8407537b6c44fd	0.009779598430699194
64	0x3f44e7fb9f86a9be	0.0006380060795454984
65	0x3f81d21218b4ab54	0.008701459292373016
66	0x3f706e652e8658fd	0.00401153110614971
67	0x3f7c059c8227ea85	0.006841288910886538
68	0xbf770bbf38ba9d92	-0.005626437148442591
69	0xbf776da3c91bc82b	-0.00571979502432111
70	0x3f7a52f4029f0eaa	0.006426766552923327
71	0x3f53c73c8e5a7487	0.001207169663224124
72	0x3f80593da9084809	0.007982713433225557
73	0xbf77c4bcddabea92	-0.005802858121337311
74	0x3fb4b31d3eb833d9	0.08085806637991712
75	0x3f7214da8431507b	0.004414418773269198
76	0x3f7cf79a73a0da92	0.0070720704334720375
77	0x3f5b53972136e8dc	0.0016678787113578097
78	0x3f6986861da3875f	0.0031159038017997544
79	0x3f825c663f262a32	0.008965300371319793
80	0x3f88271a8083e3d6	0.011793334052059661
81	0x3f8578c5bfee8d99	0.01048426143626706
82	0x3f8abe197f0d52fa	0.013057898702450544
83	0x3f78fc488730351f	0.0060999711158846994
84	0xbf80b70bade4c8f4	-0.008161631817163763
85	0xbf7a1afda50a00f3	-0.006373396682306731
86	0x3f483bbd88adad95	0.0007395434816834129
87	0x3f8eea1b1e1bd2c8	0.015094959122032306
88	0x3f827e98fcb28594	0.00903052827044596
89	0xbf9f5d50a4d694e0	-0.030629406033445217
90	0x3f677f822d1c5781	0.0028684179786848123
91	0x3f91d98831e75750	0.01743138126933924
92	0x3f8678f39b726034	0.010972884351119296
93	0x3f828f4972b832c0	0.00906236058565335
94	0x3f85f1dd12eeb2e5	0.010715224399825593
95	0xbf8bcdf06fee645b	-0.013576391616697039
96	0x3f8358c598c2e291	0.009446662640003186
97	0x3f8312af4f413968	0.00931298218361283
98	0x3f8094bd17f0c01b	0.008096196454147322
99	0x3f3eefb95d3bb511	0.0004720523404405245
100	0x3f925eafdfdf554d	0.01793932727726615
101	0xbf55d589ace6b70b	-0.0013326496588023675

weight f8 [102, 102]
0	0xbfbbb9d02bee15fd	-0.10830403397093132
1	0x3fa7f6587c30510a	0.04680134311652935
2	0xbfbd68923d30e3f6	-0.1148768805877721
3	0xbfb161ef3c423fc0	-0.06790061207925557
4	0xbfc279c345c6354d	-0.14434090525575485
5	0x3f9275a85e159474	0.018026953451585517
6	0xbfbc834ca0faca85	-0.11137846880118658
7	0x3f909e20b456bf27	0.01622820950222983
8	0xbfade6855cc27184	-0.0583993602496973
9	0xbfc54393b303ace4	-0.16612478485999482
10	0xbfc47a36a6a6588f	-0.15997965943524092
11	0xbfc556d766ce7635	-0.16671268958900645
12	0x3f71b8675fd00826	0.004326251798376679
13	0xbfbb258de46dab99	-0.10604178263535714
14	0xbfa068ddfffe6318	-0.0320500731460866
15	0xbfae51cd85d89b41	-0.059217856014859745
16	0xbfa57ff58afa46c2	-0.041991875853580676
17	0xbfb9344bbcf89503	-0.09845422137785324
18	0xbfc0ebaab0fe7d7e	-0.13219197885790018
19	0xbfb05aebba9d274a	-0.06388734155657719
20	0xbfc3e1ad3d7d3853	-0.1553246069183297
21	0xbfa99c96b710549e	-0.05002280220666332
22	0x3fa74c81a8a6fc9c	0.045505573117673864
23	0xbfb131623f7fa8ce	-0.06715978670368658
24	0xbf94c47e27e5f4dc	-0.02028081053275775
25	0x3fa742c385426a65	0.04543124200536822
26	0xbfb50c8eba4a4aca	-0.08222286270237614
27	0x3f1ad6046fbd5f52	0.00010237123563905146
28	0xbfc1a81ec8ac05bc	-0.1379431228488509
29	0xbf9d425c37c81336	-0.028573456673274232
30	0xbfc15af4c4c075d7	-0.13558826071759597
31	0xbfbe0bf187d51b45	-0.11736974302503451
32	0xbfc52bd61b0c153c	-0.16540027924217238
33	0xbfc6b00b4046c1c8	-0.1772474349832136
34	0xbf8185bb3a2cd614	-0.008555853569855144
35	0xbfb613b926ff01e4	-0.08623845293096327
36	0x3fa9bb64236e8860	0.05025780613438324
37	0xbfbc5561ee94e6a8	-0.11067783426997357
38	0xbf97689f5be4c4e0	-0.022860040649168023
39	0xbfa375e83ea23683	-0.03800893559046605
40	0xbfb46f9c5eec57e4	-0.07982804601155596
41	0xbfb44a2c0d26832d	-0.07925677605682031
42	0xbfb9a33f9fa66eac	-0.10014722488125
43	0xbfc44841cdde4371	-0.15845511009367955
44	0xbfc37e0b4ed801d4	-0.15228406286043017
45	0xbfad7c9eddeacc92	-0.05759140452337265
46	0x3f9b11579bd992da	0.02643334282619745
47	0xbfb421a836541d0c	-0.07863856626874027
48	0xbfb8947f8ffac5b0	-0.09601590409399452
49	0xbfb423b2b038857e	-0.07866970827355677
50	0xbfa630e75ce5481c	-0.0433418560884464
51	0xbfbbcba1b1a0d181	-0.10857592188478372
52	0xbfc32461e6fef51d	-0.14954780367944745
53	0xbfb47e7e2a90ea7c	-0.08005512751780403
54	0xbf888ff983c0c541	-0.011993359883578083
55	0xbfc00edb5e502f04	-0.12545339684617585
56	0xbfb2689310f71a18	-0.07190817989531018
57	0xbfb27897a634ce58	-0.07215259368677474
58	0x3f8e3cda3fc827f5	0.01476450450083531
59	0x3f917d159d30fda6	0.01707872173233018
60	0xbfa24bcad193d404	-0.0357344990569928
61	0xbf9ce3a6b53371f3	-0.028212170419338944
62	0xbfc0226d833c941f	-0.1260506525806315
63	0xbf78483103e32149	-0.005928222146572467
64	0xbfa54301b10856e2	-0.041526844845220415
65	0xbfa5eee78dcb56af	-0.04283832174193713
66	0xbfc0bb14c4b83130	-0.13070926289982188
67	0xbfc1dd1e4271440f	-0.13956049198398587
68	0xbfb9fa7a430c7833	-0.10147823464328169
69	0xbfbd62acbb7a2ea5	-0.1147869069774808
70	0xbfa0176a137ac430	-0.031428637388110636
71	0xbfc43087823dfa8b	-0.15773099765279527
72	0xbfa0129cc4695869	-0.03139200112916358
73	0xbfbff3d3b9f6dc7d	-0.12481425562042321
74	0x3fa71621b3e5fa8d	0.04509072609925111
75	0xbfc5a0795d6207eb	-0.1689597803088526
76	0xbfa237b30a9ef838	-0.03558120255137037
77	0xbfc4e4bc9f88f7cc	-0.1632304934482235
78	0xbfc297dd7cf12382	-0.1452595577304941
79	0xbfc09ff9d0de6e9b	-0.12988207529712245
80	0xbfb936f49e84686f	-0.09849480505036622
81	0xbf90e68b73323554	-0.01650445833779675
82	0xbfb075db519812b8	-0.06429835073511014
83	0xbfb1545e5259b3f1	-0.06769361029155598
84	0xbf74aedbdf4f0544	-0.005049570919198946
85	0xbfa52808136167f0	-0.04132104145601534
86	0xbfb20cbc52d214d9	-0.0705068304251485
87	0xbf7939423665bd86	-0.006158121721781545
88	0xbfad1fc678d2b3f1	-0.05688305115595672
89	0xbfc026bf3693138d	-0.12618246235629407
90	0xbf97025d652f806d	-0.022469958592296658
91	0xbfa135977716b8b1	-0.03361199692459261
92	0xbf58f42d37f1dd55	-0.0015230599963425757
93	0xbfa2bc098dbb185e	-0.036590860892417906
94	0xbfb899e531d033c1	-0.09609825578827637
95	0xbfa81a1c591eab70	-0.04707420909774995
96	0xbf8be6a89b46f9a7	-0.013623540152249826
97	0xbfb96beca563470d	-0.0993030456332031
98	0x3fa1fbaa32682682	0.03512317529027788
99	0x3f8759715a2ccf84	0.011401067318366882
100	0xbfc4283c95aa279d	-0.15747792537541452
101	0xbfb9e436b47cbd8d	-0.10113851458003449
102	0xbfc09a9ef1986bd2	-0.12971865460062176
103	0xbfc1bcece6b10b8d	-0.13857804550397326
104	0xbf8f37356dcf86b0	-0.015242021001486833
105	0x3f928f4e8faaf1a8	0.018124797362121164
106	0xbfbb6b20ad617a76	-0.10710338814667772
107	0xbf9417ae0ea1c53f	-0.01962158169084671
108	0x3f62e94637f1051b	0.002308499475049642
109	0xbfa33cdc431310b0	-0.0375737029912967
110	0xbfc3b8c773282b84	-0.15407651064773742
111	0xbf774ceebac5b276	-0.005688602960031921
112	0xbfb1a13b983ec968	-0.0688664671604663
113	0xbfb3cd645a0c688e	-0.07735278318833336
114	0xbfc2959a763a048c	-0.14519053242478142
115	0xbfa36aa266a237ec	-0.03792293074467054
116	0xbfb9ffe850034a18	-0.1015610881179686
117	0xbfa75d9ec8f7ae3c	-0.04563614085403997
118	0xbfbb77d5178a8c8b	-0.10729724716888904
119	0x3f546d8d64edef32	0.0012468224337842224
120	0xbfb664ca40b4f2ec	-0.0874754341102279
121	0xbfc5ca67090d197e	-0.1702393335528533
122	0xbfa695489f7a906a	-0.04410769411814004
123	0xbfa685cbc1c113f3	-0.04398953190005974
124	0x3fa713f6ab4e6ab8	0.04507418481008102
125	0xbfb1759a82271601	-0.06820073773914005
126	0xbf86a1b535a41af2	-0.011050620746130477
127	0x3f86020b83f72ca7	0.01074608799435446
128	0xbfb649054922c63f	-0.0870517066530505
129	0xbf9b9f916b6008e4	-0.02697589128366297
130	0xbfbf0aab768eab0d	-0.12125655788865349
131	0x3fb6b1e7d304ad44	0.08865212346852497
132	0xbfbde8144ed569d8	-0.11682249951028412
133	0x3fa1bede6c44b9db	0.03465933868061529
134	0xbfbed7406c154aa1	-0.12047197951077716
135	0xbfb7f3491b4f4f9f	-0.09355599323981643
136	0xbfab0efa1e0de68e	-0.05284864060281534
137	0x3f7222300abd9b75	0.0044271351469892155
138	0x3f83b8313c1d807a	0.00962866272647055
139	0xbf8e1a10c4f8c461	-0.01469815350637499
140	0xbfb50ebe537349cb	-0.0822562173591798
141	0x3f85d5f937e94638	0.010662028330588588
142	0xbfaef46554045fb1	-0.06045834208106216
143	0xbfab0e0b67afd533	-0.05284152641972142
144	0xbf9dacbd4351e18a	-0.028979260667684005
145	0xbfc5446c339aebf7	-0.16615059394629814
146	0xbfb3926a2f7070d6	-0.07645286234077572
147	0xbf9f758a93af168b	-0.030721822036659446
148	0xbfa9a250a6882690	-0.05006649048671108
149	0xbfa500e732e14fb8	-0.04102251525969741
150	0xbfb642248f2e460c	-0.08694675918220457
151	0xbfbc759d5229ef6e	-0.11116965537979492
152	0xbfb0352632bf74c0	-0.06331099261247441
153	0xbfb28cc7662a9717	-0.07246061558052151
154	0xbfb98c1f245ce176	-0.09979433667911572
155	0xbf8593179ac9559a	-0.010534462367256126
156	0xbfa4453ab0de8fd7	-0.0395906773476608
157	0xbfc3e09a90dfb297	-0.1552918631927198
158	0xbfc2dab84ed836b6	-0.1472998032553982
159	0xbfc25bad228a123f	-0.14342273890010124
160	0xbf987dacfc23f1b9	-0.02391691483443179
161	0xbfc528e8664ef130	-0.165310907321222
162	0xbfb7e8c908cf35a3	-0.09339577164720096
163	0xbfc2ca591b346c19	-0.1468001730762303
164	0xbfbd113a12a76fd2	-0.11354411082669394
165	0xbf9e415c3a0bbd98	-0.029546204607809295
166	0xbfbc3483e361db0d	-0.1101763181812709
167	0xbfc638f3687895e7	-0.17361300088047857
168	0x3f82d0c7404776aa	0.0091872755519334
169	0xbfa8d41d0cf52fa0	-0.048493297416455805
170	0xbf8fe42f3e8cfc51	-0.015571946236035002
171	0xbf67590378c33d96	-0.0028500621611795103
172	0xbfa11224a8847600	-0.033341546603178784
173	0xbfb5374cfefd62ed	-0.08287507272087753
174	0xbfab2c7c02d0a033	-0.05307376417505374
175	0xbfc38d2a1edfdcc2	-0.15274549968282797
176	0xbf72b6f96589e8de	-0.004569029050452948
177	0x3f927bde06d0338a	0.018050641218042375
178	0xbfba7759edf45ca2	-0.10338365611493086
179	0xbfc393dce4622a2c	-0.1529499163774103
180	0xbfc5fa883c6f5cc5	-0.17170813513687314
181	0xbfa363efc917fee8	-0.03787183122403609
182	0xbfbed7f9600e5330	-0.12048300356975683
183	0xbf951a0f3234be95	-0.020607221068699905
184	0xbfc28e8f003e294a	-0.14497554313522648
185	0xbfb2d23a2ef4691e	-0.07352031370502174
186	0xbfb2c70f8c11ea77	-0.07334992570569364
187	0xbfaceb2756d04363	-0.0564815801118417
188	0xbfa8ce39d7edfa93	-0.04844837914332802
189	0xbfc535b125da0b33	-0.16570104931096238
190	0xbfbd2b198958598b	-0.11393890002395872
191	0x3f6bcc5920b869d1	0.0033933392312637052
192	0xbf9d4d305537bc34	-0.028614764405514317
193	0xbfb3d304baa17428	-0.07743863636410764
194	0xbf97c2209f5edf4a	-0.023201474883278984
195	0xbfb54faf68bec605	-0.08324714953666763
196	0xbfb34aef7912c8fe	-0.07536217409031917
197	0xbfb8d189a29aabfe	-0.09694729060963422
198	0xbfc1cab8c1e631ae	-0.13899907558187635
199	0xbfc391afa81f02fc	-0.15288348874130253
200	0xbfa43fac5c6f5acc	-0.039548288615767285
201	0xbfbede50c49004dd	-0.1205797653092477
202	0xbfc5b2407a33520a	-0.16950231520480968
203	0xbfcac29d9cab0b0e	-0.20906419896899603
204	0x3fc12a114fe93703	0.13409630205062947
205	0xbf97a6dabaf7b421	-0.023097436582180223
206	0x3fa87ac438c2fee2	0.04781163399593226
207	0x3f99c01ef9b421a2	0.025146945944500516
208	0x3fa7f35da4a08d69	0.046778608652199356
209	0xbf73691c68e45470	-0.004738913512729245
210	0xbf98d3ac2120a549	-0.024244966051047787
211	0x3faf57062f2f35a5	0.06121081663114162
212	0xbf93b968fff1ba0a	-0.01926197111282061
213	0x3fc0392d0aee7a54	0.12674487146155633
214	0x3fb15a0f052bcf86	0.06778043628929539
215	0x3fa9874d6b1b75e5	0.04986040050946964
216	0x3fc094caa4e989da	0.1295407586322444
217	0x3fba014b0fbbb571	0.10158223280060043
218	0x3f97bb281bbcc57b	0.023174883549648122
219	0x3fb2414c79466164	0.07130887947858394
220	0x3fa530b6baf963ef	0.04138728172683403
221	0x3fb5e37477da3804	0.08550193716129689
222	0x3fc59484e8b066dc	0.16859494554301235
223	0x3fc69bd9aaa34005	0.17663117248457652
224	0x3fb4531272e365d9	0.07939257912530397
225	0x3fb1709b85146d6f	0.06812450407999447
226	0xbfbef02d469e41cb	-0.12085230802609385
227	0x3fc0a698e1838a42	0.13008414279382136
228	0x3fc2c66d5b855e7d	0.14668051689908515
229	0x3fbd8b82f0bdbe85	0.11541002633543414
230	0xbf919ed49d101c42	-0.017207452856407686
231	0x3fbc9eb7f2876126	0.11179685279001159
232	0x3fa5ebc38526db41	0.042814359668617026
233	0xbff9a93b09eaf746	-1.6038160693564847
234	0x3fb7860d86fc7fb8	0.09188923402370974
235	0x3f7635a03cc52433	0.00542223541953839
236	0xbf72962273ec1fd3	-0.00453771074422345
237	0x3fc009650df5f76e	0.12528670484237686
238	0x3fb3fc8b79ec890d	0.07807227827700931
239	0x3fc5312b8fb4066e	0.16556305424460355
240	0x3fb2636646bc4c73	0.07182921626035625
241	0x3f9248b28a878469	0.01785544367328776
242	0x3fc01f846eee467c	0.1259618322042576
243	0xbf8be798206660ad	-0.013625324715391985
244	0x3fba99e886718f71	0.10391095430673915
245	0x3fc458ece611d9fc	0.15896378740190176
246	0x3f987d976a1b03e7	0.023916593409698008
247	0x3fb3bc4c4b2a774b	0.0770919497976738
248	0x3fc64a7ff22b9900	0.17414855313035815
249	0x3faf01deed8d8382	0.06056114816488557
250	0x3fbf9d5bcf5f5bd2	0.1234948521881585
251	0x3fc1bb27bfa3fcea	0.1385240255112657
252	0x3fb09f99bac995d4	0.06493531046142859
253	0x3fa61226c4020e3e	0.043107234408151104
254	0x3f9c07a37e5b4e65	0.02737288912505988
255	0x3f8087fbf71fd5af	0.008071869353424825

bias f8 [102]
0	0xbfc3d47bca7a3dd8	-0.15492198359105092
1	0xbfa629460a06681e	-0.04328364250541504
2	0x3fc42ba8c3808989	0.15758237405777845
3	0x3fbb11b2d944ac6d	0.10573880962754041
4	0xbfa47ccb9129964f	-0.04001461169245301
5	0xbfb6445f4f04275a	-0.0869807784949023
6	0xbf81ea0564a3970f	-0.008747141011962193
7	0xbfb13788967810de	-0.06725362466392279
8	0xbfb992c1f1a38fb4	-0.09989559316050994
9	0x3fb96fccbd155a8a	0.09936217895788438
10	0xbfc5141971cfaa78	-0.1646758847922063
11	0xbf9ea6eda7e1e0e7	-0.029933656093334895
12	0x3fb1c5b0dd63ff21	0.06942277340931159
13	0x3f9bb4d78254f2fc	0.027057044343780298
14	0xbfa88d2d0ed1720e	-0.047952087458473
15	0x3fc2c43a66699a2e	0.14661340714083465
16	0xbf931bafaecfd351	-0.018660302204767835
17	0x3fa1578d5e601203	0.03387109543840341
18	0xbf96eba0c1768ef4	-0.02238322430424851
19	0xbfa257e5e47e063f	-0.03582685865604817
20	0x3f92b33441f23f79	0.01826173450950772
21	0x3fc189f147b9d8cf	0.1370221710419117
22	0xbfc049678f82d9fc	-0.1272401285875303
23	0xbf6ae6871607c934	-0.0032837522887742224
24	0xbfbf8cdd21a85fa3	-0.12324316093179148
25	0x3fc1da96b92754c7	0.13948329964356374
26	0x3fbd8cc251e3418b	0.11542906283580671
27	0x3f6c4c40e1a9d955	0.003454329225230849
28	0xbfc51fe2f643c7d6	-0.16503560089728236
29	0x3fb284c2a2ee748f	0.07233826139277454
30	0xbfa4a74294165c50	-0.04033859307963239
31	0x3fb852f6b8418b05	0.09501592634618923
32	0x3fb841367fa6e6d0	0.09474506966116825
33	0xbfc3f3606967a79c	-0.1558647646591539
34	0x3fb08fa962eee5a9	0.06469210305558327
35	0xbf8a905036db5fb8	-0.012970568346119524
36	0xbf82b6b68b140fd0	-0.009137560004553708
37	0xbfb31203c4187da0	-0.07449363267413966
38	0x3fb2dca9cb4c59aa	0.07367955411277785
39	0x3f892bf09c1560ee	0.01229083992318222
40	0xbf95501c1668aa43	-0.020813406818130053
41	0xbfa579db2d90b4d5	-0.04194531375137848
42	0x3f5e589cf63ba556	0.0018521817045729825
43	0xbfa54df1d4bfccce	-0.04161029550587046
44	0x3fa27ad33c7ba09f	0.03609333146397486
45	0x3fc2a802b6c2559b	0.1457522766474256
46	0x3fc52a9a7c2d81f2	0.1653626543366183
47	0x3fb9785b6b72e4eb	0.09949275372754911
48	0xbfb41760027b45d5	-0.07848167477211317
49	0xbf92e53c903633c2	-0.018452593137727076
50	0xbfadbb85c2765a38	-0.058071308124614196
51	0x3f5a32ee47523cf2	0.0015990569056930051
52	0x3fa08333c129a99b	0.032250993089138556
53	0x3fa2f4ae114861cf	0.03702300988169648
54	0x3fc5c5fd77d6ccce	0.1701046786452935
55	0xbf7bf3b535906a33	-0.006824214790891281
56	0x3fb1ee45e0c3157e	0.0700420068488565
57	0xbfb86bcf290ced64	-0.09539503814896971
58	0xbf91a6f7c69f4ccb	-0.01723849439424611
59	0x3f9dd504b321815b	0.029132913049012426
60	0xbf79f0b6e9606945	-0.006333078859848411
61	0xbfbf6d4e5f66e6a3	-0.12276162938260397
62	0x3f8226066dd1381c	0.008861589647633443
63	0x3f9e7420ff6a64ae	0.029739871587115267
64	0xbf470fc2ead520db	-0.0007037832016658878
65	0x3f9d82f48ed9afe0	0.028819867342846694
66	0x3fb0376827859c61	0.06334544148340761
67	0xbfb7a92bf85a0d7b	-0.09242510617518988
68	0x3fc3f5c983b89c65	0.15593832904525864
69	0x3fa8ec071b12fde0	0.04867574887748183
70	0x3f992c8595ee3782	0.024583899761231993
71	0x3fb225fd292f5d10	0.07089216475957394
72	0x3fb7960de994364e	0.0921333976040952
73	0xbfc18a1889ceff5b	-0.1370268509763218
74	0x3fc400431e3a5bee	0.1562580010983931
75	0x3fb8ac4f55daaa22	0.09637924047516624
76	0x3fac078585a9f5a7	0.054744885031122785
77	0xbf833642dfb4ffa0	-0.009380838825222615
78	0x3fbe17d7830f0946	0.1175512976615539
79	0xbfbb187f4d50594d	-0.10584254872842287
80	0x3fb79ba74101836b	0.09221883141573321
81	0x3fa20bc643e4a5da	0.035246082103480084
82	0x3fc632d639a9becc	0.17342641654567215
83	0x3fb2d963c78635c7	0.0736296045417567
84	0xbfb2cc4e657e7435	-0.07342996576194667
85	0xbf858ef058ea13f4	-0.010526540482951298
86	0xbf648f4dbdda9502	-0.0025097387686680026
87	0x3fb7f47c85464565	0.09357431653758892
88	0xbfc4bb2a10c9334d	-0.1619618017160981
89	0xbf7bf99fe694dfe8	-0.006829857456345657
90	0x3fad56f8b022f395	0.05730416441063039
91	0xbf88afbd23040b72	-0.012053945189568902
92	0xbf971a19aa0aff93	-0.022560502055739184
93	0xbfc2f090b51b9bc9	-0.14796646922260795
94	0x3f92ca2b7ad81861	0.018349341748056584
95	0x3f9310a9a365089a	0.01861825046331287
96	0xbfbe311ed98808fa	-0.1179370194513786
97	0xbfad313b533f565d	-0.05701623336032633
98	0xbf991bc71a36a525	-0.02452002618307349
99	0xbfc19ef9e928741d	-0.1376640690295127
100	0xbfbabd62abd62231	-0.10445229239679389
101	0x3f920ca291472843	0.017626323811591026

weight f8 [1, 102]
0	0xbf7bfcaf9b99930d	-0.006832776992813161
1	0xbf70dd1c34c612fc	-0.004117117100012942
2	0xbfbd58290555c219	-0.11462646847008563
3	0xbfc2ea4dc1e61e0e	-0.14777538268775497
4	0xbf7ab35cb609c966	-0.006518709328349059
5	0xbf74f6f5b2c155cf	-0.0051183316791898045
6	0xbfbf0b154174e27c	-0.12126286361752564
7	0xbfe36a8797cddd0c	-0.6067541088986288
8	0xbfcb166be2dfe81f	-0.21162174775946682
9	0xbfba02c42d736f0b	-0.10160471067086634
10	0xbf74bf584ae25138	-0.005065293209686232
11	0xbfb3581f7e891e9f	-0.0755634006428587
12	0x3fe0d1c293c7985f	0.5256054769822746
13	0x3f895354d50686f4	0.012365973235151519
14	0xbfa9e4b6d54c226b	-0.05057307580688505
15	0xbfc0b40f3ee4d19d	-0.13049498148906205
16	0xbf941f782ec1a985	-0.01965129647616372
17	0x3fc7adbf03d63dc5	0.1849898117766157
18	0x3fb19f35ac2a10f3	0.0688355965922403
19	0xbf7999acda16b25c	-0.0062500717189491704
20	0xbfc65df38a863770	-0.17474216712838198
21	0xbfb92abd57a60293	-0.09830840482573881
22	0xbf9801948d71aa73	-0.023443528302247118
23	0xbf8a1a33d537fda0	-0.012745289749544864
24	0xbf6bb151e4fd3012	-0.0033804511548734062
25	0xbeef137fb7e0fa43	-1.481827143489962e-05
26	0x3fb21e23e8cbcc96	0.07077240403650573
27	0xbf73c919981a3dd9	-0.004830455758237894
28	0xbf7a60569f822704	-0.006439531680493497
29	0xbf7ffd739e491e9e	-0.007810069688794078
30	0xbf729d9c01c2bceb	-0.004544839288583828
31	0x3fd76be9a20444b6	0.3659614641374661
32	0xbf84d8a8e45c5f7f	-0.010178870648402725
33	0xbf6d104a5e04a9df	-0.003547806976844855
34	0xbfc0a59878ce190c	-0.13005357645688098
35	0xbfa8ad699d2597b5	-0.04819803279205762
36	0xbf9323b54a525e12	-0.01869090334056806
37	0xbf794f95e8c4b3e5	-0.006179414351476152
38	0x3fe05418c7e7d985	0.5102657226951101
39	0xbf7040ce526ae64b	-0.00396805376538507
40	0xbf62a4e6a4ecd367	-0.002275896527317678
41	0xbf707d2f72db88e7	-0.004025636049592252
42	0xbf9311e1a7d721af	-0.01862289988437887
43	0xbf66e51a21092cfb	-0.002794791253369786
44	0xbfbf6edc3f594b9a	-0.12278534456826976
45	0xbfbc117bbbb494e5	-0.10964177448893826
46	0xbf903fccf483012c	-0.015868379997074175
47	0xbf8b7b8b1e17d9cb	-0.01341923413836534
48	0xbf73755438ecdf89	-0.0047505655227765365
49	0xbfa5abbea1c76b71	-0.0423259327396498
50	0x3fcbe8269bcd41fc	0.21802218062886414
51	0xbfdd568e93314aeb	-0.4584080159594765
52	0xbfa82cd2ca0277a3	-0.04721697536409344
53	0xbfdda4ba83941db9	-0.4631792340228134
54	0x3f8dedf57949ddce	0.014614026798183934
55	0xbf70606ef8d838a6	-0.003998216137473564
56	0xbfb4643d893b52fd	-0.0796545467413345
57	0xbfd8e095817f6e76	-0.3887075199724913
58	0xbf8b08944035583c	-0.01319995709370058
59	0x3fd8548417b8bb8c	0.3801584464699139
60	0xbf740ca4a6964fd8	-0.004894869963567992
61	0xbfd1c589bc71456a	-0.277681764627309
62	0xbff0d6823e8e7b22	-1.0523703044525026
63	0xbfb43971d07280b5	-0.07900153483433565
64	0xbf6d2f5ba4b725b9	-0.0035626211081065365
65	0xbfb1a1aea1cae513	-0.06887332391751881
66	0x3fe1fe28289a392b	0.5622750084892564
67	0xbf80c89b2888c296	-0.008195125746256065
68	0xbfb60561cacc7fc0	-0.08601962281363651
69	0x3f3e967a7bd64ef8	0.0004667328865590593
70	0x3fd7b8f4bbad63c5	0.3706638176714104
71	0xbfd01f19357997c1	-0.251898100110676
72	0xbfc854582183a0b4	-0.19007398258623243
73	0xbf6e82df95c40f6f	-0.003724514665124738
74	0x3fe65adc8941b9c2	0.6985914879604069
75	0xbfe4bf3ff2e9b5f3	-0.6483459228890623
76	0x3fdfe24a8f8d0598	0.4981867219795162
77	0x3fd88762a6d72945	0.38326326649680126
78	0xbfb444a3997b8242	-0.07917234894876748
79	0xbfcb6b4fb0752cc1	-0.21421238056277583
80	0x3fe00ea09e021b4a	0.5017855726335736
81	0xbfb780b86884b331	-0.09180786658971553
82	0xbfb31c5aa79bdccf	-0.07465139953625342
83	0xbfa5528c89d96442	-0.041645423724454136
84	0xbf812fe3ee3917fe	-0.008392124850740142
85	0xbf87cd86ff92673f	-0.011622481035647446
86	0xbfa12bb71c00c26e	-0.033536646049815086
87	0x3fd9a41983ee8fbe	0.40064084896061647
88	0xbf710caa1f69622e	-0.004162468473247345
89	0x3fdaee43e7f81922	0.42079255727039044
90	0x3fd6a8014a111e67	0.3540042136487273
91	0xbf95b1eb68a1b2e8	-0.021186521779258977
92	0xbf6e990840bbf0c4	-0.0037350808323691493
93	0xbfa2f8b0186bb1e8	-0.03705358789543195
94	0xbf70eaeab2aa61af	-0.0041302841078948846
95	0x3fe05bb597043381	0.51119498725312
96	0xbf6afd526bce612f	-0.003294621447320754
97	0xbf7521e7b8f2aa5a	-0.005159287610846686
98	0xbfaa7438e40e6d95	-0.05166795524493321
99	0xbf700156c826be53	-0.00390752696186743
100	0xbf76f7f8230cd4e3	-0.005607575688192787
101	0xbfbc9013eaf76fd7	-0.11157345282066387

bias f8 [1]
0	0xbfc570c53275918c	-0.1675039764769618
