fine-tuned models/NO3234_YKL066W.pth (torch, 4055 bytes, 6 tensors)

weight f8 [3, 34]
0.17508582150712068 0.2033012803880605 0.11006577983021766 0.25560659172163164 -0.008545522701156591 0.23010892438077246 0.06353647303491736 -0.3235786073568853
-0.14936690939042402 0.27215539443710407 -0.16975106952945962 -0.08338771377938581 0.2000979593270897 0.0019433975730347652 0.03375889487681453 0.2075885968591035
-0.11487360466394125 -0.17310740702038538 0.082490867425339 -0.08396211612436749 -0.14051478792582356 -0.18861492998705293 0.29346431517576727 -0.08172008817131202
0.026428400936831808 0.041616877137099294 0.10646596158368234 -0.33197081764305414 0.35269738375505805 0.282318724347758 0.23835472433979996 0.3688189048913077
-0.2349003310699103 0.016983447438451385 0.6266943397298639 -0.04404662162641465 0.11449608710407903 0.2339702384953641 -0.04621925473398645 -0.1698281208301241
0.09853400238859507 -0.1856811346505411 -0.1948951099582577 0.12720464680602606 -0.17559731697362568 -0.2714067391782074 -0.15595502599398528 0.20652716700784357
-0.311464599717138 0.18226871323394528 0.1660059961938654 -0.21699282488055133 0.1531929826816994 -0.01719656362970571 -0.3682811592932038 0.31517899259227133
-0.29646710308615937 0.1877418701940144 0.07807847431002136 0.15753157168068108 0.0707893903860871 0.014094842761662825 -0.3225135633197616 -0.13265499452998425
0.02937953093373491 0.1089458969485028 -0.1244049153876644 -0.026491310008797984 0.22937270199986953 -0.2328785550472359 -0.19361523405662695 -0.12318888640038483
-0.08806728542705705 0.17890480050699206 -0.20263609655284115 -0.14756127274828254 -0.11865424766520478 -0.35008293411148933 0.07425334649884638 -0.050097290615689856
-0.42340545148780906 -0.2430558552909329 0.17602503380211962 -0.1753726143239014 -0.01654137124343484 -0.24058438722502928 -0.27455844923924067 -0.5029624878757307
0.21516975335875355 0.2550021554298424 -0.3367565339540473 0.16576889572281928 -0.1336938700775883 -0.1494310361750357 0.11666691524810648 -0.030246145879026323
0.11929707989646211 0.0563928076638625 0.20840631482151079 -0.09972477219626122 -0.17879646149204967 -0.0870748758235307
00000000: 6fe5 ae52 3669 c63f f035 40bf c605 ca3f
00000010: b58e c75c 452d bc3f 1b88 05c0 db5b d03f
00000020: 78c3 3aa4 5080 81bf 04d8 5d90 3574 cd3f
00000030: 96c4 c921 ed43 b03f 731d 120c 83b5 d4bf
00000040: 22de 7773 741e c3bf d163 a275 fe6a d13f
00000050: cc86 0b2e 67ba c5bf 7817 92af e558 b5bf
00000060: 2f31 a757 cf9c c93f 6160 3c41 33d7 5f3f
00000070: b5d9 e38a d848 a13f f524 445d 4392 ca3f
00000080: f88b 3447 5b68 bdbf 8388 ec2d 6228 c6bf
00000090: 1b7d cf19 1f1e b53f bc6b db8e 8a7e b5bf
000000a0: fa75 5f79 63fc c1bf de75 eab5 8824 c8bf
000000b0: ed44 0e8d 1ec8 d23f ce3c 1f92 9beb b4bf
000000c0: 734a d6f6 0b10 9b3f 83ee 87ac ce4e a53f
000000d0: 959c 236f 5a41 bb3f 0636 4087 023f d5bf
000000e0: 1137 270c 9892 d63f d3cf 078e 8211 d23f
000000f0: 037a f158 6882 ce3f 9fe6 a99b ba9a d73f
00000100: 31e6 e1cb 3611 cebf 0433 49dd 1b64 913f
00000110: 6c4c b749 e10d e43f 48fc c45e 478d a6bf
00000120: e3c9 a195 9d4f bd3f 9f96 499d bcf2 cd3f
00000130: 6d51 0ed7 0caa a7bf d408 7488 edbc c5bf
00000140: 8591 cd3d 8639 b93f 9e74 6740 66c4 c7bf
00000150: aae4 b5ad 52f2 c8bf b42e f7ea 3d48 c03f
00000160: 7c62 d50e f979 c6bf 41cd 2b5f ba5e d1bf
00000170: 613f 2594 55f6 c3bf 4461 0472 7b6f ca3f
00000180: ce65 6937 09ef d3bf fe3e 36c9 9454 c73f
00000190: c2d8 4b3a af3f c53f 5210 2abf 6bc6 cbbf
000001a0: a21b 4ce1 d39b c33f ea9a 92d9 f99b 91bf
000001b0: fc6c b923 eb91 d7bf 667b 6482 e42b d43f
000001c0: 1713 0628 51f9 d2bf 9a5d 49f4 ec07 c83f
000001d0: d1e0 ae6d f3fc b33f 5f5e 3a9a fe29 c43f
000001e0: 67ad 9ce4 401f b23f 37fb a0c5 c1dd 8c3f
000001f0: 2563 beed 0fa4 d4bf c223 94bf d6fa c0bf
00000200: 20fc 20f2 aa15 9e3f 5b5d 6dd8 e0e3 bb3f
00000210: f839 0d23 00d9 bfbf b9c4 76b8 8920 9bbf
00000220: c2a0 d7ae 155c cd3f f90d efe8 f6ce cdbf
00000230: a4ea 234d 62c8 c8bf f8ff 518e 4e89 bfbf
00000240: 94b7 c1de 938b b6bf 1331 a33d 5ae6 c63f
00000250: 9a7e d7c7 faef c9bf cb14 4eac 49e3 c2bf
00000260: ede7 40f1 1f60 bebf 6561 3940 c267 d6bf
00000270: 0ec3 d46e 4402 b33f 890c a021 5aa6 a9bf
00000280: f6a5 c52d 1319 dbbf f5b5 c94a 741c cfbf
00000290: 078c ba01 fd87 c63f 804d 911d 9c72 c6bf
000002a0: 8c10 16a2 38f0 90bf 48a4 871d 78cb cebf
000002b0: 46ac 149a 5d92 d1bf 5d50 91c9 4418 e0bf
000002c0: 60d2 e1b6 ae8a cb3f 7ec3 7e8f f451 d03f
000002d0: 2d01 0347 6b8d d5bf dc69 e948 ea37 c53f
000002e0: 5157 d477 e11c c1bf af88 b062 8e20 c3bf
000002f0: d90c 8409 e2dd bd3f 2798 857d d8f8 9ebf
00000300: f1e1 a9e0 408a be3f 67b4 4aa1 84df ac3f
00000310: 3219 38e1 0ead ca3f 1a1a 2f0b 9087 b9bf
00000320: 31db 5f6d cde2 c6bf 911f f7ff 894a b6bf

bias f8 [3]
0.1983574120592672 -0.12764292994753146 -0.09637232577149071
00000000: 1e5c db92 c663 c93f a85a d880 9a56 c0bf
00000010: 1a92 6d53 dbab b8bf

weight f8 [3, 3]
1.0811111875972113 0.7698618660560599 1.6036465334292351 1.531852843732055 0.5222600587192021 0.6980711241886458 1.626253845526347 0.5873169182366466
1.1170416302243378
00000000: ab1d a13e 3b4c f13f f4be 245a b5a2 e83f
00000010: e3c1 7644 89a8 f93f 06d2 a120 7882 f83f
00000020: a897 06ba 5ab6 e03f 9182 1541 9956 e63f
00000030: 757a 98c0 2205 fa3f 4bd8 86d9 4ccb e23f
00000040: 4b58 610b 67df f13f

bias f8 [3]
0.8291706743419217 0.26494848037716057 -0.34590447975923283
00000000: eb39 23f0 9088 ea3f 3e11 9678 eaf4 d03f
00000010: 69c5 068b 4c23 d6bf

weight f8 [1, 3]
0.11156256384865963 0.7697602910275049 0.03136179494956306
00000000: 8b1a 303b 5d8f bc3f 571f 7755 e0a1 e83f
00000010: 43f1 4d37 a70e a03f

bias f8 [1]
0.2210103271424105
00000000: 3bd4 93ff 104a cc3f
