fine-tuned models/NO3266_YKL098W.pth (torch, 56023 bytes, 6 tensors)

weight f8 [69, 24]
000000 73 b1 5b 0e 18 e0 90 bf 69 8a 69 5d 75 d0 91 bf
       -0.016479850651124516 -0.017396768404419314
000010 11 0f d8 a4 bb 39 86 bf 8b b7 72 8b 6b f2 8e bf
       -0.01085230442823318 -0.015110817139738738
000020 2f a5 fd 84 98 3b 94 bf e9 fc c4 c9 8a 9a 6f bf
       -0.019758589856256833 -0.0038578711229600893
000030 87 82 c9 51 2c 49 8e bf 7a 84 c6 13 2b 99 87 bf
       -0.014788004156060864 -0.011522614041327584
000040 0a 14 4d a7 28 83 91 bf 26 0a 84 b1 e5 fa 91 bf
       -0.017101893626449573 -0.01755865951509796
000050 ab 18 db d7 de 87 52 bf 54 bd 7c a0 a5 be 97 bf
       -0.0011310268595692656 -0.023188198013653974
000060 7e a4 7d bc 26 66 9f bf 19 04 41 b2 fb 29 86 bf
       -0.030663113836827176 -0.010822264077548426
000070 1f 87 8e 09 85 47 91 bf a1 a9 f3 20 eb ed 7a bf
       -0.01687438841657418 -0.006574552985720323
000080 26 6f aa b0 2c 71 90 bf 41 f6 28 38 3b a7 86 bf
       -0.01605672672540872 -0.011061155940406244
000090 4b b3 20 9d 2e ae 5d bf 6d d3 e3 7a d9 e5 90 bf
       -0.001811547776479477 -0.01650180637894343
0000a0 01 88 a2 d6 a0 94 94 bf e6 83 7b 16 03 23 83 bf
       -0.020098221874498282 -0.009344123958216554
0000b0 82 56 9d 74 74 d7 92 bf a5 e9 4f dc 2f 6a 75 bf
       -0.01840002023467103 -0.00522822089714695
0000c0 3b 38 75 24 83 19 9b bf b5 19 01 e4 0e b6 72 bf
       -0.026464509105885475 -0.0045681554475493396
0000d0 6b 75 62 aa 09 3f ad bf 7a a6 07 d9 6a ab a5 bf
       -0.057121564911748766 -0.042323435776620635
0000e0 d0 ae 3d 53 94 f6 90 bf b5 50 43 58 1e fa bd bf
       -0.016565625744461354 -0.11709775595528778
0000f0 d9 b0 03 65 e6 3e 50 bf df 41 b4 7f 63 d5 b7 bf
       -0.0009915590235847675 -0.09309980266358008
000100 b4 98 e0 d6 e5 87 9a bf fe a8 c9 d7 f9 22 92 bf
       -0.025909034004279533 -0.01771154765666782
000110 c1 f3 d2 d9 ba 3e bd bf 9f 91 80 33 34 93 a8 bf
       -0.11423843210191277 -0.04799807671250566
000120 a1 ea 8e 0a a9 6e c2 3f fb 95 c4 fd f5 4d b7 bf
       0.1440020848802606 -0.09103333898072911
000130 af 34 a0 e3 a9 d4 9f bf 4c f2 57 15 f8 96 c1 bf
       -0.031084684866119868 -0.13741971056141933
000140 0c 57 22 a0 88 49 a0 bf 32 c3 87 97 68 aa a8 3f
       -0.031811017558693505 0.048175114152292045
000150 8a 75 5a 9c bc 22 c6 bf 11 82 d7 76 8e 06 91 bf
       -0.17293508181039058 -0.016626573565988127
000160 da 99 f2 28 5b df 7c 3f 20 38 7d 13 fc 13 bd bf
       0.007048946469842632 -0.11358619190033936
000170 bb 2a 13 dc 0f 08 a9 bf 4f 33 61 19 7d 47 bb bf
       -0.04888963281117272 -0.10655958051320379
000180 bf f6 ca 0a 4a fa a2 bf 7d 13 c2 9d 32 f9 97 bf
       -0.03706580526111968 -0.023411551359930883
000190 45 05 b6 de ef b7 a1 bf 44 0f 45 91 53 40 a7 bf
       -0.03460645288124423 -0.04541264675438453
0001a0 8e a7 59 6c d0 f8 a2 bf 53 82 63 9f 8b d2 b1 bf
       -0.03705455134043155 -0.0696189178593241
0001b0 68 e1 5c 52 18 76 92 bf d3 0f 93 93 fc 73 b1 bf
       -0.018028621699359176 -0.06817606547252746
0001c0 fd 82 3f eb 9b f7 a2 bf be 51 0b fb b6 7b a1 bf
       -0.03704535719567124 -0.03414699377541151
0001d0 df 76 8f f7 cc ca b0 bf b3 0a 96 c3 3d a1 9d bf
       -0.06559449237780822 -0.028935399115207882
0001e0 df 6b 11 29 d2 1e a7 3f 0f 6a 8b fb 5e 76 b1 bf
       0.04515702010458943 -0.068212448513272
0001f0 12 e6 8a e2 b4 2a a2 bf 97 f8 6d 75 f2 a7 b6 bf
       -0.03548207536136884 -0.08850016943867654
000200 a2 12 ec 0b e9 33 a4 bf a5 ad df 79 9f d7 76 bf
       -0.039458544450132096 -0.005576727822681181
000210 85 ee 60 32 ed 1b bc bf ed 71 51 7d a4 58 a0 bf
       -0.10980112533519033 -0.03192628888857372
000220 a2 79 5c d1 5a 33 97 bf 1a 37 91 8b c6 1d b4 bf
       -0.022656840351481862 -0.07857933909800999
000230 24 55 66 7e 2f 2b a5 bf ca dd ff a6 e8 2b b1 bf
       -0.04134510438886199 -0.06707624508987134
000240 7b 12 f3 df a1 ac 9b bf a6 b4 e4 f7 35 57 a0 bf
       -0.02702572755221631 -0.03191536570589308
000250 05 ff ca da 92 0d 93 bf 80 b4 d3 e0 46 8c 97 bf
       -0.01860646686941349 -0.022996051285123276
000260 14 9c eb bb 42 21 a1 bf 84 e9 30 2f 96 19 6c 3f
       -0.0334568838496169 0.003430169419087638
000270 b7 03 6e 63 8b 9e 9c bf 5f 33 0d 81 86 c0 88 bf
       -0.02794854921694753 -0.012085963071194859
000280 f3 e7 22 e9 40 16 9d bf 04 17 1e 41 af 77 9e bf
       -0.028405203084481866 -0.02975343546815791
000290 6d 47 eb 14 81 82 7f 3f 2b 1e 38 de 7a 9e a8 bf
       0.007692817902993682 -0.048084106088989685
0002a0 52 c7 b0 89 52 22 b2 bf db ab 37 7d d0 f4 84 bf
       -0.07083621846757396 -0.010232571431478312
0002b0 af ad dc 5c df 43 9e bf 46 b0 a8 d6 d2 bc 5e 3f
       -0.029555788081024378 0.0018760737390364365
0002c0 db 34 2e 5d 65 72 9a bf 74 4b bc 19 c6 1b 91 bf
       -0.025827010929380428 -0.016707511254093046
0002d0 ba 63 f6 8e ae 8d 96 3f a7 55 72 86 6f 1f 9d bf
       0.022024848438011203 -0.028440229969950128
0002e0 f8 fe 5e 02 b7 f8 a2 bf bf 65 9b 48 3a 3d 75 bf
       -0.03705379394477676 -0.005185344381709311
0002f0 f4 09 14 d9 2b da a0 bf f2 55 13 f5 80 30 3d 3f
       -0.032914514778912635 0.00044539593097900267
000300 49 24 de 57 fe 15 89 bf c8 84 0b 00 00 c6 9c bf
       -0.012248980576048523 -0.028099060061212794
000310 05 cd 0f fd 83 21 8c bf bb af 1c 5e 64 2d 80 bf
       -0.013735800896006465 -0.00789907848555759
000320 98 4f bd 67 53 e7 94 bf 0c 85 7a 3a c8 c8 9b 3f
       -0.020413687903171857 0.02713311058926586
000330 b7 12 93 d5 40 88 8d bf 08 03 f3 f0 7e 78 88 3f
       -0.014420038717056867 0.01194857762163927
000340 ec e2 c1 9e 61 8b 90 bf de e0 77 6d d6 7a 93 bf
       -0.01615669757345277 -0.019023275786793963
000350 b4 9b 51 2b 6d c6 9d 3f 36 d2 b0 fa 1a 91 ad bf
       0.02907724930664886 -0.05774769125165273
000360 3f 76 38 54 dc df b8 bf c6 13 25 3d 7b f9 8e 3f
       -0.09716584259191395 0.015124285510532586
000370 7a a3 cd b0 d8 a7 94 bf 41 20 33 a4 6c 54 a2 3f
       -0.020171533385482367 0.03580035690680506
000380 6d 94 60 50 99 bd 8a bf 96 b7 89 74 af a1 7a bf
       -0.013056943669719179 -0.006501851436594116
000390 9c 89 6d 72 0d 9f b1 3f bd 74 dd 97 2f 40 94 bf
       0.06883319896363677 -0.019776099819286175
0003a0 26 81 bb 09 d7 7c a0 bf 7b 2c 28 b3 fc 2a 9a 3f
       -0.03220245355419342 0.025554607806082857
0003b0 b6 32 2d 9a a5 37 9a bf d9 85 bc 03 90 03 9a 3f
       -0.025602901015462996 0.025404215076496903
0003c0 e0 92 17 9c 90 68 85 bf ba bc 25 12 b4 02 91 bf
       -0.010453347934296031 -0.016611875159864488
0003d0 e9 76 b9 04 8a 26 82 bf 8f 8a 11 ae af 30 81 bf
       -0.008862570065669444 -0.00839364290204017
0003e0 b1 f9 e5 13 eb 2e 8e bf d8 75 1f 63 bb f4 80 3f
       -0.014737927002667602 0.008279289209833715
0003f0 5d 5a de a9 bb 79 84 bf 6c 7e 54 27 21 d1 13 3f
       -0.009997812386967892 7.559552053181825e-05
000400 7d f1 f7 0a 56 20 89 bf 72 a9 ab c5 00 5d 8b bf
       -0.012268707475407531 -0.01336098292582186
000410 54 4b 40 6f a1 0b 85 3f 8e 92 b9 18 d5 c4 9d bf
       0.010276089866271633 -0.029071168550574948
000420 84 bc f4 1e 2e c1 a7 bf d3 bc 7e 77 ca 7e 56 3f
       -0.04639572265511396 0.0013730027403473968
000430 52 a1 10 53 93 5a 8b bf e8 4d cd 32 6b 41 85 3f
       -0.01335635277980943 0.010378682601788605
000440 a8 98 ba de f0 d4 85 bf ac 9c 72 da 6c 99 7c bf
       -0.010660058781763418 -0.006982255180594848
000450 70 b5 07 49 01 ce 97 3f d2 e6 1c 1a d4 f7 8a bf
       0.023246784288791955 -0.013168007895376563
000460 4b 73 85 3f 99 9c 93 bf e0 4b 38 42 5a 5e 77 3f
       -0.019152063848525896 0.005705216000495533
000470 59 cf 36 25 74 3d 90 bf ea 09 82 a5 d1 ca 7d 3f
       -0.015859427234047405 0.0072735013310442995
000480 c3 b9 55 72 09 a5 8a bf 7c e3 4b 5d 3f b6 91 bf
       -0.013010095407221983 -0.0172967816060665
000490 9f 9d 82 85 80 28 84 bf c7 e6 92 d9 ae af 86 bf
       -0.009842876505287644 -0.011077276243998025
0004a0 2f b9 eb db 48 5d 91 bf f3 8b ba a3 5d 68 70 3f
       -0.016957415030384112 0.00400578096347014
0004b0 c5 02 10 71 7c 1d 89 bf 03 36 be f5 e2 39 71 bf
       -0.012263271522898642 -0.004205595552674082
0004c0 d3 e9 24 72 9a 6f 8d bf a4 16 27 87 e7 3a 8f bf
       -0.01437302265968735 -0.015249069988281967
0004d0 ac 61 1a 1f d9 03 7a 3f df 15 d7 a1 4a 43 9c bf
       0.0063513261135529735 -0.027600446823063392
0004e0 88 23 b4 c7 cb 58 a5 bf 55 08 21 d1 18 69 69 bf
       -0.041693084838761385 -0.0031018719392088925
0004f0 67 9a 8f f5 c6 c6 8e bf 33 48 83 d1 36 e5 71 3f
       -0.015027574891019314 0.00436898625794595
000500 26 b7 07 b9 ce 77 8a bf 94 d3 b1 8e 9a 8f 81 bf
       -0.01292382719199343 -0.008574683646864568
000510 cb 2b 20 14 1a 84 8e 3f ee f7 26 3b 51 1d 8e bf
       0.014900401820360806 -0.014704355828936113
000520 75 ac 55 51 c0 73 94 bf ac f6 99 dd 96 b9 31 3f
       -0.019972805942796563 0.0002704613994878129
000530 23 97 48 db 34 9f 91 bf d2 49 c8 63 ae e7 66 3f
       -0.017208886989599336 0.0027960210848132295
000540 5c a6 38 28 de f0 56 3f 11 68 bf ee 6a e2 7e bf
       0.0014002007964201346 -0.007540147500515474
000550 f9 21 45 93 3a 96 60 bf 01 bf 2e 81 97 40 6b 3f
       -0.002024759678679763 0.0033266982149696704
000560 29 02 fe 99 ae d9 5e bf 25 62 5b 44 b7 79 92 3f
       -0.0018829541295134567 0.018042434260538216
000570 cd a3 86 b4 b1 a0 2c 3f 14 53 89 77 cf 02 8b 3f
       0.0002184121060626862 0.013188954196417003
000580 de 7c 62 28 64 89 4b bf b5 f6 ea 63 24 1e 61 bf
       -0.0008403529216315616 -0.00208956820946934
000590 30 76 4b c8 f9 d0 92 3f 5c d2 51 26 fd 79 95 bf
       0.018375304079077448 -0.020973163093417888
0005a0 5b 7c 41 73 4e 32 a5 bf 80 97 0d 7a 80 c2 8d 3f
       -0.04139943272525023 0.014531139111294555
0005b0 74 0a ba 24 23 d8 65 bf e9 a4 56 ad 28 0a 99 3f
       -0.0026665388484741707 0.024452815608729948
0005c0 63 01 da 0b ed 58 44 3f cb c2 6e 96 d6 6a 42 3f
       0.0006209523632634658 0.0005620525160932808
0005d0 00 e9 5a 67 6a 00 a4 3f 62 59 9a 5b 17 8d 67 bf
       0.0390656710782924 -0.0028748947341440826
0005e0 56 9f 09 1b 00 c9 81 bf 00 18 35 cc 45 59 94 3f
       -0.008684159112092676 0.019871798123197948
0005f0 d5 b2 38 2c 1d 22 74 bf 74 a8 ff 4f 09 51 92 3f
       -0.004915346103683678 0.017887254245501485
000600 38 53 23 fe 3a 2a 91 bf b2 ca 70 9b 49 8f 94 bf
       -0.016762658845283357 -0.02007784854158485
000610 18 73 5c 2b a9 49 89 bf 45 7c 5e 6e 16 d0 8e bf
       -0.012347528110291203 -0.015045333140561232
000620 e7 ee 42 ef 5b 79 95 bf ef 8d 9b 6b 4a 41 21 bf
       -0.020970760801659074 -0.0001316455216545521
000630 fe df 99 c9 00 17 8f bf 65 6e e4 34 46 9d 82 bf
       -0.015180593635918168 -0.009089039315362155
000640 31 cf 12 74 51 7e 92 bf 46 d6 ad 81 0c 42 93 bf
       -0.018059990605890867 -0.018806643881779793
000650 7c 70 b6 5a 61 c7 65 3f cf a9 39 cc e0 f4 9e bf
       0.002658548493583322 -0.030231010880393868
000660 5c 56 eb 90 eb 60 a5 bf 71 35 e6 97 53 57 80 bf
       -0.041755067291586484 -0.007979062150094337
000670 5e f7 cf 78 5d e7 92 bf 9c 3c f5 e0 e9 ce 54 bf
       -0.01846071290855577 -0.001270035168847084
000680 90 41 7a 12 f8 06 91 bf d1 2c 30 c5 d4 f1 85 bf
       -0.01662814724710554 -0.010715162532525831
000690 77 dc 44 67 57 ef 7f 3f 92 ad cd 54 be 6e 92 bf
       0.007796613139638634 -0.018000577856054863
0006a0 7e 46 df f1 d4 95 97 bf e4 77 8a da ce f8 74 bf
       -0.02303250051756444 -0.005120094320458766
0006b0 c7 60 45 7b 83 53 95 bf fc 92 33 0a 9e 0c 58 bf
       -0.0208263916004803 -0.001467851959028709
0006c0 f0 f3 3b d8 38 15 92 bf 20 ad 18 e4 2c 76 97 bf
       -0.017659080694091445 -0.0229117407053937
0006d0 20 38 ff 5c 10 fe 8b bf 65 9c 49 cf 8d 44 8f bf
       -0.013668182218591396 -0.015267475021756913
0006e0 b9 30 e6 b2 30 4b 97 bf 05 81 4e 94 03 4d 70 3f
       -0.022747765463962042 0.003979696256380065
0006f0 d1 95 6d ba b9 67 91 bf d7 a7 af e0 99 02 7c bf
       -0.01699724388472196 -0.0068384180876623546
000700 a1 22 7f 9b a2 c0 93 bf 12 bb 22 b5 7d e5 94 bf
       -0.01928953241420806 -0.020406688862460838
000710 63 28 c5 30 d9 b8 7b 3f 62 c4 0f 78 ef fe a2 bf
       0.006768082046912568 -0.037101252942996835
000720 32 cc 24 ad 36 4c ab bf 03 d3 e0 9d 36 a4 75 bf
       -0.05331583846636824 -0.005283559175997213
000730 28 e2 6a f2 1a 03 95 bf e8 75 73 62 e6 62 70 3f
       -0.020519658132544333 0.004000568332427325
000740 c2 98 55 b0 8d e8 91 bf 3f 7e 4a 4d 27 02 85 bf
       -0.017488683593364092 -0.01025801376937274
000750 85 f5 a5 46 77 10 94 3f 5e 12 83 7e c9 46 94 bf
       0.019594062506703053 -0.019801281305961253
000760 d2 c6 f0 61 e1 e8 9a bf 4e ad da a0 85 02 52 bf
       -0.026278993227782994 -0.0010992341007448228
000770 b3 7f 05 46 d4 1e 98 bf 0c 2c 16 ba b2 39 63 3f
       -0.023555104039928398 0.0023468485603124253
000780 15 47 0f 02 92 e2 91 bf 3f fe 4b 8f ae 58 90 bf
       -0.017465859771454612 -0.01596329450239708
000790 9d 59 aa d8 6b 03 86 bf c1 25 20 b7 d3 2b 91 bf
       -0.010748713063816246 -0.016768749286745214
0007a0 e5 cf 11 cf 53 7b 94 bf 2a ee ef 8e df 5c 83 bf
       -0.020001706613086773 -0.00945448546371271
0007b0 a6 b2 84 c4 be a1 8d bf 05 fb a1 06 84 5a 90 bf
       -0.014468660709632996 -0.015970290093259915
0007c0 7f 6a 0e 20 2d fe 91 bf 08 e3 41 78 41 2b 92 bf
       -0.01757116802364544 -0.017743132557799718
0007d0 08 95 32 2b 59 3e 7a bf 01 2c 15 f1 27 cc 92 bf
       -0.006407116237061368 -0.01835691842033427
0007e0 e8 cf df 5b 5d 36 94 bf 18 9a 87 01 3f fc 8f bf
       -0.01973863480812091 -0.015617840036566341
0007f0 3b fe 12 d3 14 0a 91 bf 4d 51 99 6e e0 eb 8c bf
       -0.016640019782015108 -0.01412177407761619

bias f8 [69]
000000 ae 9b c4 b0 d8 8e 8d bf a2 29 75 84 d9 df a9 bf
       -0.014432614225894227 -0.050535962504528756
000010 ee d1 7f fe cd 44 a9 bf 22 62 a1 d0 37 72 95 bf
       -0.049353062931832045 -0.020943519696034703
000020 22 c7 03 a7 63 52 71 bf 26 3f 7f 1a b5 e2 7b bf
       -0.00422896315306945 -0.006808001933634766
000030 b7 37 25 44 93 0a 84 bf 2d be aa 5d 5c 25 75 3f
       -0.0097857957049675 0.005162583164448215
000040 60 7a 4a 7f a9 80 8c bf 9f 44 48 f9 7f ff 8b bf
       -0.01391727847777452 -0.013670921130172707
000050 7f c5 35 a7 c5 02 91 bf 75 8d b3 79 12 88 93 bf
       -0.016612137156192027 -0.019073761632978987
000060 6f 3d 18 0c 22 47 86 bf 42 60 f0 1d ba 84 72 bf
       -0.010877862924671714 -0.004521109599430475
000070 23 27 65 c9 0a a5 8d bf 54 78 3b b8 48 e0 71 3f
       -0.014474949141589704 0.004364284573709371
000080 64 da f1 58 28 be 5d bf 29 93 6a 41 1f ff 8f bf
       -0.0018153566377613556 -0.015623325523230829
000090 47 a9 05 91 89 8c 88 bf 86 2a e0 86 7e 42 93 bf
       -0.011986803758834553 -0.01880834291663771
0000a0 12 29 59 db a9 44 8d bf 91 e9 0f b8 4e d4 93 bf
       -0.014291121489027368 -0.019364576324713282
0000b0 ed a3 0b d3 11 4f 64 bf eb 0f 9d 30 77 6c 96 bf
       -0.0024791095860234786 -0.021898138372549097
0000c0 32 c0 a5 99 81 a4 95 bf fb 26 8f 0e 7f cd 5a bf
       -0.021135354044815986 -0.0016359082021488159
0000d0 2c 48 16 02 1f 2c a0 bf 8a 4d 42 25 25 95 a3 bf
       -0.03158661747433231 -0.038247261808602565
0000e0 41 db 0d e7 62 43 a0 bf fe b3 fc bd 65 72 89 bf
       -0.031764116959428275 -0.012425227032133886
0000f0 2e bd 3e 17 f2 2b 7a bf 3e cc 9e 99 92 0a 91 bf
       -0.006389566104118045 -0.016641893984069116
000100 6d 39 87 c5 8a ac 51 bf 28 a2 a2 f5 31 0f a3 bf
       -0.0010787348929742438 -0.03722530482747671
000110 6f e1 8c c2 b5 cd 6a 3f 7f 22 e4 4c 35 c8 92 bf
       0.003271918296743496 -0.01834185869032234
000120 ef c9 97 d8 e7 0e 93 bf 76 e8 47 53 12 c8 89 bf
       -0.018611548037322064 -0.012588637510806171
000130 7a db 86 86 a4 4f 7c bf 36 02 37 20 90 c5 7f bf
       -0.006911890676227434 -0.007756770125923176
000140 a1 df 1a cf f5 9d 64 bf 30 9f 8a 08 39 6c 94 bf
       -0.0025167275387864706 -0.01994408716805579
000150 a2 26 07 3a 63 8b 71 3f 8c 43 fc 28 f9 42 79 3f
       0.004283321003137582 0.006167386323583279
000160 47 91 d5 03 14 92 77 bf d0 34 67 dc 8c 32 8b bf
       -0.005754545386796934 -0.013280010677500093
000170 04 46 fb b2 94 92 65 bf d6 bf ca 6b d4 04 7d bf
       -0.00263337176134182 -0.007084684152388795
000180 2e 19 be 03 c7 06 91 bf 80 ed 61 21 67 c3 94 bf
       -0.01662741623251767 -0.02027665272951884
000190 87 87 20 88 be f7 81 bf 86 03 3b f1 b2 84 89 bf
       -0.00877331593443721 -0.01246013449360973
0001a0 f2 1c 08 b2 c7 18 8d bf 4e 8d 3c 55 9d 5a 9b bf
       -0.014207420464130458 -0.026712854697632786
0001b0 c9 dd 76 c9 b7 2a 4c bf db 9b fb 2c 37 cb 94 bf
       -0.0008595845601381764 -0.020306455727133837
0001c0 00 af 16 2a 0b 7d 9b bf e2 32 80 41 b9 ea 8f bf
       -0.026844191020855668 -0.015584418593812047
0001d0 9d 51 70 70 95 41 87 bf ab b2 ed dd 99 af 85 bf
       -0.011355559820039935 -0.010588838658543173
0001e0 49 18 4f e3 a6 3d 7d bf 1b 63 c8 7a c1 a6 5a bf
       -0.007138873964271105 -0.001626671738568847
0001f0 f0 de ad 62 10 81 93 bf 73 48 53 a5 a9 df 92 bf
       -0.01904702760972915 -0.01843133040967655
000200 c7 18 2a ea 70 d1 7c bf 74 ff ce 3a dd 52 7f bf
       -0.007035676072183423 -0.007647384813878822
000210 b0 b6 d4 9f 25 66 96 bf 51 c1 ad ee 24 34 94 bf
       -0.021874034767441486 -0.01973016459254612
000220 b4 78 c2 51 23 54 9f bf
       -0.030594398369992518

weight f8 [69, 69]
000000 8f f6 5d 64 18 99 9f 3f 77 a0 5f 2e af 6f f1 bf
       0.03085744965164011 -1.0897666751352781
000010 f3 c6 bd 58 f0 75 e0 bf 31 dd 48 3e c0 83 95 3f
       -0.5143968327740523 0.021010402490188432
000020 8e 28 76 fc 00 34 d4 3f c5 7a b6 74 27 43 c0 3f
       0.3156740632481466 0.1270493812453052
000030 e5 a7 a6 0f 93 c7 aa bf a3 3a 19 69 54 5f ba 3f
       -0.05230388227512587 0.1030171162212619
000040 85 1d a7 1c 46 94 8c 3f fe c4 4a a4 a7 f6 ab 3f
       0.013954684972204099 0.05461620216864026
000050 b0 d1 88 8a 79 af b9 bf fb cf d6 7a 6d 42 ae 3f
       -0.10033378250302039 0.0591005527925574
000060 a4 0f 03 75 ed 8c c4 3f 95 dd 4f 1c 53 e5 a0 bf
       0.16055076802706225 -0.03299960823636209
000070 54 ba 34 ae 1d 35 bf 3f 44 4e d0 ef 18 b6 c4 3f
       0.12190423491549868 0.1618071719136528
000080 66 66 45 dc 31 65 a6 bf 01 b3 34 97 a0 93 c1 3f
       -0.04374080480438351 0.13731772788141686
000090 f5 24 f0 8e 85 9b bd 3f aa 94 a7 8d 98 e7 c4 bf
       0.11565432300280405 -0.16331774632195578
0000a0 6a c6 99 59 8f 92 ba 3f 5f d4 5b ac 51 e7 c5 3f
       0.10379882752911276 0.17112179676010705
0000b0 35 23 02 46 c1 b8 bb 3f 58 e4 e0 f6 8b 7d b1 3f
       0.10828788718403078 0.06832194115931267
0000c0 9a ad 20 27 e5 27 c4 3f c6 9c 7d 06 c8 e0 be 3f
       0.1574675026944135 0.12061739119018275
0000d0 13 90 25 d0 34 62 d5 bf 49 f6 76 83 89 d7 ed bf
       -0.33411903693036143 -0.9325606887502512
0000e0 f4 20 b9 3f 60 2a ab 3f 41 61 0c 69 2f 50 99 bf
       0.05305767801161379 -0.02471994475044537
0000f0 b2 37 dd 20 c6 38 b2 3f ef 0a b1 bf 9f b2 bc 3f
       0.07117880155894232 0.11210058622331663
000100 36 a4 7a 55 a7 5a c5 3f 1b b4 a6 a3 5d 3a f1 bf
       0.1668290297868979 -1.0767494576096002
000110 48 9a aa a7 e1 2b 98 bf d5 db 8b d6 9e d2 b1 3f
       -0.023604894503160417 0.06962006318995802
000120 46 c7 f4 93 9d 8b 03 c0 06 c7 24 94 4e b7 c6 3f
       -2.4431716498446887 0.17746908410622825
000130 7d 3a ef e2 d4 56 c9 3f e2 f4 73 71 5a a4 cb 3f
       0.19796238976273975 0.21595316447920881
000140 29 c5 aa 4e 4c b0 c1 3f f6 87 0c c3 0e e6 c4 3f
       0.13819269028821538 0.16327080272554867
000150 1e cd c1 58 b0 3c 98 bf 00 33 bf 9e 43 41 96 3f
       -0.023669009606647078 0.021733337940349706
000160 95 97 db 6f 14 00 b0 bf e1 6d ea 80 17 41 c7 3f
       -0.06250121813681482 0.1816739444228537
000170 07 0a b3 1e 0d 10 a8 bf d0 20 e3 2e 72 1c a1 3f
       -0.04699746131656828 0.03342015097001794
000180 86 04 fe 1a 60 7e a4 3f b2 35 0d 65 a8 98 b8 3f
       0.04002666787619895 0.09607937304573147
000190 e8 80 bc c8 0e df 8e 3f ad f0 02 4d 33 0d 9a bf
       0.015073886395442007 -0.025440980506332412
0001a0 d1 ee 40 e8 70 ad be 3f 98 11 0c c3 3b 3e 92 bf
       0.11983400030379278 -0.017815526752217176
0001b0 6a 8b 2f bc 59 62 b0 bf 36 6c aa ab 8d bd 8c 3f
       -0.06400070995691257 0.014033419419595555
0001c0 d5 8a a4 6b d3 a2 9f 3f b9 d7 9a ea ca 27 c2 3f
       0.03089456886767546 0.14183937506976266
0001d0 57 cc 05 41 7a e8 97 3f 13 ef a5 3f d1 6f c8 3f
       0.023347768992106967 0.1909123955518842
0001e0 bc 3c a3 86 94 e3 ce 3f c3 03 22 fa 18 d8 be 3f
       0.24132019590476783 0.12048488718757171
0001f0 9f 2f ed 21 88 4c b6 3f 72 0e ba 23 a5 1c 7b 3f
       0.08710528209957012 0.006619114948651738
000200 6a ec 2a 34 b5 bd c4 3f a4 38 41 60 93 fb b6 3f
       0.162039423439498 0.08977624034852966
000210 44 a4 4f 83 83 53 a9 3f a0 70 b1 75 50 8e fb bf
       0.04946528413695053 -1.7222447011363684
000220 dc 8f bf 43 da 62 c9 bf 02 f7 e0 5f 30 d5 b9 3f
       -0.19832924182912748 0.10090925541677723
000230 e8 12 52 a9 41 c8 f1 bf 92 0c e3 1d 95 32 d6 bf
       -1.1113907445989586 -0.3468373100151406
000240 37 76 b3 81 3c 5f b0 3f b3 9c d0 a7 e9 67 d4 3f
       0.06395319143799659 0.31884232891247705
000250 08 61 10 13 53 0c 94 bf 12 6e 07 04 de 10 c2 3f
       -0.019578264273236307 0.14113974758844045
000260 ee 8d 67 45 cd f1 c3 3f 57 05 ae ba bf 0b bc 3f
       0.15581670655147611 0.10955427463161037
000270 69 2f be f4 8e 62 c2 3f a3 07 99 1c f1 98 a2 3f
       0.14363276434266517 0.036323103657664356
000280 6a 3f b2 81 38 9c ab 3f 52 6f 75 c0 34 ef b5 3f
       0.0539262445755629 0.08568124483775577
000290 a8 f4 e4 d8 73 e3 c2 3f 5d e3 66 f6 72 c5 a8 bf
       0.14756630030197937 -0.048381416872365725
0002a0 aa ce 65 f2 10 45 75 bf 8d 8e 29 65 ad 98 b4 3f
       -0.005192819784827366 0.08045467109473688
0002b0 61 8c bf e4 b4 ce ab 3f 96 91 89 2d f1 15 bb 3f
       0.05431142132126677 0.10580355989220033
0002c0 6b 24 3e 21 71 3f 9d bf fd 31 c2 db 9e ba c4 3f
       -0.028562324193931603 0.16194520693206008
0002d0 a3 de 50 d9 b8 94 b9 3f 4f b0 fd 3d 6f 65 a8 bf
       0.09992556863368889 -0.04764888412214018
0002e0 da e2 e6 31 1b 27 bc 3f 5e dc 0b 9a cd 6d b6 3f
       0.1099717137175377 0.08761296282669792
0002f0 34 e7 77 3e 20 cb a9 3f 61 f6 a1 16 14 d7 c8 bf
       0.050377853036435744 -0.19406367402182226
000300 e3 bc b7 d3 cb 62 eb bf 63 7a a4 e2 8a 82 bd 3f
       -0.8558100829231104 0.1152731707884214
000310 f9 63 04 04 4b c7 c3 3f d4 2e 46 b3 d9 11 5d bf
       0.15451944061422276 -0.001774275396288984
000320 5d 65 00 5e f0 24 94 3f 6e 2f 7a e3 e4 00 b3 3f
       0.019672160851859178 0.07423239282269176
000330 34 03 8e fd 63 70 ef bf 88 ca 49 eb 86 b9 c0 3f
       -0.9824695541611619 0.13066183556255262
000340 f0 47 c1 1c 6f de c0 3f 79 49 4b 34 6f 71 04 c0
       0.13178814796498228 -2.5553878865695734
000350 be d3 9d 91 28 9f b6 3f 72 69 6e f4 99 83 a6 3f
       0.08836606555071477 0.04397278889446711
000360 08 15 9c 50 46 9b 8f bf 5a 8e a0 a7 e8 eb c8 3f
       -0.015432881674778645 0.19469936547203553
000370 18 68 e0 7d 6a 80 ab 3f 0c 17 68 7d 89 16 c5 3f
       0.05371411120013664 0.16475027678841803
000380 47 5b 2a e3 6b 39 b6 3f 8e 77 c4 fd dc a3 86 bf
       0.08681368156463264 -0.01105473184048458
000390 65 59 86 08 98 7f c3 3f 56 99 45 5a 6d 4f c7 3f
       0.15233135620355678 0.18211142452055168
0003a0 26 f6 48 91 18 30 c1 3f 4f d2 09 ef 0e e3 c4 3f
       0.1342802724265521 0.16317927047534161
0003b0 b6 31 a9 e8 61 17 bb 3f a3 86 67 92 3c 0e a1 bf
       0.10582553796957125 -0.03331174170649589
0003c0 94 e1 f8 77 5c 85 bb 3f 00 14 8a 3a c8 82 90 3f
       0.10750368050583453 0.016123894284209683
0003d0 8a 94 cb e4 5f 5d b9 3f 66 07 95 b7 2f 29 81 3f
       0.09908103309460806 0.008379338064176966
0003e0 0d f3 1c 4e b9 90 b4 3f 46 4d 02 97 75 85 b9 3f
       0.080333310671403 0.09969267784827193
0003f0 a7 3d c4 95 59 13 c3 3f 26 e7 70 31 e0 05 88 3f
       0.14902801335163682 0.011729957112141042
000400 3e cc d7 ee 3b 84 c2 3f 05 d3 a9 dd 19 4d cb 3f
       0.14466046488050383 0.21329043696791686
000410 50 34 f3 1b 00 45 5e 3f dc ca cf 0a 97 12 ab 3f
       0.0018475056711395772 0.05287620551088931
000420 db c7 46 9b 7b 33 c3 3f 5f 30 f4 6e b2 09 b1 3f
       0.1500086315332386 0.06655421456179188
000430 d5 48 46 1d 8a c5 c6 3f 21 ab 3a c8 78 7b b0 bf
       0.1779034274046071 -0.06438403023154794
000440 d8 a5 cc 9d db 4c ff bf 73 12 11 da 4c cc c6 bf
       -1.9562641300238877 -0.1781097473887204
000450 4b 03 f4 61 f9 1a a1 3f 87 fb d2 6c 4e 85 ee bf
       0.033408921439337456 -0.9537727475616159
000460 4f c0 09 f8 5d fc cd bf ec d2 7d 93 37 a2 c9 3f
       -0.23426413165316481 0.2002629728482569
000470 ca 61 b4 3d 24 de cc 3f df 2c 97 c2 10 c2 a6 3f
       0.22552922261162528 0.044449352029539695
000480 2d e2 f5 95 8b be c0 3f 9b 92 cb eb 6b 68 96 3f
       0.13081497976578885 0.021882711664960124
000490 9d b8 0e d5 93 ea 92 bf f9 5a 37 7d e3 55 72 bf
       -0.01847296703243072 -0.004476441029928274
0004a0 ee 97 6f 46 89 42 b9 3f 9b 6a 3f 13 39 5e bf 3f
       0.09867151231409796 0.12253147811808633
0004b0 d8 9c c0 70 c9 41 d0 3f b2 2f 49 d7 f4 0f 96 3f
       0.2540153122994986 0.02154524387360341
0004c0 5c 84 63 dd e2 f3 be 3f 43 bd de 4e 9e c2 b1 3f
       0.1209089079379892 0.06937589097536993
0004d0 8f 6c e1 38 b0 48 b5 3f a4 04 47 07 12 02 ad 3f
       0.0831403864735185 0.05665642107806804
0004e0 a0 f6 2e 86 a4 30 c5 3f e1 fc 73 35 c2 bc aa 3f
       0.16554695655752472 0.05222136404517542
0004f0 dc a9 18 08 09 81 c2 3f 84 6d 91 32 ea 77 c1 3f
       0.14456284423188392 0.13647201031822587
000500 e4 9d 53 42 4a 8d c4 3f 5e 1d 04 e5 22 34 c3 3f
       0.16056183088879472 0.15002857382226414
000510 52 52 d6 45 9c a1 bc 3f a4 2c 5c 3a 71 d4 b7 3f
       0.1118409796238862 0.09308536219411906
000520 cd 22 bf f3 36 91 ca bf 18 ec f4 6a 0f 57 e7 bf
       -0.2075565996331278 -0.7293774689673027
000530 1e 2c 11 06 c0 2a 71 3f 49 5e 1d 88 be 64 a1 3f
       0.004191160290313993 0.03397174274021759
000540 be e8 23 94 ca 1b ad bf 80 68 3f d2 3b 77 97 3f
       -0.056852655967263285 0.02291577788114596
000550 e6 85 47 a6 79 ce c2 3f e6 be 11 16 b9 7e e7 bf
       0.146926122847659 -0.7342191153565778
000560 6f 79 33 25 7c c0 b1 bf 06 c6 44 88 2f da c3 3f
       -0.06934333713750161 0.15509599832289228
000570 eb 2e ec ea c8 84 02 c0 6b b2 1b 6c ed 19 80 3f
       -2.31483634503626 0.007861952649784251
000580 23 9a 3b 0d 66 e3 cc 3f 34 8e c1 08 91 c1 c6 3f
       0.2256896557439215 0.17778218200247553
000590 1a 9b 31 c2 39 28 ac 3f d1 e4 87 36 21 a5 2c 3f
       0.05499439712075667 0.00021854429657234287
0005a0 96 f4 82 d6 88 71 90 bf 50 81 0c 9b a0 12 38 3f
       -0.016058099835153238 0.00036732121502504756
0005b0 3d 4f 93 7d ed de ab bf d0 84 3b 4a 79 27 a1 3f
       -0.05443517835524723 0.03350428610952749
0005c0 23 f0 b7 a1 71 19 81 3f 1a 19 03 b6 f9 19 c4 3f
       0.008349311588055802 0.15704270732221276
0005d0 fa 62 2a d1 82 e6 ba 3f 50 0d 49 04 9d 06 c4 3f
       0.10507981878835074 0.15645182332273544
0005e0 cc e8 08 4e c7 d8 ad 3f 99 7f ee 81 e8 c2 b3 3f
       0.05829451396535176 0.07719281360777898
0005f0 4d 1c 28 5b 98 21 c9 3f 53 41 43 39 a5 d8 bb 3f
       0.19633774233827453 0.10877449653640285
000600 17 d3 b1 a1 9b 3a aa bf 61 85 c9 c3 c2 57 c1 3f
       -0.05122839306651466 0.13549074706956346
000610 e7 d1 88 b7 5e 2d a6 bf 1a 45 5a 8e 8b 97 9a 3f
       -0.04331489553843309 0.025968723834528175
000620 38 39 95 53 ea b4 b8 3f f9 09 37 c8 3c 3c c1 3f
       0.09651054897878886 0.13465080047724579
000630 8e 28 f2 91 5d d1 54 bf 1e 85 9c 33 ad ed ab 3f
       -0.001270619751979871 0.054547703314037785
000640 ee 72 3f e1 ae 26 70 bf f8 37 29 34 c3 47 c0 3f
       -0.003943141102322951 0.1271900181477006
000650 c5 78 e5 ba 10 2f c8 3f 1f d8 87 7a d7 88 a3 bf
       0.18893632055091394 -0.03815339442000742
000660 a6 c1 6b b1 f7 4d ab bf 96 ef 2c 97 e3 26 f9 bf
       -0.05332922020704993 -1.5719943909925624
000670 87 ed 2b fa af b9 b5 bf 9c ed d3 19 bf 85 90 bf
       -0.08486461503701125 -0.016135202361494558
000680 7b 6d e5 06 f6 5e f7 bf e3 98 c7 d7 9b 7b f1 bf
       -1.4606838483221896 -1.0926779202359789
000690 59 1f 51 ba f7 ac 92 bf 48 b9 45 1d 9d f7 ca 3f
       -0.01823794436157242 0.21068157128633858
0006a0 d3 e4 89 ca 01 79 aa 3f 0a 44 37 e1 50 ca 98 3f
       0.05170446011920551 0.024209274049841446
0006b0 40 1e 44 4a 22 ea c7 3f 57 56 86 04 7f b1 bc 3f
       0.1868327009799362 0.11208337650745058
0006c0 c8 a0 43 8c a9 fe bb 3f 36 cc c1 c5 bd 82 c5 bf
       0.10935458826463951 -0.16805240779976466
0006d0 4c ea 1f d0 38 ff c3 3f 46 a6 5f 16 10 26 c1 3f
       0.15622625505769105 0.13397408573591657
0006e0 5f 30 ab 4d 70 e7 ac 3f ea 47 75 14 82 34 c3 3f
       0.056453237038653674 0.1500399207967001
0006f0 8a d3 99 16 c4 a2 62 bf 0b 58 e7 9c e2 61 b5 3f
       -0.00227487848752123 0.08352485972076822
000700 68 f0 b8 57 2b 3e 8b bf ca 92 b9 d4 95 cc b7 3f
       -0.013302172293258432 0.09296547358969601
000710 04 0b 4a 50 14 3b af 3f 65 c4 80 f1 4a 82 b1 3f
       0.06099761467068812 0.06839435955113655
000720 c9 09 6e 33 16 b1 ac 3f 86 a5 f2 70 6f 9b ba 3f
       0.05603856447034478 0.10393425471797543
000730 93 e8 0b da 0a f3 9b bf 87 ca d4 70 ea ba c1 3f
       -0.02729432063913657 0.13851671704613386
000740 01 72 97 2c 67 b0 bd 3f f5 45 f2 b2 99 54 e8 bf
       0.11597294653569891 -0.7603271956488117
000750 39 de c9 7d 9c 4b fe bf f6 0e 32 b3 3d fa b2 3f
       -1.8934597886672135 0.0741308748711694
000760 10 f5 cd 5f be 6b b4 3f 63 9d a1 3f b1 53 c1 3f
       0.07976903761842302 0.13536658865926218
000770 0c be f9 06 df 0f 66 bf c5 03 d8 c9 2d da b5 3f
       -0.002693114852995176 0.08536039522006351
000780 1c 59 4c eb d2 6b fb bf 5d 3b ba a5 db 1a a0 3f
       -1.7138241950356763 0.031454910259631964
000790 69 91 29 02 bf c8 bd 3f 23 a0 43 89 3d 21 03 c0
       0.11634439280311927 -2.3912306522143054
0007a0 32 2f eb 1a 17 ae a4 3f 62 ad ea 93 df c6 bb 3f
       0.04039070323560025 0.10850331650970227
0007b0 17 cc d9 9b c2 cd c1 3f 63 e1 d6 32 b2 4e be 3f
       0.13909180269146823 0.1183883070106098
0007c0 00 69 71 1b eb 63 70 bf 85 93 69 0d 98 da c4 3f
       -0.0040015395998926895 0.16292095808890053
0007d0 81 82 9f 39 c7 86 c9 3f cc 2a 0a 6d 0e 95 bd 3f
       0.19942560495021058 0.1155556694231265
0007e0 41 60 c3 53 e6 51 9a 3f 2e 80 f7 ea c8 f9 b6 3f
       0.025703047621249423 0.08974891411298877
0007f0 86 78 c8 00 cc 74 c7 3f b4 68 97 0a 98 27 c5 3f
       0.1832518581222226 0.16527081029091095

bias f8 [69]
000000 3d a5 db 45 da b3 a8 3f a7 30 29 4e c7 62 a7 bf
       0.048247166659914666 -0.04567549542534382
000010 c5 d8 20 49 98 a0 ab 3f 38 ad 6a ac c4 5a bf 3f
       0.0539596165912584 0.12247876366989352
000020 88 1e 98 e2 4e bf b4 bf 9a 67 af 20 10 ae c4 3f
       -0.08104413063130711 0.16156198116260329
000030 81 1c 48 ee 3b e2 81 bf 9b 8a 34 39 fc 09 b7 3f
       -0.008732288560180603 0.08999611279117874
000040 65 61 42 7e 94 e0 9d bf aa 54 3d ef 31 b1 c2 3f
       -0.02917701740861513 0.14603256398792058
000050 25 cb 99 da 81 91 c3 bf 2e d2 75 93 4b 1e c2 3f
       -0.1528780286203865 0.14154953670699072
000060 2e f6 09 df 72 e7 8f bf e7 e6 20 88 af 71 ca 3f
       -0.015578172141654436 0.20659441134357978
000070 85 9e 18 1d 48 8f b6 3f 42 5f 90 e9 04 67 68 bf
       0.08812380514484104 -0.002978810877276945
000080 88 50 40 b4 69 c3 a1 bf ac f4 7e d7 dd 35 ca 3f
       -0.03469400716144927 0.20476887724172366
000090 7b 5d 37 fe 92 0d 83 bf b6 c1 f4 d4 58 aa a0 bf
       -0.009303234465660939 -0.0325496444660333
0000a0 8b 80 65 f7 98 48 c1 bf bd 65 72 07 8a db 78 bf
       -0.13502800063998097 -0.006068743873720303
0000b0 57 35 d6 21 53 6b b8 bf 5c aa cf 3c db 13 b7 bf
       -0.09538764549343647 -0.09014673456810257
0000c0 bd be 82 cd b8 db b4 bf dd c9 51 56 da 00 c4 bf
       -0.08147768990852007 -0.15627602782076525
0000d0 f1 99 c3 b7 d4 86 a1 bf 91 38 84 24 cb 47 98 3f
       -0.034231803352486774 0.023711370567121085
0000e0 5b 68 9c d5 7a 1b c0 3f 43 07 37 3f b3 c7 95 bf
       0.12583861761305823 -0.021269608243307713
0000f0 47 68 d4 ba e7 e8 a9 bf 7b bd 31 85 82 9b ab 3f
       -0.05060505061756309 0.05392082096011116
000100 2b 16 13 a4 8a d0 b9 bf df 4d e4 1a af 65 c0 3f
       -0.10083834176756372 0.12810314953877275
000110 a3 7a f6 63 52 e9 a9 3f 48 b6 20 54 79 09 c1 3f
       0.0506082293534196 0.13310162170221163
000120 0d 2e 5f 26 d7 65 c5 bf bd 26 c2 de 3f 94 76 3f
       -0.16717042325613854 0.005512475483678334
000130 b3 ff eb 7b cf 04 a7 bf ef 1c 33 61 86 09 c4 bf
       -0.04495857608526368 -0.15654067751004372
000140 99 c6 e5 2e e8 8e a2 3f 71 0a 81 0c 5f 24 a4 bf
       0.03624654362182617 -0.03933999087941665
000150 19 40 c8 6d 16 63 b0 bf 23 28 0d 8b 99 9c c1 3f
       -0.06401195698003938 0.13759154595965226
000160 46 50 3f f4 0f ba a9 bf 6d 5b 58 d8 63 e4 c3 3f
       -0.05024766785177852 0.15540741027572427
000170 f7 44 8f 7e 61 c6 c0 bf 8f 4f 6a 69 9e 36 c5 3f
       -0.13105410270376414 0.16572933337431237
000180 bf e6 1a 9c 40 39 c1 3f ee 2a 8d 68 7a 58 c5 3f
       0.13455970403975034 0.16676263909388161
000190 6a 89 0d 52 dd a7 b9 bf 6b d5 56 d6 7a 44 ab bf
       -0.10021765950435726 -0.05325683466382255
0001a0 81 0e 06 ac 0d 63 a5 3f d8 5e b2 56 72 63 c9 bf
       0.04177134251497439 -0.19834737046470852
0001b0 1b 85 5e a9 03 17 b0 bf 1b 73 53 3a 3c be bd 3f
       -0.06285117039671599 0.11618400978063585
0001c0 fe e5 bd d0 e0 cf a5 3f 7f 8e 39 2a df b5 ae bf
       0.04260160968892633 -0.059981321243665946
0001d0 1e 9b 3b 94 e0 01 c3 3f df 0e 19 91 5c b6 b2 3f
       0.14849478948527745 0.07309511701992787
0001e0 e4 10 4b 23 98 95 be 3f 08 ea 8c 52 3b f9 c5 3f
       0.119470127693663 0.17166844874175546
0001f0 8b e9 af 5f 19 72 94 3f 01 fe f0 e3 34 84 c3 3f
       0.019966503587036704 0.15247212533903112
000200 f5 de ad d5 13 69 b5 3f ac 0a bf e4 1c 2f 9c 3f
       0.08363460509087502 0.02752347131878234
000210 b1 14 13 c4 56 9b 94 3f e3 4c b8 d7 05 2b c6 3f
       0.020123820989074562 0.1731879523582399
000220 ff 25 cd 11 f1 2e ba bf
       -0.10227877316096821

weight f8 [1, 69]
000000 0b 2e 97 e4 48 df c6 bf 7a 8f 5c 69 b2 d7 ca bf
       -0.17868910943649072 -0.2097075476132167
000010 e6 da d1 07 b5 59 c4 bf 05 d0 f4 69 28 65 c4 bf
       -0.15898764497588685 -0.15933709310195368
000020 c0 d3 ff e3 8d 61 b5 3f 7a 28 3b 97 93 8c bd 3f
       0.08351980987920538 0.11542627756276316
000030 ea ce db 1b 79 cc a6 bf 16 38 35 12 e0 f9 d2 3f
       -0.044528755808554824 0.296501176625385
000040 0d 5d 0e 42 02 4e c5 3f b5 cb c8 d9 22 b4 ba bf
       0.16644314027210108 -0.10431115929604469
000050 cf 33 a6 2f 23 6b ad 3f f1 a2 63 df b7 3f b6 bf
       0.057458018843227536 -0.08690976337278379
000060 ca bc 47 01 29 60 bd bf a4 ef ca cf 67 b1 c4 bf
       -0.11474853783851127 -0.1616639866459738
000070 7a 73 4e ee 9e 7f c2 bf 0a 0f bb f8 37 b8 b2 3f
       -0.1445196784597121 0.07312345335509121
000080 71 45 20 f0 2e 23 ca bf 1c 51 63 3b 6b 15 b7 bf
       -0.20419871067910436 -0.09017057609463958
000090 f5 2b 58 92 96 68 e6 3f d3 6f ac 46 27 a7 bd bf
       0.7002671106614559 -0.11583180880955916
0000a0 93 93 d4 f9 fe 45 a6 3f 25 43 45 39 e9 f4 c3 bf
       0.04350277709662644 -0.15591159149564607
0000b0 5b aa e5 99 cb 19 ab 3f f3 93 69 2e 1e 18 cd 3f
       0.05293117765070995 0.22729851976615087
0000c0 b4 2d 98 80 3c 86 aa bf f5 e2 d2 9a 61 87 e3 3f
       -0.05180539197689474 0.6102760337736003
0000d0 59 a4 e1 5d e6 3f c5 3f 1a c1 73 21 4d 77 ba 3f
       0.16601256927541178 0.10338289324477437
0000e0 6b ff 8b 81 63 c4 cb bf 51 af 74 91 69 04 d0 3f
       -0.21693080735712597 0.2502693100420759
0000f0 27 6d 02 12 80 7c e7 3f 9d ba de bd ad 7e 79 bf
       0.7339477874515169 -0.006224325827061475
000100 e8 18 e4 3f 53 99 c0 3f d5 ac fd cd 8c e5 a0 3f
       0.12967911357572537 0.03300132765328959
000110 55 09 69 f3 8d 47 c2 bf 13 ae ef ce 5c 79 c6 bf
       -0.14280866990345467 -0.1755786905699642
000120 84 e7 23 fd 41 f3 99 3f ee c1 c2 bc b2 36 ce 3f
       0.025342017245726392 0.23604425637087395
000130 cc 91 5e 43 e0 79 ad 3f 31 19 e7 98 b2 48 b7 3f
       0.057570465301327894 0.09095302803971063
000140 de 92 67 f7 1c b0 c4 bf 03 40 f5 6b 07 32 c3 bf
       -0.16162454681684485 -0.14996426364314183
000150 64 70 d2 90 b0 5d be 3f 45 9c 39 0f d0 1b c8 bf
       0.11861709151929883 -0.18834877723131363
000160 82 77 a2 5b e5 4f d1 3f a4 50 58 a6 df 15 cc bf
       0.2705014605397694 -0.21941753027261257
000170 32 c4 99 29 84 53 bf 3f 75 17 92 04 6b 21 c1 bf
       0.12236810699120396 -0.1338323376004912
000180 1a 27 7b 79 f9 8d c0 bf 07 29 f5 17 cd 0b c5 bf
       -0.12933271819775244 -0.16442264241988644
000190 ae 54 22 3c b5 ff a6 3f 9f ed bf cf 58 32 ce 3f
       0.044919646826352064 0.23591146606473232
0001a0 ff 0d 61 d7 42 79 c8 bf 93 23 93 51 e4 ff c4 3f
       -0.19120059505995354 0.16405920012610106
0001b0 1a 95 67 c7 66 88 b7 3f 38 99 d2 4d 2c 3f c7 bf
       0.09192507141377285 -0.18161538886961082
0001c0 82 4a c6 a1 e2 29 c1 bf 61 cf 1f a6 b0 ed b8 3f
       -0.13409073733472004 0.09737686210411091
0001d0 12 1b dc a3 5a 23 c2 bf 03 ad 09 3a 70 4c c9 bf
       -0.14170392037359442 -0.19764521440388458
0001e0 78 e1 a3 87 78 9f 99 bf 3e 8d 75 23 98 e2 c9 bf
       -0.025022395399874026 -0.20222760898023212
0001f0 fc 71 30 cd 0d 37 c3 bf 99 b0 a1 67 7a 4b c3 bf
       -0.15011761206632446 -0.15074091014992488
000200 20 68 15 76 9f 54 b3 bf 9f 0d aa 1b 9a c0 ae bf
       -0.07550999291325455 -0.06006318652819264
000210 55 48 b1 ec 31 02 9b 3f 45 47 39 c6 7d ce c7 bf
       0.02637556082874711 -0.18598911456006753
000220 74 db c9 e5 7c 00 c6 3f
       0.17188988895551527

bias f8 [1]
000000 a0 97 94 08 73 a6 eb 3f
       0.8640685241305057
