fine-tuned models/NO4165_YMR042W.pth (torch, 345815 bytes, 6 tensors)

weight f8 [177, 62]
00000000: 240a e329 802d 6c3f 5ed8 703b 4b86 74bf
00000010: 2aac 9038 0bfc 613f 32a6 5a82 bc07 573f
00000020: 4ad4 e804 0289 4dbf c22d e8f3 ef7c 733f
00000030: 8666 8671 4407 803f 6edc b92d 457d 4abf
00000040: bc0f 24d8 a7ea 713f aea6 ec98 0ce1 393f
00000050: eacc ece0 3eb9 243f dd08 d6ba 6310 6e3f
00000060: 92ac 29eb aac5 713f 12fb 0b82 4f4d 13bf
00000070: 05b5 f8c7 d160 33bf 2d27 347e a54a 6dbf
00000080: 23cc d5b6 8653 62bf 9de0 ca01 0aea 8d3f
00000090: ffa6 dd4e 1247 843f 4c1e af53 4db5 603f
000000a0: 0930 0266 c602 793f 9fe0 56a6 96d4 293f
000000b0: 1e45 ae27 5fe5 663f 5a7f 6187 0656 50bf
000000c0: f239 54db ba6c 763f 9961 271a cfd2 60bf
000000d0: 5f48 0109 5c69 543f 969f 3196 4dce 673f
000000e0: 8d9b d8e1 cc88 533f f145 ffdf 4cef 6a3f
000000f0: 5d8f b627 a112 36bf e32b db73 74b1 3ebf
00000100: 9976 13ca 556a 643f 76b5 e103 4ea1 633f
00000110: af45 cf3b fe64 233f d045 1332 da0c 843f
00000120: d5f3 f286 135a 70bf bb16 4737 1e46 7d3f
00000130: ba40 faec fcb9 503f db08 f896 f6ee 30bf
00000140: fb22 df2a ca80 63bf 04a7 9eda 3533 613f
00000150: fcd7 8b56 eea8 7f3f 10c2 b90c 4213 603f
00000160: a6e7 2fe4 e6de 50bf 9701 9b7e 02fd 5b3f
00000170: 59ab 544d 84e8 58bf 2b0f f8c1 17eb 793f
00000180: ad4e 9396 1ec6 483f 20d0 6eab adbc 703f
00000190: 0b96 8f7f 0090 5dbf 2203 8807 494e 7a3f
000001a0: baa1 5cc7 753a 603f a2c3 f080 9cd0 6c3f
000001b0: e563 7c0f f980 77bf 7895 a7e4 064d 523f
000001c0: 2576 b74c 07a6 593f ccf0 d8db 69fe 823f
000001d0: 08dd 3b89 a9ef 6d3f f634 7d55 6d0f 6b3f
000001e0: 8fee a596 ea54 583f 0a40 5eb9 31e0 593f
000001f0: d5a3 bcdc 033d 6f3f 9331 921d f340 63bf
00000200: 01e5 877b ff1b 663f 5ac2 9c18 21d6 603f
00000210: e882 66c6 6016 453f ffb4 3321 6385 723f
00000220: d4dc 4577 e29f 7b3f 0647 eaa2 cb00 393f
00000230: 2a95 f259 87d8 723f f303 98cc eca8 583f
00000240: 4420 d39e b5f3 513f 0648 e8a5 9bc5 703f
00000250: 3d7f 29ce 1f47 713f 6b58 52ee 273d 4e3f
00000260: 95c4 b20d 8c60 4f3f 4670 9938 49f0 57bf
00000270: 4d28 7a71 db5c 3fbf 26a4 f53e 3d04 873f
00000280: 6057 d40f fd97 803f 1151 6d23 29c1 673f
00000290: 4d83 a52e 7b91 763f 88b0 67bf e1ed 573f
000002a0: f3de 22f1 b858 6a3f 0376 dbb4 81f7 113f
000002b0: 7b41 1e8e 2c69 743f 4d9b ea2d 25f6 0bbf
000002c0: 2983 a818 564b 603f 1684 3f2c 3917 703f
000002d0: 6141 37a8 9aed 633f 12ed bc64 d4b7 6c3f
000002e0: 00f1 250d b5be 533f bf58 1321 6ffb 4c3f
000002f0: 07f4 9769 e31a 693f 88d4 e161 d508 693f
00000300: 0aeb dfda 48f7 573f 4834 c387 f16b 803f
00000310: 377f e668 3a02 5bbf 6ba7 fd66 5a27 7a3f
00000320: 6996 2f21 73ef 613f 4a80 d836 e3d6 5a3f
00000330: e0bf 02d0 9ae2 46bf 5cbd 07a1 8287 623f
00000340: 22ce 92ee c8c9 7b3f 5dde b915 1fbd 633f
00000350: 662f 1535 28ca 3c3f 64a9 f6d3 90fc 653f
00000360: 5407 1799 b349 183f f435 f620 1ee3 763f
00000370: 22c3 330a dcd6 5e3f 03e5 8f9b 62a7 723f
00000380: df29 7e9e 0780 22bf 8120 ba55 9d2d 773f
00000390: 4961 6152 33ab 643f 96ea 11c4 ca5b 6d3f
000003a0: 55db ff54 a332 67bf f485 6c8e 137f 5f3f
000003b0: 46ea 5b71 e9b5 643f c5fc a624 ab62 7f3f
000003c0: 63f7 b91a f561 6e3f b34a dce5 3271 6f3f
000003d0: 5ee9 2b76 3f2d 613f d513 6e82 441f 623f
000003e0: 5efa 482c 6080 623f 48f6 a0de 32f7 6abf
000003f0: fbb7 b7be c0d2 573f ddf3 230c 9cba 4d3f
00000400: 47ad 72d4 302a 42bf b86a 4982 c5c3 693f
00000410: f994 55d7 380e 753f d153 7062 7a5d 41bf
00000420: f2e9 0b25 1e6f 673f 75b4 d393 4102 333f
00000430: b0c2 f4ee b577 293f 8741 f93c 70c9 643f
00000440: 17f6 b63c 596b 673f 091a 21f0 cb7e 18bf
00000450: 8559 9fcb e491 32bf 0064 cf55 3367 63bf
00000460: 2b23 91e4 71eb 57bf c9c1 5670 699c 833f
00000470: 3afb 7f0d 10ad 7a3f 0824 2e47 c0e5 563f
00000480: 0fe0 71ab 4c72 703f b21e 77b3 2488 243f
00000490: 6b1b e889 400d 5f3f cde1 a0a0 6e2b 43bf
000004a0: 0ebf e400 8f3b 6d3f 52c2 6445 1451 55bf
000004b0: 3cf8 4077 2863 4b3f 03cb d4a6 6542 613f
000004c0: 38f9 2d94 3b0b 473f 3dd2 af1a e9dc 613f
000004d0: 5219 ae73 a7ad 26bf 72e6 eb1a e98d 32bf
000004e0: 9476 79b1 3b3c 5b3f a427 4b2e 8b18 5a3f
000004f0: e3ce 5845 50dd 1a3f 5308 129d 2e4b 7a3f
00000500: 9f50 215f a29e 65bf 52ec 9f6b 4a42 733f
00000510: 3bd0 800d 91ee 4d3f 5c20 6920 59bf 21bf
00000520: ac9c d80e 6eec 59bf cdcb ae45 8635 573f
00000530: 2983 4d6b d9bf 743f 8693 4199 4382 543f
00000540: 69fe 5f28 7a6c 43bf 9d58 11f9 9db2 523f
00000550: ed9c e5cb a339 50bf 0c6b c101 be05 713f
00000560: fd97 0ead 50a6 403f f2fe cd53 84c7 673f
00000570: e82f e5f5 73e0 53bf 05c4 a096 924d 713f
00000580: 20c3 e0c5 1e23 553f e96a 1b42 a7de 623f
00000590: 9cf8 a40b 4852 6ebf 3efa f7bb ff7b 483f
000005a0: 113e 0a98 d347 523f 769c 5739 c113 793f
000005b0: 8a8d 8afd abc6 633f a508 d48c 018e 623f
000005c0: 6397 06b4 9c8e 503f 88e4 d4b2 5314 513f
000005d0: 2dbe 8ff6 1880 723f 7734 9be9 4026 70bf
000005e0: c90e c89a 932f 6a3f 67dc 2bbf 2ce4 623f
000005f0: 2758 35d5 55d2 323f e556 c57c ae7f 773f
00000600: f204 2bfc 1a22 823f b560 a963 52d1 193f
00000610: 7c50 f9b9 3df4 763f f5fb eb0c 5478 583f
00000620: b61b 19e6 6730 553f e038 8b3f c266 743f
00000630: 69cd 9fe1 ad8b 753f d8c8 3f51 5198 4b3f
00000640: 5990 0cfe bc50 413f 0407 a8c8 f038 65bf
00000650: 1827 2d97 9c61 53bf 54fd 66d4 205b 8f3f
00000660: 6c68 2475 060a 863f f827 04d5 a3c9 6b3f
00000670: 622e 33b1 0ecb 7c3f 556e 3c01 2a93 553f
00000680: add9 dae4 fb0f 703f 25ce 7793 66ec 00bf
00000690: 4524 3a95 eb33 7a3f d626 15b2 e6a9 4cbf
000006a0: 3d77 edfc 3b3f 623f 0d4b add1 2adf 723f
000006b0: b752 66a9 b663 623f 2cc6 b3ea 1b7f 713f
000006c0: 6402 9aa1 bbac 4d3f 1471 f556 de5e 453f
000006d0: 525c 7eac 0b57 6e3f 4323 cd5e 9927 6d3f
000006e0: aa77 4a28 cab0 543f cb0f c438 01d0 853f
000006f0: 5914 f919 a8bf 67bf 8203 1e7d 69d3 803f
00000700: 9444 18a7 09db 663f 0580 5b07 3528 563f
00000710: 2ba6 0383 41f0 58bf c5ef 094e bbc5 683f
00000720: 9577 79b8 99d4 813f 54be cc7d d43b 673f
00000730: db1d f0c5 4fe6 203f d2a9 2c2b 031b 683f
00000740: f316 2830 fa5c 40bf 87bf 2994 40b4 7d3f
00000750: 7efd 5929 0d55 5f3f f91e 69bb c3fb 773f
00000760: eac2 e3ca b50e 4abf 8daf 0c86 cb1b 7e3f
00000770: 144d 8939 d486 683f 81d1 1d6e df63 723f
00000780: 5a76 91fb 5798 72bf 7f78 e159 ed7a 613f
00000790: f960 8356 932d 673f a113 b026 41d9 843f
000007a0: 36df 5825 48ef 723f 30c0 5391 e0ac 723f
000007b0: db44 a867 2873 633f 9ad0 75c3 8e23 653f
000007c0: 800a 6903 7c4c 713f a7b0 5396 8c61 6dbf
000007d0: 4104 4702 4af5 683f 0d94 5dc6 5ccb 613f
000007e0: 736b 2801 aa05 3b3f 8850 eaaf 3c21 763f
000007f0: 7347 79dd f6f5 803f 08c3 1f69 1045 273f
0.0034396651454653582 -0.005010885120148327 0.0021953791770292956 0.0014056530866731862 -0.0009013423785463406 0.004757821383928941 0.007826361383922686 -0.0008083904062478173
0.004374175683782452 0.000394883704688635 0.0001581086403007256 0.00366992453081237 0.004338901186751747 -7.363126543323228e-05 -0.00029568788156349195 -0.003575633266909592
-0.00223709403388163 0.014606550388052414 0.00990118315867816 0.002039576558192901 0.006106162065531614 0.000197070493568101 0.0027949198242330905 -0.0009970725782508434
0.0054747866718245376 -0.002053646561062727 0.0012458227902425662 0.002905990158570358 0.001192283706936445 0.0032879353966357374 -0.00033680376483346213 -0.00046834080772545204
0.0024921107839038334 0.002396252034535247 0.00014796832502254667 0.009790138867546455 -0.003992153432759123 0.007146947890253659 0.0010209054925418974 -0.000258383944100283
-0.0023807476600022893 0.002099614318429201 0.007729464538661187 0.0019623079331767615 -0.0010297064588926457 0.001708271442495945 -0.0015202800762590034 0.006327717593652508
0.000756039558064766 0.004086187741382502 -0.0018043522707044148 0.006422314902466282 0.001981000935206559 0.0035174423897150345 -0.00573823251013381 0.001116997462866946
0.0015654631887324158 0.009274317762099214 0.0036543189288483803 0.0033032546452093038 0.001485089388181846 0.0015793309771403607 0.003813273948157984 -0.0023503063535541074
0.00269889735158968 0.00205522979822374 0.0006435368093669876 0.004521739220973985 0.006744274742565188 0.00038151713935362407 0.004601029125443726 0.0015051186077246175
0.001095702518158618 0.004094703674597971 0.004218219985517466 0.0009228177047073798 0.0009575542311691826 -0.0014610972451896283 -0.0004785571813746878 0.011238554462311322
0.008102395101143578 0.0028997233852498046 0.005509835415382036 0.0014605240409038284 0.003216134276126209 6.85379902409453e-05 0.004983114284087593 -5.333233797460164e-05
0.00198904815376046 0.0039283974947190905 0.002432634415278454 0.0035056255636881717 0.0012051361159982066 0.0008844654677442539 0.0030645791673564768 0.00305596996536878
0.001462765834274906 0.008018385844844059 -0.0016484804542428852 0.006385186323180618 0.002189373838961829 0.0016381472481796938 -0.0006984001083960543 0.002261881956875973
0.006784233942358083 0.00240951606047783 0.00043929559349885903 0.00268390928950628 9.265097312208026e-05 0.005587690058189921 0.0018822811915095235 0.004554162203015413
-0.00014114468580957073 0.005658735837308027 0.002523040998351576 0.0035838089248135347 -0.002831763275021807 0.001922387216560015 0.002528148596750132 0.007662457016009931
0.0037088191218676444 0.0038381570910897777 0.002096771191074583 0.0022121751857775243 0.0022584799174006206 -0.00329170165517104 0.001454056003122427 0.0009072553587255967
-0.0005543459345935053 0.0031451089474051307 0.005140516315212945 -0.00052994228178937 0.0028606022609640675 0.0002900514699167364 0.0001943025194832879 0.0025374595786972795
0.0028588049806035454 -9.344215143967256e-05 -0.000283354147197733 -0.002368545784048326 -0.001459943030811493 0.009575675717173564 0.006512701707832852 0.0013975503650007787
0.004015254488983557 0.0001566452790326876 0.0018952493916246326 -0.0005850114987487276 0.0035684388195916855 -0.001301069065061129 0.0008357951724133959 0.0021068559059583838
0.0007032433426131029 0.0021805336777964966 -0.00017302197542452352 -0.00028311673206324946 0.0016623099271763407 0.0015927657306513488 0.0001024799579106245 0.006419355472759919
-0.0026391192741731097 0.004701891617510405 0.0009134491219868821 -0.00013540232630959964 -0.0015822481904111214 0.001416569829171921 0.005065774243889356 0.0012517604964383546
-0.000592765471765189 0.0011412184433275193 -0.000990304906361146 0.004155866827285203 0.0005081075597572756 0.0029027542609013574 -0.0012131817271265836 0.004224369631672613
0.0012901115910716812 0.0023034350168534734 -0.003701344217147696 0.0007472037031560142 0.0011157575937977874 0.006122355252478609 0.0024140700518999235 0.002264979388770421
0.001010563879483916 0.0010424439781913392 0.004516694557409146 -0.003942731442021167 0.0031965144064559398 0.002306067844411386 0.00028719516304443127 0.005737001029350462
0.00885411340766715 9.84865700187656e-05 0.005604020232187531 0.0014935322575977382 0.0012932791363639957 0.0049808109112758625 0.005260161613466743 0.0008421322877423488
0.0005284235777236564 -0.0025906279381623393 -0.00118294040722095 0.015310532075885654 0.010761309099098969 0.003392047867355249 0.007029588118892956 0.0013168249324228183
0.003921493492887879 -3.2278900501749975e-05 0.006397171254897198 -0.0008747459834605685 0.0022274181023211035 0.004607360135951988 0.0022448127376243038 0.004271611261388791
0.0009056011360400571 0.0006521783488256127 0.003703615951916408 0.003558921386148135 0.0012628530686593455 0.010650643868309736 -0.0028990061980800727 0.008215736513877085
0.0027899921922274837 0.001352359567526663 -0.0015221252215788055 0.003023973302616031 0.008706284467901596 0.0028361463759194825 0.00012893413347135518 0.0029425680053425185
-0.0004993650075568442 0.007251980076588788 0.0019123676806030716 0.005855335787209753 -0.0007952106150509151 0.007350726141151298 0.0029939789786027713 0.004489777349466429
-0.004539817507149014 0.002133811546669639 0.0028293492979224425 0.01018000506702227 0.00462272817599523 0.0045593998122371165 0.0023742474707054546 0.0025804317808085344
0.00422333185867052 -0.003586554130938852 0.0030466504560711376 0.002172166062268227 0.0004123249101738925 0.0054027910797637205 0.008281639703600274 0.00017753434491354241

bias f8 [177]
00000000: c0ae 35a7 ec41 803f 264f a7b0 3982 7b3f
00000010: 9e82 2226 465e 753f 6fed 2878 b019 823f
00000020: 5c57 9ced 91e6 803f 9e15 9c60 bec1 7b3f
00000030: 321e 6f03 6e47 823f d470 b73a f963 813f
00000040: 6705 eeb2 ccd9 793f 6cd0 2f58 6832 7f3f
00000050: 9359 1086 a262 7e3f ab79 8cb6 6b33 823f
00000060: c463 9d68 9163 833f 5d83 9f19 374b 7f3f
00000070: 81c7 a0c7 42d2 8e3f 8997 d851 2021 7f3f
00000080: a36d 6908 41e8 803f adba 9847 de93 803f
00000090: bc60 1970 a981 813f 5ea9 c9d1 a3de 743f
000000a0: dcb7 73e5 c76e 653f 17d8 289f e856 803f
000000b0: e2f6 0e7b ecf4 823f 733b 352a c813 5e3f
000000c0: be0c 94ca efd6 803f 3e82 9985 7c36 b9bf
000000d0: 0390 29cc c916 813f de1f 85cf 5aea 813f
000000e0: afcb 1084 19ae 68bf ebe3 0951 cc56 b5bf
000000f0: 1f92 fbf6 5f65 7f3f 050e a5cd c1db 793f
00000100: 9c6b 1f73 78c8 7d3f d876 6b99 56c9 99bf
00000110: bac4 2de8 c69e 633f b65c 85af 186e 813f
00000120: d9e2 802d c174 803f 62ec bbff b3bf 5f3f
00000130: bae6 e466 c544 afbf 3617 7ea4 ef21 813f
00000140: 0d39 92d8 ee9b 6bbf 617c 21de 39a8 a4bf
00000150: ef32 b7a0 47ed 813f aa24 edf5 b180 6abf
00000160: f9bf 1891 4a3b adbf 06a9 4277 b3b0 803f
00000170: c4b1 b45e d8fd 673f 776b f3a3 28bc 803f
00000180: eecf 5017 0849 7c3f 1619 1260 0b02 803f
00000190: 7258 12d1 8403 a7bf 6cda 7f8b fd35 b3bf
000001a0: a69e 464e 41dd 4ebf 542b bea8 830e 7f3f
000001b0: 5922 f044 f694 813f c9fc 32f0 b8d8 7d3f
000001c0: aaaf 1ba3 cd7e b2bf 4dd5 9c1f e77b 793f
000001d0: bc21 bdf1 9a32 763f 88b3 6000 ee6f 7d3f
000001e0: 5a2d ba82 e481 7f3f 5d3a 7fea 21fa 2dbf
000001f0: 9fd6 d9c8 a36d 693f bc18 f3b7 f30c 813f
00000200: 4d70 4735 4d95 803f 2f02 90a9 37c6 b0bf
00000210: d613 efe6 1abe 7f3f 861d 69cd 8125 753f
00000220: 2a8d 21f5 1687 823f 982d 31cc 646f 7f3f
00000230: 2291 c3b5 3ef2 573f 5381 f8c7 3c20 7a3f
00000240: a460 4537 3a30 75bf b77a 16d4 5538 833f
00000250: 1058 ac23 c98c 803f 53c1 3790 308f 7b3f
00000260: a50d 52b7 2b4b 7f3f e3a1 8477 aed5 9cbf
00000270: af7a 6a0e b5ff 813f c0ae 32ad 28bf 823f
00000280: 1fef 050d d247 803f 7b19 1ed7 65e5 813f
00000290: 108e 1525 b099 813f 3ff6 3d6f 965f 543f
000002a0: 08a3 7ed2 ab10 b2bf eb99 d666 8dc3 813f
000002b0: d214 9266 5615 7f3f 2e85 e1d1 8892 7e3f
000002c0: 6b8a 21c5 56a7 85bf 564f deff 7e52 4fbf
000002d0: df76 38dd 2d62 98bf c109 6e2c f118 8cbf
000002e0: 742c 19a4 8035 813f f681 c448 95f5 70bf
000002f0: e731 b5e8 0dc8 c0bf 9f24 7fde 08a8 95bf
00000300: 592f b9c7 adbb b0bf 5741 f4ab 0587 7e3f
00000310: c04c 590e 42fb 803f a12a 81b6 2360 603f
00000320: 88f2 89e8 3b12 813f 491c 7912 1a15 7b3f
00000330: e2e2 2ac2 0097 67bf 9d09 e1a6 0010 823f
00000340: 4e75 a1c8 13bf 813f c2bb e0af a5cc 783f
00000350: 4ff3 ddc0 8e64 683f 3112 7d1f 765a 803f
00000360: ffb4 0ee6 38ac 7f3f c6c1 ffb8 dba6 7d3f
00000370: cb7b 7144 af0f 74bf e6b5 2fc1 5b71 50bf
00000380: 09bc 5464 b4cd 823f 7d52 9ae9 81ea 7c3f
00000390: 6504 911f 44b4 3ebf c5b9 4634 2f23 7d3f
000003a0: ed29 d111 bc5c 9b3f 1067 d182 ff70 793f
000003b0: b087 f449 08f5 83bf 9b56 31ad 1a9d 7d3f
000003c0: 497e 5165 1da9 803f 4166 098a 66c3 b1bf
000003d0: 4f42 9fba 2fc5 7b3f 3a52 b981 0c0c 62bf
000003e0: 6744 b1f8 cb40 843f 4ce7 4af1 193c 5c3f
000003f0: ca35 8677 fbc2 893f 5b31 88a0 a71d 7e3f
00000400: 75fb df2f 6562 603f da24 02b8 3a25 693f
00000410: 8070 1bd7 c8b9 56bf 9f83 5e24 4cc2 7d3f
00000420: d58c 8702 c20c 803f be68 9e6d 50ef 803f
00000430: 66be 694a 5253 713f 9ddc f84a e738 773f
00000440: acc2 8d5f 9959 833f b8d6 8f72 374f 853f
00000450: ff88 0e71 389c 7f3f 08b0 b43b 6177 7f3f
00000460: d273 155b 7347 803f 62f5 b91a 06a6 66bf
00000470: e471 c8cf ba97 843f fbe4 61cc 7207 7e3f
00000480: 27c0 a13c 4454 c1bf f5e2 0470 22d6 9f3f
00000490: d91e 647d 053d 6e3f 3eea b8d4 073c 823f
000004a0: 1c42 fc25 15f7 7a3f f61a a67d 4759 823f
000004b0: 7f32 8764 e57c 7e3f f908 db53 44c6 803f
000004c0: 14d6 5702 17e1 803f f335 b168 d538 963f
000004d0: 4cec 9327 05e1 803f 717e 3174 fc13 7d3f
000004e0: 4198 fd1c 8fc0 793f a4a4 09ed e1f3 7d3f
000004f0: 3375 0949 f6fb 7f3f fb1a 4f9e 89b5 813f
00000500: f606 d313 c8d2 7c3f 7dd7 6f01 9368 9abf
00000510: 3626 eeb5 6618 7b3f d4fc 78df 1536 293f
00000520: 734d dfbf b1ca 803f d724 5102 5c93 803f
00000530: 7732 13b7 7173 783f b563 ef88 b153 81bf
00000540: 7100 5ac6 cddf 78bf 3428 5345 659b a3bf
00000550: cf09 f5ee 63b3 7c3f 0ff6 ec07 60b5 773f
00000560: ac45 2909 07d0 85bf 0603 24af aefa 823f
00000570: cb4a 0090 de1b b4bf f299 779a 6872 7c3f
00000580: 2475 f66b 8849 763f
0.00793824086459638 0.0067159894483273305 0.005216859835997538 0.008838061015117941 0.00825227743511519 0.006776565229079349 0.008925303916739489 0.008491465668094035
0.006311225514651886 0.007616431804297812 0.007418284280922188 0.00888713980526464 0.009467254643526497 0.007640090212562037 0.015049478261150774 0.007599951027747917
0.00825548941536775 0.008094536361651217 0.008548091634267833 0.005095138473374254 0.0026163009857702434 0.00797826514927284 0.009256217484899524 0.001835771058569438
0.008222459191989603 -0.09848764669141816 0.008344246428528384 0.008747777421959254 -0.0030127046925598404 -0.0833556840751865 0.007665037977606675 0.006313092273845471
0.007271261698373357 -0.025182107080459953 0.002395046701558626 0.008510773521875552 0.008035191727786483 0.0019377954294544021 -0.06107155686409045 0.008365509231008521
-0.0033702530823297495 -0.04034596287305515 0.008753356544639128 -0.003235194758791045 -0.05709298154067705 0.008149530484236066 0.002928660008953284 0.008171384337790617
0.006905585866707737 0.007816399449677418 -0.04494872142929375 -0.07504257827518196 -0.0009419030071073544 0.007582201283990415 0.008584903696843659 0.007286760726116622
-0.07224736435062931 0.006221678568001221 0.005419354678288742 0.00718682259870896 0.007692234630336381 -0.00022870697034567652 0.0031040381352863268 0.008325485278316662
0.008097270191619677 -0.06552455796919142 0.007749657713195432 0.005162722626273269 0.009046725612455637 0.007674592724537098 0.0014615642931455415 0.006378400255499922
-0.005172946363323803 0.009384794745355902 0.008081027413521041 0.0067283532148255274 0.0076400478038779794 -0.028158880276494613 0.008788504126014144 0.00915366915281568
0.007949486753879463 0.00873832285629982 0.00859391797229761 0.0012434929930970199 -0.0705668820288673 0.008673767758250647 0.0075887084032093145 0.007463964893845527
-0.010573079958878758 -0.0009558792223622696 -0.02381202376101654 -0.013719448250189782 0.008402829177745576 -0.004140456334682066 -0.13110517370877448 -0.021148813800924256
-0.06536375165995646 0.007452985911428143 0.008291736662761173 0.001998967887663142 0.008335559877417312 0.0066119211620111 -0.00287962101114335 0.008819584934944663
0.008665232239020295 0.006054541792805903 0.0029776371147235757 0.00798504146190124 0.0077326033214550885 0.007239206592189301 -0.004897770536529354 -0.001003589252600684
0.009181412994250253 0.007059581251856015 -0.000468508369127879 0.007113632575438127 0.026720942103830515 0.0062112790011157465 -0.009744705922063307 0.007229904370509434
0.008135060934534215 -0.06938782568013215 0.0067798485196851185 -0.0022030109665059057 0.009889215018264076 0.0017233136506277945 0.0125789304591092 0.007352499764703725
0.002000043516999945 0.003069510159609307 -0.0013870679217040938 0.007265374593686951 0.00783683366984748 0.008268955560016496 0.0042298521499187555 0.0056695017697655755
0.009448240498131831 0.010404999908114262 0.007717342829808737 0.007682208840645195 0.007948781220585763 -0.0027647132135927713 0.010055026498826565 0.0073313221274642305
-0.1353841110280893 0.031090295874693436 0.0036912066672164343 0.008903561763067388 0.006583292590008696 0.00895934917640549 0.0074433289195893195 0.008190664109296796
0.008241824873930027 0.02170117808809908 0.008241691847152087 0.007099138401002501 0.006287154232131499 0.00731266262355593 0.007808649112658816 0.008647036689479295
0.007036954452986901 -0.025789544069958027 0.006615067685638068 0.00019234673503552033 0.008199108760811957 0.00809356576987101 0.005969471168282162 -0.008460413924625468
-0.006072810943464999 -0.03829494925737756 0.007007017483660906 0.005788207169471273 -0.010650687186315753 0.009267201156491389 -0.07855025306370604 0.006945046050054847
0.005441220185642668

weight f8 [177, 177]
00000000: f362 43a9 cae3 bfbf 0b73 f114 fa8e a1bf
00000010: dd5b d861 1a58 b8bf 9c1c abc6 f902 b3bf
00000020: 3a11 42d9 cf50 bbbf 0be7 c412 ffe4 aebf
00000030: 7760 bbca e95b 7dbf 4cdb db0c e985 b9bf
00000040: 64e2 3bef e36e bdbf 1758 c37d ac91 b3bf
00000050: 210e 5f95 de35 8a3f 9029 5aeb 5380 b3bf
00000060: 66df 9547 cc44 aabf 8cde e739 a7f5 bfbf
00000070: 1db5 caa9 c737 9bbf f40d 4e5f a987 acbf
00000080: 7f1e e28f 4ead bbbf a1e3 cbd4 7ee6 a6bf
00000090: 811b 8517 8aa7 babf e25e df95 ea28 89bf
000000a0: 3192 a9a6 1436 9fbf 8e68 91f6 e12e 7b3f
000000b0: f957 6adc 5bd7 b8bf ea4d ad4d 9376 b7bf
000000c0: 15d0 db1a 269d c0bf a5b5 36e3 abcd b7bf
000000d0: a27b 8a4e 14b8 adbf 72ad 27f5 f1b7 c0bf
000000e0: 8d98 2bb7 1863 c2bf 22f7 e11d 1aac a7bf
000000f0: 6a31 6ce9 c230 c1bf 80b6 e13a 6cce aabf
00000100: eba6 2c35 276c bfbf 9262 2deb 4f54 c2bf
00000110: 264b 4190 e8d6 b2bf ef9a a030 c62a b2bf
00000120: 1e3d ee3e 8881 9cbf 666b 04ec 9f00 9e3f
00000130: dad4 3879 94bd 94bf b5dc 678e 57a7 b4bf
00000140: 3f96 b661 cd65 97bf 35cb 85ae db0f b7bf
00000150: 513b 4598 db0b bdbf 7fa9 12ac 7cf3 b9bf
00000160: 34ce a863 6d05 9cbf 1f99 8e1f 91d5 753f
00000170: 1222 965e 7537 973f 7549 e86f 9fac bebf
00000180: 1137 8901 84ac 94bf 99cf aa1c 849e bebf
00000190: 884f 1b2d 235c 8a3f 31a4 27cd ee40 babf
000001a0: 955f c2e1 8e70 c1bf c8e9 8932 b961 86bf
000001b0: a9f5 d739 ad7a b6bf da40 feec c563 abbf
000001c0: 5b1e 2ea6 9252 c1bf 081b f970 e628 c0bf
000001d0: a989 370d eb64 7f3f 2365 285e 209d a6bf
000001e0: dbb5 7484 aac6 b9bf 18c0 54bb a705 c1bf
000001f0: 8e20 6a3c 793e 8cbf 12fe 8b0c 2914 833f
00000200: 2fed 25b6 a593 c0bf 28de c7d8 8716 cfbf
00000210: a483 47c6 13a9 91bf b098 1a2e e9de 84bf
00000220: 1c9e b4d9 4d90 823f 7d7f 5ae0 8980 9cbf
00000230: b12a 0bf5 1976 bfbf 2774 5bcb 031f 6cbf
00000240: 260f 1a53 973c adbf f2dc cf73 2fce 723f
00000250: 2aaa b196 8359 c0bf c476 12be 6460 7dbf
00000260: e678 2455 a815 bcbf 4d57 fc2e bc53 97bf
00000270: f4b3 045c c508 b7bf 8093 812b 82fe bbbf
00000280: cbaf 52bb 149b 93bf a53a bafe a92c b2bf
00000290: 067d 6d88 e2b6 b1bf 0c5b b811 abaa c2bf
000002a0: 1a84 147b 6b72 b3bf 0fe7 aa63 2eb0 78bf
000002b0: 8c3e 4bd7 7250 77bf 1f87 18bb e47b b3bf
000002c0: 94a5 7c6a 0862 9d3f 4d2e 7016 bdb6 77bf
000002d0: 2dce f7ba 0aed 89bf 6d9a 6b74 d181 923f
000002e0: 07b4 4a6d bb90 c0bf fa58 a09c 75ae aebf
000002f0: 5caf 6084 7e5b a3bf 29b9 b720 8320 a3bf
00000300: 56dc 5ed6 db01 87bf adda fb30 a655 a3bf
00000310: bdf7 763e 023e c0bf 6f1d 6c94 1461 c3bf
00000320: f4a9 67f8 3972 96bf 49c9 e77f faad acbf
00000330: 4237 9baf e6b0 99bf f8f0 a60b 8a84 b0bf
00000340: bb92 13a3 6934 a8bf 9dd4 0558 5082 b9bf
00000350: 6a7e 6b81 2244 bebf 6ded c20a a99e c1bf
00000360: ebbc d5f5 7d36 a3bf 06a2 0020 f381 c0bf
00000370: 75f4 8c87 dbf9 acbf d486 4dc7 7f9b bbbf
00000380: dc03 0d40 6ed3 88bf ed75 d855 7104 a9bf
00000390: 5fd6 eaec 308a 943f 3feb 0376 0e4e 84bf
000003a0: ffb1 3f3a a877 9fbf 180f 277b 903c 7abf
000003b0: 8393 4a0c d874 bdbf b4db 8ce9 d685 783f
000003c0: b1a4 2c94 933a 833f 22df cb3f d20a b1bf
000003d0: d7ca 6b1d 1f0a a0bf 10a7 56b8 a8a3 893f
000003e0: cfd4 1d32 63b4 85bf 4ab2 7221 a51b a53f
000003f0: 7f0d 2a2c ecb4 7e3f 2951 4016 0c0d a2bf
00000400: 00a5 ecf9 cef3 913f 080c c9f5 3766 39bf
00000410: c6f4 1a1c b499 c2bf 105a 33da c2ff adbf
00000420: 0311 82f9 5ad7 b5bf 2a0d 51f9 c9d8 bebf
00000430: 75a3 af2d 2155 863f c14c 45cd 3f82 9fbf
00000440: 2e26 5a62 1489 a0bf bcd5 7f21 c9f1 94bf
00000450: 4d86 88d3 1064 b0bf 7d28 c4e9 e777 b2bf
00000460: 217d 077a 1436 a0bf 28bf 477b d4b1 923f
00000470: 2351 9134 1848 723f ccc9 f7f3 929b 51bf
00000480: d4f0 4e47 24d7 aabf f84e 4883 d34f b4bf
00000490: c929 ad24 940b b8bf a129 238b 49ee babf
000004a0: fb1d b53d b356 aabf 4f6d f287 3b33 22bf
000004b0: 0bf5 1fa2 ebe2 bebf 5543 89ff 9825 a0bf
000004c0: 9703 47da ea16 b6bf f454 f3da b26b b9bf
000004d0: 2429 cb71 2903 a9bf 35cf bff5 f660 81bf
000004e0: ff38 41c3 fccc bdbf 9ce1 2fe8 97fc adbf
000004f0: a45f ae80 df5f b1bf fd99 4642 560c 99bf
00000500: 859d 9044 675d b6bf e3d1 8af6 f33c b9bf
00000510: 2a47 6f17 7fbd a7bf b5d0 af7f 13ff 58bf
00000520: 5ebf 846c 64eb acbf 45ee ab6a c04a b5bf
00000530: 25f2 45d7 2614 aabf f287 233d 6609 b3bf
00000540: 74b1 3a73 dc80 b6bf 1a63 a3a4 4787 943f
00000550: e651 ec95 4c27 bebf 5b9f 598b 8ea7 80bf
00000560: fc26 4dd3 d944 a3bf 8ae3 f045 cd5d b3bf
00000570: 3102 58ab 89ca d8bf 4a85 fd1a fb62 b4bf
00000580: b53a ac00 1f4c 90bf 2d46 694c 0c1a 9ebf
00000590: ce47 23e5 d974 933f 1e17 38cb 7c98 89bf
000005a0: 32a8 2785 4a68 bdbf 1585 a5de 045c b8bf
000005b0: b86b 96cb b3fa a0bf ec4f 303c f297 52bf
000005c0: d1db 7877 eacb 783f 3297 fd1e 2504 91bf
000005d0: 2592 3d12 05f8 973f 2d8e 61bf a391 813f
000005e0: 52c9 cd2a 44f5 bbbf 2f38 1481 a371 c0bf
000005f0: 3844 75a5 c1f8 b2bf f25d e71f df4b a2bf
00000600: ea8c 639d e713 8dbf a674 9a47 0302 99bf
00000610: f0ec 3dd6 1e4b 96bf 5cd8 09f0 d144 b3bf
00000620: 9ebe 7086 69b9 aebf 6f43 c1d9 da50 afbf
00000630: b6fc c54c ab2c 9dbf 596b b4b6 2ae8 b6bf
00000640: d348 9b36 bedf 87bf d03a c914 d548 b2bf
00000650: 4574 ac16 6e28 c53f 50da c4af 3794 843f
00000660: faa5 faec 92c1 8fbf 8009 72ad 3e0b 7cbf
00000670: 07bf 8646 fa44 b4bf 324d c623 76c5 a0bf
00000680: 93df 1253 08e9 a1bf 22b5 3b23 5b47 90bf
00000690: 86de f80e 96ce ae3f 124c eaf3 4b94 afbf
000006a0: 67a2 a8b7 0285 bfbf f51c c011 8ecc a6bf
000006b0: e3cf a89b 7272 bdbf a5fe 37b1 a104 9a3f
000006c0: 0c6c 52f7 4b78 b1bf 256a 8fb2 6168 92bf
000006d0: 8ae4 9ebf 3094 a53f 5884 3611 1975 aebf
000006e0: f79e 5a08 172d a2bf c740 3c0f 86e8 b5bf
000006f0: 6221 e4d0 534e c0bf 947b 336f 09ff babf
00000700: 6580 d6a3 4479 913f 0957 ebbf 2f7d a6bf
00000710: f0a2 138a 3758 bcbf d477 c71c 6ab9 863f
00000720: 9460 8138 23fe 7f3f 2a51 2907 f19c b3bf
00000730: 69c1 1f50 dc6c 873f 3bd9 10cd 25c1 69bf
00000740: f633 ccce 7792 b9bf fa72 12b4 f2cf d83f
00000750: 54e6 567f c11e 80bf ac2d 405f dc43 763f
00000760: d94d 4d4b 65d1 7bbf 0193 116e 55d4 aebf
00000770: 5c37 a365 6811 97bf 8057 1277 07c9 9c3f
00000780: ae3c 768b 0e0b 613f 81fd 521f 968e a8bf
00000790: 5dbf cadd 4e7a dc3f 5b10 00d7 02cf a7bf
000007a0: a7d3 75f4 18dd 69bf 7d60 151c 08af b1bf
000007b0: 3fce ee65 9ab4 b0bf f95a 4930 1fc9 8a3f
000007c0: 1401 094f 88d1 a8bf ff0e 6c88 e298 91bf
000007d0: 011c 2aca 7368 babf 046f ae4c 1429 88bf
000007e0: a89e 7826 2111 bfbf 5bcf 15bd 6c8e 51bf
000007f0: 9bdd d59d f7d1 903f ded9 3b3d 36c9 89bf
-0.12456957466509859 -0.03429395204213933 -0.09509434593961381 -0.07426415539076675 -0.10670184187080603 -0.06034085373035055 -0.007167733430570525 -0.09969955982147133
-0.11497330275222734 -0.07644155569445875 0.012798060353708842 -0.0761768769827198 -0.05130613683553413 -0.1248421207782206 -0.02657997106387199 -0.05572251594915292
-0.10811320317054117 -0.04472729060757464 -0.10411894869058182 -0.01228507299303722 -0.030479738876595334 0.006636507671908499 -0.09703611499057264 -0.09165306707773593
-0.1297958022256586 -0.09298204705438325 -0.05804503878356761 -0.13061356039484512 -0.14364918655264028 -0.04623490919855856 -0.13430057904805476 -0.052356130778986376
-0.12274403618053113 -0.14319800360933194 -0.07359174272395971 -0.07096518218223101 -0.027837876168232183 0.02929925802264268 -0.02025444021110876 -0.08067843653394642
-0.022849282349531427 -0.09008572588736004 -0.11346218555011701 -0.10137156678198343 -0.027364453513838607 0.0053306263807029455 0.022672494791125493 -0.11982151491273448
-0.02018934497237185 -0.11960626315959501 0.012871050657316876 -0.10255329617179211 -0.13624750159646895 -0.010928580145663683 -0.08780939733693195 -0.053495583705741104
-0.1353324233461873 -0.1262481738687813 0.007664602442192616 -0.04416752957713246 -0.10068765386377924 -0.13298508307480073 -0.013791033893781692 0.00931579656162199
-0.12950583833649307 -0.24287508091923482 -0.01724654100133062 -0.010190793723563324 0.009064300733896018 -0.027834085768176465 -0.12289583427915819 -0.0034327577694584113
-0.057102898496877594 0.004591164933109614 -0.12773175104241946 -0.007172006154318292 -0.1097054679744108 -0.022780361526279425 -0.08997758385221727 -0.10935224115526232
-0.01914627450302912 -0.07099401921207489 -0.06919685202364087 -0.14583338132134605 -0.07596465830694435 -0.006027394493395523 -0.005691956136345443 -0.07610921447533457
0.028694278239674256 -0.005789507506971226 -0.012659152823267206 0.018073342066509946 -0.1294168742801107 -0.059924769753864696 -0.03780742040575433 -0.03735742353807076
-0.011234014014787668 -0.037762826423138086 -0.12689235734972995 -0.15140015837844653 -0.021920114313539643 -0.05601485072465324 -0.025088886707457243 -0.0645223883101983
-0.04727487674407401 -0.0996446814441065 -0.11822715434709044 -0.1376544287248679 -0.03752511621393658 -0.12896575033779828 -0.056593761727051474 -0.10784147849838216
-0.012122021989513891 -0.04886202023429207 0.02005840726879737 -0.009914505936185257 -0.030729893260216908 -0.006405414942893171 -0.11506414699631588 0.005987014294809013
0.009389069518493139 -0.06657136971977853 -0.031327221242369134 0.012519186139644783 -0.010597968069968293 0.04122653992940124 0.007496759938138252 -0.03525579234715998
0.017531618122267112 -0.00038756242955545516 -0.14531566021279313 -0.05859192765790422 -0.0853173121595923 -0.12049543701964596 0.010904559332588918 -0.030770298866013904
-0.032295834546925625 -0.02045358912433469 -0.06402688183200063 -0.07214211899932539 -0.03166259755721002 0.018256492638044325 0.004463285972708317 -0.0010746893966567693
-0.05242265100921065 -0.0793430514825636 -0.09392667670650846 -0.10519847533138328 -0.051442719729092055 -0.00013885595032978946 -0.12065003116727639 -0.03153684729898624
-0.08628719166791964 -0.09929960103484686 -0.048852248326129805 -0.00848572671382151 -0.11640910880052856 -0.058567759602684094 -0.06786915675763666 -0.024461124224808718
-0.08736272262523499 -0.0985863186750247 -0.04636761818950526 -0.0015256586473216098 -0.056483400580303864 -0.0831718693188402 -0.05093499543997763 -0.07436217301031414
-0.08790376485075574 0.020047301696510457 -0.11778715763313805 -0.00813208925974578 -0.03763466553080083 -0.07565005261939298 -0.38736192448417045 -0.07963532837813606
-0.015915378967344924 -0.02939624039055937 0.019000439272367768 -0.01249787802863583 -0.11487260580875683 -0.09515409885127142 -0.03316270694923368 -0.0011348596169726789
0.00605384434270824 -0.016617374435916328 0.023407057989418462 0.00857856681631749 -0.10921121640220591 -0.12846797754940684 -0.0741082219076511 -0.0357351042218247
-0.014198121538760284 -0.024421740765877907 -0.021770936800277363 -0.07526886091531665 -0.06000833288305539 -0.06116374881879138 -0.028490711747050944 -0.08948008499684813
-0.011657224694691248 -0.07142383344146741 0.16529632670509123 0.010048327495138981 -0.015505931717899369 -0.006846661409442567 -0.07917751523813986 -0.032756511561411364
-0.03498102201541466 -0.015897201562372072 0.060169877364782784 -0.06167828896027329 -0.12312333091598192 -0.04452938048057745 -0.11502758312491283 0.025408293191502413
-0.06824183261998956 -0.017976309321833157 0.04214622820968213 -0.05948713622206786 -0.03550025917985338 -0.08557927963215937 -0.12739036273729726 -0.10545405354376519
0.01706416368472254 -0.043923847367905174 -0.11072108384145074 0.011095837596197734 0.007810723858789132 -0.07661348748053301 0.011438103861991693 -0.0031438577939539004
-0.09989117430468739 0.38769214234507354 -0.007871162127105404 0.005435810879144947 -0.006791492157236922 -0.06021372765170519 -0.022527342990364616 0.028110615389401072
0.0020804676129909305 -0.04796284801841023 0.44496509227155007 -0.04650124430193677 -0.003157185306628968 -0.06907702146179591 -0.06525578487963289 0.013078921948517218
-0.04847360577378104 -0.01718477208761637 -0.10315631566673746 -0.011797102537279176 -0.12135512532460757 -0.0010715543652084134 0.016425961502560687 -0.01259081243868548

bias f8 [177]
00000000: cb0f 77f4 2f10 b5bf b7f5 d1a3 90b4 b4bf
00000010: fbdf caf2 a040 a0bf 84c2 3921 3db5 a1bf
00000020: 5652 bc2f cd0d c0bf 3a95 b78c 72b5 bbbf
00000030: 86e5 b01a 49e9 b43f d030 35b1 b590 81bf
00000040: 4034 a791 07fd 9fbf b983 b39c e796 b0bf
00000050: f694 d93c 7e05 b1bf b4b1 4e4a 15c5 b1bf
00000060: d57e 2f3d f2b8 b63f 7923 0265 475e bdbf
00000070: 8ff5 3df8 428f b2bf f4d1 1722 03ab a13f
00000080: 121c 204c 5afc b3bf f1fb 00ef 47d8 7ebf
00000090: 6971 c26b 0a91 9f3f 9b66 c6e1 05ab 99bf
000000a0: fc74 7066 c6d5 b7bf 9197 6431 88fd bbbf
000000b0: 3a3d 48f8 9eec 823f cf69 498f 1658 5f3f
000000c0: 9b09 9d60 719f b73f 29a0 14cd fb19 8c3f
000000d0: 34e3 61d3 d03a 98bf 3546 2cf9 36f7 b5bf
000000e0: f540 8cb0 cd49 b53f 44e6 549b 0af2 a63f
000000f0: 9f0e 2a9a ae01 bbbf 29d3 cc52 156c 94bf
00000100: 0ad5 9ae3 8aba bcbf 76ac 5036 c4c4 b5bf
00000110: 0de8 d454 bd3d abbf 2cea cffd 6d8b b1bf
00000120: 2e13 9c96 fdad b4bf de1a f05b 705d 873f
00000130: 03ee d541 82c2 b53f c044 ac95 5da4 bcbf
00000140: 947f 2768 d054 b7bf 405e 544b a9f9 98bf
00000150: 2ed8 2cac b629 b9bf a620 8d24 b014 bebf
00000160: 3508 f164 56e9 a8bf 6a5e 2a22 a021 9c3f
00000170: 981e 7660 da3e c23f 32a0 5434 694a b2bf
00000180: 6569 47d3 5092 b7bf f326 6902 9318 7d3f
00000190: dad4 c547 e8f7 b23f ce8b 6f5b c400 833f
000001a0: 2898 265a 3916 a33f 807d 1afa 6bf0 8ebf
000001b0: c5a5 21fc 3172 c33f d4ca 3a20 a18f b73f
000001c0: fe2f 1d66 ba88 ba3f 3a17 7e0a 77b3 acbf
000001d0: a781 862e 7add c13f 3e73 615c 38cf 9e3f
000001e0: 0388 cbb5 504a 6fbf 1817 0c9a b4e2 98bf
000001f0: 4ae6 7c0c 1c0f b83f 47d9 4227 f0d5 ad3f
00000200: 1b81 2656 59bb b13f 8436 171f 70b5 b43f
00000210: 4641 7b32 b958 c03f 6942 a249 1231 b93f
00000220: 16f9 8208 ceea a13f d356 1051 7a98 c43f
00000230: 38e1 79a4 8de9 3d3f 307f 69d0 9d17 ba3f
00000240: 0982 ac0e f39f b5bf ff6f 3923 6b6f b2bf
00000250: d040 23fd ea48 983f 5db5 3e6e 52a2 bcbf
00000260: 2e7f 4d38 1309 bfbf d29d 08d6 0429 a93f
00000270: fe1e b715 55e3 903f 360c b155 4e9c a3bf
00000280: 8f65 ed39 d3ad c03f 578c b825 ab69 b73f
00000290: fa36 128b 44be 963f cb94 cb4e 3201 b53f
000002a0: e0e7 6a2b ea96 a5bf d4cd 8638 1b9b 71bf
000002b0: e277 7ec6 23e6 a9bf 50d0 38bd 24bf 9bbf
000002c0: 5dff 946e 3b25 b3bf b378 44bf a4b0 8cbf
000002d0: 48b3 7ad1 369f b9bf ee62 cc48 d358 b4bf
000002e0: 6b47 2cf9 a5a4 963f a63e ba10 a5f0 bc3f
000002f0: 3178 5c2e 4b63 b5bf 589a 68a9 062c aebf
00000300: f51a 4f2d 9579 ba3f 07d5 43e3 25a3 943f
00000310: 25e7 50f9 a640 b4bf 1ecf dea3 82df 903f
00000320: 0a39 4574 7b3e b0bf 2276 9612 00fe b4bf
00000330: 5a9f afb9 59fb bd3f 55cc b43e ef37 a63f
00000340: 4004 d151 239a b83f aec0 8e15 eefc 9dbf
00000350: e594 691d ac8b aa3f 9618 6381 b25e b03f
00000360: 04c4 f5ff 543a bdbf cceb 5ccb f769 a2bf
00000370: f45d ca29 ae3a b13f 99ae c1a0 bf3c a13f
00000380: e520 5eb8 0ccb b73f 1b8b b30d 8005 c03f
00000390: ec40 9011 f8d0 87bf 9ceb fc9e de54 bebf
000003a0: d1d4 25d1 56e5 af3f 0fa6 afdd 8a85 9fbf
000003b0: 36f0 ff63 c1a4 57bf df08 f653 89e3 97bf
000003c0: 0bd8 f2f1 fae9 8b3f 4e63 2759 3590 babf
000003d0: 43f3 1acb da0d b13f cf32 8082 fae8 b33f
000003e0: 6afa 3c33 0ba3 bb3f a018 9cf2 1092 a73f
000003f0: c9ff f72b f162 bb3f d6d5 a41b f9b8 be3f
00000400: 9222 1196 7cae b3bf 901b 67ed 3b18 91bf
00000410: 5350 04dc a61b b1bf 4d76 c13b 51cc b4bf
00000420: 5da7 38a6 bd59 b5bf a23a 6070 1757 a5bf
00000430: e293 1ce8 42e2 b63f a53a 3546 50ba bc3f
00000440: 1b62 4cc6 fc1e 5dbf dd12 1f4e b368 5dbf
00000450: 3feb b72b 4cee a63f 50e9 5846 7cdb 053f
00000460: 8382 6443 37a1 9f3f ab0a 4625 dfe7 bd3f
00000470: 8af0 fb32 39b5 953f b071 1795 2235 bebf
00000480: 29c3 ac89 5d8a 94bf 140e 8b97 34d3 bd3f
00000490: 85ff de26 e0db 953f c127 7489 648a afbf
000004a0: c0a7 2427 1f4b a43f 6c51 96b6 a28b 94bf
000004b0: 02fd b406 f914 b0bf ac04 6298 de67 63bf
000004c0: e52a 62ae e739 b5bf e462 4afd ff1b ba3f
000004d0: dd70 fb00 0cc5 babf f342 dbf1 2620 a93f
000004e0: 9165 6d12 8e66 bf3f 70f3 a40b 95d5 a83f
000004f0: bb1f 6130 ebed 98bf d05e f1aa c9db b9bf
00000500: 9d10 c255 aeaf a13f 76ff a836 8389 913f
00000510: 7837 ec33 33b3 aabf 82b6 8e29 a759 a83f
00000520: e498 f734 3696 b83f aa9f f890 3e13 62bf
00000530: 48c0 88e1 e865 b73f a7c6 f52f f4b6 7a3f
00000540: 2421 901e 0d52 903f 0f56 0270 8952 a73f
00000550: c569 86c1 dfd5 8d3f c9fc 970c 8920 b7bf
00000560: 520e e35f 0914 873f 4e8e 1b86 dad0 c43f
00000570: d2f9 7974 9adc b13f bb7c ba08 50bc bcbf
00000580: 7fb3 2ded 750a 9cbf
-0.08227824896226747 -0.08088020324244992 -0.03174307788634675 -0.03458586721979365 -0.12542118864861845 -0.1082374185130747 0.08168465520511434 -0.008576793165638114
-0.031238668694460126 -0.06480262351716605 -0.06649006829828238 -0.06941350044389233 0.08875955575740176 -0.11471983161949408 -0.07249849854084388 0.034507844840763996
-0.07806934698611226 -0.007530480375918623 0.030826723887558503 -0.02506646338006267 -0.0931056976409827 -0.10933734136469143 0.00924038119504066 0.0019130916890818144
0.0922766552803637 0.013721434780180246 -0.023661864187008066 -0.08580344756435283 0.08315740165949477 0.04481537958276907 -0.10549441589142326 -0.019943555048672543
-0.11222141319997916 -0.08503366781285301 -0.0532054105810432 -0.06853377768121821 -0.08077988554948654 0.011408689313623762 0.0849992190105056 -0.11188301948665735
-0.09113791029767376 -0.024389882300140053 -0.09829274848456812 -0.11750317470898838 -0.048655223676647465 0.027472021184250663 0.14254312238721378 -0.07144792106248657
-0.0920763507669214 0.007103513961348662 0.07409526588692775 0.009278806724926893 0.037278930906993246 -0.015107005662968076 0.1519224625692869 0.09203536068779822
0.10364880555169972 -0.05605670931895053 0.13957144996403523 0.030087357176273637 -0.0038196159715520052 -0.02430231275777492 0.09398055367355443 0.058272843163126135
0.06926496842652734 0.08089352377938935 0.12770762410083075 0.09840502069187952 0.03499454358960656 0.16090325315661022 0.0004564257437560562 0.10192285860238992
-0.084471884806142 -0.07201261148424008 0.023715659809398215 -0.11185183707740039 -0.1212322246988122 0.049141074301867996 0.01649220414199614 -0.03830189510383557
0.1303047211502357 0.09145612402839852 0.022210188854436354 0.08204950736724752 -0.04216701297760017 -0.004298311549451001 -0.05058395193121591 -0.02709634213370321
-0.0747868676162375 -0.014008795821208819 -0.10008566488495518 -0.07948036696724234 0.022112458546934926 0.11304694803606682 -0.08354635125985578 -0.05892964189506661
0.10341770511795885 0.020153610225823317 -0.07911151491944375 0.016477624179699217 -0.06345340336449481 -0.08200073674967048 0.11711655410146929 0.04339549675423685
0.09610195872757377 -0.02928516394212071 0.05184686526335173 0.06394496592392537 -0.11417132615112285 -0.03596472127397696 0.06730164070392403 0.03366659962997893
0.0929420423618726 0.12516785305987174 -0.01162904552077789 -0.11848250752966155 0.062296593695387543 -0.03078286150040382 -0.0014430893497765613 -0.02332892012555809
0.01362987566822584 -0.10376294542892348 0.0666176553595053 0.07777372060827335 0.10795660019810219 0.046036271682212915 0.10697848628478747 0.12000996518039328
-0.07688120521300792 -0.016694008221545042 -0.06682818290238517 -0.08124263485793755 -0.08340058620583819 -0.04168008085990961 0.08938997427738074 0.11221791948376365
-0.0017774075033171247 -0.0017949820544213492 0.04478681596443445 4.168961531232868e-05 0.030888427246397853 0.11681933078765876 0.021199125038933654 -0.11799827709132304
-0.020059072044378432 0.11650398921761279 0.021346571323874314 -0.06160272767927167 0.03963563301870421 -0.020063917536007933 -0.06282001889939084 -0.0023688647807494547
-0.08291481025132048 0.10198974546291201 -0.10456919692973395 0.04907342626905189 0.12265861463438045 0.048504502936771554 -0.024345087840884832 -0.10100994513902184
0.03454346463061706 0.01712613125914638 -0.05214843758413584 0.04755899793904651 0.09604204934257471 -0.0022064420698093183 0.09139876848416961 0.006522134644329525
0.01593800066987784 0.045551581309308024 0.014568088620582462 -0.09034020001853373 0.011268685568558787 0.16262370632385842 0.06977238982833647 -0.11224842274758633
-0.027383654214122807

weight f8 [1, 177]
00000000: 8591 db8f 2712 363f c6a9 ea7f 3c1a 2b3f
00000010: 95d2 0c0d 9ae6 ad3f 6302 ff0d 26b9 443f
00000020: f27a 82ce 443d 4e3f 1afe 376a bfe4 4b3f
00000030: c142 f8d9 9eb3 af3f ccef 15ea 5fab b1bf
00000040: 3ad4 36b3 5198 4f3f d0f0 566a c2c1 503f
00000050: 8755 c657 af87 443f 1998 fca1 1f8f 493f
00000060: 3823 0a6c bb76 a43f dc28 558b 4cc9 483f
00000070: 00f5 c57a 8f36 413f ab18 5bb2 5fd3 b3bf
00000080: a289 64c9 ddc8 4b3f c128 de3b 871c 403f
00000090: f39b 2d75 496b af3f aed1 d42f a773 4d3f
000000a0: c409 d099 3792 463f d7b2 87ee 7343 543f
000000b0: 0730 1a68 239b b7bf 8685 64f4 e720 b2bf
000000c0: f85b 1762 d3e0 c43f 9180 bae0 4284 c23f
000000d0: 01ad b342 34e8 9e3f 472f ffa3 1ce1 543f
000000e0: c41e 62cf 9341 b13f d3fe 3c52 1875 b23f
000000f0: f656 0ca3 f5fe 473f a84a 6570 66ba 483f
00000100: 46f8 075d 912d 503f ae9b 03c3 5837 433f
00000110: bdce 382f 840d 4d3f b846 49d2 de76 423f
00000120: 3ee6 ee0a 3177 4f3f c8b6 a482 5fb5 a33f
00000130: 6434 2bd5 76db ce3f f9a3 deca 274c 483f
00000140: cd01 f6e3 40cd 4d3f cc60 b146 2586 633f
00000150: 2d03 8dd7 233a 4b3f a10e 46c3 e68b 413f
00000160: 25b4 b213 16d7 483f 13b3 0bac f39d b0bf
00000170: 979c db25 136b cb3f c5ab bcfc 4b0e 503f
00000180: 393d 0c1c e12b 4e3f a91a 908a 457f b53f
00000190: 6d49 ec16 495c b4bf bfed c3d0 c343 473f
000001a0: 4531 921b b2b7 a53f 1e20 8184 c333 bd3f
000001b0: 9c39 a61a d999 cb3f 789f 3316 afdb 1b3f
000001c0: 630a 6fdc d8f2 bfbf a638 20cb c138 4c3f
000001d0: 261c 5db5 ebab cf3f c07e 816e 127d a43f
000001e0: 071a 8018 5901 b3bf 10f5 5712 9fee a23f
000001f0: 07de b152 6919 bdbf fd26 d5a9 bb86 b5bf
00000200: 447d 397d 492d b13f 3c8b f6b0 3874 b73f
00000210: a14f 3143 4cd5 b33f 59fd cec4 b811 a63f
00000220: eced a7cb 41f2 ae3f 7468 725f a19a cd3f
00000230: 9a57 136c 711d ab3f 4f72 4a28 51ae a83f
00000240: a633 0353 80c4 4c3f 41c4 8b12 02ba 493f
00000250: 70d4 9ca9 9075 4f3f 217c df12 7de9 463f
00000260: 62c1 4d14 5a5f 463f a8aa 2b84 62ed cd3f
00000270: 27da 3c31 80ca c33f 7711 f385 ea8d 493f
00000280: 55e6 fa96 36fe c63f 9522 9d88 d4ba 82bf
00000290: 8620 a020 fa1a c73f a3d0 0d1a d89b cc3f
000002a0: ad4a b412 0a56 473f 6da2 baaa 6f5a 483f
000002b0: 30c6 be01 ae01 473f 7a40 a472 65e8 493f
000002c0: 461d d7d7 6c2b 283f 23dc a0e3 cd09 4c3f
000002d0: a97e 3a93 376c 4c3f 1335 3aab 6e16 433f
000002e0: 2985 8699 54fb a73f d2b5 46ab 8d90 9dbf
000002f0: 003f 6953 3068 453f ab6a 75b0 188b 503f
00000300: 287b 506c d4fd ce3f ba3e 481e c737 503f
00000310: 0253 8902 b093 2a3f 3f16 f423 52c1 a53f
00000320: de49 9303 4785 403f 889c 7e97 af39 443f
00000330: f250 6f2c 0194 ba3f c87c 7644 0151 cf3f
00000340: e9d7 a52a b1ff aa3f 0e0b 9448 6d9f b03f
00000350: dea4 976a ea5c ae3f 22b8 96d3 5d5e c33f
00000360: a1b8 6326 7707 1a3f 18a2 69f8 0ec2 353f
00000370: c214 d6cc 60c9 a13f ec24 0f9d 24fd be3f
00000380: 9466 0b78 d4b0 a63f ceac c8e9 11e1 b4bf
00000390: cadd 69d0 8341 993f aa19 5c63 6107 513f
000003a0: 7b0f c7a4 357e cc3f 3a1d 5796 8351 533f
000003b0: 388e 6010 3ad6 403f dd5d 384c c3f2 b43f
000003c0: efb5 ae85 de2e bd3f 51e5 c46d ede4 463f
000003d0: 8c46 f923 37a6 cd3f 53f4 81c7 df99 823f
000003e0: c337 4dda 7a0d 98bf 65f0 c5d9 45d3 b83f
000003f0: 48f7 17a3 5558 ab3f c0d8 9a79 825d bcbf
00000400: cd0c c6da 0656 483f 4b84 526f c1d7 483f
00000410: 9602 dab5 c60c 443f b569 f07a c216 503f
00000420: f2fb fe81 9316 4c3f 3c13 7549 2fda 483f
00000430: 8351 323e 3f27 b13f 3664 9b85 1ff5 c63f
00000440: fdd3 f3ae 7225 4c3f f6a6 adbe f2f9 453f
00000450: 79b2 c575 e903 cd3f 483e 6459 cd7c 663f
00000460: 0966 9503 d207 8fbf 7be2 940f 9f52 983f
00000470: d696 1cdf c41a 483f 68a7 f047 fdf1 503f
00000480: 4828 0035 149d 473f 71ed 3091 a66c d03f
00000490: e58a f6b1 663a 523f f9cb 90b3 d7da 4d3f
000004a0: f67e 4251 010f b33f dcb1 734a d328 ae3f
000004b0: ed8b f08d 4ceb 343f 25c7 36dc a1e2 a83f
000004c0: 80df 1816 46d7 4c3f 120d de15 ba74 bdbf
000004d0: b19f 4344 d370 473f aa4d 262b 6a77 b33f
000004e0: 3674 a119 881f 8d3f 6902 7ef3 50fc 943f
000004f0: bdb1 d3de bdb3 3e3f 5c78 5dd2 24bb 513f
00000500: 3e4a 1ca5 6ad7 aebf bd5f a9fe a6d3 c53f
00000510: 21b5 a89f af3e 323f 7225 75a7 b60a b33f
00000520: ac9f 6694 6803 c1bf 142d ddae 757f 373f
00000530: 9acb 8bca 3664 aa3f a62b 1785 87f7 903f
00000540: 68ef c85a 5918 423f c6c5 739b b9cd aa3f
00000550: dbbc 99ca 6481 b03f 576a a904 c472 453f
00000560: 2368 07f2 8722 ab3f dca1 cc88 3497 cc3f
00000570: cf2a 2154 6c66 b03f 5f69 7e15 88c1 4e3f
00000580: 3fec 24bb 6763 4b3f
0.00033677545421386567 0.0002067755558148988 0.058399976819065426 0.0006324230016546247 0.0009228311510190697 0.0008512434619091819 0.061917270763051764 -0.0690212198732631
0.0009642027784396775 0.0010227583492073318 0.0006265264669759609 0.0007800011116827515 0.03996835416643879 0.0007564185859021649 0.0005253029426481037 -0.07744405846014739
0.0008479197447608842 0.0004916820832801193 0.06136540942571136 0.0008987966863629926 0.0006888171661787947 0.0012367851396632345 -0.09221097270545907 -0.07081460682504401
0.1631111363373916 0.14466129277298426 0.030182663508566247 0.0012743739789468787 0.0674068814570275 0.07209922797937489 0.0007322978400192404 0.0007546425047542842
0.0009874267162781765 0.000586431828222147 0.0008866210395752288 0.0005634868617312083 0.0009602536646219973 0.03849314183967817 0.241072515569985 0.0007415003108138799
0.0009094778869638776 0.0023833015489281625 0.0008309054383986762 0.000535476376669359 0.0007580621526323035 -0.06491015386900427 0.2142051634648154 0.0009799711287523532
0.0009207581680089955 0.08397326119311778 -0.07953316506999437 0.0007099825029678804 0.04241711222229808 0.11407110199900258 0.21563257027851257 0.00010627037186205872
-0.1247993028801289 0.000861258149827089 0.24743410449647846 0.04001672362278219 -0.07423931930689075 0.036976786603171274 -0.11366899746814606 -0.08408711334518766
0.06709727580299779 0.09161714859378106 0.0774734176678167 0.043103956245881654 0.06044202433619347 0.23128144417279695 0.05295900768548663 0.04820493332701813
0.0008779169638955988 0.0007851133460389307 0.0009600597725013659 0.0006992207252060103 0.0006827535477054553 0.23380691007272003 0.154617332498405 0.0007798571713455844
0.1796329724509628 -0.009145412844774806 0.1805107745460683 0.22350598594824075 0.0007121609864120991 0.0007432027100167778 0.0007021045344030637 0.000790643248622671
0.0001843996396202285 0.0008556609457234281 0.0008673926699493589 0.0005825081229474969 0.04683937429514124 -0.028871739939565995 0.000653289410204011 0.0010097256761897693
0.24212127007282302 0.0009898609652089622 0.00020276568945356432 0.042490546120501176 0.000504169153965169 0.0006172282582967018 0.10382087073168458 0.24465957491790946
0.052732025581391735 0.06493266126566885 0.05930264044929755 0.1513173373363666 9.929337247502553e-05 0.0003320013569579074 0.03473951816980893 0.12105015596820906
0.04431785550486925 -0.08155929525007652 0.024663982005646713 0.0010393572860621738 0.2226016096666362 0.001179102423849289 0.0005138190761084299 0.08182926760525029
0.11399641765338918 0.0006986769981615436 0.23163499123124998 0.009082554126729791 -0.023488921712946153 0.09697376791695118 0.05340831390274886 -0.11080184429997342
0.0007426770658160109 0.0007581419473760091 0.0006118746056956333 0.0009819888325695973 0.0008571834805407559 0.0007584315198206691 0.06700511234732258 0.17935556434420769
0.0008589563348367909 0.0006706652905965327 0.22668188334081998 0.002745057175282093 -0.015151634916651184 0.023752675367378445 0.0007356129919784081 0.0010342572638912476
0.0007206295649677752 0.2566315095789014 0.0011125567324163307 0.0009110978345517876 0.07444771036034212 0.058905222738619506 0.0003192006969944806 0.04860406697424783
0.00088015482123803 -0.115062361086576 0.0007153541160080848 0.07604087403733809 0.01422029808252932 0.020493759976945834 0.0004684771109413585 0.0010822162234585186
-0.060237248091784754 0.17052161631249688 0.0002783945816727408 0.07438222492523552 -0.13291651960503026 0.00035854933854713553 0.051545822358000495 0.016569249628257808
0.0005522190381905658 0.05235080740557012 0.0644743914251537 0.0006545502777258277 0.052997825903460936 0.22336441688209063 0.06406285337395022 0.0009385981056653606
0.000835824632566491

bias f8 [1]
00000000: a5ca 9085 fd44 303f
0.00024825276847476935
