fine-tuned models/NO4350_YMR221C.pth (torch, 110807 bytes, 6 tensors)

weight f8 [99, 34]
0.011498005160375468 0.010772431318252744 0.02186696423693322 0.01262557488673704 0.012679849884572448 0.010334722519572433 0.016187361596522835 0.007216971619691891
0.008778897267696133 0.014011718081534924 0.016988519065749927 0.012690635580567116 0.012266489630346262 0.021809772012963406 0.010126640980287713 0.010458042705031501
0.015239379276410435 0.015034569542089217 0.01786635156104111 0.01863027606366583 0.013486051093285243 0.02899563485652734 0.006632467196307768 0.017657752447001206
0.02039041016030868 0.013376703938390981 0.014781190511197344 0.023336989205290783 0.01109963021129295 0.012063143964413041 0.019344710149574767 0.013421718094231143
0.01704794110328351 0.011016300741403404 0.007141850212439599 0.006670717069996597 0.018510068381164757 0.006588052130904105 0.006970957622968171 0.004490495591556739
0.01149973578198874 0.0013739539647689804 0.001701312529442712 0.009893173128610457 0.01358661665801893 0.008193221671751415 0.008287273833274838 0.017534953565404875
0.006024540497354878 0.006599439989649997 0.01114816121660005 0.010862169876052022 0.013857908357545853 0.01808053128041136 0.010758792889388543 0.026034626551751896
0.0024042487137186375 0.016860043843472103 0.017192034413656927 0.009955412548661275 0.010676282248577607 0.021898608991965142 0.006916972296085285 0.00941391070946632
0.015330482818111515 0.0095816203703362 0.01450579179477115 0.007082702642323142 0.01795487649565312 0.01689096634482064 0.027099465101180345 0.0218977582842716
0.018738847130471106 0.015542236686948586 0.022487663020461516 0.01375804432006178 0.015606378763242185 0.02037366917777147 0.02232224462633289 0.01863509456010359
0.018525221645170543 0.029664683254316607 0.015617770862495385 0.01710159626161006 0.021101313603938753 0.021222788513531456 0.02355730656927523 0.02358346613756419
0.018441012682741523 0.03656343354425736 0.013838546489006428 0.022278918694506673 0.025273485568177857 0.01852226743145317 0.020988368652363882 0.027610524992516892
0.017271181006916308 0.01839188161381679 0.024624303335550997 0.01987966934836662 0.022400671300180475 0.016912203305374258 -0.005255532056587511 -0.004726234725926072
0.007023503100930435 -0.008531700325481626 -0.0052144428691257225 -0.006319551460023664 -0.0009216340459214813 -0.01079657135458597 -0.011087690638323554 -0.0019477518602008684
0.002488431383268295 -0.0035343178588889508 -0.003607204984165452 0.0018732503240944153 -0.004093330699308975 -0.005516734502838596 -0.0005183720319211712 -0.0009576859427395475
0.0020628848015787076 0.008628272123557877 0.0011072684047814829 0.010949382499064811 -0.009853717775150417 0.0076195243333714874 0.006988299077477284 -0.00015182735481060968
-0.0015306637699779903 0.012109399449356023 -0.004663323432789549 -0.0022311128566796924 0.004076320047164348 -0.002470450469426082 0.0037192405537098084 -0.0044092783809816585
0.014317837102372416 0.013210594687080893 0.018718775913885283 0.015955029978516777 0.014723395586133373 0.012459554928495615 0.01640512794734038 0.012080679269010193
0.013129827522149643 0.014982795906289875 0.01630082521063233 0.014465759592004083 0.014462830355134272 0.021604082122472033 0.01172562732664512 0.01363701596590854
0.01562554505334716 0.01539572550550163 0.01701216741573695 0.015863663216001536 0.013350667522694712 0.024964680324625305 0.011712722982865102 0.015346633860027208
0.017235223328568406 0.013697026445981997 0.015646437765608187 0.018757904424114225 0.013557642796314048 0.01420147682695515 0.017154460055095144 0.014857116771121785
0.01600766611636726 0.013596835000141739 -0.004030591569039613 -0.003485754179592823 0.007493147509322332 -0.005241928034326179 -0.003948583207866056 -0.004914267743913464
0.00031694822194534096 -0.00937180748807951 -0.009773643487923462 -0.0006576458535642535 0.0029202166146561357 -0.0024727572758202194 -0.0026322599968930938 0.002855925130759275
-0.0028222644125449558 -0.004415332563660238 0.00040935706961458813 0.00030255417691291505 0.0028838377488090605 0.008600280160540702 0.001631502847024291 0.01106210929161888
-0.008328755485374385 0.007411095524038427 0.007900785326461074 0.0005342570946026825 -6.0796465276481e-05 0.011813858098693201 -0.003557686287897294 -0.0014877865021733743
0.005082652436372489 -0.0016280251157731473 0.004287517062881418 -0.003393453981316409 -0.0004890642284529126 -0.00015149655218825645 0.01456347075187694 -0.0011265492158137429
3.918087349370532e-05 -0.0017216341988126323 0.0056087025368693035 -0.007302211166769176 -0.007194318121955023 0.0037383033230795454 0.008397457143620222 0.0015283217855355457
0.0011141992630836319 0.01007802375983937 0.0005381108894681033 -0.0013632665872806314 0.005269601316968046 0.0050940971237413805 0.00871894746455042 0.014489900445323597
0.005779115357219715 0.02053907092882903 -0.006662083871096949 0.012955002384788966 0.015210826696262841 0.0049303172598807845 0.0048734460860931075 0.019511343464147627
-0.00013098511512066552 0.001980343162767033 0.011686572479660687 0.002337430262951778 0.009807408984876656 -0.00015286162212374614 0.002159747087186761 0.0024236524087933903
0.015228357554162311 0.0035818731614316677 0.0027710142008497436 0.0010597550412437971 0.007798791130260513 -0.0037785249103371396 -0.0035180721330823773 0.006080356589741473
0.009585272420173197 0.0038630654362119634 0.0034263907112931724 0.012036492741042813 0.0029111034872306924 0.0012869430807387955 0.007147509905506748 0.007291149322578592
00000000: 807d 1021 448c 873f a9b2 ae41 db0f 863f
00000010: 1aae 0a21 4b64 963f 9d97 daf9 6fdb 893f
00000020: 2755 94a4 e4f7 893f f1dd e0f9 5e2a 853f
00000030: ee90 a972 6b93 903f d8e3 5211 8b8f 7d3f
00000040: 1610 47a5 abfa 813f 9022 5ef7 2cb2 8c3f
00000050: fcf1 2d37 7065 913f 699c 4546 8cfd 893f
00000060: bd79 645e 2c1f 893f 5e96 1d06 4d55 963f
00000070: 451d a1be 46bd 843f 4dae 2fbb 066b 853f
00000080: d903 d4dc d235 8f3f 6712 f1c3 71ca 8e3f
00000090: c131 9d8e 8e4b 923f bab5 a2a9 d013 933f
000000a0: 72c9 2e23 939e 8b3f e0fe bd1d 08b1 9d3f
000000b0: b4ee 325b a52a 7b3f c678 1fb5 df14 923f
000000c0: 7086 2943 39e1 943f 899f 8ccf 3e65 8b3f
000000d0: 5678 bbce 9945 8e3f 3700 b2d5 a6e5 973f
000000e0: 9da4 0a26 67bb 863f 9c43 83c6 8fb4 883f
000000f0: cba7 c585 19cf 933f 9cb5 2a82 d87c 8b3f
00000100: 72cd 02f6 0375 913f d800 42db b68f 863f
00000110: e096 86d1 c540 7d3f ae0a 81fa c052 7b3f
00000120: 0014 60a9 4df4 923f 212d 25c7 12fc 7a3f
00000130: f9fe 3230 948d 7c3f c94b 563b a064 723f
00000140: d32f c568 2c8d 873f 2fb7 12d6 c782 563f
00000150: d19b 266b d2df 5b3f ee10 5438 df42 843f
00000160: ea03 add1 4cd3 8b3f c64b 0899 9bc7 803f
00000170: e9fe b110 ebf8 803f 16b3 66d0 aef4 913f
00000180: e495 8d46 30ad 783f ade1 d6ae 0308 7b3f
00000190: 1ac9 afde d8d4 863f 75c7 0cc3 e73e 863f
000001a0: fe34 7ef9 8861 8c3f 4db8 2cea b383 923f
000001b0: 4bbb d5bc b408 863f f7d3 6936 d2a8 9a3f
000001c0: 8092 1933 13b2 633f ccd7 aa63 c243 913f
000001d0: 85c3 3be6 c99a 913f 3d7b 84da 8063 843f
000001e0: 2dd6 cd58 72dd 853f 9a24 cbc5 966c 963f
000001f0: bccd c89c f854 7c3f d239 ffb4 9947 833f
00000200: 6878 af92 9665 8f3f d5f5 1051 879f 833f
00000210: ad96 e36a 36b5 8d3f 8806 7583 c002 7d3f
00000220: ab02 695d c362 923f 7503 3290 dd4b 913f
00000230: e407 6551 f6bf 9b3f b123 bfae 5d6c 963f
00000240: 9747 5cbe 4630 933f da92 37b2 9bd4 8f3f
00000250: f105 f284 0107 973f 80ec 4a73 2d2d 8c3f
00000260: 2a4a 2db3 3cf6 8f3f 57af 45cb d5dc 943f
00000270: 77da 927a a4db 963f 1f28 c606 1415 933f
00000280: 7af8 7794 46f8 923f 04a7 b131 6b60 9e3f
00000290: 010a bab8 35fc 8f3f efae 9cb2 1483 913f
000002a0: a383 532f 959b 953f c7d5 613a 6dbb 953f
000002b0: 1e02 3015 681f 983f b30d 269f 4326 983f
000002c0: 548e 8269 33e2 923f eba6 9a3e 71b8 a23f
000002d0: 5173 c144 6257 8c3f 758b bbec 48d0 963f
000002e0: da8f e2e7 4ae1 993f 4ba3 7653 80f7 923f
000002f0: 254b d593 f97d 953f b616 79f7 ee45 9c3f
00000300: 2b1d 5a56 89af 913f e548 2c48 52d5 923f
00000310: 6249 0d06 1d37 993f 257c d306 565b 943f
00000320: 7025 929a 33f0 963f 6548 66c0 6e51 913f
00000330: 36e1 e524 d386 75bf 2812 4cf9 d05b 73bf
00000340: d519 f341 adc4 7c3f e589 046f 1179 81bf
00000350: 58a3 6f59 bd5b 75bf 3fff 89ad 87e2 79bf
00000360: 91bf 050b 3a33 4ebf 2cd8 0347 831c 86bf
00000370: a628 70a5 24b5 86bf 490b 94a2 76e9 5fbf
00000380: 4870 1a6d 9e62 643f 565a c373 00f4 6cbf
00000390: 0d91 fb6d db8c 6dbf 14ed 4438 fbb0 5e3f
000003a0: 1d90 c317 2bc4 70bf dc95 5324 b798 76bf
000003b0: ca3b 4e76 6bfc 40bf 4e5e e6e6 a661 4fbf
000003c0: 4124 43d8 2ee6 603f 3fbd bb14 b3ab 813f
000003d0: 0a14 8865 3824 523f a882 f53d a16c 863f
000003e0: bace b49c 2f2e 84bf 42a0 2a7d a635 7f3f
000003f0: 4700 e13f c39f 7c3f b7b6 0e0c 7be6 23bf
00000400: 9599 53b5 1114 59bf 239c df14 d0cc 883f
00000410: 1deb 265a d919 73bf 5f98 1998 fb46 62bf
00000420: 3e4c a6d4 54b2 703f 2451 1fff e83c 64bf
00000430: 7699 6911 d077 6e3f c8d9 1fa7 760f 72bf
00000440: f049 d590 ab52 8d3f 1540 2201 280e 8b3f
00000450: 6533 7cc9 032b 933f 5093 dbef 8356 903f
00000460: 5565 3ab4 4c27 8e3f 8a5b 8627 6584 893f
00000470: dc03 1580 81cc 903f 64ac fd52 c1bd 883f
00000480: 0260 7a9e cfe3 8a3f a37b 5cd3 4caf 8e3f
00000490: d6bc b5dc 29b1 903f 622a e062 39a0 8d3f
000004a0: b42c 103b b09e 8d3f a957 b468 611f 963f
000004b0: 22ea 240f 9b03 883f 9a77 b54c b9ed 8b3f
000004c0: cbf8 f193 2400 903f cbc5 5a4c cb87 8f3f
000004d0: 5b19 bd3a a36b 913f e476 d46a 903e 903f
000004e0: a531 1e43 9857 8b3f 858b 3256 5790 993f
000004f0: 8fa2 4411 d7fc 873f fc90 4254 0e6e 8f3f
00000500: fd4e 2442 1ca6 913f 2d80 1ac5 2f0d 8c3f
00000510: 2c3d 02aa 9e05 903f 0d19 2ca8 4535 933f
00000520: 1e3f 5e03 1cc4 8b3f f9a0 36f4 a915 8d3f
00000530: 232f ab53 f090 913f 0298 2875 686d 8e3f
00000540: ba01 d249 5064 903f 3adc 3c4d a8d8 8b3f
00000550: 7799 8faf 6182 70bf c6fe 8006 288e 6cbf
00000560: 3740 f277 22b1 7e3f 564e 9b57 8f78 75bf
00000570: f8a2 e4bb 632c 70bf 86ff e6b3 fb20 74bf
00000580: 768c 6e3f 82c5 343f 745f 53b5 8631 83bf
00000590: 17ac 2539 3404 84bf caed 79b7 bb8c 45bf
000005a0: 020d 6e5b 23ec 673f 3fd3 2d74 bf41 64bf
000005b0: 003c 3dd3 3f90 65bf 037b 2a21 4f65 673f
000005c0: f30c 48ab b71e 67bf 11e1 63cf cf15 72bf
000005d0: cc1b f439 dfd3 3a3f 4346 8c4b 04d4 333f
000005e0: e9ea 2d9a d89f 673f 7d2a 3510 069d 813f
000005f0: 0062 c3d7 04bb 5a3f 3fe9 0e2d bba7 863f
00000600: 0794 68a3 aa0e 81bf 9cd2 73ce 185b 7e3f
00000610: 300c b874 492e 803f 7a65 de5f ac81 413f
00000620: 334d fea3 f6df 0fbf 4f45 6331 dd31 883f
00000630: c1b6 3048 0225 6dbf 736b b297 3a60 58bf
00000640: e3c4 db1f 8cd1 743f 05a7 46a8 6eac 5abf
00000650: 66d1 0e99 c98f 713f 03f7 d8bb 96cc 6bbf
00000660: 36e6 f46e 9106 40bf 4bde 6579 61db 23bf
00000670: 0db7 c3f4 73d3 8d3f 3025 8302 1775 52bf
00000680: a226 f18f c48a 043f 7ec3 17a5 0e35 5cbf
00000690: 8d64 809f 26f9 763f 566a 6562 ece8 7dbf
000006a0: 7325 d010 ca77 7dbf db25 7c50 ca9f 6e3f
000006b0: df49 699e af32 813f 6180 8b05 3f0a 593f
000006c0: b4df 5a59 4a41 523f cc91 a773 c9a3 843f
000006d0: 7364 0056 00a2 413f cc4e 1e5a f455 56bf
000006e0: 5e00 1cd5 9395 753f cc2e c948 8cdd 743f
000006f0: 1aee b951 3ddb 813f 7899 4784 e1ac 8d3f
00000700: d259 5877 d7ab 773f a7da b7b7 3108 953f
00000710: 36d7 9785 b349 7bbf bd87 7ffc 2688 8a3f
00000720: 4303 a599 da26 8f3f 6dd1 3df6 cf31 743f
00000730: 1ffb efb8 2df6 733f 4172 5118 c8fa 933f
00000740: 5810 4892 212b 21bf a35e cea3 1439 603f
00000750: 15df d134 21ef 873f 4c64 2751 f225 633f
00000760: 48d0 c926 e815 843f 1678 ee55 2f09 24bf
00000770: 9f59 6d63 51b1 613f 09fb a47a c4da 633f
00000780: 08db 558d 0b30 8f3f 14d0 c682 bb57 6d3f
00000790: 8422 d2eb 3cb3 663f 4746 9c4f ef5c 513f
000007a0: 9315 a50d a0f1 7f3f f538 581d 24f4 6ebf
000007b0: a4b8 3598 eed1 6cbf 701f 374b b7e7 783f
000007c0: 5a0c 8b7c 71a1 833f 1530 bf76 6fa5 6f3f
000007d0: 52db 8b81 a911 6c3f 0c58 73b5 96a6 883f
000007e0: 32d2 bbc8 06d9 673f 1cb9 639c d415 553f
000007f0: 1ffb ab14 b546 7d3f 976b 40fe 52dd 7d3f

bias f8 [99]
0.016675929860894025 0.012976305066127469 0.02231296753656709 0.0015267502255360019 0.01621281805587548 0.0022865221492769537 0.007652683397221346 0.009154629152421418
-0.07023554104850137 -0.002721404408411687 0.02470799475113603 0.005266002557725789 0.007659913270097019 0.008589358050986819 -0.016462254037517637 0.013717065979603945
0.01468646513370247 0.00550535455387974 -0.0024857107052900524 0.012289002234489295 0.0024048465452329425 -0.0063790072709784 0.005543147464183386 0.011277875046865327
0.016274550558831997 0.012210934616033123 0.0033637639544862505 0.007917173104666931 -0.030664458361214512 0.015788775965357008 0.009660364891119612 -0.03004084581124124
0.017830074894394126 0.006345133464223394 0.013363896967952753 0.009183731330393437 0.028955093848358943 0.014634625026940644 0.014697329273102388 -0.052322914516790074
0.014978037938237557 0.011048583323097029 -0.003921723554978009 -0.0008917061652474074 -0.0006103226878019546 0.03408127782879235 -0.00509397403704511 -0.0009463274518660983
0.006164173810785162 0.00404983242648803 0.003986366157529584 0.009600279740285888 0.01664875004790116 0.02129930445759195 0.017737612630286236 0.0009116742984251801
0.001358185176663886 0.010000058323275435 -0.032052520476177924 0.009711386481464922 0.00804046071400465 0.012899519513459383 -0.08213617416373817 0.0057255201869784635
-0.031136045766036298 -0.03151543019130718 -0.0036896241649947608 0.01588167752861156 -0.004489503678816292 -0.029994748001992175 0.019912275997835852 -0.009418601541452016
0.0027219781301572096 0.003858630824782972 -0.02993646792129298 0.027770064279763754 -0.0032301893232061594 -0.0020936796842561103 0.0064368745357030474 0.01125520195745583
0.012464850030470709 0.016488595133478334 0.016205775773856148 0.004127358145087255 0.0055045036287421105 0.008624015949247036 0.01679346001907539 -0.019144317904085127
0.025453482974956684 -0.02221699250193407 0.0003410850180797174 0.02891043802838215 0.010888572825480535 0.0076764857927709654 -0.009722260645705609 0.002405559619489061
-0.019219752481310727 0.0076428115605142385 0.01957646847043907
00000000: b71e 88b5 7e13 913f c634 0e2f 5293 8a3f
00000010: 6193 62e7 35d9 963f 09ef 6b92 a703 593f
00000020: 9ece 4dcd 179a 903f 2684 493b 2fbb 623f
00000030: 6fee ae8e 6b58 7f3f 1784 8886 a9bf 823f
00000040: 3ff7 d1d7 f4fa b1bf 99be dddd 324b 66bf
00000050: 199c 9f75 0d4d 993f f1e1 41cc cd91 753f
00000060: 41a3 c34f 0060 7f3f 0188 611f 4c97 813f
00000070: b89c d62a 7bdb 90bf 6b5c 3c6e b117 8c3f
00000080: 1d76 8bfb ef13 8e3f 4353 305c c88c 763f
00000090: 441e f8c5 e95c 64bf 97b0 94f5 f92a 893f
000000a0: 9c04 7028 54b3 633f 02bc c1b9 df20 7abf
000000b0: 028c 3551 69b4 763f da10 f5c3 da18 873f
000000c0: 850e a199 46aa 903f 22ba a2e6 0b02 893f
000000d0: 2ba5 a105 538e 6b3f da92 7dfc e036 803f
000000e0: f16e 3ef7 8066 9fbf 840a a9d1 ee2a 903f
000000f0: a7c2 323a d0c8 833f 25be 3609 07c3 9ebf
00000100: 5b03 3a12 0c42 923f 8b44 7bcb 5afd 793f
00000110: dc50 65e3 875e 8b3f 511b c18d ebce 823f
00000120: c576 8674 67a6 9d3f 691a 0a1f c2f8 8d3f
00000130: b33a 8824 a219 8e3f 43ae 5cad 11ca aabf
00000140: e8e5 d238 ceac 8e3f d493 51c0 a3a0 863f
00000150: 0ff1 99a6 3910 70bf 95e1 9f68 2c38 4dbf
00000160: 2385 f7fd c1ff 43bf 7271 5ceb 1973 a13f
00000170: 571f 553e 6bdd 74bf 0d55 81ba 5e02 4fbf
00000180: 0773 c9ce 9a3f 793f 727c 379d 8e96 703f
00000190: 976c 6c04 0254 703f 06c6 22bc 4fa9 833f
000001a0: 0c6a e6b3 5e0c 913f 76a7 4a20 7ccf 953f
000001b0: d3f1 9f08 cf29 923f 3277 eea5 addf 4d3f
000001c0: 6f8e 9a3a a440 563f 3d09 a71b e97a 843f
000001d0: 032c 661e 3069 a0bf 2694 b13a 90e3 833f
000001e0: 3acb 7d5e 8477 803f 0f2d 8e33 106b 8a3f
000001f0: 9610 da55 e006 b5bf 7662 4a9f a473 773f
00000200: f2e3 2aa9 20e2 9fbf fd68 fb5b ca22 a0bf
00000210: 2a1f f1e3 b339 6ebf 5a30 5d56 4943 903f
00000220: 86d3 9cf7 9563 72bf f99a e176 f1b6 9ebf
00000230: 016c cc38 e263 943f 3db9 c14c 0f4a 83bf
00000240: 4c1d 95e1 664c 663f ce99 64a6 229c 6f3f
00000250: f804 b85a aaa7 9ebf b1bf 8e77 c16f 9c3f
00000260: d40e 19b0 3276 6abf feb1 b5b8 c326 61bf
00000270: e1a6 e859 8d5d 7a3f e084 89a2 f70c 873f
00000280: 80e4 d7d9 2b87 893f 00cd 6be3 62e2 903f
00000290: 17f1 d133 3f98 903f 8b4f 0844 d9e7 703f
000002a0: 83fe 0ef1 e38b 763f 1595 b2d3 77a9 813f
000002b0: 5042 4606 4e32 913f 0687 356d 919a 93bf
000002c0: 0c74 c953 7a10 9a3f d85a d820 0dc0 96bf
000002d0: 9657 70ff 745a 363f eb36 61a7 b29a 9d3f
000002e0: 5303 7c81 bf4c 863f 3abe d9f6 6071 7f3f
000002f0: 4fc7 21bc 43e9 83bf e5f8 9dfc d2b4 633f
00000300: 0ab6 60c1 57ae 93bf d8fa 3a9b 114e 7f3f
00000310: ea26 688f da0b 943f

weight f8 [99, 99]
0.01133333578313144 0.08687421199525693 0.10595677032373216 0.007924081297987303 -0.022392773748735873 -0.014637351038355338 0.011894217286797102 0.04548900352300225
-0.21730316703075817 0.15288725935626848 0.09789084949724979 0.13913959784071034 -0.014071869012159254 0.05719748738089898 -1.3160247880583227 0.10892850632041928
0.10129292392064099 0.07454144455379598 0.08012971912196369 0.025322301983144672 0.1286388822986051 0.09092608472665692 0.0038350120937852 0.027657866664321563
0.11412935738656362 -0.022995717171173474 0.13417177434971742 0.06272271082957158 -0.08297618400612626 -0.015674584677175574 0.14615015979255322 -1.4262181570919257
0.12875164423555296 -0.013602689468967217 0.02076640896839558 0.14232518367696304 0.15780141748676774 -0.024683880835727784 0.025026467527524056 -0.376823927631395
-0.015989135775981343 0.10682666333000362 -0.030990304772039068 0.15735978099732031 -0.00696961337139967 0.1309333152516247 0.13996739787644777 0.14803454899837093
-0.03919888778793816 0.09497310112138584 0.10583790648590273 -0.00043037385119215366 0.13016380646415368 0.07062877151576545 0.11024439940690861 0.01085707228697675
0.04016972076893583 0.04249736058383723 -0.009458759202006518 -0.008719474862311321 0.15063777046022947 0.10186226234445352 -1.8153329921185726 -0.0277420264744429
-1.3264518367137978 -1.7067725501682565 0.03582186115025507 -0.017083518400299598 -0.009657080189933193 -0.006449107663362447 0.08980152994234059 0.044038399357399435
0.09729260815658217 0.03166600724400652 0.009168512357128546 0.05689234646284841 0.11004433292992065 0.11903787468982652 -0.033923905633367515 0.0774950703341871
0.015257077826851295 0.08031776997272931 0.014043617022699227 0.019612885392116274 0.01868042688908658 0.11874177565399424 0.14119057905871496 -0.07941131673460976
0.07287256972152258 -0.11716522198630529 0.01127522409984018 0.06519244662824171 0.048772065762173765 0.13294782952832082 -0.06758971770610055 0.16236567167302823
-0.04407134262822235 0.17050153899180873 -0.013754650558557612 0.07823040667662569 -0.01631423598283906 0.08592305461403603 0.07701394492784694 0.05634726420420483
0.07540972618378439 0.0804017606929333 0.09408279695698159 -1.658410599581089 0.10180947121125905 0.03484442601200721 0.044886749973470794 -0.010957301409374624
-0.035887304549103737 -1.6932225565183798 0.012722372670554295 -0.05193817065122818 -0.09964195888850261 0.14297474268953755 -0.017627368239172422 -0.03439855408727639
0.13344160335593894 -0.023663447657855878 0.08569386113568662 0.06885451447616443 0.15712453388413608 0.011137596479479924 0.10788499592715003 -0.1077040235641577
0.07143902506429982 0.12087820697616529 -2.333321701843911 -0.04308037010312346 -0.015242402107236024 0.024938490429747412 -0.01215202560409614 0.24683873019235913
0.06472427612619029 0.08167696534203542 -0.022018720481934193 0.13689882630436462 0.049127036252175675 0.05740336043109803 0.0014429652323077861 -0.020831803854133073
0.09842612871616817 0.02408328494917052 -0.007218637700320164 -0.1648737234116299 0.14274199059029316 0.1378886033028869 0.15638944212443162 -0.032759184159012834
0.1743669050348492 0.14426413516888298 -0.038636466182651305 -0.04332149274770949 0.11063838382346537 -0.7016406037055455 0.0629646521888623 0.11582583287391784
0.069711302392504 -4.365740649951593 -0.1105132076159392 -3.7350388286747136 -1.5431477032289298 0.13077674433952832 0.09010885577469924 0.07260922465742331
-0.5680875337667185 0.08282828039824487 -0.3028353439493638 0.1412614933407529 0.0022795672219577084 -0.6188642501912883 0.16204464263855706 -0.01876267042335019
0.03325670998728259 -0.005986469196752204 0.12044275230177043 -0.014737038595064412 0.12265846301402004 -0.03232297103408424 -3.339344651024442e-06 0.14722270261488626
0.14716996397937127 0.17005494810451457 -0.021686190335028284 0.13688317634205993 -0.009611652323399528 0.1151119585743253 0.16699325938135767 0.07581469847727504
0.011344705544408355 -0.059515157891451245 0.04360274671274416 -0.51417496885357 -0.020064703709359744 0.0970555392423136 0.04802333945496914 0.0004668912809163056
0.012689362699474375 0.12363017888028933 -0.04020364054663732 0.03504530736578649 -0.024512052149871386 0.04142752331826602 -0.11657245834533535 0.0311700182517526
0.04433936078712855 -0.02045217008643675 0.15092926397603362 0.08522777833055062 -1.0830228332150589 0.0538853865601963 0.02012329383592365 0.05273368798213594
0.13019861238313699 0.15059966069601396 0.07504903456673191 0.05751245989624937 0.029285093826600626 0.021966217701022278 0.183771060846742 -0.005532442921308988
0.15108643017546522 0.1269947698663636 0.06134852802061623 -0.01285546732075681 0.1157012315224091 -1.4546886119436158 0.08627484351471484 0.03838737597373959
0.0499398281333151 0.016945592374635023 0.020847880497262133 -0.01548604498413211 0.09875898223305626 -0.3233731150422798 0.15052727619583944 0.13940375780347747
0.1346435792802225 0.022709679577353998 0.024430139239788602 0.11783392589438005 0.17127142840338638 0.15672038938442082 0.11840843943989118 0.010818496314920111
0.12466082020137849 0.03853725211566335 -0.02302109909178281 0.12806697035255393 0.16886957516278137 0.1501185700974383 0.02518299568956744 0.09279742431947274
00000000: bb57 5894 ee35 873f 89a9 626b 633d b63f
00000010: d688 549f fb1f bb3f 91a2 3430 803a 803f
00000020: ad91 ab9b 21ee 96bf 1f16 1400 30fa 8dbf
00000030: 9205 11d2 fe5b 883f 04f8 eaac 554a a73f
00000040: 396f db15 97d0 cbbf d982 7449 cf91 c33f
00000050: b718 2bed 5f0f b93f fef7 268b 53cf c13f
00000060: 6c47 9b49 b6d1 8cbf 29bd 6d33 fd48 ad3f
00000070: 26f9 1602 700e f5bf 9092 3f14 bde2 bb3f
00000080: ac2c 8e43 55ee b93f 611e 8eea 2515 b33f
00000090: 2306 119b 6183 b43f 6117 82eb 16ee 993f
000000a0: 58b6 3b28 3d77 c03f e41a 4190 ee46 b73f
000000b0: bfe8 b870 9a6a 6f3f 5d99 3303 5852 9c3f
000000c0: 2121 7de1 9437 bd3f 8b03 cb74 308c 97bf
000000d0: 0d6d 706b 8a2c c13f dfbe ba77 980e b03f
000000e0: 7f37 a75c ed3d b5bf cd74 4492 ff0c 90bf
000000f0: c99d 4e66 0cb5 c23f 48bd 5a21 cad1 f6bf
00000100: 7822 a612 ef7a c03f aa3e 4113 badb 8bbf
00000110: 6a9c 7f1d ca43 953f 8116 a52c b637 c23f
00000120: 3a1e af3b d632 c43f 5814 b633 bb46 99bf
00000130: 4aaf 42ce 89a0 993f 35bc 611b e21d d8bf
00000140: 761f ffbc 745f 90bf dcd9 5701 fe58 bb3f
00000150: 50b7 f425 ecbb 9fbf 556b 8b84 5d24 c43f
00000160: fb4f ef57 2b8c 7cbf 0536 7b41 6cc2 c03f
00000170: 215a 31a2 73ea c13f 7624 50cd cbf2 c23f
00000180: 0673 2d6a e011 a4bf dbe8 503b 2850 b83f
00000190: 0fb8 086b 3118 bb3f d12f ad9d 7934 3cbf
000001a0: ff75 f125 35a9 c03f 531e d127 ba14 b23f
000001b0: dc13 051a fa38 bc3f 8415 3993 3b3c 863f
000001c0: 89eb fb29 2091 a43f df6f bfcb 36c2 a53f
000001d0: e783 772b 1d5f 83bf d6b1 f91a 84db 81bf
000001e0: 1ea3 d534 1948 c33f c94b 772d a513 ba3f
000001f0: 4bfc 879b 9a0b fdbf dfe0 bae1 6768 9cbf
00000200: 727a a68f 2539 f5bf 4fee cabb f04e fbbf
00000210: cc90 3e34 3e57 a23f 92d1 5183 577e 91bf
00000220: 1093 b95c 17c7 83bf 5457 0a28 616a 7abf
00000230: 98ad 3baa 3bfd b63f 2635 047a 338c a63f
00000240: f2d0 2c1a 2be8 b83f 660c 04e3 8636 a03f
00000250: f490 d0e5 f0c6 823f a8b9 e65e fe20 ad3f
00000260: 174d 0b8b dd2b bc3f e834 c722 4479 be3f
00000270: 3aed 7e62 795e a1bf f6c1 af88 b7d6 b33f
00000280: 130d 6452 1a3f 8f3f cf0d 5293 b48f b43f
00000290: 19ed a35e e6c2 8c3f c67a 5b75 6615 943f
000002a0: 077b 413a f620 933f f855 1a6b dc65 be3f
000002b0: eabd c76b 8812 c23f cfb4 4ed0 4c54 b4bf
000002c0: 39bb bad7 c6a7 b23f 1fe6 a83c 8afe bdbf
000002d0: 896f 1cf6 7617 873f 05eb 36c2 73b0 b03f
000002e0: e354 d0f6 a6f8 a83f 2ffc f239 6f04 c13f
000002f0: 77f4 174b 8f4d b1bf d213 eaf8 65c8 c43f
00000300: 74dc 8ede 8490 a6bf 2f99 f192 fed2 c53f
00000310: b909 89f2 652b 8cbf 5d98 3a6e e806 b43f
00000320: 15a7 05d8 adb4 90bf 372a 8aa5 0dff b53f
00000330: 7611 cd96 2fb7 b33f 78c7 f371 8cd9 ac3f
00000340: a879 c243 0d4e b33f 238b b7b4 3595 b43f
00000350: c5e3 0b68 cf15 b83f 01a6 888d d988 fabf
00000360: 5881 467d 2f10 ba3f d0c3 56ec 20d7 a13f
00000370: 76cf 5166 65fb a63f e23a a519 c870 86bf
00000380: 638e c21e d25f a2bf 0689 1189 7017 fbbf
00000390: 7464 61f4 2f0e 8a3f 0fe1 b8d0 a397 aabf
000003a0: 6a49 bcaa 2282 b9bf cfb6 0012 ff4c c23f
000003b0: dc3c 68a8 e80c 92bf ba48 abf1 af9c a1bf
000003c0: c176 2b4d 9d14 c13f 3e53 3417 3b3b 98bf
000003d0: 95b5 0b6b 08f0 b53f e969 db0f 73a0 b13f
000003e0: f13e 371f a81c c43f 5e52 15e5 4ecf 863f
000003f0: c677 3ce1 599e bb3f 3c0d dbaa 7d92 bbbf
00000400: c32d 4ff4 d349 b23f fb01 c3c9 dff1 be3f
00000410: b9bb 8391 a4aa 02c0 3c8e 6259 a10e a6bf
00000420: b625 8194 6837 8fbf 48c0 3ac3 7989 993f
00000430: 0de2 6544 29e3 88bf 18fb c758 6998 cf3f
00000440: 7b21 3829 c591 b03f 7a06 fb16 c8e8 b43f
00000450: 7c8b 7a51 138c 96bf 9644 eb96 e685 c13f
00000460: 67e1 1acc 2d27 a93f 6cd1 7627 f963 ad3f
00000470: b587 d91e 3ca4 573f 3eac 14b1 ee54 95bf
00000480: 7767 e86b 7432 b93f 759f f2e4 49a9 983f
00000490: 8144 834d 4a91 7dbf d5e7 0209 951a c5bf
000004a0: b9f5 ac9a 5e45 c23f 7da8 d670 55a6 c13f
000004b0: 709b aeb9 9104 c43f 7594 36d1 cfc5 a0bf
000004c0: ac90 509d a751 c63f 229e 4447 3f77 c23f
000004d0: a6ff 5fad 28c8 a3bf c370 2115 3c2e a6bf
000004e0: 893e 3410 cc52 bc3f a1c0 cefe d673 e6bf
000004f0: 9286 f491 731e b03f 5cb6 3904 c3a6 bd3f
00000500: 90f7 ef93 99d8 b13f 8370 89b7 8476 11c0
00000510: 618c 7cf4 974a bcbf 9795 9309 5ce1 0dc0
00000520: 9540 64a5 bbb0 f8bf 1300 02d8 4abd c03f
00000530: 54df a1bc 5f11 b73f 04a3 4aa5 8496 b23f
00000540: 2363 59e8 c52d e2bf a98f 7ef3 3b34 b53f
00000550: ab77 957e a761 d3bf 7594 0a4b db14 c23f
00000560: 77dd 5a55 99ac 623f 4f86 6766 bccd e3bf
00000570: 36f3 4ffc e0bd c43f d668 6a7f 8536 93bf
00000580: d12e 8903 0607 a13f 2e6e b296 4485 78bf
00000590: 2424 2d12 56d5 be3f 5a0e 72d6 732e 8ebf
000005a0: 270c 3987 8b66 bf3f 247c 00ef a28c a0bf
000005b0: 681f f022 3003 ccbe 79d6 7a8a 31d8 c23f
000005c0: ce58 1f23 77d6 c23f 07e1 504c 5cc4 c53f
000005d0: c21b 0e99 e734 96bf f880 e14e 6385 c13f
000005e0: 70be 1d23 46af 83bf 368a 7431 fa77 bd3f
000005f0: 1802 d9fd 0860 c53f 6618 8492 9768 b33f
00000600: bc2c 5e9a e43b 873f 8226 8551 c578 aebf
00000610: 9744 4b66 1953 a63f 9cbb 7410 1f74 e0bf
00000620: fd48 f178 d78b 94bf 61fe f0be a1d8 b83f
00000630: bbbe cee0 8396 a83f 5253 46c8 2299 3e3f
00000640: ef1c 696e e1fc 893f ade7 1637 3aa6 bf3f
00000650: a6e8 a752 9295 a4bf 1155 0762 75f1 a13f
00000660: bcbd 5df9 af19 99bf 2cca 9c03 fd35 a53f
00000670: 2f21 3550 b1d7 bdbf 242b 0784 08eb 9f3f
00000680: c434 0311 a6b3 a63f a328 9de6 69f1 94bf
00000690: 42a9 646e a651 c33f b0f4 a3d8 7cd1 b53f
000006a0: d6ad 17c0 0f54 f1bf e647 048a dd96 ab3f
000006b0: 3001 a763 339b 943f 6ebd 8ff2 e8ff aa3f
000006c0: 9bc7 151f 59aa c03f 9d31 bd84 d946 c33f
000006d0: 157c 0fdd 6936 b33f a8da bbec 4572 ad3f
000006e0: 266f fb60 e9fc 9d3f c821 92ea 4f7e 963f
000006f0: a0dc 2464 cf85 c73f b2c7 9fd6 2fa9 76bf
00000700: 9d8b 3cd6 cc56 c33f e866 ab57 5d41 c03f
00000710: f637 0303 1369 af3f fb54 bd9d f753 8abf
00000720: 52e4 7e8d 989e bd3f 5c95 e290 6746 f7bf
00000730: dafb 5caf 1b16 b63f 18df c598 82a7 a33f
00000740: 106e 3391 b691 a93f a7da 3d74 2f5a 913f
00000750: 98e5 b493 2559 953f 0e86 02c6 25b7 8fbf
00000760: 9a91 e0c6 4448 b93f 7fc8 6026 25b2 d4bf
00000770: 3263 3550 7a44 c33f e04b 5a7a fbd7 c13f
00000780: fffd cf34 003c c13f b578 59cc 3441 973f
00000790: 5256 49e4 3604 993f ca5d 133a 5d2a be3f
000007a0: fca9 dddf 38ec c53f 65e0 82e9 690f c43f
000007b0: 7ef8 f6f6 0350 be3f a673 eafe 0128 863f
000007c0: 4982 db81 c5e9 bf3f 0a6a 079b 27bb a33f
000007d0: 1565 dece d792 97bf b256 ae9c 7f64 c03f
000007e0: 2189 4eab 849d c53f b69e 8bd6 1537 c33f
000007f0: 2fa6 9b3b 92c9 993f 74ec 9a6e 92c1 b73f

bias f8 [99]
0.07330100559842226 -0.013012365646643986 0.13747612913796245 -0.049474675736215806 0.16884828588081224 -0.05337266704038493 0.15192428202688454 0.035857755397468674
-0.1573009060722968 0.10135289604445674 0.121168373788708 -0.08362753216774203 -0.02053559851629063 0.02145568742162101 -0.12350142200592865 0.11613089085468171
0.05414957540772158 0.11542863997310727 0.016856198931330394 0.007924207755449067 0.04512614649554041 -0.056812022513708114 -0.004869333277815473 -0.028134279666554168
-0.1597711758118797 -0.07003157030980796 0.08283407327572334 0.005843641451034168 0.00040357881978160916 -0.11029494985218366 -0.10610026450513126 0.16711197667419359
0.0808442307942813 -0.04894038978196157 -0.14523974189402802 -0.01021402214949555 0.06254718269817207 -0.03975974991123635 0.06471868691882426 0.0746300734850851
0.1315717822124633 -0.14629633889512347 -0.048735180494707056 -0.005976044726945474 0.00702259298525371 -0.09066802637328694 0.0002576164410211237 0.04403995221279484
0.03587211087822377 -0.0008480868390852133 -0.08865687188539738 -0.000590632885071767 0.08968103808505115 0.1039688470669724 0.07688335052273859 -0.055625817535608336
0.1634352473821262 0.1540743789245514 -0.14483650529241038 0.008717720148679756 0.018841274861794797 0.011902569480049795 -0.0699676407608765 -0.12973172825103643
0.027171315117038315 -0.039044806628753655 -0.15280332826320872 -0.1520756925375066 -0.04804506090791888 0.16640429978940716 0.09687797497016942 -0.029719274534568244
0.14178502989424285 -0.08285778775568638 0.09008564662962633 -0.01227927782147471 -0.029703030896058996 -0.10401463860996855 0.08445496167576345 0.003234161430418562
0.15542284331342326 0.16019353615064305 0.1627642311494073 -0.11861700709352634 0.034682121218589386 0.15826209070559208 -0.0009383271184169713 0.1015627406109049
-0.1513767410196265 0.055140185045238495 -0.054505175823388305 -0.027272504160425134 0.1578775466978131 -0.125775749605068 0.025482745201417197 -0.0032453751778466293
-0.07266552841764727 0.0019780638947691255 -0.0589652669316653
00000000: 9223 cfcd dac3 b23f 40dd 2a27 3aa6 8abf
00000010: 8f69 505b d198 c13f 34d5 88a4 be54 a9bf
00000020: e8ff eb14 d29c c53f e4a3 e086 a953 abbf
00000030: 3b0a 633f 4172 c33f caed 7a9d f25b a23f
00000040: 6a18 9ba3 6f22 c4bf 00a7 dd6d 43f2 b93f
00000050: a564 bbfa e304 bf3f d3a4 b42b 9d68 b5bf
00000060: 2601 20b0 4807 95bf 8eff 27cf 7af8 953f
00000070: aa63 8608 ca9d bfbf 45b5 460a c1ba bd3f
00000080: afd8 ef3e 7eb9 ab3f 11cd b439 bb8c bd3f
00000090: a169 945c c042 913f 683b 4029 913a 803f
000000a0: c723 c936 c61a a73f 8396 6e25 7716 adbf
000000b0: 8598 e7b2 ddf1 73bf abe9 418c 3bcf 9cbf
000000c0: 7b4d 7ac3 6173 c4bf dd0b 2bc8 96ed b1bf
000000d0: 00b5 b623 9d34 b53f 4374 bf8e 80ef 773f
000000e0: 46f1 12d5 ed72 3a3f 5e72 8732 4a3c bcbf
000000f0: 4380 250e 6329 bbbf 2af4 4add ec63 c53f
00000100: 3aeb 541f 35b2 b43f 1f50 22fb b60e a9bf
00000110: 9dd5 c142 3797 c2bf 13db bdd8 16eb 84bf
00000120: 2145 2598 1703 b03f 84bd 21d3 635b a4bf
00000130: 4ca4 c163 6791 b03f e0a0 eadc f41a b33f
00000140: 4ee8 d61a 58d7 c03f 8f1f 8aa3 d6b9 c2bf
00000150: 9262 c74c d1f3 a8bf 0e2d 964a 567a 78bf
00000160: 44cb 46f3 b8c3 7c3f 16ee 1010 0536 b7bf
00000170: f0b3 6830 16e2 303f a955 f194 678c a63f
00000180: 36f4 1e4e d45d a23f e80f 789e 44ca 4bbf
00000190: d73d 507d 37b2 b6bf c40f 7176 965a 43bf
000001a0: 3a89 a525 56f5 b63f d099 f4cd b39d ba3f
000001b0: 0c21 1a94 a0ae b33f 1de5 41b6 fc7a acbf
000001c0: 238c 4239 72eb c43f 72f4 5091 b5b8 c33f
000001d0: 02b9 bfaa 008a c2bf 355d 7997 98da 813f
000001e0: 09ab 628d 204b 933f d9cf 3dd5 5f60 883f
000001f0: 42a3 d838 66e9 b1bf d1be 0b9d 0c9b c0bf
00000200: 0599 4417 ccd2 9b3f 0129 194f aefd a3bf
00000210: b322 ce38 0f8f c3bf c789 fb5e 3777 c3bf
00000220: 08ed aaba 5c99 a8bf 3330 c170 bc4c c53f
00000230: f417 33b6 fecc b83f c14c bfc0 ba6e 9ebf
00000240: d6a4 3a09 0326 c23f 4d2c a100 2b36 b5bf
00000250: 75fe 1c5a da0f b73f 263a 4bc5 e025 89bf
00000260: 68a0 29a9 786a 9ebf 3394 220f b4a0 babf
00000270: dde0 6122 d79e b53f 2232 5b32 877e 6a3f
00000280: e08e 8a4e e5e4 c33f f117 66c7 3881 c43f
00000290: a065 df54 75d5 c43f 0b52 3726 af5d bebf
000002a0: 318d c7e0 dac1 a13f 2178 e3a3 ee41 c43f
000002b0: 6db2 ad24 42bf 4ebf da7c 6a09 0400 ba3f
000002c0: 30f5 0624 5060 c3bf 89eb ed96 553b ac3f
000002d0: de94 3f37 1ae8 abbf bcd3 cbc5 52ed 9bbf
000002e0: 397f ebd9 5435 c43f e881 9775 6b19 c0bf
000002f0: f271 0215 2618 9a3f 1337 1188 0b96 6abf
00000300: c7b0 1944 359a b2bf 880a 99f7 4c34 603f
00000310: 3690 240a b230 aebf

weight f8 [1, 99]
0.3138843621289313 0.11022794118390228 0.0010137898700340272 -0.0008479121988239494 -0.008210748651516423 -0.0040210512221905085 -0.08004156234024737 -0.38928523205952353
-0.05521840095901703 0.554036915344443 -0.10158606870541419 -0.03960614361624317 0.1078116201752116 0.005132046029924523 -0.03776155402428157 -0.28913598603900836
0.3825714279791202 0.3467949149309001 -0.056528343520798406 -0.13506581797936681 0.18636314631374523 -0.004313408724318768 -0.02389912989668136 -0.0046916612908421765
-0.0025209444037479897 -0.0066196179581250476 -0.041808089329312736 -0.0010342349482712345 0.36713958697375426 -0.0019787315113286314 -0.03231673504617371 -0.42027714475575356
0.41067514851648895 -0.001410798232377872 -0.016834239781984256 -0.06574256697978903 -0.10669655291140406 0.2360139351382252 0.4614246819057533 0.5080096126645403
-0.10065762136423141 -0.005533644828430149 -0.004852914164210422 0.5366139672538591 0.527946146934598 -0.06759610617851877 -0.1903769852261556 0.1960402933557533
0.4521892220981439 0.49868662320764817 -0.0020865919296704553 -0.035251389745023495 0.2426345079471051 -0.025790928860023814 -0.018828602934980367 -0.016545262854265844
0.4638884929725215 0.0341915865864837 -0.07299851412042727 -0.003049233457610472 0.5257111231309096 -0.017835622074249238 -0.00016796767504322088 -0.018445288345412116
0.4492871341270234 -0.0046629926513743055 -0.00533018539037708 -0.003917298304438506 -0.06873106563171626 0.03835697977087141 0.30022811404626476 0.42234894733503303
-0.06305289979075739 -0.05732268404442616 0.32679128948671454 -0.002380318207631719 -0.1301765143361944 -0.039089852595942574 -0.16088435677670238 -0.0002189413533345329
0.5956119827631975 0.456967335505611 -0.142496198134884 -0.04026325421779241 -0.001975809082809316 -0.11021619570459643 0.29963356268291075 0.10047904075960315
-0.003793177833291466 0.08361056244896604 -0.059637606506520134 -0.03351038246811282 -0.06535434704223372 -0.055317819631455045 -0.00267782877458031 0.09091554627393734
-0.008224035431377615 0.054248599768477616 -0.053587687175643876
00000000: 0374 846f ae16 d43f 7482 7dfa e537 bc3f
00000010: ea54 8e95 249c 503f 7e53 f894 cdc8 4bbf
00000020: 15b5 7807 ccd0 80bf dae6 eab7 6078 70bf
00000030: a675 9294 9a7d b4bf 2dbb 209b 0cea d8bf
00000040: f845 8314 9645 acbf 99cb 05a0 abba e13f
00000050: 8fa7 d16a 8b01 babf e3d9 1aa7 4147 a4bf
00000060: c703 c8d6 8a99 bb3f 51f0 c21d 5705 753f
00000070: ab2d 297f 7b55 a3bf 9c97 0839 3481 d2bf
00000080: 517a e3de 0c7c d83f 4207 834c e331 d63f
00000090: 6311 7075 48f1 acbf fdb1 8333 d649 c1bf
000000a0: 0271 4c61 bfda c73f a6d2 7bd6 efaa 71bf
000000b0: 5085 3c75 0379 98bf 68e1 ed3c 9037 73bf
000000c0: 5eba 9cb8 cda6 64bf 024b 462a 2c1d 7bbf
000000d0: a85a c1b0 de67 a5bf 817f de51 e5f1 50bf
000000e0: 56a1 c709 377f d73f c47b 1e64 b335 60bf
000000f0: 5f0c 46b0 d18b a0bf afdc fe1b d2e5 dabf
00000100: fb20 0a6b 8048 da3f c17f 3c11 511d 57bf
00000110: 783e 44b5 fe3c 91bf dc1e 223f 81d4 b0bf
00000120: bcb4 591d 7750 bbbf 1bd3 6862 b435 ce3f
00000130: f18d 9663 fb87 dd3f 9b54 0e60 9d41 e03f
00000140: 113f daa7 b2c4 b9bf b176 0d79 72aa 76bf
00000150: 0f5f 023a a6e0 73bf 17d4 fd0d f12b e13f
00000160: 1144 6451 efe4 e03f 9aa9 5f79 fa4d b1bf
00000170: 868c bae6 455e c8bf 6aa2 542c d917 c93f
00000180: 2df9 2010 abf0 dc3f 1d4a 684c 7bea df3f
00000190: 4b14 2383 e617 61bf 7ed5 2f5c 780c a2bf
000001a0: 71c6 41c6 a50e cf3f 8ef5 f2ef ef68 9abf
000001b0: 2727 5727 ce47 93bf a480 73cb 3df1 90bf
000001c0: 73b1 935c 59b0 dd3f c1e5 5f44 8f81 a13f
000001d0: c2c7 cdd6 07b0 b2bf 5748 4ebf b4fa 68bf
000001e0: b3b3 1f22 a0d2 e03f 7705 0d56 8043 92bf
000001f0: 05de 9957 0f04 26bf d7d8 d558 52e3 92bf
00000200: 53b4 e5d2 1ec1 dc3f afb8 068f 8019 73bf
00000210: e1bd eebe 1ad5 75bf 5528 b3c1 950b 70bf
00000220: e781 1bef 5b98 b1bf 44e2 60ab 86a3 a33f
00000230: 23c8 cafa ef36 d33f a074 13e1 c307 db3f
00000240: c3ee 841e 3c24 b0bf 4b5a 941a 6659 adbf
00000250: 8ea3 3d03 26ea d43f d522 639b e37f 63bf
00000260: 59ff e3bf 9fa9 c0bf d393 02cd 9503 a4bf
00000270: 969f 65cd db97 c4bf a0ac 95e7 73b2 2cbf
00000280: 555b 62dc 400f e33f 198f 55ec f33e dd3f
00000290: c096 65bf 503d c2bf ae20 31a0 629d a4bf
000002a0: 8e0e 9a6c 922f 60bf 6270 0aec 2037 bcbf
000002b0: cc73 2040 322d d33f 5af6 fe91 feb8 b93f
000002c0: f1a2 bdd7 de12 6fbf 9187 5177 8067 b53f
000002d0: 0b4c 1d03 d288 aebf 76d2 8dd9 4528 a1bf
000002e0: dea4 32ff 0fbb b0bf 2800 6804 9e52 acbf
000002f0: c103 5b60 d0ef 65bf 15cd f1c1 3d46 b73f
00000300: fe54 c059 c3d7 80bf df03 b8f3 78c6 ab3f
00000310: 8f7c c667 d86f abbf

bias f8 [1]
-0.469348306075796
00000000: a1d3 417a cd09 debf
