fine-tuned models/NO4315_YMR187C.pth (torch, 3927 bytes, 6 tensors)

weight f8 [3, 27]
00000000: c188 c03e 4a89 ddbf 15ad 0c38 162b c63f
00000010: 5a70 5f7d b132 713f 63ee 3015 0072 c23f
00000020: 1cc9 64ce 0007 dcbf 8267 c303 b2a8 d9bf
00000030: 66f0 b456 ed6e d4bf 30ac dab6 b84b c1bf
00000040: 28d8 d3d6 2bb3 bebf a203 7a0e d1c1 d3bf
00000050: d860 03d4 64b5 b6bf 97c3 e714 38df be3f
00000060: e0b7 f8fa 48fb e3bf e5c2 a3d1 7bc1 e4bf
00000070: 3c72 fe32 acdd c23f 6e32 23a9 c3a5 ddbf
00000080: 49ba 8218 cd12 a23f c7cc 6848 fc53 a03f
00000090: 440b 3e26 c6f2 51bf 06cf 2ac4 7a18 c63f
000000a0: 28e0 fbac 0c0a dfbf 654a 4144 a963 853f
000000b0: f9b9 6585 b0ea c3bf eae7 529f 311e dabf
000000c0: ebcc 89a0 082b cabf 4e58 9699 1e7b c9bf
000000d0: dcdb 2f16 eefc c53f e985 1c5a 3e6f d9bf
000000e0: 1202 05bc 91e6 ca3f 6f04 48a5 db91 c8bf
000000f0: ab56 01ec 8325 a43f 80f6 9a10 bf95 e2bf
00000100: 33ea 9af5 c5aa dbbf 6960 e35e 0078 ccbf
00000110: 1af6 023c 2fef c4bf 6c4a e92b fc21 b9bf
00000120: 9cbc 3f0d a119 d03f 78a6 50e5 caa1 813f
00000130: 5c38 db31 f6c7 dfbf 59ec 6bb3 8de7 c13f
00000140: c35c 42a4 68da cebf cc08 4af2 b890 d8bf
00000150: c8f3 fa86 a450 d6bf 1450 e48c a5c3 debf
00000160: b5cd ffb2 7a4d cfbf b1df 86a4 17ac ce3f
00000170: a647 5459 b35a e1bf 1fb2 1d28 2dcb d1bf
00000180: bb14 d9a5 3101 98bf dd9a eaf8 bda2 c63f
00000190: f97d 4673 71e3 d2bf 1086 5484 1b05 ddbf
000001a0: 9c53 a832 8034 c4bf b4c2 c360 61cb dabf
000001b0: b72d e81a 1bcb e0bf 26f3 c473 13b0 b63f
000001c0: d6d8 cc60 cca1 b53f 9fe7 55fd e52d d5bf
000001d0: ee85 4a5c 2aaf e0bf 6070 718a 6d24 ccbf
000001e0: a637 d39a 5d94 b9bf 60e5 a973 5488 c03f
000001f0: f7ba 0d7c f2c2 af3f 24c1 6952 7375 bebf
00000200: 6383 790d 99fd ddbf ab5d 0981 0ae8 d2bf
00000210: f01c f921 7676 debf b3b5 d474 262b a8bf
00000220: ce8e 4976 add5 dcbf e9c6 bcf7 c8a1 b23f
00000230: ffa7 89af e314 bdbf a799 5c11 0444 e0bf
00000240: 7d24 27f1 f34c a1bf cf03 2aca 3315 dbbf
00000250: c02c a7e2 ba57 bd3f d192 7ff1 a2cd d7bf
00000260: 248e 57e3 0bd8 cebf a888 2017 25db debf
00000270: ab16 d668 c7e3 893f 2cb6 84fe 4029 cfbf
00000280: 2b5b e96c 02cd d13f
-0.46150451782353846 0.1731899045638349 0.004198735541617616 0.14410401377414236 -0.4379274383128562 -0.4009213482619246 -0.31927045314274094 -0.1351233380167698
-0.11992143626034191 -0.3087046281216833 -0.08870535064795904 0.12059355268844595 -0.6244244481838415 -0.6486186117673155 0.1473899125093271 -0.4632424499257358
0.035299691431067766 0.0318907583608961 -0.001095479493387245 0.17262205675580605 -0.4849883736892502 0.010443994899252471 -0.1555996562342015 -0.4080928855797753
-0.20443828429015495 -0.19906980990771433 0.1717813118300161 -0.3974147682184524 0.21016141586916653 -0.19195123262764777 0.03934871917651369 -0.5807795833895426
-0.4322981737601907 -0.22241215356075664 -0.16354933195354776 -0.09817482063344024 0.2515642766365518 0.00860937607110944 -0.4965796934965334 0.1398789526063833
-0.2410403062865268 -0.3838331571679532 -0.3486720388571567 -0.48069132575005935 -0.24455198040196327 0.2396268418649448 -0.5423218483649535 -0.2780259029157452
-0.023442054507786674 0.17684149412271824 -0.29513202912673325 -0.45343673632496095 -0.15785219644081117 -0.4186633534400628 -0.5247931981588668 0.08862420631789955
0.08450009692464575 -0.33092641582299537 -0.5213825037537256 -0.21986169109266296 -0.09992013006123432 0.12916045806540932 0.06203420414282406 -0.11897965204275757
-0.46860338512310856 -0.29541266061047605 -0.4759803134697469 -0.047204210054001015 -0.4505418448591002 0.07278114364887824 -0.11359999690617427 -0.5083027209373555
-0.03379022902260773 -0.4231690859087935 0.11461990388413579 -0.37192605575391463 -0.24096821404155933 -0.4821255422449533 0.012641485106324643 -0.24344646861702424
0.2781377853001909

bias f8 [3]
00000000: af15 85f6 192e bfbf 55d7 2a25 90a2 8dbf
00000010: bb3b 1c85 f330 a1bf
-0.12179720181037255 -0.014470220693833783 -0.03357659339791704

weight f8 [3, 3]
00000000: d459 a366 d887 e43f 1ef0 be3f 1f3b f63f
00000010: 88e0 753c a07a e63f 9b54 05fe 9f05 d6bf
00000020: 8e13 3d72 db4e e8bf 744e 6b37 58b2 e5bf
00000030: 625e 6c74 3907 eb3f ac0c 461a cda7 f93f
00000040: 9006 f2cb ed3b e63f
0.6415826801920113 1.3894340982506104 0.7024689846866901 -0.3440933209106533 -0.7596261244985827 -0.6780205805211623 0.8446318887608408 1.6034670854867654
0.6948155387219277

bias f8 [3]
00000000: 3800 7830 e7ac e53f 1616 4b11 6295 e1bf
00000010: 9717 7532 185c f53f
0.6773563334136332 -0.549485238815296 1.3349840136520237

weight f8 [1, 3]
00000000: 594a 0988 1263 b5bf b87c 9d5c 23f3 fe3f
00000010: f92b a2c7 d169 ddbf
-0.08354297467421058 1.9343598954945218 -0.45958370681245203

bias f8 [1]
00000000: f915 9702 d01c ee3f
0.9410171557034906
