fine-tuned models/NO4932_YOL084W.pth (torch, 568471 bytes, 6 tensors)

weight f8 [228, 79]
0	0xbfa313c879932a0c	-0.03726030811374778
1	0xbf999f9e3fdfcfff	-0.025022957466674708
2	0xbfb7b1a872ab70e8	-0.09255459594300286
3	0xbf987154025c7136	-0.02386981262599016
4	0xbf9d918cc94d526f	-0.028875541483403596
5	0xbfa24501ebf4a29c	-0.03568273549382647
6	0xbf9fa110f2ee12b2	-0.030887856318730207
7	0xbfa0890eac01e88b	-0.03229566430759786
8	0xbfa34e811966a393	-0.037708315230083354
9	0xbf9d2e4c67123b49	-0.02849692706200394
10	0xbfa29abfa24c9e34	-0.03633688789551251
11	0xbfaf34829a642faa	-0.060947495791054365
12	0xbf9bc6a956fc01c1	-0.027125020917994073
13	0xbf9a00c758f40864	-0.025393595508838365
14	0xbfa080f309b91f5d	-0.03223380559626208
15	0xbfa6212826d95650	-0.043221716635042484
16	0xbf9d712876ca7d0f	-0.028751976252007923
17	0xbfa346c529a2c95a	-0.037649308521752814
18	0xbf96e24ef8433b35	-0.0223476733233909
19	0xbf9d375d9590bafe	-0.02853151536344977
20	0xbf9a19e411f3a7ae	-0.02548939094132379
21	0xbf8f461b522d26cc	-0.015270436711620226
22	0xbf9f76f7ffccce1d	-0.03072726725367946
23	0xbfa16ba4b4593c59	-0.034024378791052974
24	0xbf984f2cb636f226	-0.02373952734136444
25	0xbf9ba25e96c9e601	-0.026986577943239002
26	0xbf9d0f7c2b8ada1c	-0.02837938323747312
27	0xbf9d4d1a8343696f	-0.028614439260175425
28	0xbf9a475f66600f6e	-0.02566289007519578
29	0xbf917dce703eaad0	-0.01708147583091596
30	0xbf9c58b860e32e36	-0.027682190812624984
31	0xbfad6cd0f00d8246	-0.05747082643825201
32	0xbf9d84fc2f1e620c	-0.028827610374351706
33	0xbf7b840f30329130	-0.006717738465486442
34	0xbf9951c4e5c2b8ea	-0.024725986979938698
35	0xbfb888651415e38f	-0.09583122005814303
36	0xbf9c5253c5d1f9bd	-0.02765780348681245
37	0xbfa07f99920b1d76	-0.03222350986248561
38	0xbf8c6b70cc5c3bca	-0.013876801716404947
39	0xbfb1116c3a4d4bfc	-0.06667210029017662
40	0xbfa2189a04b4589c	-0.03534394557407092
41	0xbfa129835303c77d	-0.033519843944204354
42	0xbf8f302440ab1352	-0.015228541587370668
43	0xbfa16efcb3c91b55	-0.034049889513474575
44	0xbf97303296db5f2b	-0.02264479680783819
45	0xbf9f638c42ae0c9e	-0.03065318257314386
46	0xbf9bf0e4770253f2	-0.02728611923574315
47	0xbfa74909e1bd3031	-0.045479115301163005
48	0xbfa9d694988a3e10	-0.050465243931395176
49	0xbfaba3cf05c9f2c9	-0.0539841360632401
50	0xbfa12ad2c522125c	-0.03352984100732634
51	0xbf9a27f4cf8fedd4	-0.025543046158402152
52	0xbf6bc8ca490093a1	-0.0033916426546220656
53	0xbfa45a9ce594dc31	-0.039753821396907425
54	0xbf60b447b28f05be	-0.002039089235467555
55	0xbfc38a3a9f54ab24	-0.15265591411419976
56	0xbfade469413f3bd4	-0.058383263792726986
57	0xbf9be0be86e329e8	-0.027224518759604438
58	0xbfa0aaa67274e95e	-0.03255195758034078
59	0xbf9d8079b3e58419	-0.028810407261861657
60	0xbf9e88fc03f8b1aa	-0.0298194291519153
61	0xbf9f4252711adfa2	-0.03052643599832517
62	0xbf9f9307163cd3da	-0.030834303600574355
63	0xbf9d3420ef0bed0d	-0.028519167509313315
64	0xbfb026f85c609000	-0.0630946374445216
65	0xbf93f08cca18bdf5	-0.019472312769890327
66	0xbf7916937c141bfe	-0.006125045883215384
67	0xbfa09cc075022cf9	-0.03244592121435547
68	0xbfa1550780641d90	-0.033851847098101406
69	0xbf967415dd8750f9	-0.021927205701857997
70	0xbfa030f10fd1f01d	-0.031623395138893985
71	0xbfa5db57b6754289	-0.04268907644530368
72	0xbfa03a95bb9306c4	-0.03169696726537333
73	0xbf9b3edbc5457841	-0.026606973567474993
74	0xbf9fb51dfc5ee4a5	-0.0309643445286595
75	0xbf9c93dd77c9532f	-0.027907810627158355
76	0xbf9c1aa17ab49f83	-0.027445338358262027
77	0xbfac7eded6869f12	-0.05565544480060515
78	0xbfa8bcaa3a577953	-0.04831439935854811
79	0x3fcbc13ee8cf4055	0.21683489196448372
80	0x3fb805f02cb7cb8c	0.09384060947176759
81	0xbfe1d2c4b3b2b0d3	-0.5569785604216356
82	0x3fc7796cb841b12f	0.18339308735756663
83	0x3fbe24cc2e47fa59	0.11774898652945733
84	0xbf958468f642c4f3	-0.021012916594092833
85	0x3f8bb8ab4e824f9c	0.013535822232632992
86	0x3f987d651ce4c335	0.023915843857312786
87	0xbfd6d7f7a85aa2c1	-0.3569316047747116
88	0x3f9cdf5d3a3d36df	0.028195816688188265
89	0xbfb2ae8e1e3dd2aa	-0.07297600019758002
90	0xbfc8330a57817a3a	-0.1890576293253206
91	0x3f9472f918056263	0.019969837275626633
92	0x3fc0f6479a847b80	0.13251586003113047
93	0x3fc2622cdbe2069a	0.14362107025595067
94	0xbfb54c2dd29870ba	-0.08319364921084374
95	0x3fb3f3e8930dec38	0.07794049825854266
96	0xbf9b228b018ee07d	-0.026498958559131303
97	0x3fa8c2371d833708	0.048356745102507814
98	0xbf6a6146ef917001	-0.003220213457593602
99	0x3fc0ecb5754cae69	0.13222377994076176
100	0xbfcd4fb69b21a597	-0.228995157001276
101	0x3f9c7358dde86d10	0.027783764404472555
102	0xbfb0c14da8ac1014	-0.06544957511874855
103	0x3fbfaa74a6a41a86	0.12369469707855715
104	0x3f956daf0a89f53a	0.020926222818606656
105	0xbf999fd74d5eabbf	-0.02502380761840661
106	0x3f94ff7eb5a9cd92	0.02050588592324016
107	0x3faa86e2f0364c77	0.05181035215641654
108	0x3fc7890a4a02c754	0.18386963476001006
109	0x3fb30545a9c14b5f	0.07429919618998103
110	0xbf80487b0f1c2432	-0.007950745962732684
111	0x3fb80ffd3c890d5e	0.09399397590555256
112	0x3fdbed44829f2506	0.43635666614552837
113	0x3fc17353aa999cbf	0.13633199529724568
114	0xbfde7bc8299becaf	-0.47630504668604606
115	0xbf9f72201cce9cd8	-0.03070879150223224
116	0x3f9fded72cde50de	0.031123506654311288
117	0x3fdcee34f833a28e	0.45203899610945875
118	0xbfe3994cc719c368	-0.6124633682903609
119	0x3fb0f00b8205ae31	0.06616279529924253
120	0xbf83679ae0f93858	-0.00947495459618268
121	0x3fdf1b0171eb967f	0.48602329373384373
122	0xbfa22ea524b609b1	-0.03551212380536429
123	0x3fb293b7a7be8782	0.0725664886981843
124	0x3f92719d32e5b80b	0.01801152823593814
125	0x3fcf9f6edc9b61bd	0.24705301067184662
126	0x3fc33407509d4ae4	0.1500252860665433
127	0xbfe064b1a41a1f9e	-0.5122917370908799
128	0xbfdc09210e178784	-0.4380571973434757
129	0xbf92f3934a5c6d74	-0.01850729123462487
130	0x3fb4790372dae78c	0.07997151903228267
131	0x3fe0cb34b4df03d7	0.5248054058685011
132	0xbfb8b459545ad756	-0.09650190648502863
133	0x3fe672412675daba	0.7014470816783025
134	0x3fcd660f01ccd795	0.2296770819463602
135	0xbfdf311fdad037fd	-0.48737331741801865
136	0x3f9cbd4524527f32	0.028065758077558907
137	0xbf79fb61bf396f00	-0.00634325201425745
138	0x3f5f51e3d39a5500	0.0019116139286883826
139	0x3f9fffa1e466ef2f	0.031248597684437825
140	0x3fa2246d12223be5	0.035434158767308856
141	0x3f96444bd4c5745e	0.02174490438607212
142	0x3f9f7059882d94a9	0.03070201772370199
143	0xbfd3141e601dd4b4	-0.2981029451978643
144	0x3fc93db59a08fe05	0.19719572087522877
145	0x3fd0dd8c3ae41153	0.2635222029787389
146	0x3faa0ce036ba8e1b	0.05087948482585266
147	0xbfd6167a314915d3	-0.34512190640483914
148	0x3fc8ce82af8157fa	0.19380220002739162
149	0xbf9b7c72b383c25c	-0.02684191914244348
150	0xbfc3436d5d660990	-0.15049521503904062
151	0xbf899b29b68f33a1	-0.0125029810750677
152	0x3fb74f0c7ecb9149	0.09104993911347949
153	0x3f97681ca6fc0529	0.02285809296791289
154	0x3f9eaaa96e2eb3af	0.02994789824485949
155	0x3fbebd7832edd8ea	0.12007857554803861
156	0xbfccdbeead6459ce	-0.22546180216222783
157	0xbfc7a67460057edc	-0.1847672909598178
158	0xbf87c48de5beabfb	-0.011605366300349465
159	0x3f55de4edc2e42a8	0.001334740649984104
160	0xbf792e0da97cd55a	-0.006147435538698199
161	0xbf79cb1101edbe70	-0.006297174869231634
162	0xbf8830febd146fbd	-0.011812200684793933
163	0xbf81025d1263721d	-0.00830528938643576
164	0xbf68ed8e0c3bef23	-0.003042962491120253
165	0xbf7979ce012019a3	-0.0062196776434632365
166	0xbf856cb217945b43	-0.010461226791944283
167	0xbf4df590635a864b	-0.0009142832775134805
168	0xbf830aff958cf7be	-0.009298321486877256
169	0xbf8fda0d6647349e	-0.015552620586186724
170	0x3f75f2dc2ee32cbd	0.005358562555737465
171	0x3f713b4f5e2b6496	0.00420695307794818
172	0xbf86d7ebe101ef60	-0.011154024891076808
173	0xbf8cb8a79b4bae82	-0.014024075915094917
174	0xbf407ab043c1059a	-0.0005029068629555545
175	0xbf629e79f6b9697d	-0.0022728330712144516
176	0xbf6b3f46ed8a6f95	-0.0033260712919637816
177	0xbf3504163bde0b6b	-0.00032067816561481025
178	0x3f62e2fb9d937508	0.002305499493202693
179	0x3faa93f0dfeb2b20	0.0519099496210258
180	0xbf6d7f7bae5a8d3e	-0.003600827755535412
181	0xbf78076b88a359f6	-0.005866451314622703
182	0xbf6cd6855ca9d71c	-0.003520260307875568
183	0x3f806d002a32595b	0.008020402229061465
184	0x3f6efd8bb46be780	0.003783009396440329
185	0x3f35dd86cf5895ef	0.00033363858469423376
186	0xbf81ee0bec424169	-0.008754819057032308
187	0x3f43b488f1db6662	0.000601355426364591
188	0xbf6e7f3aa7219aa1	-0.0037227769435504575
189	0xbf90647ea64f0b2b	-0.016008356953317076
190	0xbf44c8dcd0659c56	-0.0006342962449651472
191	0x3f9a32c2edbf97a8	0.025584264527331563
192	0xbf70397fbf54d32d	-0.003961085332140607
193	0xbfa53704395f679b	-0.041435367587566684
194	0x3f6553d34b585de6	0.0026034476129657034
195	0xbf8a21c9f35a0dc4	-0.012759759654051524
196	0xbf7ff9e07e8ad78c	-0.007806660586245583
197	0xbf8d16027f40e4d1	-0.01420213652464711
198	0xbf69b5cdf0c725d5	-0.0031384489322803058
199	0xbf7474c287c6ed6f	-0.0049941634028373
200	0x3f71e4b52351ac38	0.004368503160644237
201	0x3f7f4e01a552d309	0.007642752102744018
202	0x3f5438a357856077	0.0012342066894089046
203	0xbf689264185d2236	-0.0029994921668825792
204	0xbf8767157c54d331	-0.011427085739890682
205	0xbf8800398d34755a	-0.01171917879269795
206	0xbf886bb909bd7525	-0.011924214944594677
207	0xbf748e9ef0e77d64	-0.005018826354415171
208	0xbf6d0ef5bd5b52b5	-0.0035471725085279523
209	0xbf5afbb2ece4b654	-0.0016469237630859683
210	0x3f3a164ed819fb5d	0.0003980581751434254
211	0xbf7d65df3be8d278	-0.007177230842490993
212	0x3f8f2e5d407798cf	0.015225151567346632
213	0xbf7f12b9e959f6aa	-0.007586218087110611
214	0xbf975760550f59ad	-0.022794251624725415
215	0xbf65242756c7a3a4	-0.0025807159747625753
216	0xbf73d5e0d63ba39f	-0.0048426420869213385
217	0x3f617523b8082458	0.0021310517915975984
218	0xbf71e09ccc6f1869	-0.004364597792067306
219	0xbf731703d0372b62	-0.004660620590082628
220	0xbf707e11448be8dc	-0.004026477291285437
221	0xbf484e7b9449ffa6	-0.0007417777456595234
222	0xbf9916fdc52a48bd	-0.024501767310149292
223	0xbf75961bfaa84009	-0.005270108502841716
224	0x3f656cebcf8bf9b3	0.0026154142072975727
225	0xbf79106eef59985b	-0.006119187678995964
226	0xbf4a31e3699c5562	-0.000799404183654911
227	0xbf703817e9b0e41c	-0.003959744844046955
228	0xbf7316659f949d0e	-0.004660031286483303
229	0xbf805a2109244893	-0.007984407512172253
230	0xbf7e57ea4dd9f08a	-0.007408061266343089
231	0xbf66ae44c48f996d	-0.002768644630566522
232	0xbf6f62ff3aeec8d0	-0.0038313851323091633
233	0xbf4c235d414fe034	-0.0008587079379358598
234	0xbf69225fce8e845b	-0.003068148730065929
235	0xbf93cc21ed50a168	-0.019333391294055785
236	0xbf906dd32b975fa5	-0.01604394868431282
237	0xbf8ffa128b7866d8	-0.015613694077774395
238	0xbf43c4ecca673ce2	-0.0006033092693601661
239	0xbf81095cdb1d3f7c	-0.00831863921817421
240	0xbf87605aede14d55	-0.011414251694225422
241	0xbf9438f6f6f7c97a	-0.019748553107953516
242	0xbf88d499dead83fe	-0.01212425432976438
243	0xbf74a47a5d0924c6	-0.00503967092715491
244	0xbf85455574681786	-0.010386149992893012
245	0xbf84cb36e471d68d	-0.010153225752428408
246	0xbf484a79f6a1dac8	-0.0007413001560639615
247	0xbf911beacecc2073	-0.016708058235082434
248	0xbf9a0c402956b5d0	-0.02543735744773362
249	0x3f8180a8cfe70c39	0.008546179623300275
250	0x3f726fa7b2a53db4	0.0045010138222347125
251	0xbf93753aeb17a89b	-0.01900188503160703
252	0xbf9687a7ef948284	-0.02200186157017693
253	0xbf5713c05cb2e508	-0.001408517697923552
254	0xbf4014c165fa137a	-0.0004907554939142932
255	0xbf71b0b93b858fdb	-0.004318927349547831

bias f8 [228]
0	0xbf9f5e9566f6f532	-0.030634245309319748
1	0x3f9225b5d883985e	0.01772197851178025
2	0xbf6811d3c9451106	-0.0029381882142464092
3	0xbf73f4589784a08d	-0.00487169843862757
4	0x3f7f6bcae1693901	0.007671158315657901
5	0xbfa1dff32d6765a0	-0.03491172723051794
6	0xbf717774eac08d47	-0.004264313418420435
7	0xbf8ace2b00880277	-0.013088546708787547
8	0xbf8197005d2db539	-0.008588793605407307
9	0xbf9332e0061e2c3f	-0.018748760579495146
10	0xbf82e99a5e5da862	-0.009234624867264955
11	0xbf97bd19f138e12b	-0.023182301853212166
12	0xbfa08332cc3a4a68	-0.032250964574946306
13	0xbfa1602b0264a57e	-0.03393682865346202
14	0xbf83fa845e58e172	-0.009755167130706541
15	0xbf976c72a5050185	-0.022874633142465867
16	0xbf7b5756e437b338	-0.006675090236495866
17	0x3f969cd55a7d6b8d	0.022082646987978505
18	0xbfa33d9c1bc0324c	-0.037579420459313256
19	0xbf9af28e2197d191	-0.026315899658543144
20	0xbf5d032d71130a40	-0.0017707771078653428
21	0xbf966df8fb8127f9	-0.021903887129418795
22	0xbf8ad59248b65f42	-0.013102667659765314
23	0xbfa0d7afc35b7c83	-0.03289555797322754
24	0xbfa24118405ffb2b	-0.035652883394496314
25	0xbf8eb0dab575c7c5	-0.014985760367128518
26	0xbf8dc7996e309f71	-0.014540861773710142
27	0x3f6a199ae137bdc5	0.0031860375399827856
28	0xbf8919d02e890d87	-0.012256266040941778
29	0xbf80630953550ee3	-0.00800139699516173
30	0xbfa5b1af090d6987	-0.04237124429228616
31	0x3fa17b5513b50e3a	0.03414407601897236
32	0xbf851ad6e9396438	-0.010305098526418019
33	0xbf9ab05e6e94e8a4	-0.026063418864602853
34	0xbfa0c0948f48ff69	-0.03271927117429991
35	0xbf8b306d933fcee2	-0.013275962883177287
36	0x3f75eb3b98a43bbc	0.005351288602709777
37	0xbf8c3e6eba6a96bb	-0.013790955604530244
38	0xbf760570825ff8e3	-0.005376281251299827
39	0xbf77e4fca8584000	-0.0058336133420340275
40	0xbf848cdb0c650682	-0.010034285846475702
41	0xbf93bf9faaf17ff4	-0.019285673912577253
42	0xbf8e5ae81da15c62	-0.014821828274007302
43	0xbf92fb80175b3d05	-0.01853752272182609
44	0xbf8633e1fb22e587	-0.010841145969936473
45	0xbf737673871f06dc	-0.0047516358189924855
46	0xbf9635563d880255	-0.021687839036533003
47	0xbf9b30223a95e3c7	-0.02655080301835591
48	0xbf87c014ef733e4c	-0.01159683566802907
49	0xbf87e3f55cfb81c9	-0.011665264988040118
50	0xbf80943b2c4b9d8f	-0.008095228471076492
51	0x3f9807787227b4ee	0.023465997664904252
52	0xbf6abb581c7423fc	-0.0032631607933848433
53	0x3f70506da795bb22	0.003982952440636097
54	0xbf6024706a68325e	-0.001970500528164983
55	0xbfa281c529ed6e72	-0.03614631783304113
56	0xbf682f5287bf90cd	-0.0029522525710366843
57	0xbf9e216a0a6486c3	-0.029424340137785842
58	0xbf8ac804182ecbe6	-0.013076812732696962
59	0x3f42c0eee9f206b2	0.0005723158427743595
60	0xbf78f8aec36346c3	-0.006096537274247363
61	0x3f9ba68f3b81febe	0.027002561575953925
62	0xbfa10062a00802f8	-0.03320606425768874
63	0xbf89cb612579e25e	-0.0125949468194772
64	0xbf922b6b03126285	-0.01774375158547283
65	0xbf8cc7e16a457ac6	-0.014053116851468938
66	0xbf90adc16679483c	-0.016287824515821323
67	0x3fba8a57b9d8ab21	0.10367344176544836
68	0xbfa061cb8fc6656d	-0.03199611787858712
69	0xbf9268f8dd0b1bc5	-0.01797856187001991
70	0xbf955586dc5fcc64	-0.020834071350645536
71	0x3f88de68f300ad45	0.012142963329174203
72	0xbf8cd224443167b6	-0.014072688418469297
73	0xbf757695957b2dd0	-0.00524004393782769
74	0xbf88c25b41bd04b4	-0.012089455550837826
75	0xbf887baf76448450	-0.011954661175481857
76	0xbf8f578ec2647fd4	-0.01530372172106801
77	0xbf82ad255cf9b853	-0.00911931219090093
78	0xbf9cdd736c77c396	-0.02818851804289898
79	0xbf949a0a74680bd0	-0.02011886916626421
80	0xbf86f7a90b93869e	-0.01121456209733945
81	0xbf8b7cf17b548879	-0.013421904159774055
82	0xbf89ad51ccb7da18	-0.012537612018587871
83	0x3f957aab37492a00	0.02097575688302733
84	0x3fa230dbbe039d76	0.035529009766658
85	0xbf804e3a34ba4f6c	-0.007961706861614203
86	0xbf9ba68bb99e9470	-0.027002509311973844
87	0xbf83496e01d93eab	-0.009417399817862679
88	0x3f908aebcb16a30c	0.016154941816839005
89	0xbf81d16ee0425e97	-0.008700243204926834
90	0x3f790a0533c12961	0.006113071747743199
91	0xbf76db8127867c05	-0.00558042956291072
92	0xbf83a6ad442f84c0	-0.009595254557952848
93	0xbf9d1738c15e6c48	-0.028408896257684085
94	0xbf9c5f9e88e47a85	-0.027708508591894904
95	0xbf71288ec980cf03	-0.004189069521135516
96	0xbf9924892e8a723c	-0.024553435769677487
97	0x3f920381a8565e16	0.017591501140115616
98	0xbf8946794c00d1a2	-0.012341449386533313
99	0x3f88377a4b36eaab	0.0118245653346681
100	0xbf844a5e6dee4287	-0.009907472352808767
101	0x3f27aa0993938777	0.00018054358387247966
102	0xbf8d228a49c3f6b9	-0.014226036430496124
103	0x3f91144121c9824f	0.016678826987460756
104	0x3fb09b6cfa95eb31	0.06487160795033443
105	0xbf970ecc1ec14698	-0.02251738488877794
106	0x3f93905c2b9b63a8	0.019105377351340685
107	0x3fa2d66227668e77	0.036791865644116344
108	0xbf995a212d32ee9e	-0.024757879623151006
109	0xbf844d82e9513afb	-0.009913466210631485
110	0xbf91cd259f862567	-0.017384136067936675
111	0xbfa064cf97d6b6d1	-0.03201912621021353
112	0xbf8c444f6a0635cb	-0.013802166388610445
113	0x3f7cbad99aae058b	0.00701413156173326
114	0xbf95b22878c0073b	-0.02118743168831048
115	0xbf9d2c9487cc4d0a	-0.028490372456031067
116	0xbfa22b625a81aa21	-0.035487245128781326
117	0xbf8fe96bad56cc08	-0.015581933238399528
118	0xbf96d4712a8cc5b7	-0.022294777128257084
119	0x3f59c769e3ddc59f	0.0015734228213343038
120	0xbf692019398edd80	-0.003067063586481289
121	0xbf95492af6dae204	-0.020786925618013555
122	0xbf8389635a19f9cd	-0.009539390742472254
123	0xbf8692b33f197945	-0.011021995890754819
124	0xbf91554721afe3b6	-0.01692687171086834
125	0xbf8166c097e2362c	-0.008496765742417166
126	0xbf9b199cb24fa694	-0.02646488989186098
127	0xbf998201ee45040b	-0.024910001914808116
128	0xbf989025c6abc5c9	-0.0239873793133876
129	0xbfa23a9be75568aa	-0.03560340117356138
130	0xbf8e3edfd21281e1	-0.014768360708615926
131	0x3fa2c3634f529351	0.036646941597871525
132	0xbfa21f3cab545507	-0.03539456931518186
133	0xbf80ace15b2f10ca	-0.008142242999277367
134	0xbfa0d2d1e30332b2	-0.03285842796467388
135	0xbf9bc1bd6e0521dc	-0.027106246795740904
136	0xbfa3434321a36c23	-0.03762254510521525
137	0xbfa161fecb5c9a96	-0.03395076973383941
138	0xbf887f9997d00146	-0.011962127633524344
139	0x3f69e4a8187ed15e	0.003160789787182746
140	0xbfa348a8a3d1bc46	-0.03766371726748523
141	0xbf88a9c72aef4b36	-0.012042575834049534
142	0xbf8e021b8613e259	-0.014652457265115592
143	0xbf9749b7b62790f4	-0.022742147915679703
144	0xbf31299d3ccc9193	-0.0002618798142058006
145	0xbf77e84476e29686	-0.005836741866152578
146	0xbf7aa408361b07dc	-0.0065040894275529525
147	0xbf97f49c3960230b	-0.02339405155365441
148	0xbfa06564fde7b214	-0.03202357863833441
149	0xbf951a9e03e4dabc	-0.020609349239033334
150	0x3f74e84b4032a5f5	0.00510434527238023
151	0xbf8c783fd2237aad	-0.01390123233835302
152	0x3f82ec053fd5a232	0.009239235888075379
153	0x3f6b4aa7ebdda909	0.0033314971650969566
154	0xbfa2e85fd6735ac8	-0.03692912571721291
155	0xbf8a5cff1b003d61	-0.012872689258101646
156	0xbf829f18387a4553	-0.0090925113902666
157	0xbf85bcd004662b87	-0.01061403764176362
158	0xbfa01349e75ff87b	-0.03139716100120978
159	0xbf824e1febdf5b9b	-0.008938073526150883
160	0xbf8ca5900617fd98	-0.013987660585370418
161	0xbfa3ecde2b3c0bb2	-0.03891653325810952
162	0xbf9ab57dd92278a1	-0.02608296048912762
163	0xbf788cc6065d8705	-0.00599362710440388
164	0xbf815ac3c7c779e4	-0.008473901304509597
165	0xbf98a135e10916f3	-0.02405246912009935
166	0xbf90375adff94be5	-0.015836162491108658
167	0xbf5bcecc555f637f	-0.0016972537464338964
168	0xbfa81a8bead58cc9	-0.04707753411892097
169	0xbf86923de9df1f54	-0.011021121692365611
170	0xbf8d3412a24f2674	-0.014259477213175865
171	0xbf9ac7718f183090	-0.02615144191626989
172	0xbf404b6369063392	-0.0004972682382217034
173	0xbf8cd02f32293ca9	-0.014068955152792677
174	0xbf86d9490205d3fd	-0.011156626104574125
175	0xbf843f94c03a5a2e	-0.009886896244364864
176	0xbf8281826a86222d	-0.009036082149365654
177	0xbf5b2abed7adf986	-0.0016581405349992153
178	0x3f9c9385f1f5d44d	0.02790650643642705
179	0xbfa47481728f61c6	-0.03995136760176225
180	0x3f86e7d45e62e552	0.011184367304269447
181	0xbf76786f6d4e9713	-0.005485949765817971
182	0xbf7a0bc147a02541	-0.006358866690797272
183	0x3f93a17bbd92806d	0.019170697637151003
184	0xbf9264dd0c489769	-0.017962888598183655
185	0xbf8ff1e1c4598dec	-0.015598071865674044
186	0xbf88f1b9a170711b	-0.012179804076418102
187	0xbf8b36c07b5bbd23	-0.013288024677847126
188	0xbf7a9c855482a05a	-0.006496926136755199
189	0xbf9079d0d2a43add	-0.0160896900716193
190	0xbf9e38bd12e8b3fb	-0.02951331546698908
191	0xbfb0c14d816e840b	-0.06544956598237676
192	0xbf78bc9ff450835b	-0.0060392616478857864
193	0x3f9910c9a9111d24	0.024478102630635892
194	0xbf6d995ede4dc1e2	-0.003613171853821693
195	0xbf8b82fc3d3125ba	-0.013433428399497117
196	0xbf8c8f93df912890	-0.013945727596496732
197	0xbf6f804226b39742	-0.0038453380599205176
198	0xbf6bb67ba735852b	-0.003382913122252381
199	0x3f95f7104adfa225	0.021450285501403727
200	0xbf9152c6e9def2c8	-0.016917331718775214
201	0xbf9901c813dc92ec	-0.024420858585602653
202	0xbf9d5be241ece65b	-0.028670821450964428
203	0x3f874fa1a4caea74	0.011382353631565346
204	0xbf819ff31026c386	-0.008605860643770457
205	0xbf9bdf570cf8db35	-0.027219162146333537
206	0x3f87ec35bfa7fb88	0.011681003486044408
207	0x3fa0368de3cd7fb8	0.0316662159518723
208	0xbf9405e950142d61	-0.019553800118086943
209	0xbfa09b46282a0f45	-0.032434646990650275
210	0x3f8c24122ef5e436	0.013740675027962817
211	0xbf7ea4df317d548d	-0.00748145279779523
212	0x3f6feabada21c5c7	0.003896107621635922
213	0xbf906777dd458ee6	-0.016019699936250208
214	0xbf884417b78c355d	-0.011848626412325808
215	0xbf911c09fe486040	-0.01670852293509051
216	0xbf669621c0725499	-0.0027571353162537224
217	0xbf9117497da28d02	-0.016690395634793916
218	0xbf8ff2e29c048dd7	-0.015599985491070818
219	0xbf9ad281027dfd22	-0.026193633820637115
220	0xbf80f5967da91c00	-0.008280921659332918
221	0xbf9f73ee43353c73	-0.030715678073928786
222	0xbf96c4c732bd0546	-0.02223502394850143
223	0xbf998c32fd186d99	-0.024948879907339714
224	0x3f7c90f5b9ac0b40	0.0069741819995695065
225	0x3f94507ec6c2bd3b	0.01983831489695585
226	0xbf485601f35cc0fc	-0.0007426747822361353
227	0xbfa157ef95e5d05d	-0.03387402252965963

weight f8 [228, 228]
0	0x3f86323a8ab18565	0.010837991101825659
1	0xbfb7506ac010b346	-0.0910708159360186
2	0xbf9e23c60d298ef7	-0.029433340600362148
3	0xbfb166b83d358fe3	-0.06797362799039734
4	0xbfa301aafc29071e	-0.03712210014465554
5	0xbfa2b52600f7c17b	-0.03653830301107327
6	0xbfa3f58190e8471e	-0.03898243802917832
7	0x3f9607a9dbaf816c	0.021513608964484218
8	0xbfaceba273553802	-0.05648524911758558
9	0x3f9de5238ebe8ad8	0.029194408023282076
10	0xbfbab93f77313670	-0.10438915882078859
11	0xbfb05c7ceb5db6d3	-0.06391125437013594
12	0xbfa9c870501f710c	-0.05035735109388115
13	0x3f8e4877779ae43d	0.01478665670161849
14	0xbfbb09d2a551ed9b	-0.10561863456853475
15	0xbf8a02c19ee9b71b	-0.012700569784296392
16	0xbfa4ab1a2f5e0ffb	-0.040367906839520594
17	0x3fe395307fc6aef0	0.6119616027476393
18	0x3fa8b6c0592a8411	0.048269282230883566
19	0x3f78668b6e87ce45	0.005957169204055261
20	0xbfa4932f5ad5cd1b	-0.04018543227985046
21	0xbfa7db5d8c388645	-0.046595500342175224
22	0xbfacb4154706f9c9	-0.05606142513305518
23	0xbfb0df4444f09993	-0.06590677912809033
24	0xbfb54203976022da	-0.08303854413692183
25	0xbfb3d7b1444220b7	-0.07750995556318939
26	0xbfa71f0d0e98f589	-0.04515877536003205
27	0xbfbadec1cae450b2	-0.10496150210775815
28	0xbfba3682c3500880	-0.10239426868796109
29	0xbf926574692fcaad	-0.017965144081197582
30	0xbfa609ea0be81878	-0.04304438968033336
31	0x3f9505d1e59c7545	0.020530013694146438
32	0x3f9641de3748aafa	0.021735641597994772
33	0xbfa35c37e670f8df	-0.03781294525150413
34	0x3f6e91f70b7bd16f	0.003731710919845969
35	0xbfa3a359545e1545	-0.03835562853695732
36	0xbf83859757216905	-0.009532148691665751
37	0x3f82b04fc31203a2	0.009125350132537072
38	0xbfbaede0d0d34cf3	-0.10519223306919283
39	0x3f47b09ff545f11c	0.0007229596181299899
40	0xbfb7b8778cc2821b	-0.09265849291342258
41	0xbfb41781dfdefbd1	-0.07848369327164952
42	0x3f438efedd43c4ad	0.0005968803839363678
43	0xbfa88edf4cd49aa9	-0.047965028885575585
44	0xbfa919cdc9cef5a4	-0.049024992832964714
45	0xbfb511c2c21bb4f8	-0.08230225790949308
46	0x3f96311bb41a996d	0.02167170798079481
47	0xbfad79d11a2bd7f3	-0.057570013470396385
48	0xbfb2fcd4be049bec	-0.0741703952704566
49	0xbfb96d3b912832cb	-0.09932300847885782
50	0xbfa7836e0c4c65b7	-0.04592460537078174
51	0xbf944b89f5f76945	-0.019819408071137152
52	0xbfb23a6b3a66f57b	-0.07120390106043388
53	0xbfbba601df9ac630	-0.1080018206510196
54	0xbf76aeea5747af55	-0.005537906069075967
55	0xbf92d1f90b43fb57	-0.018379107773394434
56	0xbf97b840ff0b0af0	-0.023163810316655764
57	0xbf9aea32ae2fdf0b	-0.026284019357233606
58	0x3f892f8211a5d999	0.012297645724839866
59	0x3fd13e1160400f40	0.26941332244335925
60	0xbfa111919e56ab73	-0.03333716447681114
61	0x3f9599898a4eac71	0.021093510691269694
62	0xbfb0d8291c079b7d	-0.06579834875411268
63	0xbfafb5df87e326ec	-0.06193445714741394
64	0xbfbaa662f4a87670	-0.10410135720345592
65	0xbfb376db01564b52	-0.07603234083789559
66	0xbfbb7495c7840590	-0.10724769707669268
67	0x3fbb492acf4188ad	0.10658519325218903
68	0x3f717f016557a846	0.004271512463200072
69	0xbfb470d0ecc522ef	-0.07984643726843975
70	0x3f774c2654055c60	0.005687856406743824
71	0xbfb1ed6c5aa98649	-0.07002904141838785
72	0xbf95a3a16e731ab3	-0.02113201367026347
73	0xbfafc3285b408413	-0.062035809649621985
74	0xbfad2eb447d86dbf	-0.05699694993037551
75	0xbfa684dfe6067954	-0.04398250277448548
76	0xbfa70c7950b372f3	-0.045017043210213624
77	0xbf9c6450ac52c788	-0.027726421849997546
78	0xbfa5d278ceb83413	-0.042621398195571335
79	0x3f8583676f6b3ec7	0.010504539573417472
80	0xbf9a278f00e742b2	-0.02554152911199265
81	0xbfb8bf97c7d6ae6f	-0.09667347554084825
82	0xbfa62a6855bada45	-0.04329229399211391
83	0xbfaca9be6ee01408	-0.0559825430246193
84	0x3f7c720174194e46	0.006944661786821243
85	0xbf90c4340dc3fffb	-0.016373456325709395
86	0xbfb2c0fc07bdfc59	-0.07325720967308892
87	0xbfb8f8bb9fdd680b	-0.0975453629775133
88	0xbfae66bdb40acb19	-0.05937760184078495
89	0xbfb3cfd78cf591ad	-0.07739016715419807
90	0xbf7678763ba46cd3	-0.0054859751201334515
91	0xbfb5f61842230325	-0.08578635801951558
92	0xbecc82788d1fe88b	-3.3986153562511992e-06
93	0xbf78643065332aaf	-0.005954922718226881
94	0xbfb4dafa520cc343	-0.08146633628053927
95	0xbf9f19859d7063fd	-0.03037079595023683
96	0xbfa36a8fcbb3e33c	-0.037922376266527696
97	0xbf863b922832b7e0	-0.010855810024022305
98	0xbfba92034423f2a6	-0.10379047788223747
99	0xbfb2ee987e388d6a	-0.07395318109097607
100	0xbfaad22da6663f44	-0.05238478332750998
101	0xbfb05dcb2f98e21a	-0.06393117820778862
102	0xbfb068f36c1efd72	-0.0641014231650752
103	0x3f92206d92b54344	0.017701828078603002
104	0xbf80d85e27e47883	-0.008225188820287116
105	0x3f98ef136e365e1e	0.02434950218375153
106	0xbf94e8aa00ec6aa9	-0.020418793016782875
107	0xbfb804f71bf986ae	-0.09382576401687956
108	0xbfb883f422756673	-0.09576345292352943
109	0xbfa7746eaade1e34	-0.04581018291269992
110	0xbf939377c58f1736	-0.019117232735673194
111	0xbf9729bd9af7b825	-0.022620165427660894
112	0x3f9307c14bd773fe	0.018584270719532718
113	0xbfa4a0a5f7235557	-0.04028814927884621
114	0xbfa279938d3bf26e	-0.036083804121493354
115	0xbfb40abde2a7bb8a	-0.0782889059407649
116	0xbfb53ff389359871	-0.0830070695861609
117	0xbf96e491d91ab6cf	-0.02235629928207211
118	0xbf8cca96f290f38f	-0.0140582840705237
119	0xbfbb235d19883d0f	-0.1060083567938259
120	0xbfb5482fe142e71c	-0.08313273667854698
121	0xbfa17921795b9181	-0.03412727934281446
122	0xbf8b99d66df1fd20	-0.013477015714896512
123	0xbfb26b382407032f	-0.07194853667807587
124	0xbfb77f3c3b973ac1	-0.09178520636417443
125	0x3f858ba40ff9796d	0.010520250070098236
126	0xbfb917c2400b69b7	-0.09801878036106514
127	0xbfad3c32c324098b	-0.05709990150537
128	0xbfab7fa405bb234e	-0.05370819635351741
129	0xbfb729f52a31abf3	-0.09048397331359563
130	0x3f9d0e4f91bdee75	0.028374903936749313
131	0xbf9e40011d20b460	-0.029541032221619523
132	0xbf373ba09cd1ebd3	-0.000354506218009196
133	0x3f87d054b0ca3deb	0.01162782825966154
134	0xbfb242db74143276	-0.07133266052205464
135	0xbfa49b5a27e0fc8d	-0.04024774300386822
136	0xbfadb2127f8dd1c0	-0.05799920851760332
137	0x3f9e31fcd94cd1ed	0.029487562907165744
138	0x3f8120fcf1f31191	0.008363700994217267
139	0x3f87776c97eff8cd	0.011458252321969198
140	0xbfb14d0ebf816a76	-0.06758205581119534
141	0xbfa8cbb765aae411	-0.04842923275050038
142	0xbfbab12ff81b0cb2	-0.10426616484896803
143	0xbf54e6bba3d1918e	-0.0012757141514835066
144	0xbfa248b15d58aa7b	-0.03571085228425815
145	0xbfada85d2a4e1ad1	-0.0579251398221935
146	0xbfb90d1d0e940606	-0.09785634618676661
147	0xbfa109b1e767fa27	-0.03327709150106655
148	0xbfb1d5aecd1b5657	-0.06966679103364846
149	0xbfb5a886d8f02d75	-0.08460276409475916
150	0xbfb659d268db61ed	-0.08730807361587951
151	0xbfb5763a84e1450a	-0.08383527511729852
152	0x3f73d11ddbe86c14	0.004838101040628668
153	0x3f7fc1cf832e44f3	0.00775319156208919
154	0xbfabc2ad8cba5169	-0.05421964972370825
155	0xbfb52dd50cf96aa7	-0.08273059431796047
156	0xbfa59256adf587ff	-0.042132099852793196
157	0xbf9afb7cc1c7d32e	-0.026349973037173395
158	0xbf9718a4eaa16860	-0.02255494768210331
159	0xbf7d07a8357b8bc2	-0.0070873804722592654
160	0xbf9031fe4f7eaf16	-0.015815709688168665
161	0x3f9202955d18fd6b	0.017587980086543647
162	0x3f92b925b3fbdd44	0.018284405813543417
163	0xbfb32d68bca1136e	-0.07491163830952782
164	0xbf804052f8e6684c	-0.00793518850405319
165	0xbfb5ee9c0f9f5854	-0.08567214375884308
166	0xbf920b448e39d1fb	-0.017621108227517706
167	0xbfa1e3e1e9b951ac	-0.034941730290174305
168	0xbfa90d2a11fbd77b	-0.04892856092003136
169	0xbf635f88723c8904	-0.0023648896184492747
170	0xbfb289445f382cd0	-0.07240702938740928
171	0xbf9bec56cac706e8	-0.02726874935775117
172	0xbfb295d11f646e0a	-0.07259852425016092
173	0xbfad14fd6ec01fd7	-0.05680076577124254
174	0xbf77bd2c5681b768	-0.005795643992412149
175	0xbfb534bb7eefbb69	-0.08283588265451915
176	0xbfb5fe93d446bbb4	-0.08591579372908492
177	0xbfa6c1a940bf2c95	-0.044446267274531305
178	0x3fa8851dade3a18a	0.04789059398337077
179	0x3fb1bd6a132c59b1	0.06929648368927734
180	0xbfb43eb86518ff62	-0.07908203571514386
181	0xbf994f8bc5ccbe56	-0.024717506358852802
182	0xbfa6f1e768ac84ff	-0.04481433060414907
183	0x3f952d2dfbcc8fab	0.02068015908584157
184	0xbfac6757c6ac395a	-0.05547594356731862
185	0xbfb933a9edcb79fe	-0.09844457679307791
186	0xbfac1e7258d0284d	-0.054919789639897056
187	0xbf6b779a2c1548e0	-0.003352929227426235
188	0x3f719ee325841fe8	0.004301917353821218
189	0x3f876f032ccb6e13	0.01144220810367983
190	0xbf68c36753e69c4f	-0.003022863208758809
191	0x3fcc74f4bfad70f2	0.22231921538594396
192	0x3f96e125ed16b4a5	0.0223432470281081
193	0x3f916947eb31965f	0.01700317738541057
194	0xbfa9d84011f3234b	-0.05047798365700958
195	0x3f7d6a709adaf992	0.0071815870884947165
196	0x3f525a2d284c7fc1	0.0011201325407412673
197	0xbfac4e312034aa8b	-0.0552840568364746
198	0xbfb9906b2d9b1e0d	-0.09985990394044837
199	0xbf9874329b1536a3	-0.02388075896788301
200	0xbf511020333a8b0b	-0.0010414423422068799
201	0xbf948705b97116f8	-0.02004631943079624
202	0xbf83df02cdc17448	-0.009702703384556824
203	0xbfb2eca242b82cb5	-0.07392324570553195
204	0x3f8557e989049edf	0.010421585554083844
205	0xbfa4f67ebd540205	-0.04094310818800654
206	0xbfa615ffea1f07e2	-0.04313659413266159
207	0xbfb16f7c7db4026a	-0.06810739582943773
208	0xbfb47d63026cc7f0	-0.0800382500572423
209	0xbfb578ca2da396e4	-0.0838743554519073
210	0xbf9f3c56a8da1c4d	-0.030503610664279802
211	0xbfbb20806fc93946	-0.1059646866717446
212	0xbfa57c5dcfb3455a	-0.04196446571735164
213	0xbfb2821bc5307720	-0.0722977978152497
214	0xbfa67174b91cf53c	-0.04383435020143131
215	0xbf848728693754d0	-0.010023418150846203
216	0xbf9fec15c554e35a	-0.031174030465283088
217	0xbfb8eb6b6e9dd6ea	-0.09734221888160347
218	0xbf99cc9e7b7e1e5e	-0.025194622313874475
219	0xbfb2935c751e14a3	-0.0725610528880503
220	0xbfb181a9156b4dd8	-0.06838471196106555
221	0xbf86b1010a780c9b	-0.011079795963274732
222	0xbfad982422facede	-0.05780136992453121
223	0x3f9c63836e05f4fd	0.02772336348561043
224	0x3f59737d77a7ab5d	0.00155341389347071
225	0xbf8fb5066005f43a	-0.01548199635066726
226	0xbfb1961ff3740c86	-0.06869697278675532
227	0xbfb6d0a31c5d61e1	-0.08912105028628715
228	0x3faa0e14386d56bd	0.050888664138864816
229	0xbfd0dfd6f2ceda19	-0.2636620875522638
230	0xbf8b897f2e05cc54	-0.013445848075866497
231	0x3f84a3b6f546887a	0.010077885971274226
232	0xbfbca6104ce6c2a4	-0.11190893056369561
233	0xbf9abf252517cd64	-0.02611978567979402
234	0x3f7f95058f4bf822	0.007710477559838254
235	0x3f8ed7484a101b72	0.015059056053372297
236	0x3f9ca8b019d64ba2	0.027987243248911782
237	0x3fb6e33dffa26369	0.08940494052002425
238	0xbfa6abfff3d39257	-0.04428100444218746
239	0xbf90165722733bca	-0.015710221746129162
240	0xbf7ac55b18b51e87	-0.006535869451290594
241	0xbf9fc75b7d24ad38	-0.03103392554582493
242	0x3f60b6f8fe6418de	0.002040373149728144
243	0x3faf2d20d3cbe6c0	0.06089117608457917
244	0x3fa31b22d02c52e5	0.037316406165848005
245	0xbffa95a0f2ef33a2	-1.66153044601672
246	0xbfd0c0cfc6ac193d	-0.2617682876738348
247	0xbfba282b6eedf644	-0.1021754403900213
248	0x3faeac240ac4fbcc	0.05990707999671194
249	0xbfad313cb890880d	-0.05701627495751902
250	0x3fa225dfa9f3cfbb	0.035445203300610705
251	0x3fa1b874836f116b	0.03461040596406203
252	0x3f9ecf2d0438aafd	0.030087188131953536
253	0x3fa5e42aa56dfca2	0.04275639790920961
254	0x3f91258698aa7308	0.016744711940748253
255	0x3f929cf1499956c6	0.018176813237309707

bias f8 [228]
0	0xbfa4ac51b029a2ce	-0.040377190355518885
1	0x3fac4efc0bccacf1	0.055290104332323405
2	0xbfb4ef4d4535d54a	-0.08177645625786059
3	0x3f854a7f1fb2453f	0.010395997195049687
4	0xbf98444bdbb001cb	-0.023698029788649138
5	0xbfc0599e0db42cd2	-0.12773490590220732
6	0xbf87dea2485c8797	-0.011655109246536273
7	0xbfba15525aab119e	-0.1018878432615282
8	0xbfbb3f2892a226d0	-0.10643247203747852
9	0xbf8d905ab752efe0	-0.014435490340808543
10	0x3f8e2863cf05833c	0.014725475077911214
11	0x3fb32dd29c65bf05	0.07491794889733334
12	0xbfb4966824c890f3	-0.08042002580674872
13	0xbfa3ed79ee89107f	-0.038921175354091446
14	0xbf6dd6145046ffd9	-0.003642120051352987
15	0x3fb509ae4e7cca90	0.08217896858404061
16	0x3fa6a70720ec3cfd	0.044243071335694474
17	0x3fb45cbb6236b1ca	0.07953997752947042
18	0x3f98dbc650b523cb	0.024275873828887556
19	0xbf8b63ac9038165a	-0.013373706961839083
20	0xbfa189d75f61b027	-0.03425477065397358
21	0x3f9c58047dcbff9b	0.02767951028636127
22	0x3fac39b4a65bdbe7	0.05512775927302709
23	0xbfade60d24f5e1fb	-0.05839577747514465
24	0x3faca85cb16869eb	0.055972000747903504
25	0x3fa021472340aecd	0.03150389008837138
26	0xbfa768f51fc4704d	-0.04572263729843993
27	0xbfb62e6c5caf4370	-0.08664586317833112
28	0x3fa32cac97a146fb	0.03745021201087969
29	0xbfb5f5ed153e9b87	-0.085783784567509
30	0x3fa885418821e812	0.04789166247151412
31	0x3fafa961dce8646f	0.06183915921810345
32	0x3f59cc58b0bcf9dd	0.0015745988957430658
33	0x3faf8c07160e2c90	0.061615201418214416
34	0x3f437dfdbf266338	0.0005948533055742727
35	0x3faa17de9e094956	0.050963360587632664
36	0xbf8d9b48ebf25cc8	-0.014456338596842491
37	0xbfab113405f49b1a	-0.05286562512110589
38	0xbf9befb8b8bec3f3	-0.027281652713728687
39	0xbfa6d1d4934a564c	-0.04456962869623435
40	0xbfa5016506217242	-0.04102626514279396
41	0x3f8338df7c1bb79b	0.009385820364936672
42	0x3f9162f182e9105a	0.016979001631867476
43	0x3fb657a5c16e9039	0.08727489445169646
44	0x3faa37f4d521b11c	0.05120816327766617
45	0xbf96991226291cf2	-0.022068294123781258
46	0xbf858fe4601ed3a5	-0.010528358634340604
47	0xbf9d4281d7bba9f0	-0.028574017326642165
48	0x3fadc8aab2654cb3	0.05817159106904892
49	0x3fa5f4c90b825433	0.04288318887226019
50	0x3fa91d16f44f1460	0.04905006153379854
51	0xbfab2de8abe139e0	-0.05308463190214119
52	0xbfae6e2ae305a8bf	-0.05943426152482933
53	0xbf908c53853bb694	-0.0161603021687627
54	0x3fa2fb464d92c0df	0.03707332322062639
55	0x3fae47b644bb85d6	0.05914086903591069
56	0xbfa272f9077b9102	-0.0360334226259358
57	0xbfa98b19e7da8663	-0.049889382889216426
58	0xbf9b77526a908e43	-0.02682236457270749
59	0x3fa062418c7f1d8f	0.031999634170968176
60	0x3fb1370cf96af8d5	0.06724625672629554
61	0xbfa6ec9be36dfdcf	-0.04477393294564146
62	0xbfb035dd29fbb617	-0.06332189822179433
63	0x3f85be0d1f2f93b9	0.010616400255409763
64	0x3fa3706ffd89373f	0.03796720476075998
65	0xbfb6eaea15984a28	-0.08952200915545261
66	0xbfa56dcc87d18cee	-0.041853324489034324
67	0xbf9cef5ecdb39045	-0.02825687532903511
68	0x3f80db7b04f71073	0.008231125916502635
69	0xbfb1e49189fe5deb	-0.06989392870888593
70	0xbf8a266ca9ee1e45	-0.0127686013563696
71	0xbfba708c5987433a	-0.10327984987021646
72	0x3fb142db4de54ea1	0.067426401631844
73	0xbf96133752a9a814	-0.021557678623516166
74	0xbf6a2cda3235acee	-0.0031952153819269
75	0x3fa642ce9dbb229f	0.043478447679779146
76	0xbf862bf23308285a	-0.01082600801693816
77	0x3f963da31ef9a64b	0.021719502225471293
78	0xbfa1f380d857478b	-0.035060907753758995
79	0x3fb24f0d43ef9633	0.07151873501387555
80	0x3fb4a03ce3ae1709	0.08057003553957655
81	0xbfab0a10fe1758c8	-0.05281117536257934
82	0x3f8230209a3099f2	0.008880858140469326
83	0xbf94df0749b88077	-0.020382036089472835
84	0x3fad5cba667e07a6	0.05734808446051369
85	0x3fb1d7fe799d6985	0.06970205754388388
86	0x3fabf68efa169991	0.05461546709857424
87	0x3fb46e1287748436	0.07980457121858894
88	0xbfa328c28919fe88	-0.037420348392513125
89	0xbfa653f3b11de977	-0.04360925232954831
90	0x3f87b20bd137fff8	0.011570064852094206
91	0xbf61acc657468099	-0.0021575807424625945
92	0xbf669bca6888da67	-0.002759833649430821
93	0x3fa96ad4747cf037	0.0496431724736514
94	0x3f902016aaaf9639	0.015747408073272438
95	0xbf9bf4ccb784fd85	-0.027301024151936488
96	0x3f9463c98b791f73	0.019911908281101853
97	0xbfb05b4a0a58fb72	-0.06389296295763616
98	0x3f9206ba3a86778e	0.017603788206194397
99	0x3f8991645a951271	0.012484344496109774
100	0x3f945cc66056959a	0.01988515818597634
101	0x3f8de5b16a03592c	0.014598260925066407
102	0x3fabcb0a070a9583	0.05428344093278794
103	0x3f8e5965cdce3253	0.014818950026687682
104	0x3fb33915470f9d05	0.07508976921927875
105	0xbf640ff2fba848de	-0.002449011398547459
106	0x3f78799bc61298d3	0.005975349894617748
107	0x3f10e15447984010	6.439282324088879e-05
108	0x3f8611c54fe924e6	0.010776082516843432
109	0xbf9484dbb2888d59	-0.020038063785375957
110	0xbfa98a5da1d3f437	-0.049883771900546874
111	0xbfa65c395f63b9a7	-0.043672364134056445
112	0xbfa257ec4a7246a1	-0.03582704933900272
113	0x3f9ce6ebe17af78f	0.028224645268657474
114	0x3f9a3d91896c4b64	0.025625490200649095
115	0x3fae4ccfa9323dd6	0.05917977276214585
116	0xbfb9446a444963a0	-0.09870018164782701
117	0x3fb3ec79b2a21d55	0.07782707797206474
118	0xbfa61ea5370ed670	-0.04320255562872155
119	0xbfa69c0c9e0ccd0c	-0.044159311574185706
120	0x3f8da8db83a08672	0.014482226328314616
121	0xbf70494f3de8c96e	-0.003976163423930463
122	0x3fa7b7f84d909fe2	0.04632545420491831
123	0x3fb1db7bfb0607df	0.06975531462197136
124	0x3fad086e1299e2e2	0.05670494057716781
125	0x3f9c693f3c32fd46	0.027745235490099128
126	0x3fb584e58c257ab0	0.08405909225028085
127	0xbf8abb7afbd9aad4	-0.013052902994976114
128	0xbfa18675c670b856	-0.03422897384039973
129	0xbfa3eb594c75c55c	-0.038904944022656734
130	0xbfa4d62c575250f5	-0.04069651189743865
131	0xbfb3bf8422ff7cf4	-0.07714105467265481
132	0x3f7154720c14a25d	0.004230924126468053
133	0xbfadf019b3231361	-0.05847244559985288
134	0xbfb92ca067d17564	-0.0983371976339718
135	0xbf79c1868d7620b3	-0.0062880760155012315
136	0x3f918d3571078e04	0.017140231155179833
137	0x3f8e436663108ade	0.014776992700779198
138	0xbf5a4acfa651cc35	-0.001604750426193358
139	0x3f7335e8baef51fd	0.004690083601378789
140	0x3fa3bf027c264f33	0.03856666341303452
141	0xbfa0c4c027e79095	-0.032751088019524456
142	0x3fb31e22781f1bed	0.07467856819776815
143	0x3fa851d0d882d008	0.0474992050452841
144	0xbf9ecd2eddb322c2	-0.030079586297491863
145	0xbfb6a6f07697ac28	-0.08848479171108237
146	0x3fb3bacdf23d0053	0.07706916011830005
147	0xbf276d38c8a8fe34	-0.0001787311378666931
148	0x3f996847e07e92a9	0.02481186206536515
149	0xbf985008a6d688c1	-0.02374280470179069
150	0xbfb4d16a32f236ca	-0.08132041686823324
151	0xbf7e2d83126e3df6	-0.007367622375468388
152	0x3fa0bbd19ca17620	0.03268294369693714
153	0xbfb7a665ed16b880	-0.09238278425502422
154	0x3fb12c82985f7422	0.06708542079964322
155	0xbf940c2c69c5daaa	-0.019577688175071252
156	0xbf79cc3280f3ce50	-0.006298253326565709
157	0xbf9fef6f58f9cfb2	-0.031186809354451568
158	0xbfb5e950bcf3e265	-0.08559136021711707
159	0xbfa1868a94b124e9	-0.03422959389770048
160	0xbf9d4041d5e6423d	-0.02856543415106415
161	0xbf922aae2e45bb90	-0.017740937780611754
162	0x3fa6bff5dea08e14	0.04443329184166714
163	0xbf901b3880c62020	-0.015728838786827848
164	0xbf73dd33bf97b650	-0.004849626676770649
165	0x3f8ae7e32bfc2671	0.013137602596106053
166	0xbf83e232ee067d41	-0.009708783997494865
167	0xbfb2c73652914546	-0.07335223689849099
168	0xbf9adea6fb7dd56a	-0.026239976024461077
169	0xbf930959ffc51320	-0.01859036086650001
170	0x3f8945acbe243220	0.012339925339369506
171	0xbfac0e8d896f00f0	-0.05479852965027188
172	0x3fb178cce8106f2f	0.06824951806669043
173	0xbf9e24a3e71ea7ce	-0.02943664644377702
174	0xbf8dc7812a08cd55	-0.01454068097618825
175	0x3f9331f8b441de56	0.018745313646347427
176	0xbfb614d554210122	-0.08625539115837857
177	0x3f82b74c7ee5d071	0.009138677237139544
178	0x3fb327625524f605	0.07481970385284605
179	0x3fa182df1f6a8042	0.034201595864260984
180	0x3fa06912efd2c0ec	0.03205165078668579
181	0xbfa1156760268924	-0.03336642311775709
182	0x3fa817e168309b32	0.04705719372605301
183	0x3fb15378f1397cf4	0.06767993821403079
184	0xbf9ccdb0ef78a41e	-0.028128399482884807
185	0xbfbb34014b1c6fa3	-0.10626228412405551
186	0xbfb8cd79e1119900	-0.09688531632273012
187	0xbfa5f923b1d93d33	-0.04291640802386567
188	0xbf9005d363395fe4	-0.015647223406943925
189	0x3f961a1cefe471cc	0.021583988324992906
190	0xbf912d7c123e7fa0	-0.01677507268288958
191	0xbf81e0e01272eb44	-0.008729696810737438
192	0x3fa6f3d655dbd4ab	0.044829080563354516
193	0xbfa14ceecd62eb1b	-0.03379007584722712
194	0xbf7f523e73287267	-0.007646793312713208
195	0xbfba529d23e4fed8	-0.10282308698969744
196	0xbfb8eb0ca7bc0cdb	-0.09733656973917297
197	0xbf9d96e4b61a05fb	-0.02889592515430726
198	0xbf6c2be9a3a85fa1	-0.0034389079348890604
199	0xbf9612edc93dbe67	-0.02155658283976294
200	0xbf89340bff6d0f12	-0.01230630276916814
201	0xbf6875cf0aeab219	-0.0029858630944856854
202	0xbf9a968909219ef0	-0.02596487158044075
203	0x3f7b0ef10f77a2af	0.006606046335470835
204	0xbfae6afed28213f3	-0.05941006011656915
205	0xbfa6f7fee69a3c47	-0.04486080708476741
206	0x3fb291df49031db2	0.07253833324931838
207	0xbfb522c3f8ed3efd	-0.08256172969162985
208	0xbfb7cdc33315bde0	-0.09298343655768049
209	0x3f92624c927bba7f	0.01795310634673308
210	0x3f7cb3d736853e28	0.0070074469334282866
211	0xbf978af7f20d0fcf	-0.02299106039869497
212	0xbfb9d00aad3e4ffc	-0.10083071450782194
213	0xbf9e853f937fe50d	-0.029805177095089386
214	0xbfa3a0b39b9f0462	-0.038335430857394895
215	0x3f90a030359292cd	0.016236069936570275
216	0xbfa0b756f587c1dc	-0.032648770782433195
217	0xbf89bd687493290d	-0.012568298394758171
218	0x3f948659f5ba5808	0.020043759940186617
219	0xbf7ed8fd63bfc125	-0.007531156352328848
220	0x3f71df49ea5c4367	0.004363335354143106
221	0xbf9d3be410962a17	-0.02854877806889008
222	0xbf9e1d891152fd5c	-0.029409543688186587
223	0xbf96cf9506f7c51e	-0.022276238012584597
224	0xbfba728416d0edfe	-0.10330987507852993
225	0xbf5432ec1a977478	-0.0012328439428224407
226	0x3fac26cc130d134d	0.054983498883791705
227	0x3faa8135734973e7	0.05176703483878225
