fine-tuned models/NO669_YDL020C.pth (torch, 111639 bytes, 6 tensors)

weight f8 [99, 35]
00000000: 416c 49dc fc5d 87bf 810c b28c 18e6 9bbf
00000010: 1b93 c822 38b6 b83f 0591 9ccc 9e0a 92bf
00000020: adcd 0433 7c45 8abf eac7 29e9 d039 90bf
00000030: e878 2b5c b1ff 8dbf 3619 264b a489 89bf
00000040: 50ae 2514 54dd 84bf 1cbd 0a98 e616 95bf
00000050: 654e 393e 8756 86bf b1cc f639 1ed5 90bf
00000060: 6363 8d40 08fe 48bf 5011 d4fd 33c5 93bf
00000070: 2bc1 2f41 16ba 80bf 826a 001e 95ba 8dbf
00000080: 4ad5 7027 8bd8 8dbf 4804 f009 bdf0 9cbf
00000090: f91c 0de6 a8a2 8cbf d101 95f1 b634 8ebf
000000a0: 8790 5138 fdd1 79bf 17dd fbc6 075f 8ebf
000000b0: 4906 8732 a5ff 80bf 7ae4 a556 73fe 94bf
000000c0: 4a05 79b0 ac29 87bf 9ac6 12de da29 8abf
000000d0: 1ebf c80a dd09 7bbf 690e 019f 4f87 6fbf
000000e0: 6dbf 969e f6c7 8ebf 794f e913 575e 8ebf
000000f0: 9739 4bcb af2a 90bf f8b0 f372 5452 91bf
00000100: 490e c058 0382 8abf 8363 9c74 12d6 8bbf
00000110: 0045 8578 5dd3 82bf f746 4606 4036 89bf
00000120: ae08 ca6c a338 99bf 65b4 752f 678d aa3f
00000130: ade6 c2bf 62f7 91bf 9f81 de61 8ddb 89bf
00000140: 79ea 8435 a586 90bf 8983 0def 39a2 8ebf
00000150: ac71 81c7 79af 8bbf 7bec 9447 d3a1 87bf
00000160: dfe0 db3c eca0 93bf d5de 853f dc2a 89bf
00000170: 05eb 262f 707e 90bf d5ce fa46 ed69 75bf
00000180: f27f d93a 8fce 92bf c023 5377 041d 86bf
00000190: 720f 5deb 1127 8fbf 165b abe5 c17a 8ebf
000001a0: 8452 7bd6 0202 9abf e2ab a3fd 0ef3 8ebf
000001b0: 6caf 0e2d b49e 8ebf b1f3 6326 181f 82bf
000001c0: c08f b0d3 d479 8ebf 5eff aa8c a096 86bf
000001d0: 613a 42c5 f389 96bf 8796 97ff d5d5 83bf
000001e0: 3611 1a04 99b3 8dbf b6ec e19e 187b 83bf
000001f0: 53b0 de16 9b84 7fbf be40 61d3 697e 8ebf
00000200: dace 5ee9 a479 8ebf e0dd 9fb2 f580 8fbf
00000210: 4d13 e1a8 abea 90bf de18 c838 cfad 8bbf
00000220: 79fa e861 4849 8cbf 9e01 42fd 16a6 85bf
00000230: ed0c e7a8 0596 983f 7926 e8c1 ccdd b43f
00000240: 1ab1 0edf 427c d2bf e11b a5dd 975a be3f
00000250: d6f4 60af 7408 99bf b2bf 3dc3 bc4d a0bf
00000260: aef5 3de3 4559 8a3f ea99 0ea7 d655 a8bf
00000270: 9f63 d91f 35bb b1bf 1605 95b6 4eef c03f
00000280: da30 4a1e 21c1 b13f 34fc c12b 90fc b13f
00000290: b08a bca5 d4ab b8bf e4f7 575b ebde b33f
000002a0: fea7 dcfe 9052 a0bf 1713 5248 801c a63f
000002b0: 2e24 e649 aaa3 b63f 4112 f9da e837 ba3f
000002c0: ac82 a8d3 2b64 b1bf 7fa8 f571 91b9 ab3f
000002d0: 1bbd e780 0c2d 95bf 4024 5222 bc30 983f
000002e0: be75 d94c d489 78bf c46a e942 3d67 9ebf
000002f0: 5a4f 9eb9 8b2f 573f 41a0 e0d7 9349 b3bf
00000300: 6c3f 0adb 8c21 a4bf aaf7 8822 b6db a6bf
00000310: cf32 7fdf 7e90 b23f e868 3962 1736 b13f
00000320: a164 616b ae4e ac3f 74c2 60de cff6 a03f
00000330: 03ce 0ae2 e6db ac3f fcd2 f3c6 0228 9dbf
00000340: 0e21 4776 cb66 b0bf 82d5 ae9c fbab 81bf
00000350: d3cf 058f 6d84 95bf a188 7ad3 3203 b13f
00000360: 9dad 8a28 c675 8abf 76b2 e712 240f 83bf
00000370: 0664 0aca ab6f 88bf d03c 7627 f611 87bf
00000380: 7212 df0e b669 83bf f90c 9f7a 0a91 7fbf
00000390: a4bb 8ff5 7221 90bf 4487 2b03 1ae3 80bf
000003a0: ba4c b5d4 983e 89bf 8bfe c62f 1c90 49bf
000003b0: 582c 5b2d 1528 8ebf ddd3 2b13 1b75 78bf
000003c0: 531d df33 497a 87bf b176 6098 b6e7 86bf
000003d0: 53b7 240c 2d71 96bf daea 1acd ecf6 85bf
000003e0: c9ad 86b5 2c0f 87bf d3ee 318a d6d7 73bf
000003f0: 719c 266f c4e7 86bf 9c8c cf4c c011 79bf
00000400: 733f 207c 4b0b 90bf 34fb 12b3 24cb 76bf
00000410: 4c9e ee3f e958 83bf 09b0 0c07 4553 75bf
00000420: 2a47 df5f ec40 6cbf 9b34 4e19 1957 87bf
00000430: 7f87 0a10 b9e7 86bf eb5c 586f 0b55 88bf
00000440: e9a7 aa9c 8e66 8abf 1063 8723 511c 84bf
00000450: 770a 0a16 454e 85bf 2aa1 2c6b f8bb 7bbf
00000460: d356 3d8e 1663 7fbf 9490 7f9f 64d1 96bf
00000470: 7a57 bf60 d39d b63f 94b8 bd3b 48f0 88bf
00000480: 09c3 2370 1ede 81bf f41f 932c 210b 87bf
00000490: ea8f 1b9e d70a 86bf 68e0 f1ac 7245 81bf
000004a0: cbce c2a5 da92 7abf a51d 01fb fe98 90bf
000004b0: 97ea 849f bda1 7cbf d0f2 fb9a c17f 88bf
000004c0: a9e6 4078 4141 5f3f 1774 db01 4768 8ebf
000004d0: fd3f 974b bdcb 6fbf e825 153b d55c 86bf
000004e0: 7de5 217c e7d7 85bf 63fa 0096 12e9 97bf
000004f0: 52ce 1de8 dbf9 83bf d569 35f3 8d07 86bf
00000500: 6f5d 86b9 35de 68bf c039 4e67 86d6 85bf
00000510: f81c 4534 452e 70bf 837d b9cd 30a8 8dbf
00000520: 5f48 913a 02fd 6fbf cfb3 83ff 5ba7 7fbf
00000530: ab02 9bbd afb2 6abf e82c d835 628f 54bf
00000540: 0618 3e97 e098 86bf 9c2c 9cf4 3dd6 85bf
00000550: 79da b9ab 9fc5 87bf b8a8 3a76 b608 8abf
00000560: 8416 5344 0e8f 82bf 051c ebc7 f747 84bf
00000570: e6b8 b322 5f60 76bf 0ffe 5d9d 2397 81bf
00000580: d79e ba99 8921 9bbf c1fd d669 fd48 b93f
00000590: 0521 b97f 8569 8dbf f9a2 b6f7 ce11 85bf
000005a0: 3186 39e2 d8f3 89bf 2edb 88ab 0f63 89bf
000005b0: 1521 53fa 462e 83bf 18e1 70b9 30f5 7cbf
000005c0: 50de ae3d 2cad 93bf 30a5 928d 4843 7fbf
000005d0: af0b 935e 1a5c 8cbf f83d 8d34 1d74 6e3f
000005e0: 26e1 bd85 0727 92bf 54ee 7767 ed7b 6dbf
000005f0: b44a bcb0 8fbe 88bf 4956 d526 6114 89bf
00000600: 254c 465b 5380 9cbf 4b5f 21ed 9a9f 85bf
00000610: b1fa 49b3 7b64 89bf df52 d9fe e040 69bf
00000620: 9d9f 2e9d 8d32 89bf 2abd 7ade 26f7 68bf
00000630: b399 affb 4636 8fbf 69b6 c02b fa0b 71bf
00000640: 8f10 a86b b5f9 80bf e6bb 54be 6366 67bf
00000650: 68b5 02a5 4feb 15bf 7da3 6878 9e3c 8abf
00000660: a4cb 89fd 0822 89bf 7174 6926 9cbb 8bbf
00000670: ad68 72bf b65d 8ebf 23f7 44f5 f03b 85bf
00000680: 691c 571e f060 87bf e4eb 4bf8 2351 78bf
00000690: f818 3715 4d37 89bf 3208 6753 1595 9bbf
000006a0: bc47 91ff 1114 b33f a8d8 718a 6363 92bf
000006b0: 2adf 375b d97c 8abf ab6a 7cae 18e6 90bf
000006c0: 4d78 481b 39a2 8fbf 894d 656c 8d9e 8bbf
000006d0: da50 097a 1f17 87bf c4e4 9d4a d223 95bf
000006e0: b1a4 77ff a2ab 88bf 24dc 4707 8827 91bf
000006f0: 490f 993a afc6 6cbf e05b 1c0d 1c01 94bf
00000700: 2d03 bcb1 cd05 84bf e8b6 2daf 0ac0 8fbf
00000710: 771e 6827 d36f 8fbf e74f f059 1ca1 9cbf
00000720: 9c30 dfda 98c6 8ebf 4a65 349b a39e 8fbf
00000730: 2b2d 2b3b 1039 80bf 401c 007f 0c72 8fbf
00000740: 077e 0258 9a32 84bf 1f6e f6a0 cf9c 96bf
00000750: 80c1 6919 2b82 82bf 4abe d393 16ce 8cbf
00000760: 6197 9f03 d980 81bf 89d6 89aa 773b 7abf
00000770: 4b7f 6c5f afba 8fbf 8479 8924 f46f 8fbf
00000780: bb9d 308b 1d7b 90bf 1e1b 121f d3c2 91bf
00000790: 700e 7c90 9c1c 8cbf 2ab4 b7d4 a20c 8dbf
000007a0: 9477 cbd0 5aea 84bf 54e3 cb13 77ac 82bf
000007b0: 824b c757 7e01 98bf cd81 5c2a 3db0 b43f
000007c0: f1c0 e0f8 bce0 8cbf 4c43 9861 0867 84bf
000007d0: be7c b4b8 558f 8abf c50f 63aa 6aec 88bf
000007e0: 2a99 a87b b6a2 84bf d238 7dd4 c695 80bf
000007f0: 8167 2358 dfba 91bf ba7d a45c 5cc2 81bf
-0.011409736130351901 -0.02724493368851855 0.09653044556814587 -0.0176186382660868 -0.01282784491249952 -0.015845550757553818 -0.014647851586627472 -0.012469562095031788
-0.010187775482982137 -0.020595171956924493 -0.010907227121754912 -0.01643798092636634 -0.0007627048772561425 -0.019306957595305818 -0.008167432655654302 -0.01451603410537428
-0.014573180333267505 -0.02826209424165807 -0.013982123871427709 -0.014748982665538176 -0.006303776875118078 -0.014829693565373376 -0.008300104717707717 -0.020501901782584465
-0.0113099566798406 -0.012775144483700363 -0.006601203389933889 -0.0038487010097314933 -0.015029837336299779 -0.014828377051493412 -0.015787836821624514 -0.01691562606440386
-0.012943292756978713 -0.013591903861696291 -0.009192209473129598 -0.012310505095942654 -0.024630120768514167 0.051860069793158194 -0.01754526420038498 -0.0126257939808177
-0.016138631240418342 -0.014957859618961471 -0.013518287087372759 -0.011539126035691396 -0.019168559278995963 -0.012288780869070074 -0.016107323530131463 -0.005227972854914238
-0.01836608692826753 -0.010797533885481658 -0.015211238856529728 -0.014882578679516405 -0.025398296681333324 -0.015112034907778186 -0.01495114099983371 -0.008848370238860289
-0.014880812368637808 -0.011029485981793815 -0.022010620989528443 -0.009685203421166534 -0.01450271171348359 -0.009512131069860135 -0.0076948221375624124 -0.014889551890661653
-0.014880455371759128 -0.015382689965902807 -0.01652019708878365 -0.013515108986223042 -0.013811650741556424 -0.010570697406593162 0.024009788927071552 0.08150939687780036
-0.2888343027396033 0.118569842922724 -0.024446318821209477 -0.031843088944583 0.012865587231995015 -0.04752989568014583 -0.06926281001632482 0.1323030845178798
0.06935317029473556 0.07026005810074382 -0.0963719277029138 0.07762022953099251 -0.0318799315558209 0.04318619616336699 0.08843483261274862 0.10241561265963474
-0.0679347411865005 0.05415014759167124 -0.020679660194159327 0.023623408884791752 -0.0059908192611976534 -0.029690701683970713 0.0014151443960814442 -0.07534145374722902
-0.03931846784428114 -0.04464501544542483 0.07251732784716157 0.06723161838582181 0.05528779087826164 0.03313302602362436 0.05636521825126908 -0.028472941773503443
-0.06406852376597191 -0.008628812522014643 -0.021012985090649593 0.06645505583813584 -0.012919948684916355 -0.009306222750603537 -0.011931745627679301 -0.011264727668076097
-0.009478971794927935 -0.007706681188156533 -0.01575259803569974 -0.008245661947004053 -0.012326425544108555 -0.0007801187162427987 -0.0147248892275426 -0.005971055756835289
-0.011463710685247241 -0.011184145474597203 -0.021916107050109556 -0.010724878320038145 -0.011259412088142977 -0.004844511076153873 -0.011184248582891439 -0.0061204444618595776
-0.01566808648209368 -0.005564826352552999 -0.009446928275635667 -0.005206365240876928 -0.003448926609942134 -0.011396595082056307 -0.011184163858448446 -0.011880959830746515
-0.012890924602590519 -0.009819635292772882 -0.010403194174846348 -0.006771059403753813 -0.007662857158569475 -0.022283146128657963 0.08834572898862617 -0.012177051852372757
-0.008724439427596946 -0.011251696751415331 -0.010762867462695131 -0.008433242705209135 -0.00648770722561993 -0.01620863348969483 -0.0069901854661177576 -0.01196242574905551
0.0019076480248387073 -0.014847330803087684 -0.0038813302205440423 -0.010919252267416149 -0.010665710902901132 -0.02335003891516364 -0.009753911992198248 -0.010756596550597056
-0.003035645419185044 -0.01066308024180962 -0.0039503768242135015 -0.0144809544355542 -0.0039048236399504134 -0.0077279657054818 -0.003259032481622922 -0.00125488844730875
-0.011033777823978862 -0.010662540461927876 -0.011607406070863068 -0.012711930735651897 -0.009061919651127022 -0.009902892864728239 -0.005463000891934499 -0.008589056243862662
-0.026495122917053884 0.09876998743037914 -0.0143614225008979 -0.01028787320577028 -0.012672132877187799 -0.012395975515671145 -0.009365610613159473 -0.0070697692199746184
-0.019215289368473443 -0.007632525835256573 -0.013847547541791487 0.003717476884425027 -0.01772701028628023 -0.0035991322326916295 -0.012082216816940196 -0.012245902059173324
-0.02783327335926002 -0.010558328973430916 -0.012398687752690792 -0.0030826944774083732 -0.01230345378810665 -0.003047538677342883 -0.015240244441838557 -0.004161813001741879
-0.008288781497874957 -0.002856440364346724 -8.361505138295355e-05 -0.012810934114058753 -0.012271948087095037 -0.013541431352843443 -0.014827182500358605 -0.010368235096958117
-0.011415363241111547 -0.005936756617979964 -0.012312509736954955 -0.02693589517162582 0.0745249985641569 -0.017957263302797927 -0.012933443161258735 -0.016502748155384477
-0.015446134705651949 -0.013486008520579034 -0.011274572288279595 -0.020644460491415342 -0.012046121045346277 -0.01675236267507442 -0.0035127088965810943 -0.01953548269292671
-0.009776694284938959 -0.015503009291673434 -0.015350007667634486 -0.027958338727401524 -0.015027231387556399 -0.015439298795672091 -0.007921339803394453 -0.015354249597306802
-0.009862142382472973 -0.022082561683062104 -0.009037338936850103 -0.014064957033468013 -0.008546538756444457 -0.006404368825874259 -0.015492792224506188 -0.015350253453274794
-0.016094647999265393 -0.01734475972309745 -0.013726447257347035 -0.014184257618547209 -0.010212621209060115 -0.009118013660086945 -0.023443197352956975 0.08081419262135299
-0.01410052904620371 -0.009962144354206302 -0.012968702029466758 -0.012169678997800202 -0.010075975083122819 -0.008098176345495398 -0.017314424280676647 -0.00867149503443342

bias f8 [99]
00000000: 9958 1010 81d8 8dbf b633 74da 9f79 8ebf
00000010: 9946 aca3 a766 b33f 5476 b1d6 dae7 86bf
00000020: ffe4 be68 44d6 85bf 39fc 1a12 6027 89bf
00000030: 18da 5340 b171 8fbf 96c0 b43e 3fbb 88bf
00000040: dca8 827f 678f a03f eb8c 9297 8abe b03f
00000050: d4a8 fe26 174b 8ebf c177 cfa1 6d03 923f
00000060: 4657 1f53 1dca 87bf 0b41 39fe 21e4 8bbf
00000070: 267f eb64 74a2 89bf 06de cf7d c6e8 7bbf
00000080: 4d2a c829 687c 91bf 5329 ebb8 adcd 8fbf
00000090: a4b1 1393 1059 90bf 2d83 0f06 8377 80bf
000000a0: 0804 5dae 7cf2 82bf 85bd c391 4d28 76bf
000000b0: 7085 1731 b43f 8fbf 4998 65d0 0c0d 86bf
000000c0: 1c9d d778 f93d 89bf a4da 54c8 7af3 90bf
000000d0: b46c 8c64 c3c5 8bbf 9e0c 91fc 3651 90bf
000000e0: 546d 5c5e 8d05 71bf dbba 3c6f 0b1f 8cbf
000000f0: e8f6 d302 2a6b b33f 9016 bb4c 1537 90bf
00000100: 59cb 4eef 1fd3 8ebf 7469 8e36 dda6 82bf
00000110: 9c6f c6ca 084b 8cbf 5177 8098 e1c8 84bf
00000120: 7e7b a721 ce5a 84bf f340 317f 04b6 76bf
00000130: c452 b026 bb62 8cbf c47e 1e3f 304a 7dbf
00000140: 16f9 ec7a d145 81bf 27a3 0096 16a1 8cbf
00000150: f92e 7c74 7670 8f3f 0969 8df6 a5ad 90bf
00000160: 1ffb 3216 da46 7abf 0072 3ff4 69c0 89bf
00000170: 8ce6 9361 61fe 8cbf bcfd 106e f8f0 8bbf
00000180: 9d56 de1f 2dba 89bf 88a4 94c4 588e 91bf
00000190: 390c 89de ce00 84bf 99c0 a068 3a2c 85bf
000001a0: b84c 2b1f 2608 85bf 8ffe 3fe0 366a 91bf
000001b0: a53e a4ce b009 8abf 3cbf 198a f84d 8abf
000001c0: d7bd fcbd 9877 83bf a0da 618d 0bfb 8bbf
000001d0: b780 c56b edc3 8fbf c8c0 b445 5d38 80bf
000001e0: 34b3 fe84 7f1b 91bf 96ae 3a0a d449 90bf
000001f0: 3249 bb97 7fd1 8abf 7bd3 a6c1 7b43 8cbf
00000200: 07b3 98c6 dbdf 88bf 4842 e907 1bb8 8fbf
00000210: f145 4b3f 8314 91bf 374e afd9 a77a 8fbf
00000220: 4525 ac10 468a 8ebf 986b 99c8 ba61 89bf
00000230: 5631 142f d480 8dbf 5e42 531f 7879 8ebf
00000240: 86cd 1d13 7064 8bbf cf45 9629 089e 90bf
00000250: 78ae a43b 5042 8abf 5d08 0935 c701 85bf
00000260: c740 5537 2adc 653f 1dbc 1e34 8c68 8cbf
00000270: 2dbc 4f8d b07c 90bf 51a7 c4fa 996d 93bf
00000280: a13a 06c5 81c2 8fbf 8ecb 58c4 bdff 8abf
00000290: add6 d491 fca7 78bf 6feb 16c3 7cec 83bf
000002a0: b36a 7407 db75 90bf b66c f71f d3e2 90bf
000002b0: a746 56ef 3af5 81bf 235b 7856 458c 8cbf
000002c0: 9a6a fd68 69d2 81bf 594e fef5 c130 7d3f
000002d0: 1129 2754 e13d 8abf bb24 39ed 84b5 8abf
000002e0: 121b 884f 1040 a03f 0ede 5eff 635c 89bf
000002f0: e32b cff8 9a7d 71bf 535e af3f 6c73 86bf
00000300: dbdd 50c7 23b3 8dbf b979 8af0 7087 75bf
00000310: 97d1 88a1 ed26 90bf
-0.014573105147104125 -0.0148804176847309 0.07578513856813131 -0.011184415509144653 -0.010662588545403027 -0.012282133629353808 -0.015353569770451478 -0.012075895405900188
0.032344087901337665 0.06540743065356806 -0.014791661145711656 0.017591202736973125 -0.011615971659846413 -0.013618722506322919 -0.012516888933020786 -0.006813788754690636
-0.017076137113728063 -0.015529019552009393 -0.015964755036223757 -0.008040450689749424 -0.00925156981577581 -0.005409529691163488 -0.015258224247136382 -0.01076707850434046
-0.012325238228142292 -0.016553801038038288 -0.01356079722022794 -0.015934809842531032 -0.004155685635648016 -0.013731088001433125 0.07585394448320992 -0.015835125740315592
-0.0150511259942953 -0.009107330539156001 -0.013814991653639024 -0.01014877554558394 -0.00993882217602304 -0.0055446792276401145 -0.013860189550578446 -0.007150829756852498
-0.008433949054616845 -0.013979126408302968 0.015351224355547798 -0.016287415669787673 -0.006415225888473568 -0.012574031607010205 -0.01415706709893818 -0.013643208369216057
-0.012562134299325673 -0.017144572256402785 -0.009767166296233852 -0.010338264768592164 -0.010269449068266531 -0.017006738125927397 -0.012713795953941906 -0.012844030107970299
-0.009505456254912765 -0.01366242432798731 -0.015510420657563235 -0.007920006456146558 -0.016706459514966812 -0.015906632541983066 -0.013094899003963965 -0.013800589415817069
-0.012145726202186248 -0.015487872294358898 -0.016679812181626678 -0.015370665865623951 -0.014912173637201884 -0.012393435713581799 -0.014405877768262226 -0.014880121665926168
-0.013375163634669073 -0.016227843797940452 -0.012821795292061497 -0.01025729780770151 0.002668459371001661 -0.013871283855989397 -0.01610065329071746 -0.01897278397624486
-0.015507711243825386 -0.013183100275545614 -0.006019579506121237 -0.009728407577190372 -0.01607458336830332 -0.016490267587738493 -0.008768520764337607 -0.01393942041526725
-0.00870210982946178 0.007126577052889959 -0.012813339596409653 -0.013041532983282136 0.031738767345862354 -0.012383252363959787 -0.0042701772299080535 -0.010962339108956309
-0.014501838226450061 -0.005256119890559346 -0.015773499473839072

weight f8 [99, 99]
00000000: be41 ee49 0ccc b53f b77c c84b 9697 c53f
00000010: bec7 46b9 1e0c f0bf 6d71 e5da c75a c63f
00000020: 93eb aea4 b7c3 973f 636c 6e16 3332 9e3f
00000030: 893a 9b28 36f7 c43f 61e0 a4f4 8258 b63f
00000040: 426b affb d86b e1bf b1ac 2859 0bec e8bf
00000050: b1ba 77e7 0c8f b93f d362 2d15 79e2 d2bf
00000060: 3d92 ca20 b5d7 91bf 9a2f b48c 2cf3 bd3f
00000070: 2258 d14e f2aa 72bf bcd5 c46c 927b 703f
00000080: 69c8 7b39 5df0 bd3f 48fd 457a 463e b63f
00000090: 3669 cf0e 40b1 ba3f 90cc f02a 34e3 ab3f
000000a0: 882e 3bc8 81b1 b13f 3e24 2fff adb4 963f
000000b0: 361c f188 0905 a03f deb7 749c 7261 a23f
000000c0: e647 484f 5b83 793f 4c72 c958 fbbd b03f
000000d0: 4bba d8bc 43d7 983f 574d a156 117a 923f
000000e0: 14a4 ef13 cccc 7bbf b104 8bd5 d8dd bc3f
000000f0: 3a5c dc02 b0ba ffbf 4968 141a 137b c13f
00000100: 4cc1 6b2c 9f50 a03f c34d e99e 50db 6e3f
00000110: 2e91 265c aa93 bf3f 89a2 049d 894a a83f
00000120: e460 59a7 61a7 823f 56d4 d4bb ba25 bb3f
00000130: 4562 33ad 8124 b13f ccb2 0173 e993 523f
00000140: fc57 ce32 16bc a43f 876c 37a5 dd7c 8dbf
00000150: 1c32 2ca8 3543 e3bf b75c 56b9 c4f4 c73f
00000160: 7836 2e9d ce21 b63f 1071 70a8 ee6b 753f
00000170: e81d edfd e1fb bf3f ef2b a802 7030 953f
00000180: 62da beec 7036 bf3f bbc0 a731 0ed8 c53f
00000190: 4864 c098 44a3 ae3f 9b61 00a4 ba0c a03f
000001a0: 0528 253d a45f 9b3f 98d5 844c ac2d c63f
000001b0: e66c 1c5d c91c 663f 1ea2 2ec5 0f00 943f
000001c0: 4483 8879 be5b ac3f 5a02 9f34 f6c5 76bf
000001d0: 0719 f42b b7e1 c43f 6f0f 0135 d18d ab3f
000001e0: cc13 02ac cf4f a33f 9d5e 544c 9fb3 c03f
000001f0: ec88 faed a4e4 b43f 7425 68e0 edbc c63f
00000200: ebd2 fe88 c3c9 a23f 16c5 732d b840 a03f
00000210: 889a 9877 7654 bf3f 68fb f950 33da b83f
00000220: 5dd6 70df ec2c c53f bb79 d4c8 7b37 c53f
00000230: 15d8 c2b3 d4f8 7f3f f5c9 18db 06b9 953f
00000240: 7c7e 02c8 b247 b03f ce4b 871d 5ee1 b53f
00000250: acc5 3329 49eb c73f 860b 7178 54fe 673f
00000260: 3859 b373 b928 c7bf bb31 ec80 deb9 c63f
00000270: a76a 6eb6 f760 b43f 8e7b d75a 5b64 c53f
00000280: 79c9 83ae b775 c43f d3f8 fe93 f5d4 c53f
00000290: 2f94 fce1 f547 c43f 4c81 8d2f 3f96 c43f
000002a0: df7d 122d 863d c13f e7b9 cc37 1889 b63f
000002b0: 13cc 7dce 1445 b93f cd6d e296 3bfc c13f
000002c0: 0a56 9675 cfe0 b43f 8485 310e 511e babf
000002d0: 8b5e f9ca 686c a03f a3d8 223a 8a87 c43f
000002e0: a2a5 f90f caf4 e0bf 0ab9 60b5 ce5b 943f
000002f0: a120 5cac dd2a b83f 274e 7455 f5cf bb3f
00000300: 1665 350c 0e6c b83f 3b4f 6716 fc39 c03f
00000310: 49ad 8e2f a705 b73f 694d ca60 56e3 963f
00000320: 57a2 8899 4fc7 ab3f 03ba e90a 12a2 f5bf
00000330: 79ef 28f0 ca80 c03f 8040 fa96 b3aa c83f
00000340: 14fb b4a5 14c8 c23f cfea 1526 0609 c03f
00000350: dd18 8e5b 1bd4 c13f 1b90 b894 c944 f1bf
00000360: 4575 84eb d603 fbbf 37d7 6641 a580 7a3f
00000370: d2b8 cf0c 51ec f2bf 669c 0964 50b3 b23f
00000380: 5ec7 7795 e044 bc3f 2f55 dbd2 d824 c63f
00000390: 67bc bdbe 3290 c43f bc35 af23 74cd c63f
000003a0: 2d98 8e79 dac9 bb3f cfcf e71a a179 b03f
000003b0: 757b e625 7edd 75bf 80f5 b846 2c5f b63f
000003c0: 1132 4041 e305 cbbf 8531 5d1a f46e b73f
000003d0: 59a4 875a 42cc a63f 16a0 464b cfb0 b73f
000003e0: 288e b75a f270 5c3f 7f66 0698 dbc0 6bbf
000003f0: 6729 1a45 6717 a23f b59c 9098 26c8 c0bf
00000400: 1b20 4b40 77aa bd3f 465c 1f08 3c0c 07c0
00000410: 323f 70ff 3c07 c63f e4c4 5197 ec2a be3f
00000420: fae3 587d a090 a13f 21f3 849b 05a7 b63f
00000430: fc28 e8ea e3bb b43f 1696 4da7 476a cabf
00000440: a899 d0e0 a1e7 bc3f a717 db46 2c86 a03f
00000450: 962c e6ad d9f0 c03f f302 e144 3ba5 a63f
00000460: 9677 cd63 7f3e af3f 0277 51a6 6a0f f1bf
00000470: fe8f 2e07 0d0e a03f cd6c 50e6 4d28 c1bf
00000480: be70 cc3f efb0 bf3f ee1b c7ed 064c a63f
00000490: 70e3 5b26 51f5 913f 656c c0eb c300 82bf
000004a0: f028 90a0 4438 bc3f 8e7e a766 63a4 be3f
000004b0: 90af 4f35 f366 c23f c92f e96b 2d32 bb3f
000004c0: 3032 35f9 4dba b23f 1fc2 e8e6 6f7a bc3f
000004d0: 83e5 d0f8 e3b0 b03f 41ee 067f d062 ba3f
000004e0: 97a6 d567 4f0e bd3f 2d3c a050 f0e3 bb3f
000004f0: 62f9 2b4e 9379 973f dc13 8796 f9f1 82bf
00000500: ee3b 56c8 6f7c 803f c4ae c937 e094 bf3f
00000510: 06cb b69f 84d6 c73f 7bdd 8145 f047 b53f
00000520: c10c ee55 02e9 b73f 8686 7409 86a6 c43f
00000530: f96e 6b2c d117 b03f 577b 1a81 94e7 723f
00000540: 979c 1bd2 6745 6bbf 9407 162e 0c0b c63f
00000550: 990a ea4c d613 a13f 9a9a b3c9 7064 c23f
00000560: fac5 96c8 8459 c13f 0063 67d3 1697 c03f
00000570: e394 d85b 87bd c63f 5345 c9db 881c 943f
00000580: 28d0 1c9d deab bd3f 06a3 d56e 7957 633f
00000590: 4289 677b 93f1 a93f 015c 8d1c 0073 ba3f
000005a0: 935d f487 717b ba3f f2f4 9312 9689 c13f
000005b0: 67db a0ca cdcc b73f 2da9 601a 1532 b13f
000005c0: 9549 bce9 8223 943f b999 d815 0f73 923f
000005d0: 6dfd a3d4 7857 c13f c78f 35ad 8240 cabf
000005e0: 08c0 d03f ae9e c23f a59f 693c 9590 81bf
000005f0: 97c0 9b12 5e45 c73f 9d0f 39f1 7933 e3bf
00000600: 0ac6 5709 c8c1 ac3f 459b 0e5f bc02 a43f
00000610: bad7 3faa 4df5 4abf 463c d708 8d67 b33f
00000620: f383 3715 9f7b d13f f7eb f2ef fb17 a93f
00000630: 3786 4cd1 7716 973f 5fa2 aa61 a6ee c0bf
00000640: 235f fdd1 4681 c0bf 57eb 748f e95d b4bf
00000650: 3ecf ffc8 c710 c0bf f940 ab70 3c46 9cbf
00000660: 99ce ed23 dcc1 c0bf 3dc8 7836 7805 a6bf
00000670: f7fb 7341 b7c8 7d3f ccc4 08b8 f85b b1bf
00000680: 6cb9 7bf5 f624 88bf 8134 4d48 72ca 9f3f
00000690: 4475 1936 8fe8 b9bf 743b 89cf 3fd9 a6bf
000006a0: b864 47e3 df51 c0bf 7659 2a56 b37a c1bf
000006b0: c268 6fa0 6b97 c6bf ac74 7bba f4c3 aabf
000006c0: 856d 8a16 2cbc 99bf 447f 20c8 2c79 b6bf
000006d0: 2417 dd48 0ca2 a9bf 93fb f779 dca2 a63f
000006e0: f1af d3d2 e643 bfbf ed6e c112 cb29 943f
000006f0: ce7b e407 cd2d b9bf ab8d 1b0a 2a99 98bf
00000700: 015d 90c4 727c 95bf 3a5d 42c2 4bdf babf
00000710: d9b1 ce7f 6b54 b2bf 9dfa 7850 c1b9 a1bf
00000720: 1cfe f5e1 760b e0bf 2982 0a09 b30b 6cbf
00000730: 8600 5372 f586 bdbf 3007 2d95 158f b7bf
00000740: 3a2b 1730 4a3f c8bf 52b2 4052 ba0a b1bf
00000750: e765 9b33 7444 c2bf 895c a8b0 fba7 c2bf
00000760: d053 0d42 9825 c5bf 41b3 6569 69aa b9bf
00000770: 496a 620b fc0d c1bf 6a0e 9f4a ecb4 c0bf
00000780: 410a 8805 38e7 a53f a3db 1bc1 8610 c5bf
00000790: e769 ce01 c8ea a33f 8fa7 b9d3 36a0 983f
000007a0: fe72 47f6 8dbb 9cbf 87b0 b38f 122f 4c3f
000007b0: 0eac f6f2 b7ad 9bbf 3a6c e796 a6f8 b2bf
000007c0: af4b 0cd7 6b80 c9bf 82ea ddf4 f582 bdbf
000007d0: 4789 18a6 ed0c adbf 1543 9277 a503 c2bf
000007e0: 11af 6f26 0cef b3bf 0e41 b8ef 6562 b5bf
000007f0: 6459 24f2 ecb1 a7bf ecff 5d92 eafe 9e3f
0.0851447754378176 0.1686885709795882 -1.0029589879381855 0.17464540661138575 0.02320753996512399 0.029488371128178047 0.1637942980073215 0.08728807900195214
-0.5444149890639454 -0.778814005030105 0.09983902598444662 -0.2950728136834588 -0.01742442143098998 0.11699179110672589 -0.004557558550990522 0.0040240974160971575
0.11694891599089065 0.08688774571600277 0.10426712380959632 0.05446780227830417 0.06911479128319276 0.02217361326237132 0.03128843113568573 0.03589971694815096
0.006228787115576373 0.06539889257096226 0.02425866928222779 0.018043776428681237 -0.00678710668487616 0.11276011670544751 -1.983078013586932 0.1365684392301907
0.031865095303035135 0.0037666868804906175 0.12334694623729511 0.04744367639279285 0.009108317298498432 0.10604445539213833 0.06696329573186073 0.001133897760179514
0.04049748773756787 -0.014398318867213667 -0.6019542965528362 0.18715724038768197 0.08645335519232755 0.005229885347059829 0.1249371762215713 0.02069258705345683
0.12192445545120159 0.17065598892759745 0.05983938564913466 0.03134711505862527 0.026732031089785852 0.17326883064530985 0.002699273384576639 0.019531484994930286
0.05538745149193017 -0.0055598847774836705 0.1631382908455594 0.0538163544847795 0.03771828627308302 0.1304816363051388 0.08161383447671583 0.1776406617866929
0.03669558570201111 0.03174377016865486 0.12238254947497229 0.09707947470631739 0.165433510877551 0.1657557230582379 0.007805662982880453 0.02121363365422187
0.0635940302186046 0.08547008725081115 0.186867852323798 0.0029288911642039754 -0.18093031072084798 0.1775472764496849 0.07960460857285999 0.1671251481593256
0.15984245320539595 0.1705615017544405 0.15844605955604282 0.16083516904746842 0.1346900672988189 0.08802939760491989 0.09871034661573246 0.14051003329664838
0.08155533428938369 -0.1020250949527704 0.03207709768019836 0.1603863510005726 -0.5298815071120553 0.019881467647956653 0.0944040818977805 0.10864194237029122
0.09539878652630693 0.126769553126559 0.08993000899379412 0.02235159841309323 0.05425499676886563 -1.352067988041768 0.12893044210965934 0.19270939704847834
0.14673097697410553 0.12527539119385842 0.13928548784696818 -1.0792938050663057 -1.6884373855494499 0.006470342187119552 -1.1826944828458648 0.07304861490557499
0.11042598389738376 0.17299948020687725 0.1606505805352498 0.1781449484100629 0.1085487887163203 0.06435591608879963 -0.00533818508702565 0.08738972403167189
-0.21111717878410777 0.09153676646855587 0.044527123976714385 0.09254165256300015 0.0017359129659490023 -0.0033878601972901485 0.035334803757978865 -0.13110811662156655
0.11588235206284063 -2.8809738764353225 0.17209589455205215 0.11784247106858775 0.034306540776419994 0.08848605200632821 0.0809919785025705 -0.2063684050473717
0.11290942896503131 0.03227365841807677 0.1323501681439196 0.0442293664532424 0.06102369397443323 -1.0662638184361986 0.03135719978970995 -0.13404248948868372
0.12379355723936933 0.043548790479284935 0.01753737255691895 -0.008790522224492567 0.11023358268736039 0.11969586616714364 0.14376678565110668 0.1062343967871008
0.0731552823464845 0.11124324214393554 0.06519913506135393 0.10307028867003344 0.11349960598968277 0.10894681900411803 0.022924710890032236 -0.009250593096007557
0.008049844075484782 0.12336541521079442 0.18623407171761402 0.08312894532160968 0.09339918706796181 0.16133189641646 0.06286341986145406 0.004615383238756396
-0.0033289935826022565 0.17221214533134044 0.03335447014707888 0.14369020317754605 0.13554439348585828 0.12961087534383608 0.17765895828885112 0.019640100874601284
0.11590377174144406 0.0023610469567539897 0.05067120438958962 0.10331726739001114 0.10344609803393316 0.13701129824759267 0.0929688090990176 0.06717044729217454
0.019666715160448673 0.01801703997457491 0.13548193343010997 -0.20509370286447234 0.1454675494765072 -0.008576551347871783 0.18180442722905774 -0.6000337325462969
0.05616593469666149 0.03908337269176924 -0.0008226994727908922 0.07579881158675147 0.27317025253256516 0.049011109390867995 0.022546646260826555 -0.1322830178153422
-0.1289452100124829 -0.07955798866616469 -0.1255120974961929 -0.02761167943646201 -0.13091613535253968 -0.04301047959269553 0.007271495668873299 -0.06780962460540535
-0.01178925453811238 0.03104570928853834 -0.10120482512271162 -0.04462623031996929 -0.12749861333467094 -0.1365570231179835 -0.17649598439931508 -0.05227627540964738
-0.02513188254907341 -0.08778648267661732 -0.050064453024374594 0.044211282624011215 -0.12212984702244946 0.019690678615332514 -0.0983551162976106 -0.02402177511875229
-0.02098254513483955 -0.10496972553879838 -0.07160064573572046 -0.03462032420474268 -0.5013994611071584 -0.003423547438004233 -0.11534055749052827 -0.09202704326619648
-0.18943145130318745 -0.06656994350550718 -0.14271404762148096 -0.14575143934118653 -0.16520980096052407 -0.1002565271680398 -0.13323927455788212 -0.13052133220309098
0.042779684710712924 -0.16456684521810158 0.038900613995071436 0.024048668549233872 -0.028059213787730457 0.0008601036674043141 -0.02702987118179228 -0.07410660919360704
-0.19923160553352434 -0.11527955272860349 -0.0567392602208821 -0.14073627794689317 -0.07786632479081514 -0.0835326872113493 -0.04627933936915232 0.03026930349687966

bias f8 [99]
00000000: 17eb 3d9e 0484 c03f aef8 3669 ffbf b63f
00000010: b9b4 776e d18e c3bf b223 fa59 a8c6 c33f
00000020: 899b 42f1 243b 8e3f 2c32 9972 1626 7fbf
00000030: ecd0 0c71 0787 bd3f 4606 21d3 c088 bb3f
00000040: d12d 2f11 fb42 c43f a3b2 868c 659a c03f
00000050: a8e4 572b 780e b9bf 94dc fe52 cee1 c43f
00000060: 4511 0185 e462 99bf a55d a959 4a2b b1bf
00000070: 16c9 ddab e48e c1bf ac80 5bd2 16ce 90bf
00000080: 4473 242a 7dc9 b23f 609f 2de5 5dfc b73f
00000090: 7f26 9eaf 68cb c4bf c206 3b0f 7cda b83f
000000a0: 079f 2716 278a 693f 15ad 9d84 cc93 87bf
000000b0: daf9 e719 c133 92bf 1235 869d b108 a33f
000000c0: 6b7a 2e2b 56e0 afbf ee4d a5f8 437f a83f
000000d0: 10da d833 afeb c23f 7853 76d7 4154 b73f
000000e0: 5229 3fbd e2cc 8cbf d9b9 1fa7 aadc a63f
000000f0: 3dda c353 13d0 ad3f d1dd f9de 60ae a7bf
00000100: b389 cfbe 582f 7f3f b6f5 8427 d52e 7bbf
00000110: 16be d1b0 162d bbbf 11ce bd25 4e53 7e3f
00000120: 68b4 277d afac acbf 4686 5242 0ece bfbf
00000130: 9ae2 19ec 5b29 13bf 6a1a ac86 e504 c43f
00000140: 3c8c a51c 9f72 c63f 0448 ad3d 02e8 94bf
00000150: bca5 d5d1 9049 993f 0cdc 12ee 3e26 8b3f
00000160: d9ea cc67 c458 7b3f 7dea a26c f5d7 b83f
00000170: 4088 ef24 294e b4bf 4c3e a6c0 7854 a63f
00000180: 6cb8 28f0 6631 9f3f c208 912e e67b 9fbf
00000190: 2829 670e 9506 ba3f be1f 43e7 c11e ad3f
000001a0: 6d68 dea6 be5b c0bf 4cb2 e615 8649 b5bf
000001b0: c034 9177 2172 9e3f 7d63 008b faea 4cbf
000001c0: 3609 77de b450 bd3f 7399 bc7b ddf6 b8bf
000001d0: b49a 5ffd ee90 b4bf 9485 c8ab 829c 97bf
000001e0: b64f 820d ddbf b83f e909 d269 a1ec c3bf
000001f0: 49a9 72e9 6c5e 99bf ac35 33e4 bd21 a7bf
00000200: ee8f d90c d3d2 afbf a75d 43c9 65dd 723f
00000210: 9494 8a8c 0dfe bcbf edb8 dc15 e574 c0bf
00000220: b5d1 6d3c 7243 8a3f 7e7e 8600 4d59 c3bf
00000230: 931c dda4 9b3c a73f a3a9 210c ab88 b4bf
00000240: 3808 b147 af5b b1bf 1232 023d 022c c2bf
00000250: a0c0 6368 69e7 be3f 65b2 f9d9 a54e be3f
00000260: 348d 94d6 0a17 ba3f 3c82 332b 5e32 c4bf
00000270: dfde ef68 1a5e c1bf 5b16 7aa3 e6a0 933f
00000280: f9aa 1cb7 b58e aebf 2e3f 2fb9 d3b6 a03f
00000290: a803 db41 53e2 b73f 87a6 e476 5518 afbf
000002a0: 1df0 a10d 5fb5 a83f 0e67 ba8d c3cb c43f
000002b0: 7959 3b58 c644 5abf 53c2 ae4a 7310 b0bf
000002c0: 98b2 6a4c 32c0 bfbf da7a 55b8 d76e b23f
000002d0: fa75 ad3c 226d a83f 34cf d1e4 09a0 b33f
000002e0: 2484 4f43 0886 c23f 37a6 f398 713e b83f
000002f0: 7622 03eb 2e66 b63f 4c90 d6ed e1af bdbf
00000300: abbc 754a fb48 93bf a1e0 2eee f346 703f
00000310: c91e e76e a0e2 993f
0.12902887083677037 0.08886715239256901 -0.15279596227575157 0.15450004952825008 0.01476124631183297 -0.007604682623036523 0.11534163007746984 0.1075554385615983
0.15829408968998718 0.12971181260708872 -0.09787703569590411 0.16314105083958863 -0.02479130803864506 -0.06706680954936546 -0.13717325584327317 -0.016411167706679095
0.07338697699419777 0.09369456143542498 -0.16245754790388742 0.097083810537721 0.003117634144690021 -0.011512372777096528 -0.017775551992594042 0.037175703505548566
-0.062258427401720016 0.04784595880724028 0.14781751662822318 0.0911294127493657 -0.014062663460113232 0.04465230264746695 0.05822811505816048 -0.04625227662921428
0.007613512670078415 -0.006636459955470844 -0.10615674797895056 0.007403664840115024 -0.05600498583576369 -0.12423791045377994 -7.309554623614393e-05 0.1563994319514735
0.1753729715229343 -0.020416293158014312 0.024694693381581465 0.013256541862899617 0.006676451882237721 0.0970452680802882 -0.07931763793706725 0.043613217846652036
0.030461891563554763 -0.030746075241275823 0.10166293717989972 0.056875285606622125 -0.12779982707872098 -0.08315313372322314 0.02973224918632833 -0.0008825038294189982
0.11451273375772505 -0.0975168635455697 -0.080336510523561 -0.023057977423496093 0.09667760448274873 -0.15565889040961103 -0.024774266956833633 -0.045179304224443356
-0.06215533763750601 0.004605672457010191 -0.11325154000458532 -0.1285673481701858 0.012823955983301308 -0.15116274381306377 0.045384277224507795 -0.08021039053134031
-0.06780524730950865 -0.14196804026541138 0.12071856306625017 0.11838757106461058 0.10191409815574987 -0.15778710469659696 -0.13568430065037426 0.019168475845182758
-0.0596825395608302 0.0326448596530312 0.09329719884682552 -0.06073252750713914 0.048258753217823115 0.1624683801681432 -0.0016033112487342223 -0.06275101254755926
-0.12402643552440862 0.07200382471408365 0.0477076243466676 0.07666074596801026 0.14471534048701173 0.09470281585859018 0.08749669301608684 -0.11596500450701902
-0.018833090228721854 0.003973915913711463 0.025278574723215628

weight f8 [1, 99]
00000000: 308f 7fe0 7194 b83f c9ac 7d1e e158 d53f
00000010: 0f0b 9fc0 bb82 a7bf 79ec 4366 6d85 a73f
00000020: bef6 3768 02cc ca3f 269b 28a4 04d7 b0bf
00000030: d223 c38b ebbd c63f 6c0e ac84 2545 c43f
00000040: e1c1 c993 4132 c63f 6c62 4c32 3090 a23f
00000050: 05a5 ad82 4faa d0bf 98f5 066e 472e bc3f
00000060: e5f9 ccd9 5584 9cbf 14e2 4da9 b39e 95bf
00000070: f09a 5929 7c64 93bf d18a 2f2c b324 a9bf
00000080: 4911 df04 b968 9e3f 7adb 0842 04b1 d03f
00000090: 7c46 d768 51d0 adbf b685 043e 62bd b1bf
000000a0: 28fa a1c0 08f8 b13f 4303 3fef ea53 c9bf
000000b0: 2753 66bc 566e a8bf b18c 265b 01f8 c63f
000000c0: 70f9 1f46 9d8d b73f cd02 ca3a e20e a7bf
000000d0: 369e b47a a6fe cb3f 3538 9225 baf6 c33f
000000e0: 3dad e626 4234 a1bf ed62 9423 b58b cb3f
000000f0: 72da 8748 8241 ce3f 0ba2 ade4 8a5a c9bf
00000100: 3b0f 5de6 6a5d d63f 7e9f e6ba 8001 adbf
00000110: cac8 68a3 8507 b1bf 113b d054 fa0c abbf
00000120: 1409 ea84 d6f9 aabf 2b52 0dcc 7bb4 a9bf
00000130: 3036 f04f 7d94 a9bf 64e6 a103 8fbc b73f
00000140: 1062 30f5 13db a3bf 77b7 9e2a 947d a7bf
00000150: 2392 1891 eb53 b8bf e834 c378 1a2b fcbe
00000160: dcd1 6dbf e9ad b83f 7510 d3c0 5092 c93f
00000170: 9d3d c9fe 275a a8bf 3cef 7308 6082 c53f
00000180: 694b b76c 02cf b03f 0b7e 34fe 1aa1 a7bf
00000190: e9a2 3803 8bfc cb3f 1331 5bb4 85c9 ca3f
000001a0: 6874 d6fa a726 c2bf 9372 d48c 23aa c6bf
000001b0: 4f39 683a b98a 9cbf 0453 66c3 8361 ba3f
000001c0: d91d 51aa 3be4 ba3f 2099 f744 9f9c a0bf
000001d0: 7ef5 7a7f d4c8 a6bf a3a1 26bf 566a c63f
000001e0: f947 0203 3345 d33f 4a8a 50e6 5776 ccbf
000001f0: 1601 6ae1 3623 d03f b7dc ed76 41a1 cabf
00000200: 0f25 c976 d7bd a1bf 5178 8abf cc56 c73f
00000210: 23e6 7e1a 4031 b7bf 722b 8f64 57e8 9cbf
00000220: d9ba e2b3 000b abbf 478e 7365 02cd b0bf
00000230: d2c8 1d60 42c7 b5bf 84a9 219d c32a c1bf
00000240: 0a04 95e8 147e a6bf 5320 4b01 7a09 cabf
00000250: e2e7 f7cf 7f23 cc3f d359 87ea 6e7e 94bf
00000260: eac0 0909 08c4 d33f fc45 5e33 2430 a3bf
00000270: 237c 7f42 0f25 aebf 9fed cab8 1b4e a9bf
00000280: 2650 c3a1 52bc c2bf b1a2 1ec8 fa07 a7bf
00000290: 9a82 c5e7 f951 a3bf c38e 5d38 c665 c3bf
000002a0: d27d 916f a28b d63f 10b4 133e 3370 9dbf
000002b0: 2d9c 008c 1e8f a83f 60ca 4fa5 8a93 a7bf
000002c0: 0d2d 902f 91cc c1bf 7818 c780 f013 d53f
000002d0: f99f 8632 281a c53f 3b4b 07fd 2b21 423f
000002e0: 8f47 5655 96d3 91bf 4cb9 0aba 470d d43f
000002f0: c264 6974 ae71 b43f 49af 0f1f 562e a6bf
00000300: b6b1 0979 87b4 b8bf cf1a 2bc4 7b73 c23f
00000310: b2f1 0f86 1f75 d13f
0.09601508837618833 0.33354976632717787 -0.04591929174741526 0.04593984483104747 0.2093508728866506 -0.06578091628817315 0.17767090153054582 0.15836018541459695
0.1734086963292745 0.03625631917947633 -0.2603949333338991 0.11008116184435435 -0.027848569315432576 -0.021113211830625714 -0.018938007377438504 -0.04910812296272627
0.029696360513996187 0.2608042378300791 -0.05822996525570276 -0.06929601682761341 0.07019095137545917 -0.19787346536579706 -0.04771681833077528 0.17944352102958797
0.09200461351426781 -0.045035428692249725 0.21870881072503473 0.1559670146420459 -0.03360182499758444 0.2152010368088421 0.236374173560495 -0.19807563939981807
0.3494517564433754 -0.05665209084992194 -0.06652102698788834 -0.05283338818855133 -0.052687362408521704 -0.050205105456062014 -0.04996100998696951 0.09272092665369197
-0.03878080719022503 -0.045879965021739126 -0.0950305203665001 -2.686345355655965e-05 0.0964037029605786 0.19977769294030492 -0.04756283745939103 0.16804123318422082
0.065658713857642 -0.046151011973275834 0.21864450127875237 0.2092749720235437 -0.14180469272551766 -0.17706722618540435 -0.027872938337219207 0.10305045624256698
0.10504506023527628 -0.03244493214497113 -0.04450096183925732 0.17512020429172734 0.30109858793105065 -0.22236155267553875 0.25214931500524196 -0.20804613406264647
-0.03465150189419763 0.18233641960699967 -0.0905952515303388 -0.02823006201996798 -0.052818319281291166 -0.06562819458809442 -0.08507170530882327 -0.13411755726276564
-0.04393067683350445 -0.20341420233876537 0.21983335165697243 -0.020013554634567953 0.30883980639101927 -0.03747666480115794 -0.05887649237387673 -0.04942404394884225
-0.14637215517598284 -0.04498275463931146 -0.03773480371706235 -0.15154340507716854 0.3522726144346652 -0.02874832216632589 0.04796691378606286 -0.046047527961395884
-0.13905539343281995 0.32934200836132943 0.16486074893077765 0.0005532707964966752 -0.017408703764494823 0.3133105580153781 0.07985964147646299 -0.0433222687641704
-0.09650465683961937 0.1441492755750091 0.2727736291124315

bias f8 [1]
00000000: 4dc2 9872 713b c7bf
-0.18150156112234797
