fine-tuned models/NO778_YDL134C.pth (torch, 151895 bytes, 6 tensors)

weight f8 [117, 39]
0.002407326029502318 0.0076877752747864046 0.0038942787998906036 0.007596685846754907 0.0014229509008434798 0.02254230624828179 0.0004747425325070448 0.004858508897744323
0.008010086492737677 0.009137270421536921 0.007590282469756107 -0.004079811049647241 0.00777983529915948 0.020913549197836966 0.005971103063151033 0.008394599620286545
0.007878454038217905 0.005861466170486332 0.004852185285740234 0.007779831085603227 0.0033100968987684544 0.007779830534947257 0.005770147495635683 0.0036939469176843092
0.005284315725384964 0.008808350222297723 -0.002285861448825766 0.007779833184736872 0.006566568077589311 0.007316022113824611 0.0039394130037597175 0.0071444592465910945
0.009058449512378339 -6.221793831290023e-05 0.007632810102005109 0.00785707248986269 0.007779820730800941 0.007779835269855818 0.007779835972663932 -0.0005458809882246529
0.004564524746885641 0.0006623887043227068 0.0044743540028561605 -0.0014244020042215066 0.01902296531019571 -0.002274768651228328 0.0018125690654128652 0.004821617433032337
0.005974710625948088 0.004477375560822634 -0.006363085501303136 0.004653755995397334 0.017131498344304524 0.002951418432798566 0.005272328028385006 0.00474556039093465
0.0027888780444155904 0.0023258943605083504 0.00465377288059635 0.00033868809897781837 0.004653775464079257 0.002693224760474763 0.0010845285350049483 0.002664830043925554
0.0060480604458538435 -0.005121213267455676 0.0046537591297954916 0.0035249678397212478 0.004209986958348706 0.0010025830378427936 0.004062542903861857 0.006031065324433219
-0.002904749513778124 0.004516940886835493 0.00472567439259104 0.004653764259795845 0.00465377550079668 0.004653754808620635 -0.0008019936990404229 0.005632920114146548
0.0006588691844695081 0.005521798671173714 -0.0020124969136793235 0.023922684260061392 -0.003042494966091226 0.0021162831747566615 0.005941948854605413 0.00743444833273974
0.005521345784776277 -0.008184238851043867 0.005749659005121545 0.021562333520522253 0.0035220755383049457 0.006527785488297226 0.005868322415530316 0.003395121017819181
0.002751749323635486 0.005749683634578455 0.00031632415332434583 0.005749694937696209 0.0032497411913831142 0.0011563451449936822 0.003171754445294813 0.007509914736634191
-0.006659668151436513 0.005749694931406051 0.004281142329286679 0.0051708383813402325 0.0010766275134424178 0.004982755145255741 0.007531523831080395 -0.0038445966804279783
0.005572627294513772 0.0058426157480308185 0.005749694204284076 0.005749692149940207 0.005749678814344017 -0.004916054579384494 -0.006644541375379022 -0.005786656551837881
-0.006615137071616819 -0.004623821849612233 -0.011298138501093959 -0.004144021277171415 -0.005783404361577955 -0.006857267491510353 -0.007085529028631929 -0.006614204438269482
-0.0022248604823448697 -0.006671198066430696 -0.011174958260298204 -0.0060919188403974825 -0.0068607076651865315 -0.0067007773472091145 -0.006059046971792596 -0.005184916321950747
-0.006671146690145577 -0.005196363049678052 -0.00667125346087672 -0.006057738642806172 -0.004931301263926845 -0.005396466053764994 -0.006496544922814196 -0.003572596603214194
-0.006671238727287176 -0.006303246932761742 -0.006535276320358712 -0.00539650637157196 -0.006479362070058525 -0.0068700325059193774 -0.004119127150807346 -0.006626876229747512
-0.006694375956196562 -0.006671123227364831 -0.006671250084671725 -0.006671259301301084 -0.0026325349658124025 0.0033829850647128104 -0.0014079292894056776 0.003277633985933334
-0.0036784419254028244 0.020510287945961433 -0.004612206235526465 0.00010495001581360713 0.003643430783374577 0.005063823003612088 0.003286652224198359 -0.009211371590092755
0.0034917217986431674 0.018086926378587595 0.0014628099230921746 0.004239083242390268 0.0035983495277245965 0.001289632076505456 0.0010272191857332409 0.0034917245204186477
-0.0015805802649852436 0.0034917232522056417 0.0011548917104802138 -0.0005138382683343327 0.0013861529530518706 0.005398879840250729 -0.00809276086412998 0.0034917245166700447
0.0021758137628232676 0.002958848141541153 -0.0008121094742481552 0.0028035900445232526 0.0052412906652857735 -0.005433692005548547 0.003332673629860978 0.003575245580545324
0.0034917223593406675 0.003491723470968862 0.0034917236391119565 0.0006157852837831391 0.006713033228286599 0.0021138944791265248 0.006607502626480786 -0.0005105392910793621
0.02399832734491503 -0.0015552352772286219 0.0034056984136854943 0.007032686890333479 0.008407298385890029 0.006606355524627914 -0.006589326296021874 0.006821863223319874
0.02190616117379649 0.004714838613523394 0.007552382834650713 0.006933892385245852 0.00458925130226331 0.003773208304744261 0.006821841370295105 0.0016703674237083647
0.006821861617547857 0.004470200563106556 0.0023391898848218085 0.004226779295702528 0.008314603727736552 -0.004914333849016517 0.0068218662962772365 0.005438131287608073
0.006280315001250359 0.002389909808520204 0.006098491417413457 0.008438081477666148 -0.0022696505056251978 0.006654722717052786 0.0069096261806133215 0.0068218588238626735
0.006821861987620102 0.006821848091620444 -9.050529009438272e-05 0.006244872445967497 0.001408794327858343 0.006135390983717589 -0.0012722731875743987 0.024225931839027257
-0.0023093992630177996 0.0027947771776975277 0.006563148707915778 0.008012784282779968 0.006133552476448704 -0.0074602004723830825 0.0063588971481701355 0.02197571702139284
0.004170617496942102 0.007119366661022964 0.00647605479011264 0.0040422911954894935 0.0033158008491298023 0.0063589224396927635 0.0010077493370502725 0.006358902397146214
00000000: df23 2952 87b8 633f 2ab4 2576 377d 7f3f
00000010: 4a00 c902 e5e6 6f3f 1f18 51d4 b31d 7f3f
00000020: d4d4 4ee5 4950 573f 5e7e 7390 5415 973f
00000030: 71fa b0a6 db1c 3f3f 9391 2b0d 84e6 733f
00000040: 6c0d 329c 9767 803f 91e8 14ad 8fb6 823f
00000050: 699e 99ef fc16 7f3f 5975 83f0 fdb5 70bf
00000060: 77ba d9a2 bfdd 7f3f 4659 6487 5c6a 953f
00000070: d255 09c6 2775 783f 7f3b a816 3031 813f
00000080: de5a 7f33 9422 803f 033f 2458 3102 783f
00000090: 52b8 dc91 e2df 733f 1810 4c81 bedd 7f3f
000000a0: b15b a8bd c61d 6b3f 13d2 745b bedd 7f3f
000000b0: aaf1 962c 70a2 773f e532 8ca6 c442 6e3f
000000c0: c767 8eb3 01a5 753f 6d84 17c1 1c0a 823f
000000d0: 9b00 4f85 ccb9 62bf 9969 8c11 bfdd 7f3f
000000e0: 3746 3eb2 8be5 7a3f d476 73bb 67f7 7d3f
000000f0: c0ee 4320 c622 703f 59c7 fc2c 8243 7d3f
00000100: c5da 4383 3c8d 823f 3b6f 860a 604f 10bf
00000110: f72b 3cdc 9443 7f3f 4b10 176b 5e17 803f
00000120: 6174 b8b9 bbdd 7f3f 8136 d6a0 bfdd 7f3f
00000130: dd24 22d1 bfdd 7f3f 7ba9 f77e 2ee3 41bf
00000140: 958d 2748 40b2 723f 5851 41e9 84b4 453f
00000150: b1d2 ce41 b353 723f 0f37 9101 6056 57bf
00000160: d15b 8597 c17a 933f f8d3 d01e 89a2 62bf
00000170: ac62 e436 77b2 5d3f 85e7 0413 d5bf 733f
00000180: 5a3a dd2b f078 783f 94b6 b059 de56 723f
00000190: 6973 13c2 2d10 7abf a558 dc1c d10f 733f
000001a0: 0827 7b64 eb8a 913f 126c a9b4 922d 683f
000001b0: bc89 4ac7 6f98 753f 7a55 e2aa 1470 733f
000001c0: 9f17 c97f b3d8 663f 1771 cb06 c10d 633f
000001d0: a4e8 33a5 d50f 733f 31f5 034f 3e32 363f
000001e0: 4d05 bd56 d60f 733f 4666 8b08 1a10 663f
000001f0: d223 b9a5 d7c4 513f a8f9 6abc 8dd4 653f
00000200: 9b55 1bdd d9c5 783f 3936 fe37 fbf9 74bf
00000210: 0543 41f4 d10f 733f 30eb e9b2 64e0 6c3f
00000220: e1d5 d7c4 7d3e 713f 24d3 fa56 236d 503f
00000230: e928 928e e2a3 703f 9174 41c5 07b4 783f
00000240: 949f 4585 b3cb 67bf e2d6 3016 5b80 723f
00000250: 4ecb 7b8f 3a5b 733f b32e c954 d30f 733f
00000260: dff5 4259 d60f 733f 8c59 4ecb d00f 733f
00000270: 79bf bf5a 9c47 4abf 2a66 bd7a 8b12 773f
00000280: 3cf6 c0cc fe96 453f d718 538b 069e 763f
00000290: f384 ae0d 837c 60bf a134 1e2a 307f 983f
000002a0: 1c5a 150c 93ec 68bf 1af9 c9e0 2a56 613f
000002b0: 7c9f 14c0 9556 783f e627 3f87 9573 7e3f
000002c0: 1a56 35f9 8c9d 763f 26c0 a9f1 e5c2 80bf
000002d0: cf0c 3e56 f48c 773f 9831 2fb5 6f14 963f
000002e0: c9b1 08e8 53da 6c3f eb29 0013 e1bc 7a3f
000002f0: 43a0 b6cd 6109 783f 6890 99b7 15d0 6b3f
00000300: 94fb 412b d68a 663f c509 c4f2 fa8c 773f
00000310: fcfc b9e4 09bb 343f ad96 82fb fd8c 773f
00000320: 1707 6684 339f 6a3f eb24 2925 10f2 523f
00000330: dea8 a1b3 a6fb 693f f091 0863 b7c2 7e3f
00000340: a424 9a0e 2b47 7bbf 52ee 13fb fd8c 773f
00000350: 8b6f b364 1a89 713f ee24 da5b 042e 753f
00000360: 6310 74fd b3a3 513f 2d1c 4926 cc68 743f
00000370: ad51 b208 60d9 7e3f 94aa 4720 b47e 6fbf
00000380: e146 b9bf 52d3 763f 9664 f938 6dee 773f
00000390: 1144 1cc9 fd8c 773f c8dd ef3b fd8c 773f
000003a0: c093 85a7 f98c 773f 0709 4d5a db22 74bf
000003b0: ce7c 777e 4e37 7bbf 1f12 4bca bfb3 77bf
000003c0: 4332 1956 7918 7bbf 369d 06ba 6df0 72bf
000003d0: 8169 f17a 7a23 87bf 9704 c03d 52f9 70bf
000003e0: 61f7 7ac9 56b0 77bf d7f9 dab9 5d16 7cbf
000003f0: 97cd 3e37 b705 7dbf b8d6 05fc 7e17 7bbf
00000400: 658f 50e0 de39 62bf 0ecc 5318 4253 7bbf
00000410: ebdf 1882 e5e2 86bf 68c1 0703 d7f3 78bf
00000420: f84f ca30 f919 7cbf a14f 0639 4672 7bbf
00000430: 78a1 6b09 5fd1 78bf 967c 9060 c73c 75bf
00000440: 8aa1 c64d 3453 7bbf e443 b415 c848 75bf
00000450: 8732 01f7 5053 7bbf bbb1 bcd5 ffcf 78bf
00000460: 9810 7c1a d832 74bf 8f35 70d3 9a1a 76bf
00000470: b30d b0ff 1e9c 7abf 16c9 5232 4744 6dbf
00000480: 2626 8502 4d53 7bbf 010a f5f6 6ed1 79bf
00000490: b96a 0fe1 bbc4 7abf fd91 0ea6 a51a 76bf
000004a0: 199a 0983 1a8a 7abf b451 f74e c023 7cbf
000004b0: a89b 69c6 37df 70bf 4b09 e78a c824 7bbf
000004c0: d8ac c8dc 8f6b 7bbf ea06 6d01 2e53 7bbf
000004d0: f85e fe0e 5053 7bbf 8407 5b88 5253 7bbf
000004e0: 1301 ae72 d390 65bf 22d1 e746 a2b6 6b3f
000004f0: ab6d 3290 4811 57bf 7914 e458 b2d9 6a3f
00000500: 5788 a278 4022 6ebf 5f79 d61f a600 953f
00000510: de98 1aaf 3fe4 72bf 14ac e38a 1383 1b3f
00000520: e127 ea01 d4d8 6d3f 8c89 17a3 cdbd 743f
00000530: 48c8 1efa 9bec 6a3f 7494 d85d 69dd 82bf
00000540: 9d25 d2dd ab9a 6c3f 2cf1 1f15 6185 923f
00000550: 209f ea31 78f7 573f 53e5 413e 005d 713f
00000560: 9622 5131 497a 6d3f 0bec eae5 1b21 553f
00000570: 3140 bf33 78d4 503f b11b e653 ad9a 6c3f
00000580: d002 ff22 6fe5 59bf 73d4 98a5 ac9a 6c3f
00000590: ddaf 1f88 f7eb 523f 9d39 6a47 63d6 40bf
000005a0: ab6b 7066 f2b5 563f 4423 95c5 221d 763f
000005b0: 285f f7f9 ef92 80bf 4737 6253 ad9a 6c3f
000005c0: ee2c 831e 03d3 613f 3e55 0e80 273d 683f
000005d0: 5440 fbd0 779c 4abf 1b0d aff1 8df7 663f
000005e0: 7891 f03f e477 753f 7baa 5d97 a341 76bf
000005f0: c2aa f387 1f4d 6b3f dedb fe5a d549 6d3f
00000600: b8ef e12a ac9a 6c3f 5de0 a9c3 ac9a 6c3f
00000610: b8e2 c5da ac9a 6c3f d8cf ddd3 942d 443f
00000620: 495d c222 207f 7b3f 881d f674 2851 613f
00000630: 7104 06fb 7710 7b3f 1938 7dc7 b6ba 40bf
00000640: a1a2 6b7c 0493 983f 1661 cf29 217b 59bf
00000650: 9074 d169 44e6 6b3f 3adf 2683 4ece 7c3f
00000660: 74bf eb7c d837 813f 4bcf c80e 440f 7b3f
00000670: b9fa 1acf 68fd 7abf e033 12f7 3df1 7b3f
00000680: fa18 4a97 916e 963f fc7f 6ada dd4f 733f
00000690: 48d4 8154 3fef 7e3f 5734 7590 b666 7c3f
000006a0: 9bfe 19c4 2dcc 723f 08cb a2c8 fde8 6e3f
000006b0: abb9 5719 38f1 7b3f 3aa3 415d 075e 5b3f
000006c0: 9e29 b988 3df1 7b3f 1106 9a53 584f 723f
000006d0: a900 be01 a329 633f 3caf 7a6d 1950 713f
000006e0: d6f7 b738 3f07 813f 0045 9c72 0d21 74bf
000006f0: 823d 3eca 3ef1 7b3f 8e8f 8140 4b46 763f
00000700: 7488 9f38 63b9 793f 5eb9 f90e 0194 633f
00000710: 6a69 1553 bbfa 783f 9385 e61f fc47 813f
00000720: cc85 3d56 cd97 62bf e764 f086 fb41 7b3f
00000730: 94b7 92a7 444d 7c3f 1122 bec8 3cf1 7b3f
00000740: d88a 27a2 3df1 7b3f f687 3ae7 39f1 7b3f
00000750: b907 560b b5b9 17bf 7f1b c52e 3994 793f
00000760: 0202 2864 e914 573f d6ca f879 6c21 793f
00000770: 2486 dcee 4cd8 54bf 8ce0 dac3 aece 983f
00000780: 52b1 db49 29eb 62bf 4e7c 7d92 12e5 663f
00000790: a6d2 f2d0 f5e1 7a3f 0438 8eb3 0169 803f
000007a0: c4df b6f4 7e1f 793f a6cd ce50 968e 7ebf
000007b0: 55ea a374 c90b 7a3f 11f2 a667 cd80 963f
000007c0: 524d 0e9c 3515 713f f420 a36f 3229 7d3f
000007d0: 347e 7db8 a286 7a3f 85c1 c447 a68e 703f
000007e0: 813f a006 bd29 6b3f 3716 a93e d00b 7a3f
000007f0: e319 7e9c ce82 503f 0be1 58dd ca0b 7a3f

bias f8 [117]
0.0077798357698940146 0.004653776470006595 0.005749670588734685 -0.006671221240390554 0.003491721357689474 0.006821863880958213 0.006358914935632595 0.00527726891947834
0.008827638563408662 -0.051181447056340375 0.0023136125593587343 0.003926952676772841 0.007189060818951543 -0.031128516082988663 0.010319310240132261 -0.023929654910495382
0.004400001115788157 0.005149214193903834 0.007832291043212302 0.006571719071775722 0.0038669383382673394 0.005481063277506957 0.008445713574500562 0.007142152132960904
0.006870450328363939 0.005736258641611422 0.0049328992192219185 -0.012589569138535161 0.009790423358148172 0.010055484780877255 0.00540002382594491 0.006130447060462504
0.005959098871801067 0.007864234100917048 0.00831494638614118 0.005680809682011263 0.007189958695422293 0.002376461285466787 0.008025658181359363 -0.039087459796824243
0.003749134064847917 0.005491846286484283 0.017618263251228203 0.005428657163317985 -0.026859096977868386 0.0067924685565827255 -0.0725508229730485 0.0039157906811167695
0.012138692267263726 0.0027361898492546787 -0.05249246098394669 0.007814953784465844 0.0052487873514389105 0.0054670446707152575 -0.018386850009628447 0.009137780280754206
0.010627287986386201 0.007752778470473507 0.005902605180285014 0.00272275840943739 0.0074297389356584136 0.003488452533590321 0.007349614678390067 0.00600882122626319
0.00728346165631741 -0.04567907266630092 -0.04722043557408807 0.004875178732795391 0.012178834460353005 -0.049175651848770034 0.005170697893843981 -0.006187967640032697
0.00637557324328237 0.005310431401383625 0.005760358787343043 0.0065702584857344525 0.008567472462325943 0.0068731603030694755 0.004437668413784456 0.004515504609707382
0.0007554080505947644 0.004285730379422225 0.007592697204660284 0.005577958004944663 0.006513436118958886 0.0054397345461832895 0.005099480144709338 0.006782832458160144
0.005026731830768748 0.008328157821971775 -0.023993930637068155 -0.06378438176790799 0.0038683896681438183 0.005483421721975071 0.004588424466254693 0.005634515140412879
0.006544778848505275 0.008621778711021872 0.003872546352294691 0.004332246818445773 0.004054370731030965 -0.021622160380750217 0.008394360310631142 0.005981050930778151
0.0019309738508599633 0.007606165566472209 0.00841390533458924 0.006332130928847853 0.006410030718168466 0.004975350260608316 0.005181705142432798 0.00636073019928399
0.005323832824780482 0.006543571397875321 0.002315411037482262 0.017687463423579325 0.0050937741674278725
00000000: 57fa 32c3 bfdd 7f3f 497b dd9b d60f 733f
00000010: a120 4372 f78c 773f 0a69 d450 4853 7bbf
00000020: d677 37a1 ab9a 6c3f a77f 4324 3ef1 7b3f
00000030: a343 fc3a ce0b 7a3f 8de0 bd16 9e9d 753f
00000040: 562c 7297 3914 823f 29b2 8962 7434 aabf
00000050: 64df e548 fff3 623f bd67 1d55 b515 703f
00000060: 009e b3d1 4672 7d3f 0fa2 325a 27e0 9fbf
00000070: 193a fd5f 4a22 853f e406 fbf4 0381 98bf
00000080: 4f95 504e bc05 723f 2db4 01a9 5717 753f
00000090: 191a 114f 600a 803f b950 de67 f2ea 7a3f
000000a0: f32a 5ab6 8ead 6f3f 711e 63b8 4f73 763f
000000b0: 563b c07c fc4b 813f 1f92 58dd 1641 7d3f
000000c0: 567f 8177 3024 7c3f fd1d 4634 e77e 773f
000000d0: 0be8 220d 8534 743f 0613 c45d 8fc8 89bf
000000e0: c111 1961 000d 843f 40fe 3b52 f897 843f
000000f0: 4c4d aedb 551e 763f 7c19 275a 3d1c 793f
00000100: 3acb 496c 9168 783f 2f16 2ca2 1f1b 803f
00000110: 892b 5f36 6d07 813f a1dc c8bc c244 773f
00000120: 1989 4dd7 3773 7d3f 4491 0af0 cc77 633f
00000130: 80ae 579b c16f 803f 9dab 0583 4503 a4bf
00000140: 3986 4c06 81b6 6e3f a92a 1f43 9e7e 763f
00000150: a9c6 e7a1 850a 923f 0d71 a40f 5c3c 763f
00000160: 05eb 7a7c f380 9bbf c63f f464 6bd2 7b3f
00000170: c195 f7d3 b092 b2bf 5832 9d0e 010a 703f
00000180: 05cf 6eb2 2bdc 883f 9cdc 61bd 346a 663f
00000190: d4da 6cb6 4ae0 aabf 036b 6457 4901 803f
000001a0: 4017 4aa0 c07f 753f 175b 10a1 9c64 763f
000001b0: f809 df9d 00d4 92bf 0e03 b61b d4b6 823f
000001c0: ec0b c672 c2c3 853f 7db6 bd9f 60c1 7f3f
000001d0: c04e 5e83 542d 783f 3aa4 59ca 094e 663f
000001e0: 4c8b f15b a56e 7e3f 1112 74b1 d093 6c3f
000001f0: 3c02 e92a a11a 7e3f d40e 78aa b49c 783f
00000200: 624e d959 43d5 7d3f d43e 6d56 3f63 a7bf
00000210: f1b6 fce4 462d a8bf e41d 83d3 fef7 733f
00000220: 6056 af7d 37f1 883f bf5f e610 8d2d a9bf
00000230: 29f9 9fa5 de2d 753f f147 48ea 8d58 79bf
00000240: c99f 2be9 451d 7a3f e03f 2513 64c0 753f
00000250: 7e86 ad89 2c98 773f 85f1 2855 6ae9 7a3f
00000260: 0dd3 47b0 d28b 813f 60b1 8ceb 0727 7c3f
00000270: 7fb9 528b 3b2d 723f ec63 fa89 d97e 723f
00000280: 081a ac6f d2c0 483f 5900 1bfd e98d 713f
00000290: 104d eb22 8519 7f3f 0fed 5ab3 e9d8 763f
000002a0: c524 d931 d5ad 7a3f 7ab1 989f f947 763f
000002b0: 3888 2b47 31e3 743f 880e 50b9 50c8 7b3f
000002c0: 8b45 1a0d e996 743f 62b1 d96b 5a0e 813f
000002d0: 6b07 8e6d dd91 98bf 7e51 b059 2c54 b0bf
000002e0: c190 9ce3 99b0 6f3f 37fa 74cf c875 763f
000002f0: 4d1a 5dd0 4fcb 723f dc38 1ca4 3714 773f
00000300: a976 d2b1 b2ce 7a3f 7d0a c78c 4ba8 813f
00000310: b062 ee7d 51b9 6f3f 666d 74a6 b0be 713f
00000320: e654 21db 509b 703f f216 d19e 1e24 96bf
00000330: 0c3e 0af8 0f31 813f 7060 4b22 967f 783f
00000340: 69ec 7c62 17a3 5f3f 8a02 b285 a427 7f3f
00000350: 5d19 f341 4f3b 813f 62e4 0d74 b8ef 793f
00000360: f070 d084 6741 7a3f 50c1 7c6a 0861 743f
00000370: 22fc fc61 6939 753f a323 f482 b50d 7a3f
00000380: 32e8 f27d 71ce 753f 8857 7292 6ecd 7a3f
00000390: 4c5d d9d5 c4f7 623f 485a d093 a91c 923f
000003a0: a0a1 6597 35dd 743f

weight f8 [117, 117]
0.15637547530365953 0.0650377561748568 -0.0034424531039198283 -0.005434040050040215 0.0643254958729236 0.17514713288361833 0.02873762071833097 0.16075153074752144
0.06169949583346321 -2.6238615346132232 0.10604250605854028 0.05315834947076834 0.07623324040083874 -0.4505175053029042 0.04487923768735071 -0.30139240330179223
0.03715326236717697 0.16707608890181683 0.19692917587027442 0.10853682162323519 0.03303914123474379 0.011780581187061274 0.0025231372184804633 0.11224490847624546
0.073323597137095 0.04990131598395961 0.03621931588911794 -0.18115706849484406 0.07300877173470975 0.07019651099776558 0.032847971471588876 0.014189249737006686
0.18382155901014413 0.13121245923674715 0.11089404497366147 0.03201407989389348 0.1782903317946896 -0.004385467349772751 -0.002712848337627106 -1.0305130072462485
0.13460372111050897 0.09551011053932781 0.21742934684355503 0.011827481257323 -0.468967464718554 0.14033231893009604 -2.61127116919791 0.1798263762473905
0.061422253281117944 0.08520362362444105 -3.383982443907856 -0.012472326517309637 0.05184458200240964 0.06908178589815915 -0.15302288571775954 0.11751245196084993
0.17008051970861102 0.14944599298741232 0.1587244115548049 0.1143481879142023 0.11676969049260555 0.02722590405984749 0.15551156280328626 0.014641757364088794
0.09883335667204196 -2.024440097517381 -1.6795329680910676 0.1811575597780911 0.12481238621782578 -1.492386228490526 0.0367869166861402 -0.10350837023435559
0.1003139992969946 0.10099362176501273 0.08400594547038634 0.10071264856007556 0.11583207812533886 0.08354769180059413 0.023145482674395028 0.13501759489183496
-0.08655198621013936 0.05431202589563722 0.13680377061628882 -0.0005034835817404315 0.1511344019711388 0.014551489950209363 0.059201161051858596 0.07336233977597355
0.021934548692688603 0.12767716841093998 -0.3144133372383298 -3.043314407582984 0.0906329512759537 0.08999318068422271 0.17711000001170535 0.01096495604308345
0.14852594870509989 0.17683973054423657 0.005834153805981414 0.011973641732104539 0.06761752899279377 -0.3548463710772679 0.1291531484182124 0.11274055845794602
0.07788497715317065 0.0722466831878229 0.04090236959748215 0.03684098959727875 0.03902300455988706 0.08150353009235642 0.07792178026596636 0.05856931208736064
0.10827064526530468 0.03431261108089061 0.005322915355553984 0.14332664150343163 0.04554809194038222 -0.13931278839882763 -0.0696287455622797 -0.08676191084837599
-0.029512589335748646 -0.062255426721426414 -0.0718496343177337 -0.0269021227522986 -0.08166233889901704 -0.061730084196447786 -0.14643268990174033 -0.06783417645923047
-0.09043555091546486 0.008770945271778031 0.022004912913788827 -0.023930191774086975 -0.04139647788385869 -0.15038583222262544 -0.08831879131586821 -0.1364852144496578
-0.021516595950642432 -0.13794410401922363 -0.021380978356121766 -0.07278480406952817 0.01860630573516917 -0.01407561873660454 0.023472182096848274 -0.005437211095822976
-0.13659281945561685 -0.06077430328083648 -0.1004325631616129 -0.015956951425822707 -0.034293040976364625 -0.11223724118317603 -0.1189682238111453 -0.11882390368215588
-0.00491425471923369 0.00820610383236986 -0.04667170577380698 -0.09122562337699212 -0.11841243635974269 -0.05393839073845355 -0.018464446457010838 -0.09086772196626192
-0.10346562906450231 -0.07520302948393508 -0.05791958189125999 -0.30509810995471376 0.02845416891647494 0.0011719940362209028 -0.07034431102867866 -0.8133955846756117
0.027005631807130653 -0.12114136437966659 -0.14052424269597608 -0.0351463930251832 -0.06643900555124543 -0.0729007109111024 -0.0728313501552717 -0.08614126618396507
-0.0003378023427351385 -0.13224006161883026 -0.12067692335674007 -0.07292986755470379 -0.05322219234975982 -0.13373347282258014 -0.07339638350494428 -0.11277404312293078
-0.017419699700011122 -0.053932962120920996 -0.09167719321854116 -0.06744416025952414 -0.08202969358913063 -0.01086506117011817 -0.07147038777794203 -0.06471223716658006
-0.15839278891358693 -0.07817610270760514 -0.01676106027196218 -0.05608715279755009 -0.07576125034654824 -0.1256565085981905 -0.07272019373542392 -0.0336027320851522
0.01602509110904009 -0.14072158767256235 -0.06729489057255264 0.03312239813255376 -0.004584003429356679 0.02053866514974657 0.010960239928420663 0.043916760325962687
-0.23560716283736519 0.008257183337467274 -0.13959869315046355 -0.043061252170322285 0.005288955327189217 -0.08038742698359225 -0.1106369346480946 -0.0037237601892382297
0.018367800138548218 -0.09725549825838224 -0.05398203755225511 -0.10666809942401562 -0.0667502736063555 -0.11671001977597834 -0.012851674954448724 -0.09012893757539402
-0.03720309225887864 -0.0717185639239264 -0.13781636454170956 -0.08459486170713185 -0.10408163168656646 0.004583668770607078 0.03166526860625694 -0.022799085487846645
0.03477302922391219 -0.08697866432745517 0.1074265608503786 0.056251404670651255 0.021505777628050372 -0.030080948895418465 -0.00966509062177347 -0.01139339092944277
0.12629957693909322 0.07345143445158758 0.15879611505573626 -0.1640493264158923 -0.007155498729315039 0.007722489986414131 0.14197195712831204 0.022562665019336216
0.16729837332789782 0.041772185377356406 -0.011387756475400898 -0.0029607427074194444 -0.00844945232984328 0.09966403349611862 0.07865882166478659 0.13248540192476602
00000000: aaaf 2990 1c04 c43f 24b7 c67b 50a6 b03f
00000010: 7eab faef 5833 6cbf 771d cd04 0142 76bf
00000020: 92bc 12bd a277 b03f 5295 dca3 386b c63f
00000030: 80af 9914 656d 9d3f 73d8 ab93 8193 c43f
00000040: 8c9e 9189 1397 af3f 592b c31d abfd 04c0
00000050: 39df 8107 9a25 bb3f ddfa f838 9237 ab3f
00000060: edc3 638a 0584 b33f 734b e35f 47d5 dcbf
00000070: 13ee 4554 69fa a63f 276b dc5c 034a d3bf
00000080: 0f0c 9d9d c005 a33f 3171 e3d0 bf62 c53f
00000090: 16db fea8 f934 c93f c098 48b3 11c9 bb3f
000000a0: 2aab 2e9e 81ea a03f 8410 69d7 6a20 883f
000000b0: 7d32 c6fa 66ab 643f e848 0c13 15bc bc3f
000000c0: 5799 bad3 55c5 b23f 3c60 5b50 aa8c a93f
000000d0: bb5a 7492 568b a23f 79f2 4fa2 2730 c7bf
000000e0: 07f5 ebee b3b0 b23f 6059 0707 66f8 b13f
000000f0: 8bbb 6b06 73d1 a03f 1c0d 9adc 400f 8d3f
00000100: 66c8 1f00 7787 c73f a7f1 9fe2 91cb c03f
00000110: cda7 7b58 8d63 bc3f 7fc5 4f44 2664 a03f
00000120: b126 20b4 37d2 c63f 0aea 84ed 7ef6 71bf
00000130: 35a4 735c 4139 66bf 9e9a 0335 fb7c f0bf
00000140: 1376 0bda b13a c13f 7a29 34c1 5973 b83f
00000150: 661d f18e b9d4 cb3f b2d5 8da9 0139 883f
00000160: 98ab f61c 9003 debf 9134 30d0 68f6 c13f
00000170: a98a 8523 e2e3 04c0 f469 78fa 8c04 c73f
00000180: 6095 2dd2 bc72 af3f 0bb9 f798 e7cf b53f
00000190: 4494 3663 6512 0bc0 6b9b f953 178b 89bf
000001a0: e6ab 5980 5f8b aa3f df8e 2e0b 58af b13f
000001b0: df41 d900 4196 c3bf 516c 0bca 4b15 be3f
000001c0: c7e6 eace 32c5 c53f 5f18 33da 0b21 c33f
000001d0: a534 5ade 1451 c43f cfc7 723f ec45 bd3f
000001e0: a86c d451 9ee4 bd3f 8210 2a7e 1be1 9b3f
000001f0: 5cea 318a cde7 c33f c11f 4768 7ffc 8d3f
00000200: f80a a992 244d b93f b862 5ca6 0d32 00c0
00000210: 4314 28f6 5ddf fabf bbc4 55c1 2b30 c73f
00000220: eaf7 f05c b4f3 bf3f a9e1 c561 d0e0 f7bf
00000230: 50e0 2c18 bcd5 a23f 33d1 0449 867f babf
00000240: 51c2 4fa2 2dae b93f c2d7 95ce b7da b93f
00000250: a201 77e4 6981 b53f c0eb dbdb 4dc8 b93f
00000260: a444 60cb 2ba7 bd3f 4c99 f0ab 6163 b53f
00000270: eef0 8b0c 73b3 973f 04f6 38ad 4148 c13f
00000280: ff27 2d5e 4528 b6bf 10a6 002e c9ce ab3f
00000290: e91a 6234 c982 c13f f64a 42c2 867f 40bf
000002a0: 9c1e e240 5f58 c33f 34c4 8deb 2bcd 8d3f
000002b0: 63b7 3455 9d4f ae3f 6389 18d2 dfc7 b23f
000002c0: 1985 26a5 0276 963f ebab 62b7 b957 c03f
000002d0: a159 371e 591f d4bf c21d 6039 b558 08c0
000002e0: 1691 ab99 b833 b73f 72d9 e607 cb09 b73f
000002f0: 8623 ec5c 8aab c63f 3f62 db7c cb74 863f
00000300: 0adc 25f6 e502 c33f d614 a92d afa2 c63f
00000310: 0f90 bebc 8de5 773f e92e 3afd a285 883f
00000320: bc0e a9e3 614f b13f b264 b88d cdb5 d6bf
00000330: 1eda 5022 1788 c03f b578 82b3 90dc bc3f
00000340: affa b815 45f0 b33f 9842 8935 c27e b23f
00000350: dd0b 80c7 27f1 a43f 1df7 f17a d2dc a23f
00000360: 11b4 c0c0 d2fa a33f 4656 4154 6add b43f
00000370: bc6f e389 aef2 b33f f5c9 edff cbfc ad3f
00000380: 5503 8800 a0b7 bb3f f796 dd2c 6c91 a13f
00000390: 9d95 f135 7bcd 753f 7b8d f302 8758 c23f
000003a0: cfeb 8e5a 1452 a73f 4734 0b5f 00d5 c1bf
000003b0: df2e 0d81 30d3 b1bf a5da a151 0736 b6bf
000003c0: 05bc 1158 8c38 9ebf e7ba 887b f1df afbf
000003d0: 3ecd 9fd5 bc64 b2bf d409 a8e5 3a8c 9bbf
000003e0: 85da e2b2 d2e7 b4bf f32b 9be9 159b afbf
000003f0: 89bd 186f 4ebe c2bf 6d88 71a1 945d b1bf
00000400: d1e1 93c5 c826 b7bf 4741 c758 80f6 813f
00000410: e5a2 43b5 7488 963f a712 3afc 2781 98bf
00000420: 9f8c 5c4d eb31 a5bf 0fc6 96cb d73f c3bf
00000430: 4beb 5270 0f9c b6bf 2973 39f6 5878 c1bf
00000440: b28e b74f 7208 96bf a423 b803 27a8 c1bf
00000450: a821 2f2b e5e4 95bf 1ad8 1f61 06a2 b2bf
00000460: 5918 870a 880d 933f b04e 2891 add3 8cbf
00000470: 940a e379 1709 983f 157b 683d 5445 76bf
00000480: 4c14 379e df7b c1bf 9687 0e3a cf1d afbf
00000490: 7b8a 3bce f2b5 b9bf 1032 12e2 0457 90bf
000004a0: 9c9f f282 db8e a1bf c166 4670 94bb bcbf
000004b0: 3c36 8896 b374 bebf 0f44 4c4c 3e6b bebf
000004c0: 8c68 da34 f820 74bf 406c b39c 5cce 803f
000004d0: d1e1 e493 5ae5 a7bf ef1d f6fc 8f5a b7bf
000004e0: 9cd2 9a05 4750 bebf f4e8 7010 d09d abbf
000004f0: 1fb9 af06 58e8 92bf f06b 1b66 1b43 b7bf
00000500: 2994 1735 b97c babf 6791 3178 8140 b3bf
00000510: adba 0aac a2a7 adbf 0eec 1439 ba86 d3bf
00000520: 6c77 b9f3 1623 9d3f 9b93 a003 b333 533f
00000530: 78ec 53b3 1502 b2bf c78f 5c2d 5607 eabf
00000540: 9b82 ad45 5da7 9b3f bf17 34d6 1e03 bfbf
00000550: 3852 56c9 b2fc c1bf 0226 3b41 b5fe a1bf
00000560: f477 058c 2502 b1bf d0e4 37f9 9ea9 b2bf
00000570: bc58 0a4b 13a5 b2bf fd9d 18a1 5a0d b6bf
00000580: 9b2d ba03 6223 36bf fbdb ef09 3eed c0bf
00000590: 08f8 32cf aee4 bebf 7a8f 0c24 88ab b2bf
000005a0: 6695 206f f03f abbf 72a5 13ae 2d1e c1bf
000005b0: 9164 ccfa 1aca b2bf 75f9 0c7b c2de bcbf
000005c0: 021d 1242 78d6 91bf dcb5 f8e8 199d abbf
000005d0: 2fa7 a912 2878 b7bf 4fef 9e3e 0544 b1bf
000005e0: cb26 44e3 e5ff b4bf eb56 28d3 6b40 86bf
000005f0: c981 2322 e24b b2bf 920d 482e fb90 b0bf
00000600: de2d 2704 3746 c4bf 0239 755c 5903 b4bf
00000610: d381 dbb6 cf29 91bf d582 fb8d 74b7 acbf
00000620: d8e0 8adc 1665 b3bf 02b9 7a31 8315 c0bf
00000630: d738 da65 ca9d b2bf 4255 b996 6034 a1bf
00000640: cd3c eaa8 e168 903f 838a 723c 2a03 c2bf
00000650: 666f 32ea 3c3a b1bf 4a23 7d41 6bf5 a03f
00000660: d17b 050d adc6 72bf 8393 7c7c 1608 953f
00000670: 441b 6480 5272 863f 9e4b b1f2 417c a63f
00000680: 8d7f 8b21 6028 cebf bec9 2163 24e9 803f
00000690: 5fa2 d2b6 5ede c1bf 4dba 97db 1f0c a6bf
000006a0: 8f84 9022 dfa9 753f 3074 e739 4594 b4bf
000006b0: cc12 0bc0 b352 bcbf c2bc 6387 4a81 6ebf
000006c0: 60ff 9333 02cf 923f 633d 6080 bce5 b8bf
000006d0: 887d b79b 88a3 abbf bc78 8dbe 994e bbbf
000006e0: d56a 23c2 8b16 b1bf b4a7 0d36 b5e0 bdbf
000006f0: 0183 069d fa51 8abf 333e 4fa7 b012 b7bf
00000700: 81b8 1fa1 480c a3bf e1c0 91d6 255c b2bf
00000710: 7db6 4775 f7a3 c1bf 1a18 7144 02a8 b5bf
00000720: 5f47 3504 18a5 babf d17f 7237 53c6 723f
00000730: ad75 2a1a 6e36 a03f 8f2f 32ba a458 97bf
00000740: 4a5f 993e c5cd a13f 6976 bcd6 3b44 b6bf
00000750: 30fa 929d 4e80 bb3f 7f3a d4ee fbcc ac3f
00000760: 1aa0 594e 9c05 963f 6231 f44e 8acd 9ebf
00000770: 8a30 1181 4acb 83bf 6dc2 750b 6b55 87bf
00000780: 7cdc 39a4 952a c03f e458 d094 b6cd b23f
00000790: 02b8 725c 6e53 c43f 0b8c f17d 91ff c4bf
000007a0: 44b1 7690 154f 7dbf 1123 f71e 9ea1 7f3f
000007b0: f158 6818 232c c23f fa7f 79d1 aa1a 973f
000007c0: 5604 0f79 086a c53f 3309 28f4 2963 a53f
000007d0: b8e0 17cd 7652 87bf 3f24 35a3 2041 68bf
000007e0: 7c03 684b f24d 81bf 070a 7404 9583 b93f
000007f0: 7397 970a fc22 b43f b56d 3b1a 48f5 c03f

bias f8 [117]
-0.00859988878841742 -0.021975687499466514 0.04128809058103086 -0.09687262095191168 -0.07453646368460623 -0.01727520609235107 -0.024533250019747696 -0.0398078664996305
-0.05700604790909333 -0.0935181125535338 -0.053197917735698146 -0.06665789224376138 0.11223132247529329 0.059183516756980345 -0.015125558027746505 0.009573221874204094
-0.0040351820612396635 -0.11703280864561842 -0.10924853713978569 0.11801549458110157 0.06605427635058986 0.06339034621303566 0.0039503543679551036 0.13879555443205266
0.1044434681592392 0.0826767696373691 0.027541946344452478 -0.12035728332109144 0.008500850593541491 0.15380673268652023 0.0588978296302012 0.16974536841728444
-0.07734700834554804 0.0028657283873731463 -0.01021796568046244 -0.15201237686891345 0.0624252218781363 0.16491215001342122 -0.1565859074115913 -0.07739707379775801
-0.06001480747534977 -0.0994010686153009 0.12397626956144923 0.005876149800948532 -0.019395623254335997 -0.13139020199622778 0.1505543858349932 -0.05183426338866422
-0.05442078926566946 -0.07744536670190809 0.09575095997557273 -0.001147223028304509 -0.09015364876381991 0.15946658856467721 0.027143188464644273 0.12523803023120864
0.006593080591264711 -0.03675006498295558 -0.09278927575621647 -0.0823781787019417 0.14305961803026457 0.11766548848261174 0.10685510213751448 0.062319906023379834
0.07829426911433536 -0.10666666337000218 0.06360694976094877 0.12384151083568966 0.10753800943439366 0.00997839300130907 0.04308006397376361 -0.041359639187267844
0.059578366575233514 0.05336541656862661 0.06994857098970506 0.02919391799104278 -0.06167328192256681 0.009324448515475318 0.07129260130995448 0.034343497563724915
0.012994452799432118 -0.002043234145777733 -0.007892100221938017 0.01750274976955557 0.1491917744076955 0.006171388397918326 -0.10394341434792617 0.04749838145676499
-0.0012641097732621813 -0.032644206729494 0.023305341066430115 0.03460979781018379 -0.05812841662733813 -0.024755401912561974 -0.01229145967399671 0.005052237523340553
0.1396910432789851 0.024561191405289035 0.10815413726873878 -0.00628765220991101 -0.08661180985110972 0.049899585793725665 -0.10608504146912554 -0.0946933229794976
0.030684384925581128 0.11008497061071253 0.10221303348319741 -0.10423971284591105 0.1282069068044344 0.035090916394076695 0.13256584027768809 0.12815406463413634
0.0031476619155760607 -0.004695786880696915 0.1275059877691681 -0.02085687818986746 0.058123378455586024
00000000: 3390 c388 d19c 81bf f723 786c cb80 96bf
00000010: 3c06 856d b623 a53f 8cc3 dde2 a4cc b8bf
00000020: 3287 e259 d214 b3bf 3311 cb74 97b0 91bf
00000030: bc64 ff89 3e1f 99bf cc98 7a59 b261 a4bf
00000040: 2c35 e38e e52f adbf 6f46 0093 cdf0 b7bf
00000050: 0fbe c7e9 c13c abbf 270e 35db 7d10 b1bf
00000060: 4d43 9e23 31bb bc3f 86f3 dd49 4d4d ae3f
00000070: fddc 8008 26fa 8ebf 52bc ef16 209b 833f
00000080: 0f6b c8ef 3187 70bf 1b24 b1b5 dcf5 bdbf
00000090: 6ab6 264e b6f7 bbbf 1da8 a571 4336 be3f
000000a0: 84cd afdc eee8 b03f a2fa dd87 593a b03f
000000b0: 0470 162d 3f2e 703f 4ed4 8e7f 0dc4 c13f
000000c0: ff55 06a0 cebc ba3f bd3e bb05 4e2a b53f
000000d0: 983b 45bb f433 9c3f 0a12 b323 bccf bebf
000000e0: dcae 4cda e468 813f 3088 6563 f0af c33f
000000f0: 235a 2238 db27 ae3f 6ef6 ff5a 37ba c53f
00000100: 0d9e 4977 03cd b3bf 82dd 7e36 de79 673f
00000110: 9513 6f23 28ed 84bf 709e 9e3d 2475 c3bf
00000120: e603 d3dc 32f6 af3f f9a5 8261 d71b c53f
00000130: 4d73 accb 010b c4bf dc78 c46c 4bd0 b3bf
00000140: 29c5 c3c6 42ba aebf 24e2 e332 5972 b9bf
00000150: ef1a 3fa7 e8bc bf3f 0625 8bf3 9611 783f
00000160: 886b 403e 72dc 93bf 4d58 4be6 64d1 c0bf
00000170: ea1f b7b9 5d45 c33f 8a14 2244 058a aabf
00000180: a9b3 3cac 0add abbf cb1f 36a5 75d3 b3bf
00000190: 4adb a789 2283 b83f 287c d158 cdcb 52bf
000001a0: df40 0e3d 4f14 b7bf 2451 58b3 6669 c43f
000001b0: c62a 0f8b 6ccb 9b3f f17c 07be cc07 c03f
000001c0: 675b 4f98 5801 7b3f 0891 748e e7d0 a2bf
000001d0: abdf cab8 09c1 b7bf 4ccb 6d7f bc16 b5bf
000001e0: 08bc 680e c74f c23f 1a93 e650 531f be3f
000001f0: a863 1721 db5a bb3f 383a 850c 65e8 af3f
00000200: 616f 4fdd 170b b43f bf62 bfa6 814e bbbf
00000210: ec86 0589 8b48 b03f 3330 edc6 13b4 bf3f
00000220: 4300 9969 9c87 bb3f f2a9 db3c 8d6f 843f
00000230: 5ef9 c013 970e a63f b40a 5e33 172d a5bf
00000240: 8fbd fa3f 0e81 ae3f 43a1 cc3d b652 ab3f
00000250: e67e cd48 26e8 b13f 45f6 0dac 02e5 9d3f
00000260: 6ef0 c9f1 a393 afbf 02e9 6a4b b218 833f
00000270: 85b1 125f 3b40 b23f e29f bb8d 7895 a13f
00000280: fe7e 6cee d59c 8a3f 8ba6 b1fa f8bc 60bf
00000290: 55c1 ccc2 bb29 80bf 60b8 66a7 3dec 913f
000002a0: c4e5 f44f b718 c33f 9387 7075 2b47 793f
000002b0: 9648 421d 099c babf 9081 f035 b551 a83f
000002c0: d92b 9f88 0fb6 54bf 5434 9dd0 bdb6 a0bf
000002d0: 3f4d cff6 5add 973f fe8b 6e1b 60b8 a13f
000002e0: 9eee c300 02c3 adbf 3e85 74e6 7a59 99bf
000002f0: 8831 8fca 432c 89bf c12f f3ae a7b1 743f
00000300: c9b3 3667 65e1 c13f c896 58a7 9126 993f
00000310: 570f 7f52 fdaf bb3f 8056 c3c9 14c1 79bf
00000320: e004 c20a 312c b6bf a0d0 2242 708c a93f
00000330: 1667 b4a7 6328 bbbf b7b4 5855 d23d b8bf
00000340: 0253 0337 ba6b 9f3f 8fdb 8d54 872e bc3f
00000350: 7e08 0924 a22a ba3f 481c 9e2d 74af babf
00000360: b555 ec7b 1569 c03f a134 99c4 6ff7 a13f
00000370: 669b 47de eaf7 c03f b7fe 3936 5a67 c03f
00000380: 4c79 8f1f 20c9 693f e425 4eb1 e33b 73bf
00000390: e4a1 c1bf 1d52 c03f bb77 e366 815b 95bf
000003a0: 7115 33f3 58c2 ad3f

weight f8 [1, 117]
0.2503662870527302 0.0008869903927605699 -0.14011035155304674 -0.0007670947727304983 -0.0022993511772380917 0.07918122755055208 0.0007140967538303252 -0.0026612911755795774
-0.0019699676323475168 -0.00178604513004608 -0.003766258700013329 -0.0010487746160631767 0.28252204920202606 0.3402680873136844 -0.0033671572222102424 -0.03752263381157667
0.008257119414464381 -0.004868553181967029 -0.001830129104387804 0.2552569626188153 -0.19537529726605493 0.05680724350559633 0.072397149117539 -0.027164652373619553
0.2659021731510917 -0.18468113951872916 -0.038457936160351126 -0.0031312247870131566 0.12240917819314394 0.10938319039642114 0.2478671540344399 -0.05238157713416803
0.11446483433594588 0.08013263210927525 -0.043661148296925724 0.00038423911162843385 0.14533888463585146 0.12383331351264784 -0.0028604237126234238 -0.0011462276070813393
-0.0027764096303661964 -0.0044724719709727375 0.061972506864791735 0.13590635704266818 -0.002948279761252313 -0.0029837296281181288 0.045696757601230306 -0.003875235013303776
-0.002819430878610611 -0.0024370382792449387 0.12217434540301259 -0.0026014733178032047 -0.0031933061655419963 -0.18198200816267712 -0.19278994491859378 0.2758100090302048
-6.657953818794236e-05 -0.003321955188533134 0.0003325812662523604 -0.0034456067348661037 -0.006347126755431012 0.08644802761587365 0.12590798261589362 -0.18858565613331227
0.2135950277045871 -0.00029335908745189515 -0.07749827737066599 0.2185138359212197 0.13284430647039402 0.0395413133836743 0.26636293785019577 1.5607254864983645e-05
0.0823723796081095 0.10572629079769069 0.03175821397015467 0.16000288649325248 0.002017476887952236 -0.003409191444616742 0.20605163621805858 0.004124642202358954
-0.0013804332355141376 -0.0177085942923481 -0.0022470498693691722 0.10977316943077198 -0.20485619809535652 0.2571141472348246 -0.0023350477662305697 0.12559816816195168
-0.14896520102652167 0.003785965333388822 0.01514239177409926 -0.0018598173365466772 -0.003338502190418958 -0.00021691560538422732 -0.000996952328380241 0.01583982993285189
-0.07011116859762034 -0.002757747115393753 0.01977316249653228 -0.15122017688028982 -0.0012387789169131488 0.020201870338467102 -0.003149146250706704 -0.0025691083376426617
-0.0018890415542300823 0.24516856181300783 0.267192428924288 -0.0022338441919089267 0.1457394832064441 0.10644168865184342 -0.03494065857319695 0.23605916281219788
-0.004939573769918706 0.09869656862720115 -0.16896165923461795 -0.0552533525362987 0.2744418560756006
00000000: 2965 ba51 0006 d03f b36d 485d 9d10 4d3f
00000010: d42d e0d0 22ef c1bf 6b97 1c7b db22 49bf
00000020: c3d6 76c3 16d6 62bf cd68 c98e 3845 b43f
00000030: dec5 181a 4766 473f 2651 0ed2 21cd 65bf
00000040: 6e78 c351 5223 60bf a9f9 0d5b 3743 5dbf
00000050: d611 3cbe 6ada 6ebf 08c7 512b e12e 51bf
00000060: c62e 6e5c d714 d23f b29f b8cc f3c6 d53f
00000070: d8d7 cbc4 7095 6bbf 0838 29aa 2a36 a3bf
00000080: bd1b c1ce 1be9 803f 284c 204b 0cf1 73bf
00000090: 41c3 a629 1efc 5dbf f58a a14c 2156 d03f
000000a0: 271c 1ac8 0e02 c9bf 959c 10ca d615 ad3f
000000b0: 2e91 c89b 9e88 b23f 8526 35f6 0cd1 9bbf
000000c0: 17a2 678c 8a04 d13f dae1 35af a1a3 c7bf
000000d0: 7525 2934 c2b0 a3bf 6d0b d081 a7a6 69bf
000000e0: bbdd 1139 3556 bf3f e419 7c69 8900 bc3f
000000f0: 474e 2a64 1cba cf3f c186 6811 c2d1 aabf
00000100: 77d3 0340 914d bd3f d171 407a 9283 b43f
00000110: 550b 1508 c15a a6bf c3ef 146b 762e 393f
00000120: 818e 2cee 769a c23f ea2f b13f 8ab3 bf3f
00000130: 2aa9 8c49 be6e 67bf 2e15 8485 a0c7 52bf
00000140: 1ed2 0192 8dbe 66bf cfc9 8f0d ba51 72bf
00000150: 7288 7844 dcba af3f 908b 6827 6165 c13f
00000160: c9df eda4 fd26 68bf 3a2e 88a5 5571 68bf
00000170: 966d dcbe 9065 a73f f8bf aff4 f4be 6fbf
00000180: 3cc7 576d c618 67bf 48ae abf6 d6f6 63bf
00000190: 9c88 ea61 d146 bf3f 9ac1 485a af4f 65bf
000001a0: affd 8131 d928 6abf fa71 c2ba 2f4b c7bf
000001b0: eb24 3646 57ad c8bf ae6d 2c06 dfa6 d13f
000001c0: e26d a3c1 1374 11bf 9ec6 971c a536 6bbf
000001d0: 9cc8 6ca9 c9cb 353f 8350 b707 f639 6cbf
000001e0: 6908 69dd 71ff 79bf 2ff4 693b 7521 b63f
000001f0: 2bff d1b5 c01d c03f ed2b cb24 9323 c8bf
00000200: 4a2a 4af5 1457 cb3f a961 c4af bf39 33bf
00000210: 2ba8 cd56 edd6 b3bf b6a8 80e9 42f8 cb3f
00000220: b404 e0cf 0a01 c13f f3c4 a54f c23e a43f
00000230: 71b7 bb22 170c d13f 7a37 3a63 8a5d f03e
00000240: f0b1 8234 5b16 b53f 08b0 4dd1 e010 bb3f
00000250: a22a c3d4 9c42 a03f fd86 607e f97a c43f
00000260: 8e54 22a8 f486 603f 4975 55b8 97ed 6bbf
00000270: 4d03 6c67 e65f ca3f 688c de35 00e5 703f
00000280: 463d 74e6 f49d 56bf 8d04 60a5 3322 92bf
00000290: da0b 72b6 6768 62bf 70f5 ae2c 181a bc3f
000002a0: 01ea 9957 ba38 cabf 9c99 6de5 8e74 d03f
000002b0: 9b40 4c39 f320 63bf 34b7 58cc 9913 c03f
000002c0: 3053 53ad 4a11 c3bf 075f 4da9 be03 6f3f
000002d0: bfb1 9f6b f902 8f3f 37a3 c4a8 a378 5ebf
000002e0: cf14 37b7 5859 6bbf 0e68 bbdc 7a6e 2cbf
000002f0: 9b1d 5969 8555 50bf f3a8 24fe 5038 903f
00000300: 100c 3638 cef2 b1bf bcea 7a35 6a97 66bf
00000310: c35d 0b79 6a3f 943f 6e1c 19c9 2e5b c3bf
00000320: eff1 d8bb d04b 54bf e1de af91 ccaf 943f
00000330: d003 0705 3dcc 69bf da23 4889 cf0b 65bf
00000340: ed97 8eec 36f3 5ebf b442 7ff5 ae61 cf3f
00000350: e5fd fd45 ae19 d13f 9499 f4f7 b54c 62bf
00000360: 72c6 0d65 97a7 c23f 86d0 b033 c33f bb3f
00000370: 30c3 bef3 bde3 a1bf 2d8a 19c8 2f37 ce3f
00000380: f686 c4bc 843b 74bf 1b33 7ba6 2d44 b93f
00000390: f164 5820 89a0 c5bf af88 46dc 2a4a acbf
000003a0: 39e3 1f93 7490 d13f

bias f8 [1]
0.013559146323698411
00000000: 19fb 2cd0 e5c4 8b3f
