pre-trained models/NO125_YBL029C-A.pth (torch, 3287 bytes, 6 tensors)

weight f8 [3, 1]
-0.7777413974036543 0.5073848189099149 0.3943733130079045
00000000: 5502 53ed 41e3 e8bf 178f 7616 7f3c e03f
00000010: 0b2f 7290 693d d93f

bias f8 [3]
6.197795052728135 -0.011938074336360311 0.7095178138814989
00000000: 9b1c 4bc9 8aca 1840 caa8 d036 fd72 88bf
00000010: 4f9d d1b3 5eb4 e63f

weight f8 [3, 3]
-4.956515103051898 1.846405361694627 2.0890920252531093 -6.852289106346573 1.5939163158826408 2.2268570570194433 -5.171098403205656 1.4570269645489942
2.720377713022633
00000000: aff3 f6b1 78d3 13c0 1833 3a59 e08a fd3f
00000010: 415f 36e1 75b6 0040 7efb b979 be68 1bc0
00000020: 8f6d 1465 ae80 f93f 5e1f c66e 9ad0 0140
00000030: 1aaa 786b 34af 14c0 9f0c a281 fb4f f73f
00000040: 8a98 f163 55c3 0540

bias f8 [3]
1.4617164744346467 1.2109787786244608 1.292485199467735
00000000: 268a 5bd0 3063 f73f 2c79 a548 2b60 f33f
00000010: 8572 e4f5 04ae f43f

weight f8 [1, 3]
2.543361079581789 2.2323174251747586 2.0598777640992734
00000000: c8c8 95b1 cd58 0440 0655 fb3c c9db 0140
00000010: 0983 7431 a17a 0040

bias f8 [1]
1.7784375699664734
00000000: 4cbd 0ff4 7a74 fc3f
