pre-trained models/NO1373_YDR447C.pth (torch, 183767 bytes, 6 tensors)

weight f8 [129, 43]
0	0xbfad957923e21c9e	-0.05778101504352516
1	0x3fb3a0ccbb953832	0.0766723592725789
2	0xbfb51154b97ba372	-0.08229569939034123
3	0x3fb229760c4d9201	0.07094514656416352
4	0x3f8e82326ed4f23c	0.014896768576926005
5	0xbfc620742f308ce4	-0.17286541275198097
6	0xbfc3aa43ed4973ee	-0.15363358579898495
7	0x3fb4f12c5765e9c1	0.08180501111738804
8	0x3fb4c310f0a3d734	0.08110147356987057
9	0xbfb450eb19d7f927	-0.07935971623371484
10	0xbfa3fdda29f5574c	-0.039046113607283134
11	0x3fa12b1b416b8769	0.03353200124344264
12	0xbfc269a006d5436e	-0.1438484223713447
13	0xbfbbe36940ebd30f	-0.1089387687205312
14	0x3fb5398d58f539a0	0.0829094259436034
15	0xbfb479be4177ce54	-0.07998265360202456
16	0xbfc6fe74e9f7be07	-0.17964040207105844
17	0xbf8da80912c55b89	-0.014480658421843777
18	0xbfb6e7090cc690a6	-0.08946281968980205
19	0x3fbd6c5010559578	0.1149339713934604
20	0xbf85421dfe37b8c6	-0.010380014725310704
21	0xbf9403d1fac16e63	-0.01954582303038278
22	0xbfc33ca0f8861815	-0.15028774390174307
23	0x3fbcfbb3457f2e72	0.11321564146708754
24	0xbf976cdd902390df	-0.022876226351301262
25	0xbfc2746a2439ca88	-0.1441776921161202
26	0x3f86a6e99186eb85	0.011060547593720002
27	0xbf820224012be178	-0.008793145452259607
28	0xbfc19ee3af6e0b51	-0.13766141954337255
29	0x3f9389a8a9a30172	0.01907981429462908
30	0xbfb2ed002c8cb951	-0.07392884338034846
31	0xbfbb3c797eecf4e6	-0.10639151905793973
32	0x3fb1424587ba0980	0.06741747439995116
33	0xbfa3be81889000f5	-0.0385628203584946
34	0x3fa8381a9aa61153	0.047303038957610476
35	0xbfbeb6860b66a11e	-0.11997258928625285
36	0x3fb59ae50cebb9ce	0.08439475598763765
37	0xbfabf1e64e4ea92c	-0.054579922732346325
38	0x3fb90587d4d123ca	0.09774064012266517
39	0xbfc2bacdd5c4206d	-0.14632580697821443
40	0xbfc0f044d44dea94	-0.13233242384361132
41	0xbfbb07409a3fa451	-0.10557941213450418
42	0xbfa4e40562b901ac	-0.04080216245756971
43	0x3fc295a2840792da	0.14519149252659852
44	0x3fafa7f27a9c6376	0.0618282103225231
45	0x3fac4fc09a415c5e	0.055295962171549404
46	0xbfb7ee29b45ff669	-0.09347782758410407
47	0xbfb767900c0184b9	-0.0914239911376339
48	0x3fbfb19e0572d15d	0.12380397446651643
49	0x3fc9afe6141017f1	0.20068050365097137
50	0xbfb3deb9afee08d7	-0.07761726899301223
51	0xbfa3fa0fd899a7c3	-0.03901719588323218
52	0x3f8fcf612cee1daa	0.01553226393094927
53	0x3fa186b4c1380f53	0.03423085077886747
54	0x3faa9dc3063bdf5e	0.051984877119990655
55	0x3fc19b1357e4347b	0.13754503051351094
56	0x3fc1f0fe9810a0d7	0.14016706872030824
57	0xbfafbc53f11c39d5	-0.061983702833561395
58	0x3fc648e7e877c5ce	0.1740999112221701
59	0x3fc0c0ed68fca0e0	0.13088767648992583
60	0xbf94be83247ebbdb	-0.02025799665687687
61	0x3f93485f28b4249b	0.018830763682704626
62	0xbfb89c1d90c764dc	-0.09613213333740894
63	0x3fc7b7ca4c29f1e6	0.18529633253991945
64	0x3fc194a479eb6c5c	0.13734870865923454
65	0x3fa25709824099d6	0.035820290708489175
66	0x3fb8c188da9db81c	0.09670310342127703
67	0x3fa7f508a5b5dcda	0.046791334369965035
68	0x3fc811d63141089f	0.1880443325517875
69	0x3fa8f1524e7ffa3e	0.048716137011059577
70	0x3fb8a1599ef8e7bc	0.09621200686606718
71	0xbfb5454b4b9b647d	-0.08308859439729761
72	0x3f8435a595088cf5	0.009867948160780385
73	0x3fb3a226daafb938	0.07669298972152638
74	0x3f70f43c9a116b85	0.00413917229260619
75	0xbfaec9c3eafd6acc	-0.06013309711007295
76	0x3fa1bd3cecda2919	0.03464689627897339
77	0xbfaced9dac0f2116	-0.056500365498836455
78	0x3fb9998b861d291a	0.0999991609980139
79	0x3fc480c26272cb73	0.1601794224457894
80	0x3f6f8790b7b7acb6	0.003848822261479502
81	0x3fa8bcf234e198ad	0.04831654449007892
82	0x3fbf8240e3c07bd1	0.1230812603030096
83	0x3fc4ad189ac32f97	0.16153247410545354
84	0x3f9b854b84c29037	0.026875667551067486
85	0xbfb4ba0c3293162b	-0.08096386179666896
86	0xbfb660c0095727c5	-0.08741379001654
87	0xbfc5423bc354e0c1	-0.1660837844626766
88	0xbf53e7f6cc0cab7e	-0.001214972508203543
89	0xbfc30345a5ecac21	-0.14853735543997096
90	0xbfc1fbd959ab2247	-0.14049832228035283
91	0x3fb6e51e1ebc1a6d	0.08943355799065396
92	0x3f9e31c59c4fbc94	0.029486739793295927
93	0x3fbabb03878e2355	0.10441610393003249
94	0x3fb45f61244aa041	0.07958037506125583
95	0xbfbcbaebb0930319	-0.11222718296904723
96	0x3f91040ea4ac813c	0.01661703949059866
97	0xbfc49097d9679acb	-0.1606626330896773
98	0xbfb1ea545c7164dc	-0.06998183495433657
99	0xbfb5c5a7cd3134bc	-0.08504723319602453
100	0xbfc81dd02c8ec322	-0.1884098260466312
101	0x3fb9e85bec8add75	0.1012017681595035
102	0xbf8381e59c72b404	-0.009525102459827302
103	0xbfbc7a88deae138a	-0.11124473034403884
104	0x3f97cafc5b479ea9	0.023235266753458692
105	0xbf90795c6ab2ee9a	-0.01608795548666695
106	0x3fb2e357806c81c2	0.07378146062229177
107	0x3faaa2a372ea21ad	0.05202208307042908
108	0x3fba7b951e445764	0.10344821919383446
109	0x3fafbf24becaccbd	0.06200518445020851
110	0xbfc3802f9ac62603	-0.15234942490887712
111	0xbf834e284fc845da	-0.009426417288554246
112	0xbf998a2306add3ba	-0.024941012652067697
113	0xbfc1e001bf0896bc	-0.13964864566621837
114	0xbfc58ba6e836cee4	-0.16832434023455456
115	0x3fa2b177998243d5	0.036510217179177275
116	0xbfb2a695e9dd0ada	-0.07285439452702339
117	0x3fb4b98368285895	0.08095570843610951
118	0x3fabfb639c998bdb	0.054652321687875115
119	0xbfaa16dddfc09ddc	-0.050955709041143854
120	0x3faf63dec028d9f3	0.06130882354448266
121	0xbfc2b420ab91e624	-0.14612205865323447
122	0xbfbb683e39e8f971	-0.10705937303371173
123	0xbfa97d7c9a718bf8	-0.04978551278397697
124	0xbfb9407e938cc7db	-0.0986403570393856
125	0x3fb4a70340005bfc	0.08067341148885981
126	0xbfbffdf96781c0bd	-0.12496908928892743
127	0xbfc6bbf9f79175f8	-0.1776115855054028
128	0xbfb8957563cc366e	-0.09603055654971523
129	0x3f949aae1559d7bb	0.020121307423742723
130	0x3fa4358b3587da7e	0.03947100666475921
131	0xbfa6d90647d3d209	-0.044624515789028214
132	0x3f77e380163b8f6c	0.005832195605510165
133	0xbf9ecf524942ac2d	-0.030087743493521103
134	0xbfa841079d10bc8b	-0.04737113754560437
135	0xbf96343843093021	-0.021683577624841747
136	0x3fc2b9b501973bd2	0.14629232957528743
137	0x3fafbc6c5362f4b2	0.06198442953016449
138	0x3fb3cd59d8cc2bfa	0.0773521570483097
139	0x3fabc9c94a774f52	0.05427388223657083
140	0x3fc892c2725eeae8	0.19197874626646372
141	0x3fb81c35d80d98e0	0.09418045544370868
142	0xbfaae526c7a89a3e	-0.05252953707922757
143	0x3fc338c37fdad967	0.15016978972353032
144	0x3fc771b31f44e6e0	0.18315733935178624
145	0x3fc770841d598ae9	0.1831212180432751
146	0x3fbc2d52c2b0d303	0.11006657841864968
147	0xbf9be951fa6e3d57	-0.02725723353392814
148	0x3f9dce0ce5971aeb	0.02910633231456476
149	0x3fa53a0174dfef70	0.041458173291146205
150	0x3fb90d16f162e686	0.09785598176213214
151	0x3fc5633fb7c4f545	0.16709133599389694
152	0x3fc902a21a5c4144	0.19539285933616146
153	0xbf64864a6b87afc8	-0.002505441047324173
154	0xbf8d3d92226c1d2f	-0.014277593303190088
155	0x3f9f7dab460d5f70	0.03075282683434416
156	0xbfa3fe5863df283a	-0.039049875441904594
157	0x3fb4a15dbe01e06e	0.08058725251055573
158	0x3f94be4201e2cdd3	0.020257026066884464
159	0x3fb7973d33a68fb9	0.09215147505761835
160	0x3f7e1365481d267a	0.0073427158657267625
161	0x3fc0dc3fdd96ac7d	0.1317214805579602
162	0xbfa341625da4c404	-0.03760821717367693
163	0x3faa3beabd7a2790	0.05123838007882775
164	0xbfb3e99b3574ac5f	-0.07778329901764057
165	0xbfb23c552b160729	-0.0712331037703079
166	0x3fb2fdff14f843fa	0.07418817769963928
167	0xbfa08505b58604d4	-0.03226487961638616
168	0x3fa20dac2a4062f4	0.03526056304708006
169	0x3fb5d55b770a5da0	0.08528682380926123
170	0x3fc1fe3b006b38b5	0.1405709983868683
171	0x3fc188d20130b91a	0.13698792513009367
172	0x3fc7518f2598f079	0.18217648826419344
173	0x3fc6ea31e8e985e6	0.17902206299463258
174	0x3fb922c13db1e867	0.09818656688904213
175	0x3f931a24dfc602fe	0.018654419096040258
176	0xbfb454545c248fec	-0.07941176652508347
177	0x3fb14f583b54aeff	0.06761695335870498
178	0xbf9dd6fd7da39cd1	-0.029140435021784598
179	0xbfa4b8b9d1bab193	-0.04047184643909243
180	0xbf94a8700acc4685	-0.020173788699202184
181	0x3fc7bddf81b6eb35	0.1854819663402282
182	0xbfb39fde4869c227	-0.07665814655207069
183	0x3fbc16d5680fa98d	0.10972341337734388
184	0x3f856e21c1e5f94a	0.010463966111953344
185	0xbf87970bd30efad5	-0.011518566492552488
186	0x3fc3f319f9d92f9c	0.1558563680613333
187	0x3fcb4620b0e16bf5	0.2130776275324419
188	0x3fca5deb2e7b282e	0.20599117059310984
189	0x3fa8b080801238c9	0.04822160304421314
190	0xbf9292ce0543d3cf	-0.018138140746447647
191	0xbfa6eebd7bfc3b74	-0.0447901929711553
192	0xbfb65348097856dc	-0.08720827323153507
193	0xbfaf9d504d9e681c	-0.06174708316321206
194	0x3fc99a3718dfab3f	0.2000187751248976
195	0xbfb59a1610a4c986	-0.08438241869297344
196	0x3fbbbfbed826e6d1	0.10839455392024468
197	0x3fcaf6123da27196	0.2106344986867838
198	0x3fc0bb61dfd240f3	0.13071845463537776
199	0xbfb09f71bbfd1a97	-0.06493292655532411
200	0x3fbe5b0e8a3ec305	0.1185769164574247
201	0x3fbf7e9d1ac0375c	0.12302572157952113
202	0xbfb5c35cf0015f6a	-0.08501225337510979
203	0x3fb841cde1e123ee	0.09475409283290023
204	0xbfb0c6ed0b2ab61f	-0.06553536913516965
205	0x3f82b06518bea679	0.009125509088181648
206	0xbfb0cded85b22c0f	-0.06564220918714646
207	0xbf8cf429f3303bdb	-0.014137580617925074
208	0x3fc051493c297c3d	0.12748065412140078
209	0x3f8498311e2e398a	0.01005590794900681
210	0xbfadf234b04666a2	-0.05848850871843793
211	0xbfa18132e356351e	-0.03418883347613132
212	0x3fc9e8cd61abd0b9	0.20241706151103303
213	0x3f99e0f66b90d3e2	0.025272226634303403
214	0x3faead4d753ad0b8	0.05991594368006886
215	0x3fc56c91a954de64	0.1673757626356177
216	0x3fbb747404012342	0.10724568460240128
217	0x3fbedc7cfd2057c8	0.12055188350527068
218	0x3fd3249cb0ffe0e8	0.2991096237669937
219	0xbfc7b1a7a18de76a	-0.18510909450906904
220	0xbfd9312470b6b1ba	-0.3936244106978638
221	0x3fd7a596fbb56549	0.369481797989995
222	0xbfe42488de635133	-0.6294597953333664
223	0x3fda9bcfed198b9b	0.4157600226810076
224	0xbfee3f5bd0dd3e88	-0.9452342109088514
225	0xbf99272ccd755469	-0.024563503303700083
226	0xbfd569087e3a26d9	-0.33453571631308204
227	0x3fc13cdca8c19a81	0.1346698593144602
228	0x3fd0026539c07678	0.2501462043745515
229	0x3fb0faa42d128f66	0.06632448292162749
230	0x3fa3f956ee938748	0.039011685011941355
231	0xbfdb1a872c146086	-0.42349414162300325
232	0x3fd0dfcfc33d929c	0.2636603743215262
233	0xbfd1c1c3574ceca3	-0.277451358084088
234	0x3fbd474f55670bed	0.11436935267469979
235	0xbfcd7242e87fe240	-0.23004947998539826
236	0x3fdb75d7dde8f70d	0.4290675799455677
237	0x3fd5e91bf3d26309	0.3423528557846543
238	0x3fd950830217f81b	0.39553904728370676
239	0x3fd34cd98aabbb76	0.3015655378539387
240	0xbfc1a2f902d4293b	-0.13778603208658943
241	0xbfd09430d4b1a84d	-0.25904484530349664
242	0xbfb4c7ffec00b050	-0.08117675315651351
243	0xbfeb829d5cccc87a	-0.8596941769121849
244	0xbfd184ccfa01211f	-0.27373051084988903
245	0x3fbf1b64fbca2044	0.12151175639348916
246	0x3fb90a74ca87ecb4	0.09781579918483169
247	0x3f7d386d6a1b942d	0.0071338914874319705
248	0xbfa499975541753d	-0.04023430743903098
249	0x3fd02ab9b4f76cad	0.25260775253782236
250	0xbfdd8409a9c9e4e5	-0.46118394452021355
251	0x3fc8d72dc09dc9f4	0.19406673340888825
252	0x3fc6c3995bf1d535	0.1778442095707448
253	0xbf92050281328e9f	-0.017597235808934127
254	0x3fe1e99282a8a30c	0.559762244408462
255	0xbfb7034f491fb529	-0.08989425215959969

bias f8 [129]
0	0x3fbc540414d55f46	0.11065698155050283
1	0x3fc398bdac65a420	0.15309878270935062
2	0xbfc74bdaf62bfa2c	-0.18200242061716787
3	0x3fc4ce2a15cfd0eb	0.16254163804081342
4	0x3f94d2a8e759cf75	0.020334853287252003
5	0x4001ff9927a250b4	2.249803838387459
6	0xbfb51e1778635bcf	-0.08249041260874822
7	0xbfe2a0ba8db6b4a2	-0.58212020567375
8	0xc006d61c855ab8f8	-2.8545465868293114
9	0x3fb052179ea5227e	0.0637526285473857
10	0x3faec0608c3209f3	0.060061471093849315
11	0x3faa519c8e54f8bb	0.05140389668894004
12	0xbfbe3ea1c8174539	-0.11814318785697688
13	0xbf934514545fc916	-0.018818204545774618
14	0xbfce4ed4ca08c185	-0.23678073754264176
15	0xbfb1f82a1d2e8b61	-0.07019293987700116
16	0x3fc7cdf1206c3c11	0.18597234805244559
17	0xbfc4e791a8b351c6	-0.16331692445113627
18	0xbfa3d6d4ea406d4d	-0.03874841079251699
19	0xbfb76f8a168ca2db	-0.0915457062770985
20	0x3fc94b7768974996	0.19761555296879568
21	0x3fbe5ec2578573b0	0.11863340985060122
22	0x3fb305b6e72e7062	0.07430594581677633
23	0xbff39d64cb0c9fd5	-1.2259262019742796
24	0xbfe55e73ca0f58ba	-0.6677798220141746
25	0x3fe6548956f666b0	0.6978193949209608
26	0xbfe61cb677c5d681	-0.691004976207026
27	0x3fafd0090f275873	0.06213405904752358
28	0x3f9302c3d99ca9a5	0.018565235287647436
29	0x3f80974eae3dff6f	0.00810109585995608
30	0xbfc0069f5235a999	-0.12520209802762564
31	0xbf81826e072e1da2	-0.008549556345100854
32	0x3fcf733bbb680820	0.24570414210035185
33	0xbfe727944b5910a0	-0.723581454433333
34	0xbfeaf4ebed8995f0	-0.8423976554301458
35	0xbfb3bda2801dbd98	-0.07711234691463742
36	0xbfcd993a9ac75d8f	-0.23123867566640086
37	0x3fae25ab923215b6	0.05888115081419747
38	0x3fa0c6ce57a44d72	0.0327667695984485
39	0xc00d9235a3bccf12	-3.6963913719172377
40	0xbfb65ccd10d19bde	-0.0873535314618574
41	0xbfb11c9091ea8e7a	-0.06684211313636892
42	0x3fbf1390638bc840	0.12139227323840007
43	0xbfb6249da94cdb6b	-0.08649621375375964
44	0xbfed049af12c6c61	-0.9068121633930667
45	0xbfa5eecbfe3cbef0	-0.04283750036699796
46	0xbfd32378e8099238	-0.2990400567998992
47	0xbf98b5104cafcb35	-0.024128203087410333
48	0xbfb39db0e6a1ece9	-0.07662492399861133
49	0x400d736c60753371	3.6813590560690774
50	0x3fad5f907437f35d	0.057369722544513314
51	0x3fa0ee28b970e257	0.03306700957950131
52	0x3fb82fcf0d580055	0.09447950435424109
53	0x400340c729d4bb0a	2.40662987404301
54	0xbf9ea1dd0386c18b	-0.02991433462165242
55	0x3faa61d4c60fc798	0.05152764241928692
56	0x3fc23134481f0087	0.14212659379518675
57	0x3f8c86ca52c76f91	0.013928967143264777
58	0x3fa84e106b7f220f	0.04747058212484855
59	0xbfb298afe0bd44ae	-0.07264231907653837
60	0x3f9798c73f2bd0b7	0.023043740492497657
61	0x3fa67e842eecae51	0.0439339930802275
62	0xbfe7aa2d17fa0d38	-0.7395234554573227
63	0x4001d6c770ec8f7d	2.2298725912277733
64	0xc004aae10a502516	-2.5834370427807114
65	0xbfd40b4414ad2aaa	-0.313187618438557
66	0xbfbefaee29622979	-0.12101639280641575
67	0xbfb8d4ddebc875b3	-0.09699809080526371
68	0x3fb92cf8a04dd86a	0.09834245599435723
69	0xbfb3758d4854f040	-0.07601244941628327
70	0x3fa759e4a775fc6e	0.045607705537798235
71	0xbfe560254fd403b3	-0.6679865416664285
72	0xbf59c381a075cb59	-0.0015724912535374973
73	0x3fb4dbe366ce1b44	0.08148022899522994
74	0xbfbf24f62cb4ac4c	-0.12165773955773423
75	0xbfe05e9624b311cd	-0.5115462033068582
76	0xbfcafb57f79d72a8	-0.2107953986222999
77	0xbfafd1739ea00f66	-0.06214486419051361
78	0xbfb4c6ed822752ea	-0.0811603968389353
79	0x3fc099564a69260f	0.12967947610222594
80	0xbfbf5bd0b0b0eb1b	-0.1224947387099004
81	0xbfc20bbc4a881025	-0.14098313941224308
82	0x3fa88a09aca86e67	0.04792814476624301
83	0xbfd45746d1e3fb41	-0.3178269433700969
84	0xbf9a02bc4d80f7a8	-0.025401060324149377
85	0x3fd56b8419ad386d	0.33468725688442796
86	0xbf8f40ef04ebcb65	-0.015260569894484719
87	0xbfb8911413c2134d	-0.09596372110725078
88	0x3fc7186926546f65	0.18043245669911837
89	0x3fc40a893faf34af	0.15657153710927704
90	0x3fbdbb32e42c1b01	0.11613767691242673
91	0xbfaf087aaf362bfc	-0.06061156643689711
92	0x3fb27c199a8b853a	0.07220611594268159
93	0x3fb1e2ebcb9339ea	0.06986879081816935
94	0x3fec666e0dc80e55	0.8875036496323881
95	0xbfe7aa7ce77ce242	-0.739561512112296
96	0xbfc776c1b7a59a7c	-0.1833116671288798
97	0xbfc54d5cca3e566e	-0.16642341494723517
98	0xbfa658a56f58d133	-0.04364506706443407
99	0xbfb886f6f2b4ac3a	-0.09580939698632643
100	0xbfc15fcb3c2613a5	-0.13573589741659223
101	0x3fb1e1d03c51b3b8	0.06985188934932196
102	0xbfaa33188eddfe71	-0.0511710810087579
103	0xbfca9fafe4cab180	-0.20799826308701697
104	0x4009980df19c839c	3.1992453456773102
105	0x3fbc3bc0d110cc7a	0.11028676132336726
106	0x3fdd6744e6efacd1	0.45942804863325387
107	0x3fc436f22726993c	0.1579268160978219
108	0x3fc2644976716e93	0.1436855152450006
109	0xbfb6b9d92a6b2d36	-0.08877332006084235
110	0xbfa947c49e7b6228	-0.04937567171663587
111	0x3fbb574864bbda65	0.1068005796367771
112	0xbfad50fd364637d7	-0.05725852286842297
113	0x3fb6ef23b51c56c7	0.08958647891662529
114	0x3fa3205627b2dc5b	0.03735608324625935
115	0x3fc2021c3421d08f	0.1406893972922529
116	0x3f79dffec371f4f3	0.006317134065395569
117	0x3f870cb04bccd065	0.011254670441850754
118	0x3f8f411d520ac5b6	0.01526091486570889
119	0x3fc5d063a0a368dc	0.17042203277271184
120	0x3f965a6e79dfb7e5	0.021829343975632205
121	0x3fc6c5216184cc22	0.1778909422078821
122	0xbfc056179e7ff207	-0.12762732733962442
123	0x3fc2ddb4049c7443	0.14739084458497773
124	0x3fbf73f715d74d26	0.12286323817470599
125	0x3fc1e6e7ec27a422	0.13985919028280686
126	0xbfadf70c3cfa65db	-0.05852545017587448
127	0x3fc4c59fa197ef8c	0.1622809924155003
128	0x3fbe4bebfd2b29dc	0.11834597521661955

weight f8 [129, 129]
0	0x3fa5c911619e9d8c	0.042549651304678
1	0x3fc3af760c3c6c44	0.15379214856588608
2	0x3fb78fe292156eb1	0.09203926149842336
3	0x3f9911f53b71944e	0.024482566598085058
4	0x3fc0e78d4cba79f4	0.13206640478615805
5	0xbffb69ece21080ea	-1.7133606749194379
6	0x3fba9ae6169cbad5	0.10392606784874243
7	0x3fb7a5245a0a556c	0.09236361692668077
8	0x3fc512defa48a14c	0.16463839741596542
9	0x3fb6242841180090	0.08648921574786272
10	0x3fc1b424bcc5769a	0.13831004350042947
11	0x3fb41eca70805469	0.07859483000386693
12	0x3fa7272383f29e32	0.04522047982873935
13	0xbf86ced927426064	-0.011136719236944433
14	0x3fa076a7a4f76215	0.03215526474713585
15	0x3f9a12c42f5c3389	0.025462212935099458
16	0x3fc2166bce1285f0	0.1413092380726506
17	0x3fb9c422d7f206bf	0.10064904949288243
18	0x3fc03ded4007c65c	0.12688985468371328
19	0x3f99a33b6206e6e5	0.0250367430287274
20	0x3fb1879b858ed413	0.06847545633975498
21	0x3fba5fb9a811fe1c	0.10302315095213327
22	0x3f9b945dbb5cf503	0.02693315940927211
23	0x3fb6c12568840f27	0.08888467599541326
24	0x3f97ab7e8fb760a7	0.023115136644123038
25	0xbfbbcb9cf31abc57	-0.10857563910643485
26	0x3fc344f57b7a2968	0.1505419590869892
27	0x3fb9d16283cdf25f	0.1008512088573723
28	0x3f7050b20a498af0	0.003983207196685198
29	0x3f579d3bab664d15	0.0014412958822490097
30	0x3fbd9f41895ca8fd	0.11571130374491996
31	0x3f8851c546c2b986	0.011874715063041174
32	0xbfef0e592f35cfbd	-0.9705015108179321
33	0x3fa7d68c18ef5025	0.04655874065761648
34	0x3fb9b3381b74feea	0.10039091749512932
35	0x3fc24997fef9ef3e	0.14287090253844242
36	0x3f9a2e99249ed745	0.02556838308347344
37	0x3fc3b79a8e5f6343	0.1540406413248779
38	0x3fbb236764b4023f	0.10600897034238076
39	0x3f8dd7be236f31dc	0.01457165284764355
40	0x3fc30949b36e1781	0.14872094403488847
41	0xbff94b0b9b703908	-1.580821616345533
42	0xbf4f8eb701c88c03	-0.0009630578602507492
43	0xbf50f87d388e85bc	-0.0010358069286911928
44	0x3fbd0ea2bae679c4	0.11350457251544471
45	0x3faa63e22ad0b328	0.05154330036780258
46	0x3f6d536ba03388fc	0.003579817015279761
47	0x3fb17e3125d88f79	0.06833178686116338
48	0x3fbb484dbe719e7f	0.10657201671130599
49	0xbfdeb2c9bf294b38	-0.4796623579797372
50	0x3f804fc84b4b7fc5	0.00796467284948211
51	0x3fbb99e6c29a0461	0.10781709910408345
52	0x3fc0827fdbbe5cee	0.12898252706211316
53	0xbffa13c18167480b	-1.6298232130834573
54	0x3faa45fd5e2c408b	0.05131522917338412
55	0x3fb7f0296c0f18b5	0.0935083283248755
56	0x3f97c56e99f32ca4	0.02321408095012302
57	0x3fab0c4e1cc1fb69	0.052828255663363084
58	0x3fb13ccdb31996d5	0.0673340379958874
59	0x3fc22b4b1342e97a	0.14194620552536802
60	0x3f82d7dd9d658038	0.0092007936152073
61	0x3fa904437f709631	0.048860654169669344
62	0xbf67c1b1ca60d166	-0.002899977919719787
63	0xbfef249e4b9bacd5	-0.9732200123520679
64	0x3fc4b65bc854b66c	0.16181514055044788
65	0x3fa6a242158a66ac	0.04420668137499936
66	0x3faa654e4fe90777	0.05155415273158231
67	0x3fb6d0d426bbcda7	0.08912397332806297
68	0x3fad660880842409	0.05741907662201846
69	0x3fb9b34088102f66	0.10039141961914097
70	0x3f40a51e93c10b5a	0.000507965021377603
71	0xbfe76167b54a3927	-0.7306402722186122
72	0x3fa4c2c46f78feaf	0.0405484567713733
73	0x3fa69de066f27771	0.04417325264624495
74	0x3fb78ab5cae57a07	0.09196029857182718
75	0x3fb65a91d6894f19	0.08731948363975696
76	0x3f9e4cf22ab77eb2	0.02959040055964008
77	0x3f92982549ba8336	0.01815851461890646
78	0xbf813adee31d3e04	-0.008413068109489615
79	0x3f80d450b3e25787	0.008217459191921751
80	0x3fc105c3ee553d77	0.13298844468452461
81	0xbf85d1eb335e676b	-0.010654294495725932
82	0x3fb5ad3c6e115cc2	0.08467462241366078
83	0x3f71b9c9c5662981	0.0043275720294196915
84	0x3fa8fe196baf324c	0.04881362380510676
85	0xbf999a43225ace86	-0.02500252625641377
86	0x3fc119763ed84172	0.13358953541365853
87	0xbf7737d48011e18b	-0.005668478087607186
88	0x3fb49c4b55e87528	0.08050986144413186
89	0xbf9476d6d80f79df	-0.01998458570221284
90	0x3fb490449ba0875e	0.08032635497559457
91	0x3fa7f2e2ee4424ef	0.04677495153925714
92	0x3fa77faeb8bd125a	0.04589601521596327
93	0x3fbc5e349153f9c8	0.11081245945022211
94	0xbfb94d4d471000d9	-0.09883578286099083
95	0x3fb5b809dc774cf4	0.08483945496054784
96	0x3fbfd60da6b03d67	0.12435994452993314
97	0x3f5f6068e873235b	0.0019150757305388042
98	0x3fb60dc3214652c4	0.08614749491091361
99	0x3fb46b0d751d2c23	0.07975849255778704
100	0x3fb4635e7ffa58b6	0.07964125275097697
101	0x3fb09a7818c21f46	0.06485701183748657
102	0x3f97b88b840f21bd	0.023164920745132756
103	0x3fba19d226097175	0.10195649555811832
104	0xbfd9148344e05680	-0.39187700010493387
105	0xbf84fc1dc291aa72	-0.010246498585009454
106	0xbf9023d46805a71a	-0.01576167950535199
107	0x3fb88fc292c28a67	0.09594360430723158
108	0x3fb329973ee3a62b	0.07485337529546914
109	0x3fa637e8acf5c2db	0.04339530097320728
110	0x3faaf32b5826166b	0.05263648463282496
111	0x3fb11fa88a370502	0.06688931822192859
112	0x3fb8c28e65881f71	0.0967186925773811
113	0x3fb12a7328f2b211	0.06705398320873025
114	0xbf911a382cb7e90a	-0.01670158169688655
115	0x3fb734a2b2ee0bd5	0.09064690464405996
116	0x3fb1ebd44a3f56fe	0.07000471890145474
117	0x3fbe211f398ece90	0.11769290118427933
118	0x3fb94526e61e96f5	0.09871142500068315
119	0x3fa016432db6e9b3	0.03141984875715611
120	0x3fb10d28bf3bb907	0.06660704296857399
121	0xbfb9366c6819e4e5	-0.09848668614894825
122	0x3fa1abcaef50c013	0.03451379939394896
123	0x3fb055294bec6903	0.06379945853806039
124	0x3fb25f10bf8402ca	0.07176308322597005
125	0x3f558438c5bea427	0.0013132624071465844
126	0xbf77c54372a47c9c	-0.005803359478050354
127	0x3fc331f5e0fad495	0.14996217236845114
128	0x3fb75012eb0580d5	0.09106558072881239
129	0xbfa60a8d7f5ebfb5	-0.04304926090060183
130	0x3fc1139a7dcbdce1	0.13341075079345102
131	0xbfa1943dfb2bc7c2	-0.034334122572445405
132	0x3f992609d956b65b	0.024559167757323013
133	0x3fa9164433f5fa00	0.04899800428664847
134	0xc00173a060aa26c0	-2.181458239739044
135	0x3fb8ca8b53faf475	0.09684057998943436
136	0x3fb80062278ae0ad	0.09375585046189157
137	0x3f7289445547ff86	0.004525439192093366
138	0x3fc00faba6cee0ea	0.1254782261364718
139	0x3fae8f354cb0148f	0.05968634186869181
140	0x3fa93b5f3f25cbdc	0.049281097849323635
141	0x3fb33aacab88e028	0.07511405170305407
142	0x3fc299d50884c809	0.14531958499861755
143	0x3fa56be18b2fa066	0.041838691940768766
144	0x3fb0733fb3f8ba9a	0.06425855773771119
145	0x3fb95f2c0e4af370	0.0991084608931041
146	0x3fa2bf910aeb8eed	0.0366177869634877
147	0x3faf42f071fffb74	0.06105758086777416
148	0x3f9cef836ec08303	0.028257421145215577
149	0x3fb71ab1b721113c	0.09025107117583259
150	0x3fa92c4a75ac9bfa	0.04916603743031796
151	0x3fc01368a16cb7f4	0.12559230691971346
152	0x3fb004f9ea09b198	0.06257593120398608
153	0xbf8c8fff1c13182a	-0.013946526569622437
154	0xbfbf7ebf60fd0e2c	-0.1230277644909214
155	0x3fc124eed9ff528f	0.13393960613634134
156	0x3fbf17ee3f2440cf	0.12145890275519665
157	0x3f924565ad28d165	0.01784285420781497
158	0xbfb2561873aa8055	-0.07162621330144366
159	0xbfa0ac58e3ee3922	-0.03256490499835453
160	0xbf861cd7a31250d7	-0.010797199882553716
161	0xbff479a2f0c88f5b	-1.2796964078524613
162	0xbfb7d7590740a6f6	-0.09312969615043784
163	0x3f9e71dbd321ead7	0.02973121143484544
164	0x3f9b7c7daca1146d	0.02684208265442971
165	0x3fa657f231a21097	0.04363972526428588
166	0x3fb095b17c02400a	0.06478413846548406
167	0xbf6525b58e7421ba	-0.0025814577126121703
168	0x3f92ac3b0ce63e6f	0.018235132849041265
169	0xbf933f2eac87e934	-0.01879570892376954
170	0xbffdca4c3b703b97	-1.8618891069233763
171	0x3f84041dc0bac2fc	0.00977347607053635
172	0x3fc0f0c1c2e2f080	0.1323473168939735
173	0x3fa5f0750b5fd3ad	0.04285016788336491
174	0x3fb14af29b98cbf6	0.06754986094237822
175	0x3fa61ccd3ae1f93c	0.04318848937781403
176	0x3fb278cced2f8696	0.07215576925912112
177	0x3fa20f13a260b6b1	0.03527127606535652
178	0xbfe6a95eff36a8a5	-0.708175180877579
179	0x3fc191afe53e233e	0.13725851720325893
180	0x3fa4ca6093ccb9c2	0.04060651592441246
181	0x3fb3babf56794cfb	0.0770682893865348
182	0xc000d8dc8990e94b	-2.1058893916462345
183	0x3fc18022d1cbe013	0.13672290080990077
184	0x3fb98ebfd47a0685	0.09983443200510507
185	0xbf9206701ce7bcd8	-0.017602683796153012
186	0x3fbf641734efe0cd	0.12262101213844119
187	0x3fc19e4f34879a11	0.13764371933866973
188	0x3faa27c688763f2b	0.05108471313280768
189	0x3fbf4c39b45cf901	0.12225685742757621
190	0x3fb6194994a6d76b	0.0863233554763078
191	0x3faa0e40f4a4c524	0.050889997352337596
192	0xbff40e959c1bb5fd	-1.2535606477716776
193	0x3fb7bde20c883517	0.09274113470037935
194	0x3fa433d2729e4db3	0.03945787095212996
195	0x3fc04ba1a79f31a5	0.12730808910999972
196	0x3fb7e451bc24cacf	0.09332762568810014
197	0x3fb71f61d73c5691	0.09032260422494633
198	0x3f945610eb592f96	0.019859566082501688
199	0x3f9ccad12ea468e7	0.02811743590528062
200	0xbfeecc1b1e9d32e2	-0.9624152753763975
201	0x3fb62c82ef82d6fb	0.08661669108809271
202	0x3fac5c9a8500d3c4	0.05539400933813668
203	0x3fc1b97847426c23	0.13847259025064415
204	0x3f944cd5de3b3b36	0.01982435387509015
205	0x3fb091f5399eb3c6	0.064727140967718
206	0x3f906c5c2477d033	0.016038360334235512
207	0x3fb9a7c12e79ed6e	0.10021598229098114
208	0xbf91e89b23c25bb6	-0.017488884027070127
209	0x3fa76383c7a1f725	0.04568111240312892
210	0xbf835c3cd28fb65e	-0.009453272987197166
211	0x3fbda132296c8299	0.11574090491604706
212	0x3fb5c4f07677fa06	0.08503630535413018
213	0x3fb80ce7ff21214a	0.09394693354363884
214	0x3f7a1d84a68df3bc	0.006375806967182148
215	0x3f97e1648881124e	0.023320742446474356
216	0x3fb30727688580b2	0.0743279104403907
217	0xbf6eea1ee38413f6	-0.0037737468047702684
218	0xbf876c20c49034d8	-0.011436706541667993
219	0x3fbd6f1782622fd6	0.11497637685005144
220	0xbf8a3d2f20b4424c	-0.012812011895705265
221	0xbfa79a5e0ea68624	-0.04609960488165779
222	0xbfa19f45bc71c031	-0.034418277028521856
223	0xbfc86c318f64c1bc	-0.19080180646552758
224	0x3fc0267d6c6ae564	0.12617461961580567
225	0x3fafa02eac4ca46d	0.061768969090118066
226	0xbf91eeee210377d5	-0.01751300884722425
227	0x3fb4ef595d6d0c82	0.08177717715175173
228	0x3fb4a6d406a4cc52	0.08067059671593427
229	0xbf83cd045387f615	-0.009668382453123884
230	0x3fad54f711d577e1	0.057288857390389365
231	0xbf97d7cdfc3e75c6	-0.023284166832686436
232	0x3fbca70f3e67836a	0.11192412637275387
233	0xbfe26adca30de4ce	-0.5755446610120545
234	0x3fa88939b1cdd03e	0.04792194648226243
235	0x3fa898ba52bb26b2	0.04804022083187699
236	0x3fb67010447adbd5	0.08764745399353953
237	0x3fae9ddad2531183	0.05979808633267949
238	0x3fb0585f14e8db46	0.06384844074714832
239	0x3fbd251f5b056405	0.11384769413179192
240	0x3fababff7bce5d98	0.05404661546998141
241	0x3f95bc0c94375a7b	0.021225163027191556
242	0x3fba4a31ccbea2cf	0.1026946186890527
243	0xbf9017faa0c76775	-0.015716472685972833
244	0x3fb34a7315e11b29	0.07535476001895049
245	0x3fbf115579c1b9fc	0.12135824415756952
246	0x3fbdb189e79df6f9	0.1159902754279435
247	0x3f981ff823bf683f	0.023559453183999542
248	0xbf703bbcdce33b04	-0.00396322035358199
249	0x3f9468f25bcd7669	0.019931589940247827
250	0xbfcbbc2ad97105fb	-0.21667991273174877
251	0x3fb942965eb6f6a4	0.09867229282732609
252	0x3fb5d249d0f57d20	0.08523999549423822
253	0x3f9d288091586a1d	0.028474816199471776
254	0xbf910ffd47f74c98	-0.01666255714173967
255	0x3f9e000056392736	0.029296880018853964

bias f8 [129]
0	0x3fc207af06ab731b	0.14085948777837917
1	0x3fc17587af5bf545	0.13639923155271041
2	0xbfc152e6da3ae451	-0.13534246116413098
3	0xbf7e921de9116146	-0.007463566625198153
4	0x3fb817cb85585d69	0.0941130829381699
5	0x3fbe60a50612d1a4	0.1186621799304875
6	0xbf857b75c534317a	-0.010489387589154065
7	0x3fc28fbf0b344d48	0.14501178786358992
8	0xbf933a4f80cbcc5c	-0.018777124630059525
9	0x3fb8dd8db86bf4bc	0.09713063957674967
10	0xbf9035a23f1461b6	-0.015829596614908424
11	0xbf86300d29088c94	-0.010833838286151733
12	0xbf917b72d03143c5	-0.017072481114442945
13	0xbfbf03432344138d	-0.12114352808937508
14	0x3fc1c19731a04a3f	0.1387204162898161
15	0xbf7c4985b9871bc5	-0.0069060538884916966
16	0x3fc232402e0c6209	0.14215852974372492
17	0x3f6de3afdf00efea	0.0036486086828784086
18	0x3faa08042ca05978	0.050842409560732216
19	0x3fb269dd78eb961d	0.07192787363199966
20	0xbfc123234df7c2c8	-0.1338848238661028
21	0x3fbf78e6a7be17a6	0.12293855281140384
22	0x3f80b83a60eec016	0.008163887103222616
23	0x3fb89ba9116474de	0.09612518953914015
24	0xbfa1859a4739f26e	-0.034222432322143045
25	0x3fc449b643a72a8e	0.1584995107972031
26	0x3fb070c5a44de4d6	0.06422076474509039
27	0x3fb277360027661a	0.0721315145850884
28	0x3faa0dd509db3c01	0.050886781171008984
29	0xbf9f8459583c394a	-0.030778308878376216
30	0x3fc06b523634e762	0.1282751812630592
31	0x3fb4c258badcf47b	0.08109049379432236
32	0xbf93405d0058aa06	-0.018800213953150922
33	0x3fa4bd48dc56c9f5	0.040506626984455986
34	0xbf9e66c7a8a1ee78	-0.029688949267877324
35	0x3fb7eeaac1c7bde1	0.09348551970446507
36	0xbfc01dc305c83346	-0.12590825826955604
37	0x3f9f1646b219b2c2	0.030358414287934073
38	0x3fb16d2e4d8c4d3c	0.06807221787703538
39	0x3f8d816f9eb5a903	0.014407035857136657
40	0x3fb3170c5cd0a92a	0.07457043901436991
41	0x3f98d5d2059d8e10	0.02425316008829098
42	0x3f8aee0d7cd1a868	0.013149361964867448
43	0xbfa3897c4f5cb486	-0.03815830677772518
44	0x3fb9c20878196d47	0.10061695987808604
45	0x3fb336cf33bf983c	0.07505507481946067
46	0x3f8db93866463489	0.014513435956155856
47	0xbfb6ee1af4a9679e	-0.08957069848238894
48	0x3fa1e4c802d26b19	0.03494858774612037
49	0xbf9119fac213cac3	-0.016700666518725493
50	0xbfc04d30797d1d3b	-0.12735563213412057
51	0x3fc1e0c3e4235978	0.13967178954653625
52	0x3fa1ce3160e57a0e	0.03477625186745935
53	0x3fb66d406c488c6c	0.08760454791677014
54	0x3fc3213d5693a46a	0.14945189216021798
55	0x3f97b161e4ad6e5b	0.023137597639431778
56	0xbfc280be941f611c	-0.14455396873996385
57	0xbf9c9bad049aae58	-0.02793760624505945
58	0xbfba6b7ad5240d4f	-0.10320251182206629
59	0x3fabbbbd7ae2d971	0.05416671872210344
60	0xbfbf3373bdd14a19	-0.12187884697167596
61	0x3f92259c43ca01e5	0.01772159732581881
62	0xbf86c7fd3a4de2fb	-0.011123636571697562
63	0x3fada5fba3799b21	0.05790697451157301
64	0x3fb01f5bccf096c2	0.0629784941998777
65	0x3fb41ec6f9afd23b	0.07859462352627926
66	0xbfc010fd831e47a8	-0.12551850225696382
67	0x3fb0ad92f7178755	0.06514853031651786
68	0xbf88e467556dd361	-0.012154395384394058
69	0x3fba66ac2d0f64b3	0.10312915897465551
70	0x3fc079f6c2675d1d	0.12872204296466175
71	0x3fc0c843fb89f251	0.13111161977930633
72	0x3fba7fcb0e57e883	0.103512469293408
73	0x3f9123fe72349cf2	0.016738868446876283
74	0x3f9089cf62c7d5ae	0.016150703815545668
75	0x3fab9baa9c4803ed	0.053922015740688646
76	0xbfa6cc2eb6a238a8	-0.04452653865256312
77	0x3f985fa84f872628	0.02380240426444949
78	0x3fa84b0ce4ffc6a6	0.047447588876719224
79	0x3fa0ae081f2b7ef5	0.032577756695671235
80	0x3f6674899a88ecf4	0.0027411162921261393
81	0xbf9cd6358f060a9f	-0.02816089330145621
82	0xbf79350818fcb28e	-0.006154090529702073
83	0x3f8c33d1cef08f89	0.013770712974355852
84	0xbf90bfe4b769f7b4	-0.01635701531858276
85	0xbfa94266844a7435	-0.049334720276626255
86	0x3f9b8075a4c988bb	0.02685722177773962
87	0x3fa92f5d14f42a2b	0.0491894805982905
88	0x3fbe69d813e3e3e7	0.11880255208588118
89	0xbfb456e15611581d	-0.07945068694365927
90	0x3fae7e699d463ece	0.05955820126393761
91	0xbfc1db753d6cd7f6	-0.13950982569957632
92	0x3fbce04823cb521e	0.11279726861841552
93	0x3fb49ba47059cf2e	0.08049991362514383
94	0x3fb48617a602fc99	0.08017108729380808
95	0x3fb32d8b335100d0	0.07491369250147106
96	0x3fbf4eadb35dd338	0.12229428891243976
97	0x3f9673c9e897c503	0.021926073857632577
98	0xbfa2957ee8daf3b1	-0.03629681198569957
99	0x3fc03aed9d243578	0.12679834530755918
100	0xbfa87c3bb871680a	-0.04782282473088635
101	0xbf69ab3b4212cec4	-0.003133407343364288
102	0xbf938e8a89f45095	-0.019098438901963794
103	0x3f972b5f0e8b5c03	0.022626385939329207
104	0x3fbaca881df175ab	0.10465288859400938
105	0xbfa98a88efc741dd	-0.04988506247503086
106	0x3faa69bb2affce61	0.05158791446583844
107	0x3f9c8eacb2d236f5	0.027888010420205018
108	0xbf9c07b204bef54f	-0.0273731055638014
109	0x3fb1f0ba9b695175	0.07007948202346433
110	0x3f82ddd39b350a7c	0.009212163137481293
111	0x3fa52108dee2ee53	0.04126765938550805
112	0x3fc2c3d6d72ac698	0.1466015387173243
113	0x3fb1cdcf9928bf92	0.06954667557942987
114	0xbfa00ca441bb74f8	-0.031346447967488034
115	0xbfa7fd2c654e98e2	-0.04685343491228068
116	0x3f8304891ef42e01	0.00928599477494796
117	0x3fab2ba96dcbc2dc	0.0530674883392572
118	0x3fb6fb61779c4168	0.08977326555419085
119	0x3fa89170f9389be2	0.04798462908029656
120	0x3fb2279e36090d34	0.07091702288839913
121	0xbfb84873701513e6	-0.09485551344285134
122	0x3fb7e191d7e29e5c	0.09328567047725173
123	0xbfa745635651f5b7	-0.04545126370156132
124	0x3fa1fb7ebecf0819	0.03512188033302283
125	0x3fc3129301be965e	0.14900434098415166
126	0xbf93f80fb190fcc7	-0.01950096627501521
127	0x3fb86a4f190d047f	0.09537214624016775
128	0x3fc2a6e9a0ec812e	0.14571876866922068

weight f8 [1, 129]
0	0x3fa16d1f798f176f	0.03403566702722471
1	0x3fb0a280b0d2dbd1	0.06497959439262437
2	0xbf919bc47bf14f45	-0.017195768418175623
3	0x3f9df06e98b79e19	0.029237487860795584
4	0x3fc9dfb5ccad2fcf	0.20213959211321117
5	0x3fb8640db206e599	0.09527669521675931
6	0xbf8b53f14ebdaee3	-0.01334370156811055
7	0x3fb9ff563b407065	0.10155238100600313
8	0x3fcb053270041d39	0.21109610051665031
9	0x3fb8f9a4162f990f	0.09755921880386985
10	0x3fcde0b43b532971	0.23341992279740567
11	0x3fab0c433207cd55	0.05282793031428904
12	0xbf66cc18d32a37bd	-0.0027828678951839756
13	0xbf7a8ca9db6bcaef	-0.006481803421354056
14	0x3faf01f53d900e09	0.06056181313035942
15	0x3fa5df5e1e34daf9	0.042719784915268684
16	0x3fb2d5b0844e3ed6	0.07357314329260176
17	0x3fba654c17a1c3e1	0.10310817315054478
18	0x3fb88d1ed223864c	0.09590332632390036
19	0x3fb3588785809465	0.07556960114796281
20	0x3f9b07a45b3d7b08	0.026396339482171377
21	0x3fa7f0edd119519d	0.046760017180221804
22	0x3fb846eb94ffd084	0.09483215701749442
23	0x3fba16afc346debd	0.10190866963864216
24	0x3fcdfd78691b958f	0.23429780132498165
25	0x3fc0edfbb5f97e30	0.13226267228582023
26	0x3fcf643318d0f613	0.24524534904223624
27	0x3fa256da55f163bf	0.03581888484104167
28	0x3fb198e75e976e90	0.06873937663425012
29	0x3f9bd4e5b0afd778	0.02717932597075598
30	0x3fb0b9a3e6ddbf6c	0.06533264528638733
31	0x3fae08a9070f1435	0.05865982257049788
32	0x3f68e65d888432f3	0.003039534265673155
33	0x3fc730fbfc6b4b7b	0.18118238282348983
34	0x3fbb1544bb449d5d	0.1057932812878923
35	0x3fb5659a36c51cbf	0.08358157956273525
36	0x3f97b581d209187b	0.02315333218054903
37	0x3fd1e2ebe0d2b2b4	0.27947518306136065
38	0x3fa254151eabd094	0.0357977485599871
39	0x3fb90b318ce084bf	0.09782705010777003
40	0x3fb9cc65e996c7b6	0.100775117424546
41	0x3fb2dee38fb57f73	0.07371351488609239
42	0x3fba16b006cd9d11	0.10190868536084376
43	0xbf9e868763be382b	-0.029810061896164235
44	0x3fb2733d8ae96359	0.07207092896841284
45	0x3fac4c7a86ce200d	0.05527098556109431
46	0x3fe12b02a5f20b03	0.5365002862093607
47	0x3fa59dcabc7b7b49	0.04221948195276199
48	0x3fab179becebc97a	0.052914498015428316
49	0x3fb238f9ae2a74e0	0.07118187429519507
50	0xbf833810de40e642	-0.009384280951155625
51	0x3fb0a90518ed45ae	0.06507903917851962
52	0x3fa9b1dea2a288a3	0.05018516288079524
53	0x3fd1fb2aa132bbf3	0.28095498792657664
54	0x3fb0c46e3eceb906	0.06549729379068844
55	0x3fcb72507c2ebc6f	0.2144260984764261
56	0xbf981bb4915a93c5	-0.023543187495892477
57	0x3f9d30d62f0a2e25	0.028506609555320268
58	0xbf850a50291e3743	-0.010273576979468074
59	0x3fa708114adebf78	0.044983425511758435
60	0x3f90f8fdedea74b5	0.016574828764181777
61	0x3f9199ade4c6c5fc	0.017187802399069682
62	0x3fa19546c3e5fefe	0.034342013753301245
63	0x3fdfa73582698093	0.494580628734192
64	0x3fa78376aab93d57	0.04592486223247743
65	0x3fd1222fccf12580	0.2677115918528088
66	0xbf9e79c1ec05f5f9	-0.02976134303161435
67	0x3faef3734120db6a	0.06045112772010593
68	0x3fb717ea0e1ebe20	0.09020865292290425
69	0x3fcb442369cd55ca	0.21301691690557184
70	0x3fa694ec8654c953	0.04410494937691802
71	0x3fb1438e3993cc77	0.06743706613251442
72	0x3fc167729e2381e7	0.13596947404495482
73	0x3f927e1b7c027b1f	0.018059186405135038
74	0x3fa6a4b154d43213	0.044225255589570044
75	0x3fb696d6cfa400b6	0.08823912209845983
76	0x3f8ee3e1df49cd7f	0.015083088518827335
77	0x3fa132b42da9ac37	0.033589964460439985
78	0x3fd5c246aba2c991	0.33998266946141437
79	0x3fb2cffc25d3aa93	0.0734860985136641
80	0x3fa213ba2ebe1790	0.03530675716960652
81	0x3fa1afc2f1689441	0.0345440787971616
82	0xbf82cdf16594356b	-0.009181867515986672
83	0x3fd65143d5654fa7	0.348710020441326
84	0x3f738b1b905fc407	0.004771335288737972
85	0xbf8b3c62a9ce501a	-0.013298769766869657
86	0x3fb4e28b543d8dab	0.08158179098750533
87	0x3fb0eae3f35a0dd2	0.06608414355473904
88	0x3fb4317dc81b65a1	0.07888017783570557
89	0x3f904223298e26ef	0.015877293979008774
90	0x3fb0aefceceb7124	0.06517010482952351
91	0x3f451e31cb88c420	0.0006444686069412321
92	0x3fcc4ee42586b6c1	0.22115756828627833
93	0x3fb3509bf386ec97	0.07544874854549942
94	0x3fb2d877fcdc6188	0.07361555026398581
95	0x3fb4773c9a1f299d	0.07994440806138532
96	0x3fb4d7af602c5872	0.08141609285334697
97	0x3f9ca16bbdc194f4	0.027959521729276696
98	0xbf7f83da8a923e60	-0.007694104840211574
99	0x3facc49e9fad4e31	0.056187588683908614
100	0x3fa2dec3a830eeaf	0.03685580661882903
101	0x3fd2bdf473849842	0.2928439262490238
102	0x3faea6a46fe2beb1	0.05986513009827144
103	0x3fc7f660931a994f	0.18720633681113916
104	0x3fb66d5f555a6165	0.08760639032187141
105	0x3f96cde0a96682a7	0.0222697356599634
106	0x3fa89ff4f026503a	0.048095373454231496
107	0x3fd0f480fc695482	0.2649233307796025
108	0x3fa181084d7eace4	0.034187564334695414
109	0x3fcaa24db061ddd0	0.20807810890595002
110	0x3fa4f7ae5081e45e	0.040952155425608025
111	0x3fbf59848619a29f	0.12245968126229421
112	0x3f95d6a1b744d720	0.021326567469450386
113	0x3fb4365046200e36	0.0789537593082564
114	0xbf681b516879bac3	-0.0029427137376879255
115	0x3f8a4384404bdf68	0.012824090206308106
116	0x3fa1102886f9f5ec	0.03332640311871757
117	0x3fb1aacb9ba9248c	0.06901238012609862
118	0x3fb403505f936c87	0.07817556699176197
119	0x3faaeec419d45d5b	0.052602890160580805
120	0x3fafe7b735743961	0.06231472518458037
121	0x3fa84ec3c051a23a	0.0474759266151676
122	0x3fc425bb4023e891	0.1574014723954105
123	0x3f81367d8fc493df	0.008404713582942534
124	0x3fb6f03683cf572a	0.08960285871520726
125	0x3fb460fbc9252571	0.07960485134858232
126	0xbf8a59318f53c633	-0.012865435778141343
127	0x3fa764855c320d56	0.04568878889497323
128	0x3fad8037777fe618	0.05761884053931626

bias f8 [1]
0	0x3fae70e456546b90	0.05945504716711192
