pre-trained models/NO1411_YDR486C.pth (torch, 46871 bytes, 6 tensors)

weight f8 [63, 21]
0	0x3fc66d25f1945ce9	0.17520593925357922
1	0xbfc12fa2391ca3b8	-0.1342661646715706
2	0x3fc5c68367aadb81	0.1701206451595816
3	0x3fca67d6a45e512d	0.20629389787485178
4	0x3f8984d24831ffa8	0.012460367992616586
5	0x3fb344a97d9000ae	0.07526645007601715
6	0xbfb0b25f4925364b	-0.06522174392485984
7	0xbf6c7f91fda20760	-0.0034787989980608475
8	0x3fd2b7a64fedc5ac	0.2924590855173743
9	0xbfb430914fe4fc64	-0.07886608315037474
10	0xbfbfd8beaf55aa4a	-0.124401014143282
11	0xbf89e2e0f631056e	-0.012639768136184695
12	0x3fb2b8099823b278	0.07312068905202718
13	0xbfae94ef09bc9394	-0.05973002427916821
14	0x3fc60177829c2d68	0.17191976430363387
15	0x3f56abd6468ff9e6	0.0013837425742618758
16	0x3fd19a7bf5c51200	0.2750539684386979
17	0xbfc19a8fce46d6e2	-0.13752935001473704
18	0x3fca3f2fdde26afa	0.2050533135814801
19	0xbfa3804f8fea22a1	-0.03808830863733204
20	0x3fc8fa37b20c3885	0.1951360339521139
21	0xbf9ba68ec2ac9e25	-0.027002554542518226
22	0x3f9967290e35dd12	0.02480758809312273
23	0x3fc998dbc9973854	0.199977372582398
24	0x3f9b07d2e8fe3327	0.02639703318668576
25	0xbfa16d1158c40115	-0.034035245977067564
26	0xbfb71eb9845609c3	-0.09031257134305463
27	0xbfa76b341535e91d	-0.04573977240484537
28	0xbfbcac05ebd9d54b	-0.11199986465529325
29	0x3fc1096b2f6565a8	0.13309993566762768
30	0x3facbb60b90ca3a6	0.05611707934287517
31	0x3fcd7a872f773b9e	0.2303017598883032
32	0x3fc234cdc2362b2c	0.14223644240367983
33	0x3f994a0f41b23af4	0.024696577439096992
34	0x3f74ba3ac68597f3	0.005060414878562003
35	0x3fcfeb0c55d48464	0.24936060133862548
36	0x3f95e3e67e1efc5d	0.02137718338758209
37	0x3f7e5b98e7fb012a	0.007411572732678709
38	0x3fd05f44fe012979	0.2558147888672902
39	0x3fc42e44f342f188	0.15766202810290175
40	0xbfb382250d1f9f89	-0.07620460100554118
41	0x3fc5351fb3bf2c21	0.16568371082971203
42	0x3fd3a8e6038729cd	0.30718374580888225
43	0x3fc5fae5ab957107	0.1717192733584698
44	0x3fb1ee6094995376	0.0700435984411579
45	0x3fd2ca0bb02c49fd	0.29358188824076575
46	0x3fd93aa02ddc0a8f	0.3942032287451775
47	0x3fb0a095f9bbc5e1	0.06495034548768032
48	0x3fc890f3a90af6c6	0.19192357782406172
49	0x3fd770fa0e2f92a4	0.36627055535636033
50	0x3fcb1269face0c6d	0.21149945017177477
51	0x3fc1cacb5e7d53a8	0.1390012942671579
52	0x3fbdde51e400d018	0.11667358223422786
53	0x3fce2c0357bd2b26	0.23571817192199623
54	0x3fd5a942c2e6d6a4	0.33845585854883553
55	0x3fd9258e9102eb60	0.3929172912718766
56	0x3fd77dc97197b18a	0.3670524224569581
57	0x3fd0afff08bedb44	0.2607419572263334
58	0x3fd900a89f7a2740	0.3906652028459696
59	0x3fd9131a8b8af7f4	0.3917909968112092
60	0x3fc3c1d388769a27	0.15435260928389136
61	0x3fd82ed07a86dcfb	0.3778573223639367
62	0x3fc7fd5044799c52	0.18741801589496504
63	0xbfa467b1fef55d07	-0.03985363232885147
64	0x3fbd8886f8c72f6f	0.11536449025805749
65	0xbf7c51f19e60f918	-0.00691408521930572
66	0x3fcfb1b53c95e1d5	0.24761071642184498
67	0x3fac67fe5f59243c	0.05548090852659768
68	0x3fae12042823ce09	0.05873120298374707
69	0x3f7d6032bfd54e82	0.007171819915430812
70	0xbfb1ee4bc98341fd	-0.07004235906357077
71	0x3fd25f44fbebe65f	0.2870647869272939
72	0x3f8909d4b5d85c58	0.012225782203172539
73	0xbf216f291cb02ee8	-0.0001330125508903692
74	0x3fc21071ef0ce5d6	0.14112686321622786
75	0x3fc1fc1348529acd	0.1405052283418712
76	0xbf8721bac90dc9a5	-0.01129480291431124
77	0x3fba83de520828d6	0.10357465269786145
78	0xbfbec9f4dc435764	-0.12026911141887592
79	0x3fd23596c6ae5aa9	0.2845208111042817
80	0x3fd2a1480bf0c3e6	0.29109383741439243
81	0xbfbcb60c818b7eeb	-0.112152845027136
82	0x3f67937d88c59f13	0.0028779460755464863
83	0xbfb32ac305ea7433	-0.074871243423744
84	0x3fca8c4592e1f919	0.2074057547760695
85	0xbfb428861e94166d	-0.0787433457045041
86	0xbfbfc5397b7ea11f	-0.12410315766340262
87	0x3fa2919cae4b5c12	0.03626718165985933
88	0xbfaa73ddf6ecb49b	-0.051665245430151795
89	0x3fc2948d6ad6bbf6	0.1451584598230224
90	0xbfb1f7d653606033	-0.07018794570501612
91	0x3fc2c6c736e8161f	0.14669122868524284
92	0xbfc8e40c378f86dc	-0.19445946419641913
93	0xbfb591f3c0c9935d	-0.08425830322955848
94	0x3fc583981152537f	0.168078430612379
95	0xbfc647ef5b53d8a0	-0.17407028159477012
96	0xbfd0385bfa4905f1	-0.2534398979369988
97	0xbfac28590181b91c	-0.054995328363349055
98	0x3fc60fc87f0c03b9	0.17235666469062297
99	0xbfa3d5500ea8b1d0	-0.038736821927475185
100	0x3fc15bbcf078d3df	0.13561212293430366
101	0xbfcf4a1105ac29db	-0.24444782998064238
102	0xbfc8bd910697e0c6	-0.1932851106828421
103	0xbfbd47736a593af9	-0.11437150331878944
104	0x3fc5007b86d42633	0.16407722552712442
105	0xbfb0c3ac6ba31225	-0.06548574092727984
106	0xbfc1617add73cdcf	-0.13578735173324083
107	0x3fd16e5af0729d44	0.2723605487940015
108	0xbfc286a160d70379	-0.14473359325895865
109	0x3fb4cea70289a32f	0.0812782651133943
110	0x3fc7351e5394d5fc	0.18130854683992925
111	0xbfb0dfa13e0c9035	-0.06591232075567251
112	0xbfc767a7ae6833b5	-0.18285079971283627
113	0xbf70c2d580905303	-0.004092058175065419
114	0x3fa2b178566331d5	0.03651023916754396
115	0x3fcd018b21a9dddd	0.22660960334518068
116	0xbfa79567bb9d8811	-0.0460617462656644
117	0xbfcdef9ca9b5cae3	-0.23387487684848116
118	0xbfbc00b247fab39e	-0.10938562638575752
119	0xbf93f938f7c1941c	-0.019505396005474393
120	0xbfc4a3477813bb62	-0.16123288500917982
121	0x3fca3a2f084fdee0	0.20490062623843297
122	0xbfc8ecb8ec9c7234	-0.19472419312741496
123	0x3fc76324476b84c6	0.1827130650263255
124	0xbfc8a8a2672dd975	-0.19264631307641947
125	0x3fd18c63feb6eb30	0.27419376253571937
126	0x3fb6b335b70b3e69	0.08867202490659455
127	0x3fc340c7a6567d42	0.1504144251057174
128	0x3fdda4944e210fc9	0.4631701243381455
129	0x3fc2faf05efe8e3e	0.1482830489959372
130	0xbf9cc335bce7f1ee	-0.028088416724118596
131	0xbf932b91ab06b83b	-0.01872089010583287
132	0xbfdaee9388dbe6e5	-0.42081154217849664
133	0xbfb0e58f00892a2f	-0.06600278628426602
134	0x3fd61e4a7566b096	0.345598807000678
135	0xbfa6c3c1f6c0c4b1	-0.04446226250764463
136	0xbfcf7a9b8ee874f6	-0.24592918851786977
137	0x3fc0da9b60f533e2	0.131671354620635
138	0xbfe1ef90c6eeebbd	-0.5604938397803988
139	0x3fccf5b3ade1231c	0.22624822607237938
140	0x3fced4f451ca5d8d	0.24087385171581524
141	0xbfaa7b53f5460290	-0.05172216767369264
142	0xbfbace36642fe914	-0.10470905252433155
143	0xbfcfd93d224dfbaa	-0.24881710219412173
144	0xbfc5dcd37c1d1ca9	-0.17080157814254918
145	0x3f8ff72bdbace29e	0.015608160630664
146	0x3fd0a7f672500e61	0.26025162852622513
147	0xbf9976f3ea1f3863	-0.024867831387205174
148	0x3fb16ac9201e2e03	0.06803566965225376
149	0x3fd5e024f2ba3cd5	0.34180568412643925
150	0x3fc34232e23622dc	0.1504577259586516
151	0x3fcabc471c4800f3	0.20887078171654813
152	0x3fab3286642f47d9	0.053119849900795386
153	0xbfcf81f22e43e199	-0.24615313777009076
154	0x3fc7334470963eb1	0.1812520551434225
155	0x3f7c9dbf38eaf438	0.006986376726385628
156	0x3fc971497245dec8	0.19876974181874218
157	0xbfc9e4604d63de45	-0.20228198794187527
158	0x3fab3a048a0f7764	0.053177015164449754
159	0xbfd5b447f1611e1b	-0.33912848064616846
160	0xbfbf4fbfdce2b05e	-0.12231063025200359
161	0x3fc46832a7c4b593	0.1594298667127246
162	0xbfc63b3cfa94c678	-0.1736828063526905
163	0xbfd257bbdd3e219e	-0.2866048489163634
164	0xbfd3a5e7b604f503	-0.3070010449917648
165	0xbfbf4b445fbbaf57	-0.12224223458514182
166	0x3fc82ac7481cba40	0.18880549450973838
167	0x3fc4efc1c68a8313	0.16356680101764506
168	0xbfcf62576809212d	-0.24518864230982143
169	0xbfaa7599941e58f7	-0.05167846615874965
170	0x3fcf5455c9b6b0fa	0.24476120328234413
171	0xbfc4685fbb9035bb	-0.1594352403484843
172	0x3fc26d0c5e15ad77	0.14395289033869194
173	0x3fbefeec348c5852	0.1210773113528785
174	0x3fcc2855b874d29e	0.21998092180878798
175	0xbfb40ad44700a876	-0.07829024060689158
176	0x3fac92d0ba4c1383	0.05580761217246446
177	0xbfb32e683fc5c867	-0.07492686802814462
178	0xbfb05687ea509243	-0.0638203570420695
179	0x3f80af10dd2d42c2	0.008146411657123823
180	0xbfb447bca8f5d0c3	-0.07921961903577128
181	0xbfa1f96174a08510	-0.03510574864072613
182	0x3fcb455beba92a70	0.21305417067408738
183	0x3fa501b5b86ca97c	0.04102867008471642
184	0x3faa31672a8c604a	0.05115816492451637
185	0x3f86829e3f03985a	0.010991321847949976
186	0xbfc9f17f97536f83	-0.2026824463745208
187	0x3f65247022fabe65	0.0025808515709611506
188	0xbfc01b5e0f1987a5	-0.12583518731395063
189	0xbfc2c8bd0f917640	-0.1467510534302381
190	0xbfa120450c15bf0e	-0.03344932339211769
191	0xbfba2f3af03820bc	-0.10228317608573695
192	0xbfc1c27a6cfe6d94	-0.13874750444379613
193	0x3fc880c2392a67e8	0.19142940322200208
194	0x3fcd70dbc3477825	0.23000666651836457
195	0x3f5a472c7b167936	0.0016038832076002547
196	0xbfbdd0697a4c351b	-0.11646136508735021
197	0x3fbdce8791621dd9	0.11643264102359953
198	0x3fb97d94c43a816b	0.09957246580825589
199	0x3ef45d08c74fddac	1.9420066070777932e-05
200	0x3fc22addc009a1c0	0.1419331729587281
201	0x3fc8c9297943e928	0.1936389772525413
202	0xbfc3bb97aa44a956	-0.1541623669994105
203	0x3fb77b9dbe674ae2	0.09172998331568352
204	0x3fbc94ff28b97457	0.11164850944756331
205	0x3fbfaf7c7feaebbb	0.12377145884504064
206	0x3fc07e6a9677cc2b	0.12885792109554592
207	0xbfb6a03ef69befb1	-0.08838265915613765
208	0x3fd0a503619367ec	0.26007160691153675
209	0x3fa63710fddf3748	0.043388873090960234
210	0x3fd17e989865df8a	0.2733518112431673
211	0x3fd347363c00eee8	0.301221426579771
212	0x3fc2aa4f68eb730e	0.14582245467217841
213	0xbfb736752a86a850	-0.09067470825417101
214	0x3fbf363171f639a2	0.12192067177077218
215	0x3f846c7d391c1204	0.009972551637027934
216	0xbfbf8ada3692dac8	-0.12321246940960429
217	0x3fcda275d4f1cf3a	0.23152039430316923
218	0x3fb0d86f404c9c48	0.06580252952390808
219	0xbfbd6e2d1f02df70	-0.11496240622625264
220	0x3f8e2a1058e9a3e1	0.014728667939566566
221	0xbfbc110f0c289150	-0.1096352963145979
222	0x3f913e820cd38a7b	0.016840011628014722
223	0xbfbd80895d63ead1	-0.1152425625804583
224	0x3fd3c1dbfd4ac120	0.3087072347216395
225	0xbfbb3c2f2baa279b	-0.10638708892852693
226	0x3fcde78ec64dc3df	0.23362908060838003
227	0xbfa735a4286c8a7c	-0.04533112519699942
228	0x3fd00a34797f4441	0.25062286248163806
229	0xbfbe7a5a507ac0c5	-0.11905445542174949
230	0xbf9d7aeab526cc99	-0.028789202982534155
231	0xbfe30cc869899dcf	-0.5953104077606727
232	0x3fcc4be333b49086	0.22106590294527367
233	0x3fe06d723408ac5e	0.5133601204191895
234	0x3fcade1467eb310a	0.20990233492046456
235	0x3fdb51d32f4bfba6	0.426869198025026
236	0xbf7e6f4c6fd10c4b	-0.007430361348329371
237	0xbfe5a1376f0a46d5	-0.6759297531845855
238	0xbfb4dbc4bf9c9031	-0.08147840192810986
239	0x3fddf8e74f5d5315	0.46831686735576855
240	0x3fd18884096dfd4b	0.2739572612844838
241	0x3f605c34ecdf69be	0.0019970925995782254
242	0x3fc39d4aeb4b0d04	0.15323769081997096
243	0xbff013de68241822	-1.004850775528674
244	0x3fd45f6a81a37d9d	0.3183237329485225
245	0x3fcd3771ec2ddb16	0.22825454742606927
246	0xbfa6f7a149e723dd	-0.044858017226552006
247	0xbfde554cff0d7046	-0.47395634562940747
248	0xbfd11d86317178b4	-0.26742701366846267
249	0x3fa05fb407af0930	0.031980157793002895
250	0x3fcac3080b33a147	0.20907688662487997
251	0x3fbb4289d9e42a55	0.10648404664622409
252	0xbfab21cadcc3fcda	-0.052992190789149254
253	0x3fd2689b1c9ae9ea	0.2876346377703657
254	0x3fb4ed57345d2165	0.08174653080380308
255	0x3faffede3c9309c2	0.06249136437829207

bias f8 [63]
0	0x3fc5d8433d9b5eeb	0.17066231258535622
1	0x3fc3268f89b28734	0.1496142790174929
2	0x3fee4c85094f2994	0.9468407804318297
3	0x3fcb3f943a236401	0.21287777746945838
4	0x3fc0681582bd06e3	0.12817639239988585
5	0xbfd032669f545a80	-0.253076224894734
6	0xbff8fac3a7e96c46	-1.56122174826193
7	0xbfc7455e5fd7a8f9	-0.1818044631939484
8	0xbfea1d682f77313e	-0.8160897185385136
9	0x3fb71035b5cb5a58	0.09009109199846799
10	0x3f8ff58618aee85e	0.015605018261215683
11	0xc000eab2572ac01f	-2.114597970001355
12	0xbf812ab3aaccf234	-0.008382228517455827
13	0xbfca05e3993535c0	-0.20330471974231834
14	0x3fe3fcfade6e2084	0.6246313423480534
15	0xbfed1840d913b647	-0.9092106094155462
16	0xbfc35707b0e221cb	-0.15109344612962014
17	0x400ab2dd31f3ecd7	3.337335958725457
18	0xbfdb23c7ff220bf3	-0.4240589133771088
19	0xbfdd8a1f3cbc61d0	-0.46155529910313664
20	0xbffa5e74ac370e2c	-1.6480604865217954
21	0x3fbe50324b677801	0.11841120091364134
22	0xbfd34ef44a114a5f	-0.3016939853015738
23	0xbfce207062f6ffd5	-0.23536496002452503
24	0x40106504fa9b9256	4.098651805634821
25	0xbfef5f3648ad9679	-0.9803725642675111
26	0x3fcba249b84f2459	0.2158901357600225
27	0x3fa7b5268583c6c8	0.046303943441569795
28	0xbfc960c3209aa632	-0.19826544849392885
29	0xbfa0ddb8046e54b5	-0.03294158033455955
30	0xbfbab5114457d087	-0.10432537001162433
31	0x3f9d7661fd4023ac	0.028771906931101363
32	0x3fb4cc5f52ded48a	0.08124347470477936
33	0xbfbb62f2848db950	-0.10697856651470272
34	0xbfcd75a6cac85a29	-0.23015293981070897
35	0xbfebc13916536bf7	-0.8673367916156839
36	0xbff51cdaf25ea747	-1.3195447413986174
37	0x3fc336bd62421034	0.15010802552944968
38	0xbffebfd364d13625	-1.9218324602292196
39	0xbfe91107c57e7388	-0.7833289010337561
40	0x3fc98e7af7421d58	0.19966065476567496
41	0x3faf1fa6ca1da46c	0.06078835694535986
42	0xbf9f938c23526790	-0.03083628621661877
43	0x3fae6defa5124d80	0.05943249597580813
44	0xbfd2c1416bec3a8a	-0.293045382874802
45	0xbfc1154ce0d82a19	-0.13346253374796005
46	0xbfbb515abed08294	-0.10671012075955338
47	0xbfb09ff0139d9238	-0.06494045714277596
48	0xbff2587a360cb94c	-1.1466009246174336
49	0xc0003b4727c78fc4	-2.0289443118835795
50	0xbfb027d5d0405768	-0.06310783705006673
51	0xbfba02639395f9a2	-0.10159895280046397
52	0x3fc7368bd120f93e	0.18135211669318524
53	0x3fc21606060feded	0.14129710479743043
54	0xbfb2bfdd3799c7f2	-0.0732401142829813
55	0xbfb6f1615582c741	-0.08962066972415263
56	0x3fa2dd45650240f4	0.03684441431062338
57	0xbff37188f5a059ae	-1.2152185053615585
58	0xbfb81775664b8799	-0.09410794970929572
59	0xbfb6917601336504	-0.08815705804171975
60	0x3f932c82a8c9016a	0.0187244811552331
61	0xbff380870a32378e	-1.2188787840163715
62	0xbffa6a452d69499c	-1.6509448789480308

weight f8 [63, 63]
0	0xbfadf65f20c294f4	-0.05852029108909021
1	0xbfba2edde857b8e5	-0.1022776310198626
2	0xbf942f8c4e8b4185	-0.0197126315059122
3	0xbfcd93958bef107c	-0.2310664113302926
4	0x3f9a567baba58eb7	0.025720531798824022
5	0xbfc5ffec7d6a7a29	-0.17187267421555077
6	0xbfc4dbd5e7bace9c	-0.16295884909560676
7	0xbf82596430ab65e9	-0.008959563002849573
8	0xbfb507023c482e9a	-0.08213819476821485
9	0xbfa3ea37797022a5	-0.03889630658529101
10	0xbfacabe42a987ef5	-0.05599892635313878
11	0xbfc06908f6a7d17c	-0.1282054142353778
12	0xbfcbf62473d88635	-0.21844916969807718
13	0x3fa3614398383823	0.037851440745825714
14	0xbfb445581e9f78e0	-0.07918310878401114
15	0xbfbfe633fb18fa3a	-0.12460636978446696
16	0x3f9c56754f9ef33d	0.027673562035249722
17	0xbfc8951fefb42b30	-0.1920509262493737
18	0x3f974e0bd7ce3544	0.022758660361025265
19	0xbfb5f7b20eca5c34	-0.08581078396888203
20	0xbfa127e27e932712	-0.03350742144682618
21	0x3f88246fbe42cd6a	0.011788247102549849
22	0x3fab31648799d32c	0.05311121135028993
23	0xbfc629d1e6b11221	-0.17315124286882713
24	0xbfe6907a55f0a668	-0.7051364592090978
25	0xbfb48eb5fec7cf78	-0.08030259580828936
26	0xbfa3688bc333859b	-0.03790699727847909
27	0xbf9ae05408f28c51	-0.026246369405850626
28	0xbfbd153fcefd3d70	-0.11360548785636637
29	0xbfcc7553c95d093f	-0.22233054477880818
30	0xbfcab49c841eacbe	-0.20863682223475694
31	0x3f8054a96f0fa1d9	0.007973979665579488
32	0xbfbd4732eb343fcc	-0.1143676590183979
33	0xbfb58db6f9ef6f96	-0.08419364549575756
34	0x3f903f917e65a99a	0.015867493953388136
35	0xbfb7b559f1e3d837	-0.09261095195310608
36	0xbfc0ec1b05febafa	-0.13220536987997616
37	0xbf76f4766567d2d1	-0.005604231343103464
38	0xbfc40203ea8119b8	-0.15631150198369226
39	0xbfc05350f2a9cec4	-0.12754260872644896
40	0xbfcd59961caa6557	-0.22929645919502192
41	0xbf982d2ed0caefc3	-0.023609858983703946
42	0xbfc39d4936b6dc54	-0.15323748752209332
43	0xbfc46de1a35dd75e	-0.15960331417926005
44	0xbfb24b62cf48f5fc	-0.07146279869717626
45	0x3f88d42d014a2771	0.012123443223817284
46	0x3fad8f0d2e4f9b6c	0.05773202123946572
47	0xbfc9f61243389b89	-0.20282200128823671
48	0x3f84d8311fcf8af0	0.01017797830895037
49	0xbfb0bffc329a9f94	-0.0654294608635822
50	0xbfc6560db9c4c06c	-0.17450114794474147
51	0xbf8618655df9a4b0	-0.01078871911086518
52	0x3f9e95cfecc8456a	0.029868363215489614
53	0xbfb829932271c2ce	-0.09438438025405135
54	0xbfc710fd368076b2	-0.1802059665796399
55	0xbfa74e72da264ef6	-0.04552039063415052
56	0xbfb6dea75a8afa7b	-0.08933492622871057
57	0xbfb68d8fcefb62e9	-0.08809756091376254
58	0xbf9d47980303d68a	-0.028593421157856493
59	0xbfb4e6ee4ee09be0	-0.08164872575490234
60	0xbfa7acfe9f3a0db2	-0.04624171918569732
61	0xbf860fb78e7eb62a	-0.010772165332890788
62	0xbfc172426b18e2d7	-0.13629942159038563
63	0x3fbeea68251ff6d8	0.12076426416748676
64	0xbf9c384c33578b82	-0.027558508523621857
65	0xbff7dbc786b44f70	-1.491157079876725
66	0x3fb86cef4830de84	0.09541221153710394
67	0xbfa7a31f55aaadb5	-0.04616640015350574
68	0x3fb986ca6bd82cb1	0.09971299298210813
69	0x3fd4eda1e8b12266	0.32700393413373374
70	0x3fcc43609ade4724	0.22080619394233125
71	0x3fc1c8e40a1fed38	0.13894320005770466
72	0x3fbe8ce89e1e2731	0.11933759556100366
73	0x3fa189becc1ddf54	0.03425403825434495
74	0x3fcdf45e6b40e300	0.23402004467950377
75	0xbfa182762fb8cae2	-0.03419846851865828
76	0x3fbc631160d43313	0.1108866559408848
77	0xbff0a0c319192336	-1.039248559989756
78	0x3fd08a1f686f176a	0.2584303398001483
79	0x3fc058094a7a0b9a	0.12768665443954036
80	0xc00931b4778b3ab7	-3.149269994675105
81	0x3fcb5a546e0020ce	0.21369414683454696
82	0x3fd802e94ee761b4	0.37517769532635303
83	0x3fc508b5a2ce8f37	0.16432829331926666
84	0x3fc64e4cccc6ccc3	0.1742645263562733
85	0x3f8ab6026c4e57be	0.013042468004453297
86	0x3fc86094164f83da	0.19044734086403886
87	0xc00667d7e5b39592	-2.800704760115601
88	0x3fcb061ec468da1a	0.21112427320777344
89	0xbfe50d85c306236a	-0.6579006966650074
90	0x3fc4696fae40afa3	0.15946765907699242
91	0x3fb80b890d2437d5	0.09392601557576026
92	0x3fbc1912371a0def	0.10975755543955022
93	0x3fa31a2c888a8bdb	0.037309066455484895
94	0xbf88d0123901a542	-0.012115614285181157
95	0xbfb1cc11070bf7b5	-0.06952005788841016
96	0x3fc31e166ad52898	0.14935569969594975
97	0x3fb7d5a0e298b8aa	0.09310346157210128
98	0x3fce0599445f4e82	0.23454585875025563
99	0x3fb3f3e3342e8ec9	0.07794017814608901
100	0x3f9e973d9bdb9e97	0.029873812330065332
101	0x3fc71ae16bdf57d5	0.1805078293534154
102	0x3fcbe2c4f197687b	0.21785795017678197
103	0x3fbdeb729578e336	0.11687389516090438
104	0x3fc47faecd6e8193	0.16014657049983025
105	0x3fb240878da09d12	0.07129714210224261
106	0x3fb5e3802af72da9	0.08550263451541319
107	0x3fd2a50002d1fbbc	0.2913208034078101
108	0x3fbfd7e734c354bf	0.12438817060622663
109	0x3fa83b4c5e4d4c4f	0.047327410232036564
110	0x3fb38181430f1234	0.07619483840159874
111	0x3fc80b729d3dac66	0.18784935643938921
112	0x3fd7cd62c29b4ddd	0.37191075329357465
113	0x3fbb7b107b23ba18	0.10734656339966653
114	0x3fa189aec4c03c47	0.03425356055969835
115	0xbfa404164194a19b	-0.039093680863803125
116	0x3fb29f43c7958bbf	0.07274268744144673
117	0xbfa66aff8c11a6dc	-0.043785081718693525
118	0xbfa983a1a830c6ce	-0.04983239343745326
119	0x3fab66fbcb8f4238	0.05352007732256364
120	0x3fbcfee6fdfc9ae5	0.11326450062606915
121	0xbfaa96ac8ecc2e5c	-0.05193080180296469
122	0x3fb73ded8849ce24	0.09078869416571728
123	0x3fc43c70f5432f83	0.15809452033715496
124	0x3fc9dee2483c1c82	0.2021143772801431
125	0x3fbd8170fa468356	0.11525636778106949
126	0x3fc7bf831ce4e057	0.1855319872936458
127	0x3fcd0d82d135e306	0.22697482314449519
128	0xbfea6ac00cf48ab5	-0.8255310299903927
129	0xbf25e43e948bd62b	-0.00016701949996160542
130	0x3f961eba96df76c3	0.021601596315909754
131	0x3fbf9abecb14a005	0.12345497568151138
132	0x3fcd47dd4d7b2b89	0.22875562937982988
133	0x3fc0077eae741e25	0.12522872465363935
134	0xbf85d308b5931d83	-0.010656421700686597
135	0x3fc0491334f8e50e	0.1272300728467503
136	0x3fc774926191f2d9	0.18324498905339828
137	0x3fd06c7c5afe98fb	0.2566214455240609
138	0x3fb00508caff66e0	0.06257681804654736
139	0x3f5e5ee19a3808b0	0.0018536761425598618
140	0xbfcd97d5a38355ce	-0.23119612201723644
141	0x3fb4ef2bd3d7293e	0.08177446290861654
142	0x3fa230ebce643728	0.03552948851039012
143	0xc0038120392cf55d	-2.438049742397807
144	0x3fc6eb65deae8986	0.17905877469190673
145	0x3fc4911a1799499f	0.16067815925869142
146	0x3fb689cd09a10ab0	0.08804017529568386
147	0x3fa60bfd511bb4b8	0.043060222769648104
148	0xbfa641cfecdfdee9	-0.04347085730108608
149	0x3fc8cda9d99ac028	0.19377635121554815
150	0xc0035f15420a238f	-2.4214272651046893
151	0x3f8aa8a201cf9959	0.013016954117074308
152	0xbfc4519a22c15851	-0.15874029824289207
153	0x3fb149227394c38e	0.06752219507030885
154	0x3fbaa77fb02d25e3	0.10411832858257912
155	0x3fb5f8bd1a3bc7e0	0.08582670107332957
156	0x3fbf74e10b1979bd	0.12287718316063141
157	0x3f7635092cfbadab	0.005421672670972748
158	0x3fa2f3dd37897825	0.03701678564969794
159	0x3fc5edce9b37f3f4	0.1713197954085498
160	0xbf8cdd02e3a3548f	-0.014093420574150776
161	0x3f84ce46086ea2d2	0.010159060604409662
162	0x3fc7a68158ec8ed1	0.1847688373755916
163	0x3fc3a5f689277a23	0.15350228974325927
164	0x3fa13c735fbae13a	0.03366432708338825
165	0x3fc665930b09b2a2	0.1749748042961033
166	0x3fa3d7147b6d87d4	0.03875030523955983
167	0x3fc0512338229d18	0.12747612229325322
168	0x3fc986acf6e7525b	0.19942247444000114
169	0x3f8a702a3d8e1bd9	0.012909250262749626
170	0x3fc8d7de57244bb0	0.19408778433770868
171	0x3fc4a4d4f6735eb7	0.16128026994441821
172	0x3f477e99185241b3	0.0007169959577755708
173	0x3fcaee2e61cd5068	0.21039371276367835
174	0x3fb8dc4e0f6d6369	0.09711158634799023
175	0x3fb119919c3e5f40	0.06679639877836241
176	0x3fb8febbbcac8910	0.09763692241952904
177	0x3faee468dec3fbc1	0.060336377327977704
178	0x3fc6a5ef9022b9c6	0.17693895852921865
179	0x3f9b3dbe9acce710	0.02660272426439919
180	0x3fbd7e0b8daedbaa	0.11520454606112077
181	0x3faf6f84128b0386	0.06139767385821586
182	0x3fa7fb6bd2d62923	0.046840066420445824
183	0x3fb7891c46242a87	0.09193588936265416
184	0x3fc4f86e9646babd	0.1638315423746998
185	0x3fcc2ee4d2b5429f	0.22018108643034837
186	0x3fc3aad2441a2e93	0.15365055394464786
187	0x3fbfda00d16d9fb0	0.12442021477693177
188	0x3fb86aadb1eb2e3b	0.09537778466909057
189	0x3fb75103ed20b70d	0.09107994593861353
190	0x3fcdce29443a2c88	0.23285404044540692
191	0xbfef7be5c3ecf89b	-0.9838742090867244
192	0xbf782a87f5de6249	-0.0058999358133396485
193	0x3fc46d3d74226dee	0.15958374186162366
194	0x3fc350bd7dc93a6f	0.15090149537941808
195	0x3fbfa956aa3c33e5	0.12367765098697665
196	0x3fce8fed484a95e5	0.2387672999367815
197	0x3fb4d3d866b6f507	0.08135750301058318
198	0x3fcd6ace5f9f5f11	0.22982196492261456
199	0x3fbeaa6f02cf4ac2	0.11978811091038735
200	0x3fc33b38b0f2eb82	0.15024479522784523
201	0x3fcc45cbbe939101	0.22088000112047015
202	0x3fb743267a56d57f	0.09086838232800253
203	0xbfec45596b5a634b	-0.8834654900302693
204	0x3fbba5342918dee4	0.10798955920551695
205	0x3fc8b4bc4444f2eb	0.1930156071993204
206	0xc007757d483f9dcc	-2.9323678631223853
207	0x3fcfa68dfbed7b34	0.24727034379153567
208	0x3fcbaad1031d27f8	0.21615040447278466
209	0x3fb837291d899527	0.09459168406609263
210	0xbf76a13b6831b660	-0.005524856623294022
211	0xbfa5df5aa3e2dd16	-0.04271968126834673
212	0x3fb0679ffc1db4f9	0.06408119111229728
213	0xc00524205d58cb2d	-2.642639855644481
214	0x3fc901ad78202cc0	0.1953636967230974
215	0xbfdcde82ab6f938e	-0.451080958764856
216	0x3f775d89f830968c	0.005704440062833559
217	0x3fb03015058caa63	0.0632336748646281
218	0xbf7ed65cfd561258	-0.007528651466945556
219	0x3fcbab58543bc382	0.21616653550111314
220	0x3facc46616e758fd	0.05618590383135034
221	0x3f9fa7e8abe7dea5	0.03091395901898743
222	0x3fa8b6ec0b68a2e0	0.048270584480922585
223	0x3f935c8172f39bf3	0.018907568589295164
224	0x3fabbdfaf514b860	0.054183809678179484
225	0x3f7dc8d3b5aff1d7	0.007271601668432179
226	0x3fc031af2e31f501	0.12651624446508694
227	0x3fb020946cb04c5e	0.06299712804347865
228	0x3fbd5179e7323423	0.11452447790561897
229	0x3fc3fab51f5abe71	0.1560884860132208
230	0x3fc805f516f730ae	0.18768180486074953
231	0x3fc29f1e40b5055b	0.14548090133215905
232	0x3fa0436213e8b526	0.03176409237890203
233	0x3fcf0cd95c8f99ab	0.2425796224553783
234	0x3f9f34fd463da447	0.03047557584014651
235	0x3fa7772545209fa6	0.04583088368263981
236	0x3fcd329f8a70a110	0.22810739764941745
237	0x3f901e9180d3fe11	0.015741609085123957
238	0x3fbf83ecb70939c0	0.1231067606797529
239	0x3fcd17d3c42061e6	0.2272896487854858
240	0x3fc2ab1ea7d75380	0.14584716029517253
241	0x3fb3638b85cd4443	0.07573768631597581
242	0xbfa7005a71088bb0	-0.04492457036783237
243	0x3f956fe18ab0728e	0.02093460473052971
244	0x3fc2ff16619f854a	0.14840965048555638
245	0x3f5577d3541a9efe	0.0013103069071948577
246	0x3fc6fb9fba520481	0.17955395314860215
247	0x3fc32402ae0017e0	0.14953645225631274
248	0x3f9b26f833646e7e	0.026515844475496035
249	0x3fab9ac610ec9678	0.053915204587878074
250	0x3fc534e074f52c28	0.16567617140603486
251	0x3fbc28a8cd772b11	0.10999541298148709
252	0x3fbbd8c601082c80	0.10877645039743022
253	0x3fc6bb162bf43bb3	0.17758443018143807
254	0xbff2547e731e3228	-1.14562840431166
255	0x3fc8a47823d71b16	0.19251920461666633

bias f8 [63]
0	0xbfa3c99a56c94c78	-0.038647482961686686
1	0x3fc1026d09fce1ba	0.13288653361975183
2	0x3f9db92fe0e98343	0.02902674494032743
3	0x3fc87c5b196a6802	0.1912950395679332
4	0x3fa37782261ac5c3	0.038021151687086106
5	0x3f4287b8a06d1c0d	0.0005654956338297948
6	0x3fad0430e7dc3e80	0.05667260008169439
7	0x3fc7387632d9d456	0.1814105747504608
8	0x3fc7804244e46780	0.18360164989354288
9	0x3fbf7cbaf8489510	0.12299698411569104
10	0x3f6e056bf7bfd2ae	0.0036646946664354507
11	0xbf9528971d0a7e25	-0.020662652156373213
12	0xbfb9254206e0cf50	-0.09822476070331487
13	0xbf93c0d5b9838459	-0.01929029412065506
14	0xbfaa8388b44708af	-0.05178477478649889
15	0x3fc4de93c250bb2c	0.1630425165944528
16	0xbfb6e940e10d96b3	-0.08949666494808177
17	0x3fbc8ac12f42a152	0.11149222759070668
18	0xbf97c73bc84743dc	-0.023220953082105797
19	0xbfba63af1759002a	-0.10308355636607361
20	0xbfc58e53a5a1cbc9	-0.1684059675932004
21	0x3f9a906cb909afbf	0.02594156150227866
22	0x3f91d3c004a57469	0.017409324916446787
23	0x3fba0613e42584dc	0.1016552383421358
24	0x3fbb40a59511d258	0.10645518197436254
25	0x3fa148c1900e8053	0.03375821002487158
26	0x3f9154a48c08eeb2	0.016924449011851812
27	0xbfb4b41ccbaa1f30	-0.08087329838064927
28	0xbfc30cff068c8cda	-0.1488341123559625
29	0xbfc1124c1c320a63	-0.13337088944179518
30	0xbf91113e0df6f4ec	-0.016667337038360694
31	0xbfc3b7e145646590	-0.15404907120027334
32	0xbf902dfec08600a2	-0.015800457478235892
33	0x3f7a8fd6de8c7a48	0.006484832127880376
34	0x3fb29624fc7df42a	0.0726035229144634
35	0x3fb1d1fc8da850eb	0.06961039026674924
36	0xbfa0e26ea3b57da8	-0.032977540477755085
37	0xbfc5e1fc136a6927	-0.17095900486021628
38	0x3fc4ccbe68877a0c	0.1624982843777193
39	0xbfca1c81d1f390a3	-0.20399496795210323
40	0x3faf08df66d76a7b	0.06061456804646511
41	0xbfa9cafcbf762021	-0.05037679516959793
42	0x3fc7b7774f73660c	0.1852864396994821
43	0x3fbc9622025a85f1	0.11166584546528903
44	0x3fa42d67cb25bc63	0.03940891604258281
45	0x3fbb58dfd6a97200	0.10682486525315227
46	0xbfb3b57a05e15375	-0.07698786395606112
47	0x3fa28d22bf6a99c3	0.036233030191670255
48	0x3f9a5aa365dfe238	0.02573638257305985
49	0x3fbd3b8861e0e71f	0.11418964757549731
50	0x3fa223be36a3dcfb	0.03542894761079115
51	0x3fc836f80d9058ba	0.18917751943872024
52	0x3fbd34d24f5c447e	0.11408724248419053
53	0xbfa06ffeaeb9d21c	-0.03210445292362271
54	0x3fc99a18efc19057	0.20001517969933744
55	0xbf992c1196b75942	-0.024582171272265592
56	0x3f6ac1000e1598a5	0.0032658577990104126
57	0x3f9012ca8f4570fa	0.015696682924827045
58	0xbfc0f83bec9fee10	-0.13257550291005815
59	0xbf6da25b1f76eb85	-0.003617456411772082
60	0xbf916fe355747505	-0.017028381434205837
61	0x3fa9bb2a329e598d	0.05025607936765928
62	0xbfc5de63615e5ed8	-0.1708492494042193

weight f8 [1, 63]
0	0x3f92f6b6dc1ffc6f	0.01851926535163922
1	0x3fc5db9bce49ef0b	0.17076442310996529
2	0x3fd01fb16dbfa7c0	0.25193439214364943
3	0x3fc8a6a2e8fe6751	0.1925853383698333
4	0x3fc83b4cbfb500cb	0.18930968628592945
5	0xbf9f0e4ea71f1416	-0.030328015280037667
6	0x3fb6aac3ff90ec6d	0.08854317654997752
7	0x3fd1ee172705b85e	0.28015688715720966
8	0x3fd1aa56611fb590	0.27602157101395
9	0x3fd2142dbd67968e	0.2824816083578775
10	0x3fa185d1841cf23c	0.03422407853802098
11	0xbf8a66f9042c0301	-0.012891717376534386
12	0xbf911726834d4605	-0.016689874424008284
13	0x3fc6f89405b974dc	0.17946100501550333
14	0x3f8e902ffa7ee252	0.014923453170795718
15	0x3fcc68976eb981cb	0.22194188028789905
16	0xbf9bf397987fb397	-0.02729641788748757
17	0x3fce8a8cf44827fe	0.2386032288343926
18	0xbfa4ffe1733541b2	-0.0410147145399863
19	0xbfa1f161ac96adf2	-0.0350447199992593
20	0xbf98fa73ef35e822	-0.02439290187383148
21	0x3fcc5651dec63779	0.22138427140856345
22	0x3fa4e70212a50721	0.040824951911885295
23	0x3fd05dc7335ee900	0.25572376267122365
24	0x3fcef655e89b042b	0.24189256532375344
25	0x3fd062ed54178317	0.25603802883237975
26	0x3f82d9167b2c4fab	0.009203124650902192
27	0xbfa2af2b171df8b3	-0.036492678234013275
28	0xbf882cf17fcee568	-0.011804472649475442
29	0xbf89fec18b47998e	-0.012692939818361972
30	0xbf876b1bdda81d5b	-0.01143476267044601
31	0xbf8c6aa8628d11ee	-0.0138753085208316
32	0x3f809bc582d97c3c	0.008109610610686706
33	0x3fd0d292fdfb40cd	0.26285242846371376
34	0x3fd2427379b12565	0.28530585178358187
35	0x3fcf65a07daae7c2	0.24528890739548898
36	0x3fc937231425b326	0.19699514850381056
37	0x3fa3a64c0cfa491b	0.038378120979489526
38	0x3fc6d658643add46	0.17841629880943283
39	0xbf7d5e99fd5a47e5	-0.0071702971669242764
40	0x3fc48beb38d57c2c	0.16051998400777856
41	0xbf9aa0f592414f20	-0.026004635860160552
42	0x3fc69381671c0402	0.17637650999679982
43	0x3fd1735013f997cb	0.2726631350582209
44	0x3fc9d784bade10ab	0.20188960194002922
45	0x3fc629225c7e3935	0.1731303168894073
46	0x3f9bd30b3024b08e	0.027172255338129996
47	0x3fcc972746fd8310	0.22336283651659317
48	0x3fd0cce56bd96d88	0.2625058701721277
49	0x3fcd41960f173c93	0.2285640309987441
50	0xbfa2bbff566c8396	-0.03659055643061675
51	0x3fd1bac6cf384a6c	0.27702493892971947
52	0x3fc1165240a2b5a5	0.1334936919787825
53	0x3fc936519ad00b5a	0.1969701772614723
54	0x3fcc9803753a2d03	0.22338908409106048
55	0x3fc867060ef1cdcd	0.19064403276170908
56	0xbf92992cca318550	-0.018162441101940374
57	0x3f9c88d55b009a3f	0.02786572807249343
58	0x3f9d3420b41debaf	0.028519164079152833
59	0x3fd18173459f4693	0.2735260181335459
60	0x3fc857d988549faa	0.19018096119657218
61	0x3fcaa0d1cffaed39	0.2080328240898355
62	0xbf9d7c9529765fd3	-0.028795557647384683

bias f8 [1]
0	0x3fcff399e3913676	0.24962161647492892
