pre-trained models/NO2819_YIL088C.pth (torch, 80279 bytes, 6 tensors)

weight f8 [84, 28]
000000 28 90 49 a9 11 23 87 3f 16 54 df 8a de d7 b3 bf
       0.01129735753892909 -0.07751265421332251
000010 2d 90 1d de 9a 80 bb bf 5c 86 d6 ba 68 9c a4 bf
       -0.10743110583058586 -0.04025580673920778
000020 78 0b a9 d7 a9 7b a6 bf e1 33 92 c5 1e 84 bd 3f
       -0.04391222722599414 0.1152972442962006
000030 59 21 69 8b a4 01 b3 3f 3a b2 d8 fb a1 3a c5 bf
       0.07424381640988055 -0.16585182950201888
000040 2e 58 14 6a 57 a1 ca 3f 13 73 a4 95 81 38 be 3f
       0.20804875068341872 0.11804971602800789
000050 29 b6 29 c0 20 62 74 bf 2c 5c 94 b6 fc ba c0 bf
       -0.004976394588636115 -0.13070639529243644
000060 91 bb ab 49 e3 65 cb 3f 9c ee 86 2b 5f e0 a0 3f
       0.21404687020500693 0.03296182066284567
000070 60 ec 3d bd 77 d3 aa bf 36 16 b6 37 8f ab ca 3f
       -0.052394620753113186 0.20836057873036545
000080 07 2f 1d dd fd 8d c3 bf 59 4d af 7c 54 4b b6 bf
       -0.15277074143011068 -0.08708694500028481
000090 f6 55 50 94 1f f2 98 3f 45 20 8d e4 a3 f9 c1 3f
       0.024361127307278317 0.14043091449480208
0000a0 86 84 c7 d5 b5 e3 c6 3f 77 b4 94 42 e5 22 bf 3f
       0.17882416666455841 0.1216262137938474
0000b0 b3 e8 89 b6 a9 f4 ac 3f b0 5b 77 78 49 27 b5 3f
       0.05655413010841084 0.08263072196073895
0000c0 f5 13 4d 36 ed 2f bb 3f a0 ff ea 02 b5 59 94 bf
       0.10620005202970602 -0.019873455336664514
0000d0 28 cc ca 3c 74 81 a6 3f 8d 63 1e 1b 8b 12 bc bf
       0.04395640604106915 -0.10965794956281467
0000e0 d4 9c 2f 12 6a 59 ba 3f ff 88 b1 7e 53 e2 c5 3f
       0.1029268545531637 0.17096942602353946
0000f0 79 62 c8 bf b7 a9 a9 bf b4 1a 9f ee ac 94 c6 3f
       -0.05012296882722906 0.17641221667709817
000100 25 87 b8 04 e1 23 be 3f b2 1b 4e 86 dd 58 be 3f
       0.11773496976141169 0.11854347733434059
000110 b1 75 05 00 a2 a6 b6 bf ef 9a d9 43 98 ac d0 3f
       -0.08848011494179421 0.2605343496892791
000120 b6 cc f7 6f e6 a4 bb bf f8 fa eb 27 0e d2 a1 3f
       -0.10798492654412226 0.034805719731584916
000130 1b 94 4e 7a b2 9e bc bf c4 0f 3d 5f e5 d4 d1 3f
       -0.11179652677545031 0.2786191396773996
000140 9f 7b 46 66 3d 71 bf 3f 3d 7c 23 fc 8c 18 d3 bf
       0.12282165286022327 -0.2983734571734578
000150 fe d5 62 86 d8 ab 95 bf 18 41 77 c1 72 d7 b3 3f
       -0.021163352205538992 0.07750622962271725
000160 ff 95 6a 60 02 5b c0 3f 9f b3 45 f0 09 45 c3 bf
       0.12777738292531635 -0.15054439765972646
000170 78 f7 97 f5 91 04 b6 3f 40 08 22 71 fd 99 c2 bf
       0.08600723501146301 -0.14532440208501107
000180 10 e6 b8 9d 77 9f b3 bf 08 cd 7b c2 a5 fc 60 bf
       -0.0766520271362412 -0.002073596715371221
000190 e7 14 06 fd 01 fd bf bf 9d 65 1b cd de 01 b4 bf
       -0.12495434214914135 -0.07815353877540195
0001a0 d4 36 58 f5 5c 58 cb bf 32 0b 7b 14 eb e6 a9 3f
       -0.2136341283771147 0.050589891672208856
0001b0 06 04 a7 83 3b c7 be 3f 96 12 5f f8 a8 04 ba 3f
       0.12022754635019348 0.10163360656503992
0001c0 66 10 56 9a 90 ef d2 3f d5 dd 9c cc e2 48 d1 3f
       0.29587187835591633 0.2700736044093593
0001d0 a9 0d 0c 4d a5 cb e1 bf 29 13 73 dd 15 af b5 bf
       -0.5561090950799797 -0.08470284134370999
0001e0 a2 67 14 f0 b2 06 c0 3f 91 4f 65 28 b0 86 ab bf
       0.12520443651811514 -0.05376196377861143
0001f0 be 4b fe 6d d4 5e 9f bf bf e0 d5 04 0e 49 cf 3f
       -0.03063518449159707 0.24441695438486552
000200 dd 05 fb b8 8f 27 b4 3f 71 23 61 c1 01 77 b3 3f
       0.07872865930678281 0.0760346505277434
000210 de 51 7b 95 17 04 e7 bf f0 e1 4a 14 66 62 d2 3f
       -0.7192495269360355 0.28725578290644105
000220 86 df 17 ce f7 09 64 bf 17 4f 69 58 cc c4 ad 3f
       -0.002446159357301472 0.058142076294329374
000230 c4 6a 23 cf 66 0d c5 bf 94 95 f1 24 bd da c9 bf
       -0.1644714843194689 -0.2019878797902207
000240 65 ad de f9 3e 42 e1 bf 63 0a 3e f0 b6 ce c4 bf
       -0.5393366699476415 -0.16255842905600834
000250 bd 0c c3 7d 7e a7 b8 3f 2c 36 2f c4 32 b7 ac bf
       0.09630575723990638 -0.05608519215421057
000260 2c 1b 38 87 34 b1 87 bf ac 2c c7 43 57 fc 82 bf
       -0.011568460823594494 -0.009270364528580842
000270 05 bd 82 36 c4 94 d1 3f a1 df ac 7b 90 df d4 3f
       0.2747049839335463 0.3261452873007276
000280 b9 f1 82 99 bb a2 84 3f 7d ae c6 d7 86 6d cf bf
       0.010076013204859945 -0.2455299905390013
000290 f8 d0 4f 97 3f 6e da 3f 64 30 7c 21 c8 7f 90 3f
       0.4129790284780621 0.01611244873406327
0002a0 ca b8 9c d7 93 fd 7c 3f f1 f0 01 d2 1b 2e 93 3f
       0.007077767857295034 0.01873057812962115
0002b0 fa 64 42 d0 05 78 c7 3f 43 31 3b fa da 6d c4 3f
       0.1833503023997663 0.1596025201637393
0002c0 2b 5f f9 da 9b 34 9b bf 06 1c ff 9d 89 fd 8d 3f
       -0.026567874183768197 0.014643740781947311
0002d0 54 d7 2e e8 41 23 83 3f 3b 97 50 c6 6b e5 bf bf
       0.009344591997301123 -0.12459443656606776
0002e0 6a 6b f6 b0 e7 e0 c7 3f c0 31 f7 17 6a e8 ce 3f
       0.1865510572505074 0.24146772546954587
0002f0 25 2c eb 04 5f 4a cc 3f 69 53 31 0a 22 ef a1 bf
       0.22101962795417865 -0.035027564758513936
000300 6e 51 62 ac 09 4e b5 3f d0 24 6d d1 86 8b bb 3f
       0.08322201212496846 0.10759775746295763
000310 c1 8d 63 5f e0 d6 b5 3f 54 07 51 55 50 7e bf bf
       0.08531000450925942 -0.12302114565775685
000320 e4 79 b2 be 3f 63 a1 bf 03 33 04 87 cd 69 c5 3f
       -0.03396033480497687 0.16729134647939511
000330 98 f8 8f 15 94 55 c7 3f 61 74 a2 84 a1 58 a0 bf
       0.1822991471562474 -0.0319262003333527
000340 a0 0a 76 34 8e e0 a2 bf 31 04 51 e1 09 40 bb bf
       -0.03686947241205485 -0.10644590140238176
000350 28 66 ec 6b e4 2e b7 bf 59 ff 4b da 02 23 bd 3f
       -0.09055926928376634 0.11381547765267665
000360 ef 90 d8 43 70 d4 aa bf cb d1 d8 78 26 0e c5 3f
       -0.052402027399041866 0.1644943323204998
000370 b3 2b ae 64 3c 8f c1 bf ad 84 b8 e0 29 10 bf 3f
       -0.13718371311219144 0.12134038673731835
000380 32 b1 c8 75 ad 27 c2 bf 83 67 5c 8b 07 6b b6 3f
       -0.14183586360139483 0.08757064010970166
000390 6b 07 3e a3 e0 bc c2 3f a6 a3 ab 00 98 df c0 3f
       0.14638908358397926 0.1318235400460967
0003a0 4f 02 4f ff 02 de 9d 3f 77 5f b8 0a 54 cb a1 bf
       0.02916721995620924 -0.03475439673292063
0003b0 99 eb 83 7f 43 f2 b1 bf 48 eb b9 96 29 be aa bf
       -0.07010290015379751 -0.05223207440299987
0003c0 bb c2 7e 9e 57 8e b7 3f 69 15 e5 f0 41 81 a9 3f
       0.09201572055350031 0.049814282089338864
0003d0 92 ea 54 69 87 a6 cb 3f 50 56 5f 07 01 44 c2 3f
       0.21601956027173635 0.14270031795483584
0003e0 e1 90 ea 87 5e 6f 8d bf 91 02 27 24 52 97 ba 3f
       -0.01437257625850247 0.10387147314669166
0003f0 84 f6 ab 1d 6c 9e b8 3f f8 3f 93 e5 1f f8 c5 3f
       0.0961673328819988 0.17163466176725684
000400 b6 b0 4a 9c 8a 2b ab 3f 4c e6 5f 14 ce 21 7a bf
       0.05306656988008866 -0.006379895208732455
000410 a5 6a 9f aa e8 14 b5 3f ba f1 36 e5 83 d4 ba bf
       0.08235029378503585 -0.10480522485790447
000420 d7 8f c1 cd 88 39 c0 bf d5 29 70 40 10 24 b7 bf
       -0.1267558102291548 -0.09039403508373962
000430 d0 ca 2a 6f d3 b4 b9 bf ac 08 aa c0 91 94 ad bf
       -0.10041543449441837 -0.05777411915643546
000440 c0 93 7c 73 67 48 c4 3f 19 92 90 fe 4c 84 a8 3f
       0.15845959795947628 0.04788437468986135
000450 b3 71 6c 61 42 27 c1 3f 1c 13 ae 82 ce d2 c4 3f
       0.13401059872638896 0.16268330937250475
000460 8f 4d 9a e2 b5 95 cd 3f 4d 83 12 f3 ca 35 b2 3f
       0.23113130154216008 0.07113331255324092
000470 20 96 77 89 a2 68 cd 3f 42 c2 7f 6e b3 e8 b1 bf
       0.22975570404303003 -0.06995698402148157
000480 56 39 7f 9a dd 48 99 bf 1e 9e bd 93 47 53 a8 bf
       -0.024692022852656002 -0.04751037291026371
000490 ca a0 c6 ed 79 85 b9 bf 51 80 f3 47 69 07 bd bf
       -0.09969293646884406 -0.1133943367635777
0004a0 b7 9f 9d a0 93 bf a3 bf aa 1b 06 e1 5c 82 d0 3f
       -0.03857098899499028 0.25795671439157764
0004b0 1a 7d 5d 66 60 5c b8 bf 5d ca ef a5 ef d3 b2 3f
       -0.09515955447340155 0.0735463886374332
0004c0 22 d7 5b 17 43 8d ba bf 15 fb 5b 46 cb 32 d0 3f
       -0.10371798820764558 0.253100222311262
0004d0 c4 b3 5f 29 fe af cd 3f b5 40 8e 44 2f 35 bf 3f
       0.23193337459761498 0.12190528320047885
0004e0 2b 0d dc 9d 57 9a b7 bf ce 09 a5 c0 6e c2 c1 3f
       -0.09219882587426713 0.13874611288527067
0004f0 a5 2e 86 3c 45 e7 b5 bf 49 16 72 ab 1a 95 cf 3f
       -0.08556015708580363 0.2467377984177566
000500 1a 56 78 13 6f ae b7 bf 23 bd 48 47 b5 bd a8 3f
       -0.09250539994567256 0.048322358085324056
000510 a5 41 ff 02 8a e4 91 bf 60 3e ae 1a 8a a4 b3 3f
       -0.017473370011261164 0.07672942305929942
000520 e4 be 88 d4 8b 93 c4 3f df ec d7 23 5b 65 59 bf
       0.1607527530445544 -0.0015500440634912888
000530 55 f0 98 a1 42 95 d0 3f ff 40 5e 96 b7 aa ad 3f
       0.2591101244067933 0.05794309340046943
000540 4a a1 de 2f df 4b aa bf 23 2b 43 c9 9f 25 c4 3f
       -0.05136010608049675 0.15739819838776112
000550 73 50 74 14 f2 9a bf bf e4 8e d6 6f 71 ee bc 3f
       -0.12345803260206072 0.11301335316107558
000560 c4 47 8a 7b 5c 4d 9c 3f 06 6e 4d a3 50 98 c1 3f
       0.02763885978726656 0.13746078466179784
000570 4b f5 d1 17 46 e8 91 3f f2 f0 76 7b e4 10 a3 3f
       0.017487616733423732 0.03723825461517717
000580 b4 cf 6f 5c 75 6c a9 3f 72 9a c4 b2 31 40 bb 3f
       0.04965559724214988 0.10644827475025823
000590 b8 eb db c4 1e 32 b7 3f 94 2c 94 b8 bb 49 c0 3f
       0.0906085234272912 0.12725016129147504
0005a0 d2 87 06 69 9b 46 b3 3f 82 8e 8a 2b 6d 13 c7 3f
       0.07529612840747227 0.1802803480724045
0005b0 ad 02 6d aa 47 d3 c8 3f 0a 71 ff 71 03 0a 95 3f
       0.1939477522046408 0.0205460108116862
0005c0 99 d3 5d 2b 34 44 b4 bf 85 2d 01 19 5d c7 cc 3f
       -0.07916570719483075 0.22483409615447783
0005d0 78 47 2a 44 e7 72 cb 3f 00 9f 55 5a e8 3a 91 3f
       0.21444407299400914 0.016826277268960688
0005e0 bb 7f ae 2f 9b bf bb bf 09 f7 d9 39 0a 15 83 bf
       -0.1083924285326238 -0.009317474260793117
0005f0 b8 d0 8a 9b ae d7 99 3f 7d 4d 88 92 f5 e4 89 bf
       0.025236824267907493 -0.012643736395182565
000600 24 f8 47 f2 54 8b ad 3f 34 21 96 81 f4 23 a3 bf
       0.05770364244016005 -0.03738369066110395
000610 2b fc 72 f3 8b 7f b8 bf 48 21 4b 66 fd 79 b9 bf
       -0.09569620793898596 -0.09951766726874667
000620 4c 13 8a 01 b6 92 c3 bf 98 54 51 e9 fd 63 a0 3f
       -0.15291476321376718 0.03201287720791263
000630 5c cb 0c 90 bc cb bd bf fe c4 1f 3c cb 02 a1 3f
       -0.11639002339215437 0.03322444065987361
000640 37 91 2f c0 b9 91 c4 3f 1f 7d 6f fe ba 13 c3 3f
       0.16069719204018337 0.14903962539299528
000650 89 c1 49 f2 4f aa be 3f 5f 43 00 7f b1 3d 9c 3f
       0.11978625931965871 0.02757909143116721
000660 60 93 67 44 6c 0f 95 3f a9 e1 a2 2c 12 0d 7e bf
       0.020566646266064637 -0.007336684220881664
000670 35 e1 77 01 b9 e4 b8 bf 46 d4 54 98 b3 e5 84 3f
       -0.09724003110739406 0.010203745924267104
000680 9f 9b 08 9a 41 83 ae bf 19 8a bc 98 2a 01 c1 3f
       -0.05959515576642293 0.13284809549175305
000690 ac 1e d0 fb 27 44 b8 3f 25 04 ae 21 cb 8e ca 3f
       0.09478998086717166 0.2074827112628849
0006a0 01 03 2f af 79 64 a4 3f 11 82 87 88 d7 39 9f 3f
       0.03982906592819369 0.030494086940850155
0006b0 83 a0 67 b8 f3 a5 ac 3f b4 77 98 59 11 50 c0 3f
       0.05595361352953978 0.12744347452911386
0006c0 67 fe 14 6a b8 82 9f 3f 2e a0 db 82 6f 4d b7 bf
       0.030772096132976403 -0.09102532334111466
0006d0 5c 13 ba 6a b5 6f 93 bf e8 92 00 51 7e 8e bf 3f
       -0.018980822218981216 0.12326802709192075
0006e0 bf e2 ce 6e bd 23 ae 3f b1 e3 c5 b3 ff 9e b9 bf
       0.05886642434729116 -0.10008237971295732
0006f0 cb e3 af 10 39 d4 a5 bf 64 07 8f 12 53 0b c5 3f
       -0.042634757315631676 0.16440809637247888
000700 10 bb 4f 2a 2c ca d2 bf cf c4 62 46 de 92 d5 3f
       -0.29358963138558725 0.3370891272889595
000710 29 fa f0 2a b2 3e d0 bf a4 cd 38 3f 96 3a c7 3f
       -0.2538266581867981 0.1814754303646683
000720 0f 29 59 63 cf 7b bc 3f 6e a5 0e 92 d6 60 cb 3f
       0.11126419234748063 0.21389276630115311
000730 23 74 cb 57 b6 2c b3 3f 8f c7 fd c8 ef b2 c2 3f
       0.07490100520540514 0.14608571352033237
000740 0b d6 1a 63 05 43 a2 bf df e6 89 43 94 b6 ca 3f
       -0.0356675799825262 0.20869687364375175
000750 38 73 4e 4f fb 7a c3 3f 2d c3 57 f8 2c ac c5 bf
       0.1521906029928688 -0.16931688428987837
000760 df cb f2 7d cf f4 c6 bf 92 0c 9b 0a 0c 71 d1 bf
       -0.17934602403474195 -0.2725248435564903
000770 6d c2 86 16 cf 90 c9 bf 64 0a 42 6b c9 3c bc 3f
       -0.1997317180626114 0.11030253285029229
000780 0a aa f7 0c 05 4a d0 3f bd ba 1e 45 4d 90 b6 bf
       0.25451780573226357 -0.08813937127591039
000790 17 ed 30 73 e6 85 ab 3f b6 0f 6e cb 33 3c c5 bf
       0.05375595241681646 -0.16589972909070888
0007a0 e1 f3 79 d1 ab 5a 7b 3f 60 9c 1c 6e b6 d6 cd 3f
       0.006678267636400088 0.23311500908423266
0007b0 bd 25 48 1b ad 35 ce bf ef 24 96 fa 75 60 c5 3f
       -0.23601306755180743 0.1670062516753101
0007c0 38 05 1b d9 d1 35 c3 3e 54 a7 5e 89 87 7b ae bf
       2.290038261105198e-06 -0.059536204832808665
0007d0 de bb a7 e7 db de cd bf 24 00 f0 c5 82 de af bf
       -0.2333636170510251 -0.062244497930805914
0007e0 96 ab a7 72 df ca c2 3f d4 d5 be 5c 3a 81 a5 3f
       0.146816187843197 0.042001556226221176
0007f0 bc d0 e4 28 a2 e2 b6 3f e4 95 76 2f 8b 47 a9 3f
       0.08939565180191072 0.04937396005997721

bias f8 [84]
000000 aa 0d e0 d5 45 1a d2 bf 32 05 9f 3a 9b a9 e5 bf
       -0.28285356413126783 -0.6769539017624651
000010 e6 38 09 2f b5 08 ee 3f 7d 3a 5d 3d 5e c2 b4 3f
       0.9385629576370575 0.08109082220219395
000020 06 5b 21 f0 62 31 c0 bf dd c8 ed 9a d3 79 9e 3f
       -0.12650715565788334 0.02976160653219827
000030 a4 af 8a 2f 18 a7 c9 bf ab 0b f1 7b 2b c7 73 bf
       -0.20041181870817326 -0.0048286150550351055
000040 a5 b8 54 89 00 74 eb bf aa 5a 0e 3e ed 47 ca bf
       -0.8579104120488138 -0.2053200295456084
000050 aa f1 f3 4f f2 f0 cb bf b1 cf d4 92 e7 cb d9 3f
       -0.21829060462904454 0.40307034815782133
000060 62 9b f6 90 78 1e 76 bf 0f 17 60 ee e3 9c b1 bf
       -0.005400153123821779 -0.06880020684920062
000070 76 7a d6 4b d8 00 cd bf a7 9d 21 86 a8 d6 b9 bf
       -0.2265882845212734 -0.10093167566957693
000080 d7 dd c3 1c 55 ec cf bf aa fc be 2b bf 71 b5 3f
       -0.24939979462190706 0.08376688783663391
000090 21 bf 66 11 46 ec d0 bf f7 b3 ef 39 4b 39 b3 3f
       -0.2644210023818108 0.07509298481427594
0000a0 26 d1 3d 8d 8b 15 b2 3f 88 14 e2 ee 98 99 f1 3f
       0.07064125250127926 1.0999993640300847
0000b0 f6 ac 98 75 a5 e7 cd bf 91 8a ad fc 83 d9 bb 3f
       -0.23363178483973684 0.10878777426618515
0000c0 e9 ee df c7 49 39 03 40 81 72 9b 95 83 61 e3 3f
       2.4029727568830492 0.6056535646453797
0000d0 13 3b 6a b8 4f b7 a7 3f 45 13 65 8e db c1 b8 3f
       0.04632043005141475 0.09670803286014713
0000e0 92 03 f7 f9 5b 5d d3 3f 36 a1 00 1c cc d5 f0 3f
       0.3025731984199008 1.052196607002839
0000f0 55 9e 3b ed e2 15 d8 bf fd 0a 52 4d 15 86 c6 bf
       -0.3763358418204679 -0.1759668948689849
000100 fb f7 21 69 ca 88 8b 3f 37 59 c2 47 c0 d8 c1 bf
       0.013444501241107068 -0.139427218474063
000110 35 c1 ea 77 dc 81 88 3f 7e 79 28 fb 14 43 c4 bf
       0.011966440591408481 -0.15829717887477196
000120 83 a7 34 98 0b 3d d8 bf b5 61 c8 35 02 ee 67 bf
       -0.37872590888820684 -0.0029211085477635853
000130 8b cc 14 a1 a3 a2 cb bf c8 b3 a7 a2 57 b6 b2 3f
       -0.2159008537797472 0.07309482308455906
000140 8c 70 bc 20 d3 d9 b4 3f b0 7c 55 5d 07 29 f9 bf
       0.08144874142857556 -1.572516789041213
000150 ab b2 c4 7e 9b 3a b7 bf 74 1d 4e fe 1c 51 08 40
       -0.090738028001122 3.0396060817326376
000160 5a 5e cb 6f 4e 67 c0 3f 46 30 19 36 6b f4 c0 bf
       0.1281526609297881 -0.1324590696480092
000170 7c cd 56 c9 50 65 f4 bf 22 05 76 db 88 29 f4 3f
       -1.2747352471168076 1.2601402828880244
000180 2d be c8 8b 1a 24 bc bf 86 89 63 2c 3c 25 fe bf
       -0.10992589867304821 -1.8840905889452144
000190 a8 56 76 a0 3a 21 aa bf ac a8 31 1c ac 3d f5 bf
       -0.05103476723449535 -1.327556715138182
0001a0 c7 24 af b0 32 b2 b4 bf b2 83 51 75 08 d4 d0 bf
       -0.08084408582284928 -0.26294146973492183
0001b0 4a 7e 7c e1 06 6f 0b c0 d3 be a6 52 cf a2 be bf
       -3.4292123428456636 -0.11967178123336035
0001c0 12 66 32 71 f7 5d c8 bf 33 dd b4 4c 2a 57 d3 bf
       -0.19036763217154423 -0.30219514361256755
0001d0 7b 4d 0c 3b 89 be bb bf 44 0a a1 9e fa b3 f7 bf
       -0.1083760995064064 -1.4814401813934106
0001e0 a6 bf 08 92 35 31 a0 bf 6f e1 a4 0b 4a 1d cd bf
       -0.0316254368557332 -0.22745633667524198
0001f0 d6 b7 dc cc d7 92 d5 3f a0 0a 27 55 a0 6e f2 bf
       0.33708758359977986 -1.152008373858429
000200 6a ff 6f 8e 14 5c b6 3f b9 75 c3 71 12 bf df 3f
       0.08734253385045823 0.49603711232870357
000210 60 c6 d1 68 6c eb b7 bf d1 54 25 9c 76 06 a0 bf
       -0.09343602713649934 -0.03129931121899577
000220 e3 13 fc 3d d5 b0 b0 3f cf b4 bc d9 18 7e 80 3f
       0.06519825709626974 0.008053011078653331
000230 b3 a2 ce 30 c8 7b c8 bf 1c 3b a2 1e a1 c6 aa 3f
       -0.1912775266948948 0.052296671857325644
000240 f9 71 8d 4a 3c f0 03 c0 e1 5f 2a 6f bb df cd bf
       -2.49230249637753 -0.2333902638245027
000250 48 89 cd 16 06 ef de bf 66 15 31 60 ca 9b a6 bf
       -0.4833388540920578 -0.04415733741965759
000260 69 53 9e 10 5c e7 f3 bf 81 b8 8e 9a 3c 15 bb 3f
       -1.243984284320698 0.10579279683472188
000270 9c 81 b0 43 e1 22 ba bf 9f ee cf 42 60 63 bd 3f
       -0.10209472563338412 0.11479760771902157
000280 44 20 97 21 ef 58 df 3f 63 f7 e9 06 6a 93 ff bf
       0.48980310707384356 -1.9734897871089394
000290 6c d7 a0 88 1d db f3 3f da 83 8c b3 3b 2c 85 bf
       1.2409949624102081 -0.010338274399659331

weight f8 [84, 84]
000000 5c 76 92 87 40 e5 5e bf 45 af 7c b5 b7 70 91 bf
       -0.0018857126399675272 -0.017031546070185106
000010 db 78 a0 35 24 6a a0 3f 21 e3 20 0d 6f 58 b4 3f
       0.03205979494690477 0.07947439260977919
000020 47 8a a4 43 7b 93 c1 3f 7a 65 fa 43 f1 a3 c4 3f
       0.13731327822559278 0.16125312632793137
000030 a9 79 da f4 f2 d7 90 3f 0f 43 db 67 d3 33 c7 3f
       0.016448780245463066 0.18126909800641797
000040 28 16 45 08 64 70 92 3f d2 0b 10 43 cc d3 c0 3f
       0.018006861691239134 0.13146355890793743
000050 53 30 ad 2a 64 ac c1 3f 33 1d 30 83 ba 63 bc bf
       0.13807346423925768 -0.11089673712568952
000060 54 10 72 45 66 e8 b0 3f b4 f8 cc 7b 36 b5 bc 3f
       0.06604613490532191 0.11214008829572003
000070 db ad 56 c2 ce 77 a0 3f 37 6a a6 88 4e 05 bd 3f
       0.03216405985162015 0.11336222492392599
000080 1e 17 d2 eb e7 35 c5 3f d5 8b 28 01 21 34 73 bf
       0.16570757879906578 -0.004688385890889675
000090 b2 b8 52 fb e0 00 a2 3f fd 4a 43 e0 ac 29 33 3f
       0.03516295497807799 0.00029240103345988517
0000a0 d3 61 ad 78 33 fa a0 3f ec cc 47 3f b5 ef b5 bf
       0.033158882599937954 -0.08568890376027455
0000b0 7f 6c 6a 4d 0e 54 a6 3f 96 c2 6b d8 cb 42 a0 3f
       0.043610045385514155 0.03175961510522034
0000c0 6b 5c dd 4f c7 8a c3 bf fc dc 8f 6c 0b 69 c4 bf
       -0.15267268561976563 -0.15945570755841476
0000d0 e4 80 b8 04 44 e1 a8 3f e3 00 cd 57 02 75 be 3f
       0.04859364087701737 0.11897291797231761
0000e0 6e 8e f1 10 38 a6 c2 bf 7a 53 f0 2f 82 4a d1 bf
       -0.1456976015789339 -0.2701726406242454
0000f0 68 d5 3a 46 b2 9f c6 3f 92 a5 ec 15 11 e1 94 3f
       0.17674854687872288 0.020389811480674043
000100 0e 6d 00 e5 f4 a3 c8 3f 77 63 04 e4 5f 00 bc 3f
       0.19250355893823506 0.10938071553063176
000110 fd db 6c b2 0a 4e a6 3f 26 56 3d 21 e5 18 74 3f
       0.043564161568092154 0.004906554258771878
000120 13 da ee fc 45 d4 a2 3f 47 e3 99 d0 7b b8 ba 3f
       0.0367757674461481 0.1043774971275414
000130 0a ed 1e c6 04 fa ba 3f 08 9d 28 0d f3 a2 b4 3f
       0.10537748181279852 0.08061141082054146
000140 22 69 d2 52 37 af c4 3f 8c 85 82 e4 1c 50 84 bf
       0.16159717124976064 -0.009918428157393654
000150 cb 2b aa 0d 40 89 79 3f 06 0d db f3 79 2b e4 bf
       0.006234407623774761 -0.6303071749502187
000160 df a2 ac ca 05 72 c2 3f 07 b3 d8 29 5c 86 c7 3f
       0.14410469433030124 0.18378784220967523
000170 94 10 8f 1e 39 f4 b5 3f b9 b4 6d 22 03 cd 9b bf
       0.08575779911103815 -0.027149247146941422
000180 4c 0a 27 81 f3 ac bf 3f 44 0a 47 67 d9 cd c2 3f
       0.12373277571809033 0.1469070200237913
000190 72 77 4a cb c0 c7 c4 3f a8 6d 8d a8 40 2a ae 3f
       0.162345980895164 0.058916111541033545
0001a0 a2 52 71 2c c6 4e bf 3f 97 d2 d2 00 75 66 bb 3f
       0.12229574761415532 0.10703212041955577
0001b0 ca 7f 7a b8 bd 01 a5 3f bc c8 40 22 9f 23 c0 3f
       0.041028908509587916 0.12608708546173897
0001c0 a6 32 02 cc 49 8a c1 3f a4 cb 7c de 52 c2 c4 3f
       0.13703272305828768 0.16218028892180059
0001d0 67 d8 16 3c 3c 51 c4 3f 28 fa 45 0e ce 78 c7 3f
       0.15872910436673068 0.18337417313519322
0001e0 e0 ec 2d 83 0a 78 be 3f 59 b7 ed 48 dc d3 54 3f
       0.11901918127653088 0.0012712146014694696
0001f0 9a d9 4f c1 a8 a0 ae 3f 9d fe 2e 31 f1 a8 c1 3f
       0.059819482419629824 0.13796820546666747
000200 c7 b7 76 23 b5 51 a5 3f b9 7d 87 16 55 3c b8 bf
       0.04163900430590633 -0.09467059898405851
000210 4a c8 74 7f 2c 49 a8 3f 86 e1 db f9 a9 3e c3 3f
       0.04743327194081866 0.15034985256330574
000220 1e ec 25 b9 b5 c5 ba 3f 79 93 29 65 fe 53 99 bf
       0.10457931299417608 -0.024734473156417167
000230 5f 14 11 8d 6d 9f b9 3f 58 55 1a 21 90 81 94 3f
       0.10008892721187256 0.020025493641317865
000240 dd 90 c8 44 ec 05 b2 3f 12 67 be 49 cf 52 c1 3f
       0.07040287665637686 0.13533965206880133
000250 ad 68 88 0d 24 96 98 3f 83 0c a0 e3 aa 0d b5 3f
       0.02401024181936211 0.08223980004554403
000260 37 ca 5f a8 e9 6b a1 3f 5a 76 6a d2 56 f1 c2 3f
       0.034026433757294354 0.14799008630955052
000270 9f 2b 26 75 eb eb 86 bf 2a 7a 61 25 81 24 b9 3f
       -0.01119216872463885 0.09821326410881484
000280 eb e1 55 59 d4 3f b6 3f a1 17 0c f8 c5 0d 72 3f
       0.08691146069566684 0.004407666507864423
000290 24 b8 97 4a 39 31 a6 3f 71 47 ee 20 3d 26 83 bf
       0.04334429774813511 -0.009350278441875056
0002a0 3f 40 7d 6e 0d 80 83 bf 81 9c ba b1 ad 80 b4 3f
       -0.009521584448208496 0.0800884779842921
0002b0 46 95 d0 03 a5 91 7a 3f 67 da d6 be f9 88 c8 3f
       0.006486553754290475 0.1916801626045583
0002c0 76 be 5a 9f 2e 71 55 3f f4 74 3b 3e 37 df bd 3f
       0.0013087230012550888 0.11668725270597574
0002d0 33 81 dd c8 a7 38 c6 3f f3 21 13 1e 9f 51 b5 3f
       0.17360398586152712 0.08327669605490211
0002e0 59 74 c7 e8 a7 b7 c5 3f 8e 66 f7 80 be e0 c2 3f
       0.16966723314445423 0.1474836473196785
0002f0 28 0f 39 5f 3c 7f 05 bf 0d a5 f7 9c d1 6a b8 3f
       -4.100230208028819e-05 0.09537992555819504
000300 b2 85 86 03 bd 3b c0 3f 50 92 fd 24 97 69 90 bf
       0.1268230693067785 -0.01602779544136218
000310 d6 d2 30 eb a4 84 c5 3f b3 74 7a 14 5f 40 ae 3f
       0.16811048015519842 0.059084864854619744
000320 ed e2 55 38 fe 93 68 3f da f1 4b 03 79 09 c6 3f
       0.0030002560840184296 0.17216408406228717
000330 ab 37 37 02 ac 3d c7 3f 1d 8b 1f f0 20 db b1 3f
       0.18156957729519027 0.06974988806136335
000340 61 a8 6b d9 4d 94 c4 3f 5e 4c 68 b7 c4 25 bd bf
       0.16077588192212303 -0.11385755040855502
000350 24 c9 22 08 e0 f1 a8 3f 7e 1e 0c 3c dc 50 c1 3f
       0.048720360749387376 0.13528016025542294
000360 78 b1 20 9f 13 a5 bf bf 8c 57 0d 0f f0 9f aa bf
       -0.1236126197333699 -0.052001478040138854
000370 69 2a 53 36 08 18 8f bf 71 cf 60 02 46 a7 c0 3f
       -0.015182556302893961 0.13010478130456307
000380 ca 58 50 97 5e dd a2 bf c8 a3 b7 39 8e 2b d4 bf
       -0.0368451652249618 -0.31515842091044677
000390 1d ba 1e 3d 25 3b 72 3f 53 5d 1a 08 3a 41 c7 3f
       0.004450936759822469 0.18167806049016608
0003a0 22 9e 52 81 b8 9b 6f 3f 6b 6b 8f 45 a8 26 c3 3f
       0.0038584331146756115 0.1496172275209021
0003b0 49 c2 10 97 71 2f c5 3f c4 f0 0c 2d fb cb 72 3f
       0.16551036716693293 0.00458906283966715
0003c0 39 f1 fd d4 cb 89 bc 3f bb fa fc b3 6e 6e 94 3f
       0.11147760343550751 0.019952516303642236
0003d0 73 d6 ec de 4a d5 a4 3f 84 c0 f7 d5 ff 05 b5 3f
       0.0406897923589157 0.08212279294798647
0003e0 88 03 86 9c 11 81 ab 3f c2 0a 88 a9 15 06 ba 3f
       0.053719091755744464 0.10165534390402356
0003f0 11 56 67 84 0c e1 c0 3f 6e ca 1b 6f 74 b9 d9 bf
       0.13186794724485698 -0.4019442639393337
000400 d3 cc 7d 7a c7 de b5 3f 1c 0c 38 42 28 79 b4 3f
       0.08543059101593835 0.07997371308015072
000410 55 a0 2d 03 e6 c7 c7 3f cc 51 d6 d8 66 bb a0 bf
       0.1857879176634493 -0.03267976185739804
000420 52 5e 63 44 9a 21 bf 3f 8e c5 fb 7d 55 bd 8b 3f
       0.12160648507721675 0.013544719607554236
000430 93 a6 92 63 3f a3 9a bf 79 1b 0e 1d d9 9a bf 3f
       -0.026013365223355022 0.12345654448846045
000440 c6 76 71 ea a5 b5 9f 3f 9c a6 00 d6 7c 37 a1 3f
       0.03096637004306648 0.03362646210036965
000450 14 54 c0 be c9 15 b0 3f 59 a5 c9 f0 e2 d8 8c bf
       0.06283245951665634 -0.014085553143746198
000460 35 d0 b6 67 dc 35 79 bf d6 14 10 10 c6 0c b8 3f
       -0.006154881436874195 0.09394491092833177
000470 c7 8f 80 68 ed c1 bb 3f 2d 67 50 f6 ce 11 9d 3f
       0.10842784692118733 0.028388246330087675
000480 33 a6 0e 8d e2 3f b8 3f 8d a5 0f 67 09 f9 c8 3f
       0.09472480720310088 0.1950999978283047
000490 f6 a4 e7 de 9c 96 b4 3f 17 a0 e7 cd d0 46 aa 3f
       0.08042316858304219 0.05132153047071613
0004a0 cc 4e 2f b7 e4 3f b6 3f fe 5a 73 35 f2 3f a9 bf
       0.08691243622098027 -0.04931599523995621
0004b0 34 bc 30 c0 40 9d c6 3f c5 5a 04 6b cc e7 ae 3f
       0.17667397865577217 0.060362232268905504
0004c0 6e 66 bf 0a c4 50 bd 3f 51 06 31 17 3a 2b b7 3f
       0.1145136381377598 0.09050334039877696
0004d0 af 9c bb 0a 2c 62 95 bf b1 0c 60 92 a2 fb b8 3f
       -0.02088230910785843 0.09758964608777167
0004e0 16 e9 11 74 6c 7e c7 3f d3 79 da 2c 51 c7 c6 3f
       0.1835456434963098 0.17795767488583056
0004f0 b8 f4 8f cd b7 6c b5 3f 11 bf 72 aa f6 f0 b1 3f
       0.083690154729953 0.07008306180318537
000500 cc 77 52 a2 3e 25 b5 3f 25 cb e4 5e 09 58 a7 3f
       0.08259955847685702 0.045593540986734994
000510 11 ba 0a 62 7f 82 ab 3f d9 f8 80 d3 51 5c ba 3f
       0.05372999259758527 0.10297118581454202
000520 c6 5c 61 fa 41 f6 c0 3f ba cf eb bc 04 26 b7 3f
       0.1325151894149938 0.09042386638958436
000530 69 23 85 4a 5b 69 b8 bf 55 9f ef e5 90 3d c7 3f
       -0.09535761422479329 0.1815663454756257
000540 a1 35 98 66 00 bf c0 bf d2 3d 36 f6 e1 e5 b4 bf
       -0.13082890519619375 -0.08163273106605765
000550 bb 95 1e 99 a6 d1 b2 bf a6 2c f2 c0 50 2b c7 bf
       -0.07351151693600048 -0.1810093824500189
000560 5c d7 d1 6d a0 34 be bf 46 6c d7 36 bd bc 7a bf
       -0.11799051934380372 -0.006527651899399583
000570 f1 c8 27 b9 1c 8a b4 bf a6 bb 82 31 61 1a c3 bf
       -0.08023242493053197 -0.14924254338754145
000580 6a 88 c3 92 13 89 60 bf 73 b8 20 96 44 fc 8c 3f
       -0.0020184881487788535 0.0141530378642438
000590 18 82 4c db ac 30 9e bf 8b 07 17 c3 4d b2 bd bf
       -0.029482556233349028 -0.1160019494336934
0005a0 e9 5d 7c f5 b6 09 c8 bf 3e 4c 40 df 61 81 c4 bf
       -0.1877964686070606 -0.16019843483863555
0005b0 8a bc a9 24 ff 6f a6 bf c3 72 5d 5d b8 cb c0 bf
       -0.04382321665331641 -0.1312170463451335
0005c0 1d ed 32 92 60 e0 bd bf 77 cb 40 61 8b 35 9a bf
       -0.11670497483548954 -0.025594880877359807
0005d0 ff ef 03 83 3a 75 b3 bf 0c b0 2d 7b a9 a6 ad 3f
       -0.07600751589410491 0.05791215542453196
0005e0 40 1e e6 96 4b a0 a1 3f ea b9 5f 5c 51 78 b8 bf
       0.03442608086612298 -0.09558590417120852
0005f0 09 8f 68 6a e1 f0 c3 bf 48 ff 17 15 e7 67 a0 bf
       -0.1557885903904366 -0.032042714428824726
000600 91 d6 2d 96 94 c6 78 3f 4f d0 33 eb de fe a4 3f
       0.006048756043005491 0.04100700970767034
000610 ea 4e 3d c9 20 76 b3 bf d0 c4 e7 68 be e3 c7 bf
       -0.07602124131272672 -0.18663768884974852
000620 70 e1 fc c4 a0 e1 b0 3f 74 bf 4c c9 7f 6b be 3f
       0.0659428101470263 0.11882780708833512
000630 b3 03 8f 5e 83 44 9f bf ea 8f 17 d0 ed 8c 8c bf
       -0.03053479447021674 -0.013940675652470664
000640 b5 fc be 27 46 f9 4d 3f f3 ad af 9f 97 82 95 3f
       0.000914725547310888 0.021005982514834497
000650 87 63 6c 89 b4 f3 ae bf 88 b3 76 68 59 87 bc bf
       -0.060453073287312135 -0.11144026565916765
000660 44 41 12 25 61 b3 c1 bf fe 1a 0e 66 fa 75 c4 bf
       -0.1382867270481346 -0.15985040648612164
000670 1e f5 44 a9 86 22 82 bf 34 dd a2 29 ec 81 ba bf
       -0.008854915657702519 -0.1035449601794099
000680 ae a5 79 dd 74 b3 bb bf 85 a4 f0 99 40 85 c3 bf
       -0.10820703894719116 -0.15250403896905965
000690 d9 ca bd e5 97 87 a3 bf 6b a8 d1 45 5d dd c6 3f
       -0.03814387015781557 0.1786305037415475
0006a0 20 29 f4 84 d7 b1 b9 bf 10 0f 8b ba 15 5b c5 bf
       -0.10036990161839698 -0.16684218987040156
0006b0 a5 00 4d d8 b9 26 97 3f 8f b7 37 85 40 4c 93 3f
       0.022608665301277715 0.018845565920791393
0006c0 73 bf 0d 1a 50 31 c1 bf eb 9c 48 e5 d8 e1 b5 bf
       -0.13431741020348972 -0.08547740552659248
0006d0 17 09 6b da ce d2 9d bf 58 01 05 e4 fe 05 7b bf
       -0.02912448127859432 -0.006597514788439028
0006e0 6e 40 06 eb f7 a4 c4 bf 2f da 5f 30 b1 89 99 bf
       -0.1612844369487933 -0.024939316346683945
0006f0 82 8d cb d4 ea a6 c4 bf 2f ee 9e 96 07 35 98 bf
       -0.16134391203295811 -0.02363979203049221
000700 71 44 69 74 21 a5 bf bf 83 c0 62 f0 d2 e2 bf bf
       -0.12361344425268485 -0.12455480927269673
000710 03 56 d5 dc 64 5a a9 bf 9a 96 ed fa c6 82 9f bf
       -0.049517776448436045 -0.030772313180384182
000720 d9 24 9a 85 bc 1b c1 bf 6c d5 93 2f 2a c6 a4 bf
       -0.13365894816914795 -0.04057437735347488
000730 fe 56 dd 1e bc a2 a4 bf c9 30 3c af f8 ee c5 bf
       -0.040304068343784735 -0.17135532909776988
000740 25 dc b2 1d 8c 37 96 3f 8f f5 9e ac 92 8a 8a 3f
       0.021696271240866722 0.012959619420025685
000750 ea b7 d1 82 90 f4 b4 bf 09 a6 6f 37 34 3c c4 bf
       -0.08185675805881912 -0.15808727938501502
000760 d0 1c 43 8f 4d 36 b8 bf 24 b6 5a 28 d5 f1 c2 bf
       -0.09457859752284326 -0.14800514669825404
000770 a8 b4 28 77 2c 8a c2 bf d7 b6 6e 1c ba 66 c5 bf
       -0.14484172647772664 -0.16719747913651048
000780 eb 61 99 39 c2 9c b0 bf 93 f1 c3 e2 48 d5 bd bf
       -0.06489194780568368 -0.1165357164026715
000790 13 70 57 3b 24 8b b8 bf 4b 28 09 82 a8 72 74 3f
       -0.0958731312634316 0.004992159113109971
0007a0 3d d5 df 67 0e 30 58 bf d3 69 40 96 c8 56 b1 bf
       -0.0014763012582055945 -0.06773046177151025
0007b0 63 00 53 83 f2 26 c4 bf 84 bb db a1 f0 0f c9 bf
       -0.1574385777694288 -0.1957989492725255
0007c0 22 5e 36 78 44 60 8b bf e1 5f cd aa bd 49 ab bf
       -0.013367209356871138 -0.05329697332371076
0007d0 df b8 c0 cf f5 b1 ac bf 0b de 53 62 6b d8 bb bf
       -0.05604522858662774 -0.10877104902817096
0007e0 34 37 58 75 3a 21 c6 3f ba 01 7c d2 9d d1 84 bf
       0.17288904885975287 -0.01016543673131386
0007f0 ec 64 5a e8 21 a1 da bf 12 04 25 bb 35 25 b7 3f
       -0.41608474436504994 0.09041152781448172

bias f8 [84]
000000 3b 8a 08 7f 2b 4a c7 3f 11 5c eb 1d ba 59 be 3f
       0.18195098593521827 0.11855662565663773
000010 b7 4a eb e1 11 66 ad bf 86 c7 34 28 d1 1d 9b 3f
       -0.05741935618211385 0.02648093040369972
000020 8a e3 0c 1c 93 98 af 3f a7 d4 77 26 32 ea c2 3f
       0.06171092717563116 0.14777209165882718
000030 39 38 3e 0e cd 49 83 3f f4 37 96 34 be d8 b5 3f
       0.00941810798374486 0.08533848556382378
000040 a9 68 bb c4 51 d3 a5 3f 48 b5 2f d5 e9 cd 70 bf
       0.0426278641368339 -0.00410262432977266
000050 02 ee b1 41 a2 c9 b3 bf d7 2c 3d cd 94 eb a8 3f
       -0.07729543784983409 0.04867234235151734
000060 29 c4 c1 27 52 07 b3 3f a9 b3 fd 06 5f a9 93 bf
       0.07433045836093356 -0.019200787355135116
000070 01 0b 8b f9 3c 2b a0 3f d2 a4 04 c8 41 6e a1 3f
       0.031579881154831575 0.034044318834568835
000080 70 d9 3b 07 90 0e 9d 3f 31 7e 87 43 e1 d8 b2 bf
       0.02837586444999246 -0.0736218252054577
000090 59 84 ee 61 a1 2d 90 bf 73 dc 5f ce a9 b9 73 3f
       -0.015799066164280926 0.004815734200739208
0000a0 28 1a 0e 1a d5 07 a5 3f b3 f9 a5 45 c5 87 9b bf
       0.04107538168959862 -0.0268851112136816
0000b0 2a 59 fe 59 0a 2d 83 bf 0e ac 86 23 a0 ed c4 bf
       -0.009363251563439496 -0.16350175604506528
0000c0 9e a6 97 33 af 9d c5 bf 12 e5 04 33 55 dd a8 3f
       -0.16887464541587333 0.04856363532821652
0000d0 67 9b ed 92 35 05 98 bf 49 67 59 3e 57 93 ab bf
       -0.02345737180021548 -0.05385849605654742
0000e0 6b 04 7b 89 97 50 c0 bf 94 ab 67 14 b2 59 ba 3f
       -0.12745947087208562 0.10293114660423291
0000f0 3c f4 e6 be f2 05 b7 bf 29 59 61 57 e1 59 a7 bf
       -0.08993451271722191 -0.045607606808220354
000100 89 d5 be e6 47 87 a8 bf 38 5f 0a 8f ec 90 aa 3f
       -0.04790711108891361 0.05188693281269113
000110 d2 5f 07 fb 51 bc b0 bf 0a af bd eb 3b f7 b6 3f
       -0.06537353876717525 0.08970999246019687
000120 e9 32 bb 01 3e 2b 8b bf f7 37 50 be 6f 8f 9b bf
       -0.013266071727593825 -0.026914354315572066
000130 1b ff 80 0c 4f 3e 8d bf c7 11 a4 86 72 68 bf bf
       -0.014279000825012702 -0.12268749034053093
000140 b2 cc b9 b3 22 d7 86 bf 7d 75 31 26 e2 14 a0 bf
       -0.011152526006503603 -0.03140932766175817
000150 b1 bf 9b 9c c5 94 af bf fd 71 e7 d9 90 78 9a bf
       -0.06168191467975193 -0.025850547122773893
000160 d2 b3 31 56 49 f4 93 3f 55 65 c4 5a 9c c1 73 bf
       0.019486566434739512 -0.004823313484189147
000170 69 d3 8e be df f0 b3 bf 2c 04 71 0c ca be b0 bf
       -0.07789419557850653 -0.06541121295687508
000180 38 16 28 66 c8 ba c3 3f a2 62 56 cb 55 1f ba 3f
       0.1541376589595289 0.10204063619893103
000190 94 78 2e b8 4e 21 c3 bf 20 2c 5e fb ef 59 ad 3f
       -0.1494539641689171 0.05732679313140232
0001a0 2b d6 01 86 37 84 c5 3f 33 bc 2b 3e 63 a7 bc 3f
       0.16809743922537854 0.11192913310854706
0001b0 ad 27 d6 9c ab 6e c8 3f b5 6a 83 a1 40 12 8e 3f
       0.19087739141496965 0.014683251313205895
0001c0 e0 4c 5a 4e 2c f3 92 bf 99 56 ea 1c c1 f0 91 3f
       -0.018505756647368865 0.017519967450957272
0001d0 66 a0 a5 1b be 6f 76 3f 47 65 a2 79 20 07 a7 3f
       0.005477659806594292 0.04497624859613807
0001e0 77 3f 6f 9e b4 b0 a6 3f 68 a8 61 7b 6a a9 a7 3f
       0.044316906299740326 0.04621441608544857
0001f0 80 58 35 6e a9 a2 bb bf 91 d1 3f f5 5b c4 c2 3f
       -0.10795077267298048 0.1466174075609499
000200 2a 2d 29 72 a2 81 ae bf 68 04 75 05 ee 14 71 bf
       -0.059582783160829614 -0.0041703508098303935
000210 59 4c 79 8d 9e c0 ba 3f bf f9 8a 82 00 4a bd 3f
       0.10450163797331537 0.11441043078500622
000220 e1 e4 6b f1 03 eb b1 3f 4c 73 8b db 78 be 63 3f
       0.06999230045393602 0.002410160112374637
000230 89 6c 93 19 82 f9 c0 bf 9b 9c 06 d3 76 73 c1 bf
       -0.13261438607046142 -0.1363361864471003
000240 25 2b 93 c2 99 d3 9f bf 15 70 6c d7 59 62 86 bf
       -0.031080629826458 -0.010929777037340252
000250 aa 31 e1 18 17 86 af 3f 16 2c e9 3e 13 17 bc 3f
       0.061569902216976516 0.10972709928425703
000260 f1 db 71 c9 51 73 b7 3f e8 69 21 c7 40 69 b2 3f
       0.09160338562092797 0.07191853391251579
000270 14 5c 7c db 48 02 9f 3f fe db 2e 1f 11 f0 71 3f
       0.030282152553891065 0.004379336244645591
000280 ef 4a 03 bb 89 ce 9b bf 7e 26 4b a2 59 5c 66 bf
       -0.027155067481383573 -0.0027295828498140043
000290 2b 4d 69 1f cd 16 91 3f 18 aa 20 fa ec 44 c1 3f
       0.016688542406268752 0.13491594517957206

weight f8 [1, 84]
000000 3e 7c 8a 9c 07 bc c0 3f 3a 53 2e 71 90 7d c3 3f
       0.130738212047591 0.15226941610731065
000010 0f 58 ff 08 1b 50 9f bf 82 06 b4 ba 26 6c c7 3f
       -0.03057901613632202 0.1829880153309667
000020 92 b6 e1 4a 3c 48 c2 3f 6f 50 cd 8c a4 a6 c6 3f
       0.14282945305187816 0.1769605338582809
000030 96 f3 62 ad aa 97 a6 3f 72 67 4a 2b 2d 55 c2 3f
       0.04412587515387327 0.14322437871743038
000040 ea 46 88 83 e4 76 bf 3f a5 4a cc 5c 77 20 c3 3f
       0.12290790759314132 0.1494282916178992
000050 36 73 d8 02 be 7a a3 bf 2d 72 da 08 67 ee c4 3f
       -0.03804582390532689 0.163525466273215
000060 d8 a5 47 6b bd fb be 3f 98 85 06 b8 65 8a bb 3f
       0.12102874631059224 0.10758052580651734
000070 99 51 df 23 64 f6 79 3f 70 36 47 65 49 76 c7 3f
       0.006338492557877017 0.18329732365821227
000080 2a 02 38 b2 1a 2f c1 3f b4 3c 24 21 66 ac 62 3f
       0.13425000860299124 0.0022794718471526813
000090 5c 52 b7 38 17 57 c1 3f 72 25 bd db b2 cd ca 3f
       0.13547029752102702 0.20940242509304202
0000a0 00 0e ed 0f dc 1d cb 3f ab 54 70 8c 64 79 c6 3f
       0.21184874322544545 0.17557961327898872
0000b0 4d 94 f4 fa 42 d2 c1 3f 8a 47 86 ec e7 0c 7e bf
       0.13922917607956933 -0.007336526825740717
0000c0 c5 4b 8c 2b 25 61 8a bf 4e fe c8 ba 38 1e c3 3f
       -0.012880602256279414 0.1493597900425691
0000d0 4f c6 8a 97 95 c7 a4 3f 4c ef 36 49 b0 0c 6b bf
       0.040585207699575514 -0.0033019488416509476
0000e0 2b 0e 59 90 36 47 95 bf 78 df b7 04 2b 3b c7 3f
       -0.020779469070715855 0.18149316530593373
0000f0 37 96 ec f6 fc 9b a1 bf bc 12 9f 50 7e 59 a1 bf
       -0.03439322008334183 -0.033885905591465953
000100 07 21 e9 93 09 93 a6 3f f7 84 3e 25 46 55 c2 3f
       0.04409055643606235 0.1432273561340833
000110 52 86 33 2f 76 e5 60 bf 23 2e 4c 6f 60 78 c5 3f
       -0.0020625408447905525 0.16773610529377078
000120 c7 05 36 c3 4a 5b 9d 3f 3c cd 76 66 11 df bf 3f
       0.028668563999877408 0.12449749709667385
000130 62 f4 7c ed 5d ed 75 3f a5 4d 52 75 d0 6f 95 3f
       0.005353323845892795 0.020934350167022626
000140 2d a9 cb 4f bc 56 c2 3f 49 7b 71 67 df dd d2 3f
       0.14327196022288416 0.2947920332134584
000150 7d e8 88 8a 16 27 9f bf 3e df 90 a8 a5 fa bc 3f
       -0.030422546582692157 0.11319957127932143
000160 a3 49 f9 ce a3 87 c5 3f 43 88 cc 41 e6 d6 bf 3f
       0.16820190054074854 0.1243728552476862
000170 77 8d 9a 6c 16 ef cc 3f c9 c7 04 7b 0b 4d 89 3f
       0.22604637434879368 0.012353982631427745
000180 d2 31 8c 10 0b dd be 3f bd 74 33 ed e6 a8 c6 3f
       0.12056035188670158 0.1770294817169197
000190 1a 31 0c eb f8 3f 90 3f 2c 35 d0 2c c9 19 c2 3f
       0.01586903509728286 0.14141192138814895
0001a0 c5 dc 75 89 30 d0 c1 3f f1 9e bd 34 93 5f c3 3f
       0.13916594230588522 0.15135421824674425
0001b0 e5 b5 d7 e4 95 da c3 3f 56 78 25 fd cd 48 c1 3f
       0.15510820077854173 0.13503432140982125
0001c0 55 ff 0e 1c 99 b7 66 3f c8 68 84 4b 33 a2 a1 3f
       0.002773093263812069 0.03444061562386619
0001d0 c2 e1 ae a6 c7 84 c0 3f b8 fd 4a 44 66 79 b1 3f
       0.12905212057900256 0.06825865905101736
0001e0 a2 cd 6c 06 1a 55 c9 3f fc 0b 1e 59 d3 f5 c1 3f
       0.197909596574033 0.14031450129922962
0001f0 b0 d7 03 e5 06 0b 5e 3f 52 d2 d7 32 d7 60 c5 3f
       0.0018336837129573173 0.16701784117289492
000200 3d 29 c2 4e df 4e 89 bf a9 9c b6 50 9d 3f c1 3f
       -0.012357468215004825 0.13475386086540667
000210 53 60 2f 8f fe e6 c3 3f ac 1e 6a cc 1f f3 bc 3f
       0.1554868888040369 0.11308478108014225
000220 27 34 ed 1f 6a b2 c0 3f 82 27 f2 ce 90 29 92 bf
       0.13044477995791334 -0.017736685400940207
000230 76 77 08 f2 87 9a 95 3f 26 10 e6 f7 3e 2d 8c 3f
       0.021097301623846453 0.013758174839274839
000240 ac 8a a7 b4 da 8d c0 3f bb c2 68 d3 50 92 9d bf
       0.12932905026453534 -0.028878462699313028
000250 5b c4 89 65 f7 d5 d0 3f 07 a4 61 79 8d 42 c5 3f
       0.2630594722350616 0.16609352518869988
000260 e5 6c 65 87 ee 79 c0 3f 04 d4 ad e1 05 f9 c1 3f
       0.12872106181280354 0.14041207808955403
000270 1c 21 ed c9 dc 55 92 3f 41 9c 71 f2 0e 19 8d bf
       0.017905664276697583 -0.014207951329991643
000280 3f 42 46 ca a1 e2 a2 3f fb 6a 8a 16 c5 6c d4 3f
       0.03688531488581192 0.319138786327741
000290 cc 45 18 95 22 92 7b bf cb 83 3a 31 aa 48 c1 3f
       -0.006731162154680569 0.13503005412806454

bias f8 [1]
000000 43 62 81 96 5e 40 c0 3f
       0.1269644007577587
