pre-trained models/NO3810_YLR103C.pth (torch, 75095 bytes, 6 tensors)

weight f8 [81, 27]
0	0xbfb52de9030e3144	-0.08273178410144505
1	0x3fc2e3a9cd7aff54	0.1475727322886039
2	0x3fc8fceb44360e44	0.19521847563383876
3	0xbfbe7356f2be9cc8	-0.11894744326001494
4	0xbfcc237a774b822e	-0.21983271431874257
5	0x3fc2ab86814d3ec5	0.14585954011498906
6	0x3fc4c9a50f5e0a5a	0.16240370989187874
7	0xbfba165729b75e98	-0.10190338867630044
8	0x3fc746d4a9d935df	0.1818490819299958
9	0x3fc1f417d3f8e774	0.14026162958344524
10	0xbfcb9cd645720e99	-0.2157237853135612
11	0xbfbce43f18f66bc0	-0.1128577648109248
12	0xbfa7e995411009f1	-0.04670397204610655
13	0xbfb9c14e117e304e	-0.10060584952424387
14	0xbfc87cdb8f260faa	-0.1913103531807086
15	0xbfc4cf6da828fb8d	-0.16258021079007925
16	0xbfc28297f753fc50	-0.14461040093007904
17	0x3fcd1dd5fc87a7a4	0.22747301893769845
18	0xbfa8cb0434166d46	-0.048423892362928586
19	0x3f873bb21c6f2036	0.011344329350222986
20	0xbfa2497e26eb2d40	-0.03571695542413034
21	0x3fb638f2bd74885f	0.08680646062251317
22	0xbfbaa0d20bd1578d	-0.10401642597693535
23	0x3fc0b4fe4b724e54	0.1305234783545638
24	0x3fcbf974017ddd75	0.2185502059253214
25	0x3f6c2d8a90043ed0	0.0034396845150082914
26	0xbfc6047d40e1cde8	-0.1720120016867519
27	0x3fa16e35a7975e09	0.03404395743171668
28	0xbfb05cc338e1b440	-0.06391544474327393
29	0xbfcb7bab1ad7843f	-0.21471155939710404
30	0x3f410521b6e79f20	0.0005194105740970768
31	0x3fd0ae562917fa73	0.2606406594567609
32	0x3fa2b3ab315c6422	0.03652701356458744
33	0x3fc88eb563bf184a	0.1918551194232257
34	0x3fc4495379afdf90	0.15848773423908513
35	0x3f82c403e61f78ab	0.009162931881231925
36	0xbfc1b83e4eb9e263	-0.13843516201065417
37	0xbf88d8caef950c39	-0.012132249294728325
38	0x3fc3783dafcfede9	0.15210696301060914
39	0x3f835a90455e757f	0.009450080029462125
40	0xbf82827826aabdea	-0.009037913017293914
41	0xbf937632b93456fd	-0.019005577615721404
42	0x3fc745fa749d898d	0.18182306951628072
43	0x3fb3f58b6bba5f26	0.0779654634483192
44	0xbfc5c72551fe9ce1	-0.17013994697229065
45	0x3fa85b423a574046	0.047571248647387196
46	0xbfbae7d4bf0a78be	-0.10509996093830673
47	0xbfc44d308c79dd16	-0.1586056409757723
48	0xbf4a728cafcc21d0	-0.0008071124026126034
49	0x3fb833441e663c81	0.09453225843593495
50	0x3fb4c6c25fe08b7f	0.08115782585859498
51	0xbfa8f981dc7a04f3	-0.04877858940472803
52	0xbf87d5321dbb109f	-0.011637107403096812
53	0x3fafad08a1d0db0e	0.061867017510328734
54	0xbfc3c70ab61b3280	-0.15451177493959634
55	0xbfcbcbcf509c468f	-0.2171572822194787
56	0x3fc173ee03924103	0.13635039495830634
57	0xbfc3a12cb0a4a15b	-0.15335615754271256
58	0x3fb393d9615260fc	0.07647474885959932
59	0xbfabe43d0e8771f3	-0.05447569658619846
60	0x3fbf9e44e91b52a5	0.12350874606210967
61	0xbfc321a18825a97f	-0.1494638361721847
62	0x3fb46c95bed15e17	0.0797818747390625
63	0x3fbd21c2080d1970	0.11379635521470788
64	0xbfbf9cb6effa855b	-0.1234850250134704
65	0x3fc14cfb4dcdfaba	0.13516179369977072
66	0xbfc7626a4c560177	-0.18269089438764372
67	0xbfc3709c5b5b7374	-0.15187410794069545
68	0x3fc41ac6c162a9ac	0.15706715052267606
69	0x3f7016dfdb516c13	0.003928064766195244
70	0x3fc338a0def50276	0.1501656616838038
71	0xbfc82b42816f3eba	-0.18882018394514494
72	0xbfc4a8e18574f247	-0.1614038373608244
73	0xbfb9e54588724c19	-0.10115465718472229
74	0xbfbfcfe3c0af0106	-0.1242658944529503
75	0x3f83cc0634318c61	0.009666489093609511
76	0xbfc1c206cabbf868	-0.1387337198174834
77	0x3fb44c44271c6dce	0.07928873019084579
78	0x3fbaccf4aa6d2372	0.10468987618254547
79	0xbfc7b3720033aad9	-0.1851637364373662
80	0xbfc0eef370795f2a	-0.13229220382594892
81	0x3f9cd96a13b5c2a0	0.028173119977000227
82	0xbfb16b3cf89ef7c7	-0.0680425745949541
83	0x3fa35ee5f72b343d	0.0378333915919957
84	0x3fab774042f60190	0.05364418809313343
85	0x3f93dad1e077d87e	0.01938941891236156
86	0xbfbebf635169abf6	-0.12010784852616027
87	0xbfc01254f55f290b	-0.12555944424668328
88	0x3fcc6df707a66c8e	0.22210586427249662
89	0x3fb5421d1e01adf0	0.08304006559927024
90	0xbfb6fdb369f3c2bd	-0.08980866753314394
91	0xbfafbf029b23497c	-0.0620041670205351
92	0x3fc9cba8290fd9ca	0.20152761464096464
93	0x3fc613b26f290f16	0.1724761050010037
94	0xbfb6323be856b61b	-0.08670401022273959
95	0x3fc9ca5c53c854bd	0.2014880570501755
96	0xbfb9e7f681e681c2	-0.10119572326085005
97	0x3f8a8b04b8ff64e0	0.01296046914642307
98	0x3fcccafee97b277e	0.22494493866389215
99	0xbfa795ba1773aeb3	-0.04606420074727904
100	0x3fb19cd0fe030712	0.06879907800160037
101	0x3fc0b65f209492c7	0.13056553927267187
102	0x3fb29d9992eaf537	0.07271728360043005
103	0x3fbf2ecfd0ad48b6	0.12180804104471829
104	0x3fcf3a5d8869f378	0.24396866951783713
105	0x3fcce66b69670b9c	0.2257818474446055
106	0x3fb440318a1dca82	0.07910451528531762
107	0x3fc462fe97b5ca00	0.15927107246132266
108	0x3fac72fcd7c2be92	0.0555647862796579
109	0xbf90cd6aba6390b7	-0.01640860331180313
110	0xbfd2bd812a7c298a	-0.2928164400952019
111	0x3fa4228f6b5c10ed	0.0393261736444702
112	0x3fd1df925bc6dccb	0.2792707344301106
113	0xbfadddcb16c17eb1	-0.05833277371197932
114	0x3fa6698b40b32666	0.04377398648064172
115	0x3fd150224b0b2050	0.2705159886213595
116	0xbfd21d17dc6a3c67	-0.2830257084360199
117	0xbfd12779cc4e8af7	-0.26803441001736367
118	0x3fd7afe465450bb0	0.3701106060945518
119	0xbfb24f2d947e3da3	-0.07152066111870296
120	0x3fcff750a2437931	0.249734954099901
121	0x3f8228cace41dd26	0.008866867465470007
122	0xbf93bdaaff4c7ae2	-0.019278213340949153
123	0xbfd0af493455997e	-0.26069860564020775
124	0x3fc68fdbc34e224e	0.17626521145236257
125	0xbfbcbd495aee3426	-0.11226328344328404
126	0xbfb36574eee1e730	-0.07576685745325729
127	0xbfc6bf96895f914d	-0.1777218027847404
128	0xbfbcb4015732079c	-0.11212166193766254
129	0xbfba664b85e85835	-0.1031233980105249
130	0x3f8fdd1d9e8f61a7	0.01555846347939467
131	0x3fbc3bc4a8361cc2	0.11028699022982649
132	0x3f9096c9d71bb229	0.016200212244188137
133	0xbfadf56386f68039	-0.058512792801821374
134	0xbf8288be8a9f816c	-0.0090498815588382
135	0x3fb91b6c79324229	0.09807470282454091
136	0xbfcfb8d2987cfa83	-0.247827839333656
137	0xbfcd4bda9a7d201c	-0.22887737792393714
138	0xbf5606117555124b	-0.0013442202083108364
139	0xbf84fa5948de197c	-0.01024312738060184
140	0xbfca524c0f6d4de3	-0.20563650849599843
141	0x3f8ff561b29bcf61	0.01560474706955234
142	0x3f97ce1929507a4b	0.023247140070561206
143	0x3fb1189b45106c5c	0.06678171573769148
144	0x3f827d265693d066	0.009027766720898178
145	0x3fb9a3a91e932013	0.10015351292088352
146	0xbfccdb3ef1ba84ca	-0.22544085314897294
147	0xbfc3005fd4b673e8	-0.14844892393457987
148	0xbfcdf901ddfc8026	-0.23416159953285492
149	0x3fc92ea590b3d58f	0.19673604550886778
150	0x3fd194936fd90671	0.27469335482246665
151	0xbfa46b613651b434	-0.039881742363697376
152	0xbfcb0104eed08b3a	-0.21096860562200864
153	0x3f72273251afb463	0.0044319120015475525
154	0xbf724844fa6761c2	-0.004463452764376931
155	0x3fbb9d2fc1ecb635	0.10786722645271925
156	0xbfaaeb603e2a1d04	-0.05257702597469385
157	0x3fc3f2ffbe4f2f0e	0.15585324089476454
158	0x3fc6fd7ca7a1bfec	0.17961080727718526
159	0xbfa0489722e63e01	-0.031803820619753516
160	0xbfb80088ff01cec6	-0.09375816560514769
161	0x3fc6ceae33413a58	0.17818238737750636
162	0x3f5718ff011afc7c	0.0014097681309264412
163	0xbfca2fddbebb0a05	-0.20458576024073252
164	0xbf974cebed91af4c	-0.02275437009340857
165	0xbfcc9420de74c2c0	-0.22327051984895796
166	0x3fc0a61dbadf3d14	0.13006946205721504
167	0x3fabf6c826aaa646	0.05461717102054968
168	0xbfb7cc885494a7f0	-0.09296466889341537
169	0x3fc0ad4f9e49eebe	0.1302890322584655
170	0xbfbbb9c78a21a8ae	-0.10830351946211422
171	0x3fcb323b8fe1eeb6	0.21247047925486634
172	0x3fc7b37a1e70cd7d	0.1851647041927257
173	0x3f920e87c4fb1467	0.017633553884270372
174	0x3fa02a72af80fef3	0.03157385246640656
175	0xbfc8c0fc677bcc64	-0.19338946392926737
176	0x3fbc1e6b55741b0a	0.10983916126506812
177	0x3fc87d2006302ba9	0.19131851484448006
178	0x3fbbbbc89e7064a4	0.10833410137310523
179	0xbf8c2abea7e03ff2	-0.013753404138725476
180	0x3f92bea7e2651593	0.018305419152303392
181	0x3fc27e5da28fdce8	0.14448137700649188
182	0xbfa8f0ec0023dcd7	-0.048713088051891944
183	0x3fc5f2f117618e2f	0.1714764942326936
184	0x3fb4c4e3f0f6a2d8	0.08112930901428272
185	0x3fc52ea20314564b	0.16548562193263402
186	0xbfb346a87d084207	-0.07529690792603826
187	0xbfb3ff94e5a2f84d	-0.07811861616480194
188	0xbfc925b3cf3d8fe0	-0.1964630853573217
189	0xbf8a9f058a389ec9	-0.012998622208285753
190	0x3fdbd091d1133e27	0.43460507791039266
191	0xbfc5a64e33ac86c6	-0.16913774035588441
192	0xbfb01ba2c839ff4f	-0.06292168987601808
193	0x3fe51f908990d2e8	0.6601031004743989
194	0xbfc337af4ba78553	-0.1501368636518615
195	0xbfc99cd359bf41fd	-0.20009843713934564
196	0xbfeb1eb5cfa123f0	-0.8474988036406312
197	0x3ff406178d19975a	1.2514873038976106
198	0xbfe09e642ae03e62	-0.5193348729535041
199	0x3fe4d0a3818ee90d	0.650468590777821
200	0xbfc66cac203a1ae0	-0.17519141744215627
201	0xbf9ccbf0378e6153	-0.028121713057403252
202	0xbfe1879031771482	-0.5477982488743154
203	0x3ff35cb9fec63d2e	1.2101383163570278
204	0xbfe7c060c69a71df	-0.7422336462946609
205	0x3fcbebdcd8f7a9d0	0.2181354579364112
206	0xbfe073c0ff57d34f	-0.5141301142854021
207	0x3fcab293553cef11	0.20857469236386142
208	0x3fd5fa9e4d398bbb	0.3434215311191868
209	0x3fbaf50348f06de9	0.10530109911672238
210	0xbfd132491699fa19	-0.2686941834180359
211	0x3fc876d82fd9a897	0.19112684570729208
212	0x3fc6ee04eb8561c0	0.17913877010393087
213	0x3fcc3e6b78cf4825	0.22065490149412983
214	0x3fd0ace142d08cd1	0.2605517532812885
215	0xbfca5279e7fee0b5	-0.20564197376166296
216	0xbfacd8157e710cd6	-0.056336089787259944
217	0x3fcd4dc6da2f31f8	0.22893605855496424
218	0xbfc237dfb39718a2	-0.14233013409665768
219	0x3fb1652c062d9eed	0.06795001173815836
220	0x3fb149c228b2528b	0.06753171437805798
221	0x3fc223b3c777242a	0.14171454658051746
222	0xbfa2f330b2b83dde	-0.037011644188279055
223	0x3fc92e680d7cfb58	0.1967287126408006
224	0xbf92c8a5887b53af	-0.018343531089005157
225	0x3fa8aa562be15cee	0.04817456517837991
226	0xbfc27505cf9d4e47	-0.14419624936509676
227	0xbfc1b8d9f4742b0b	-0.13845371662349523
228	0x3fb2e176b37db659	0.07375280267816588
229	0x3fcbb73fba1db7c0	0.21652981364917245
230	0xbfa5de3a298595df	-0.0427110839544118
231	0x3fa9d44f403dad14	0.05044791850272126
232	0xbfa79554a3019e41	-0.04606117715667014
233	0x3fcbf83d5b5ff749	0.2185131736914008
234	0xbfbcef119b46e105	-0.11302290001811251
235	0x3fbd5385ce20f1fd	0.11455570490301877
236	0xbfc22e112e4be23e	-0.14203085671012333
237	0xbfab201ce04584c5	-0.05297937619867236
238	0x3fc54404ac032f65	0.16613825224919335
239	0x3fc28696a45ca03c	0.1447323133991193
240	0x3fc94fde850c92f3	0.1977499150899785
241	0x3fc25507091daddf	0.14321983285058956
242	0xbfbf31aa13c8aa29	-0.12185156805996002
243	0xbfcd96618bd11959	-0.23115176512710425
244	0xbfb2fcd830b0ac49	-0.07417060078357553
245	0xbfd6e4bd0a8e1e67	-0.357711086566701
246	0xbf716bfe8337903e	-0.004253381910050589
247	0xbf9a3a0ddebd6b11	-0.02561208412167121
248	0xbfcdb9eea47162ea	-0.23223670033873783
249	0xbfba5c4090f21b90	-0.10297015703882395
250	0xbfc50b5396f5d03b	-0.16440815802673278
251	0x3fb069336a30315a	0.06410523741232535
252	0xbfc233a5caaf4da8	-0.14220116039960584
253	0xbfce08e5d938430d	-0.2346465407031463
254	0xbfcbc4e5c5c14a1a	-0.2169463363266722
255	0xbfbbcfe1da40b27f	-0.10864078119693409

bias f8 [81]
0	0xbfc0bf40015647ad	-0.1308364874390099
1	0xbfd6bbd46cfbab3c	-0.35521422045592366
2	0xbfa022901a4b0195	-0.03151369400939356
3	0xbfa3198b9e8e8ca4	-0.03730427084453794
4	0x3fea4e02d2aa6a08	0.8220228304447241
5	0x3fdca06827b4a8c8	0.4472904575110417
6	0x3f98babc27050819	0.02414983738095353
7	0xbffa6eecd16046e2	-1.6520813158753573
8	0xbfc3a92f628a9a62	-0.15360061942665754
9	0xbfe5cff407d378b1	-0.6816349175312749
10	0xbfb443dab7cf2be1	-0.07916037547617762
11	0xbfcdccb887b8bdde	-0.23281008364709427
12	0xbfe3fcf35d25ee1b	-0.62462776368142
13	0x3fddcb9882913832	0.46555149794301365
14	0x3fc590a1d09df933	0.16847632109051744
15	0xbfd84cf8b8f12b7f	-0.3796979719233419
16	0xbf9d29e3d3044369	-0.028480109934267448
17	0xbfb47a670f16810d	-0.07999271505696388
18	0x3fd64630d3e47c0e	0.3480341023695822
19	0x3fed4f5968a82ed9	0.915936188133368
20	0xbfd772326c328d15	-0.366345029508197
21	0xbfc1b3fb108bdf70	-0.13830507572106
22	0x3fe38974ce7b3f87	0.6105293305245006
23	0xbfe4e99059680fc6	-0.6535112138958474
24	0xbff1a9babe7da658	-1.1039378586814532
25	0xbfc61233435e7bff	-0.1724304274511894
26	0xbff3c3ee7147e398	-1.2353348183662316
27	0xbff151c16f2e5b00	-1.0824598639498504
28	0xbfb210ceffc69265	-0.07056897873423791
29	0xbfbaf185ce78de7a	-0.10524784365485998
30	0xbfe07c93acb27ee6	-0.5152071354859487
31	0xbfc32cbb1fc910af	-0.14980258037588132
32	0x3fcab3ed52a01dc0	0.20861593756147379
33	0xbfebf8a562b0d913	-0.8741022994570663
34	0xbfe17850ad44f389	-0.5459369072119539
35	0xbfb98fefc4147141	-0.09985254799943723
36	0xbfa6ca0e0594edcf	-0.04451030557762758
37	0xbfd2fc89d6832fd6	-0.2966637225006229
38	0xbfc446052e525d34	-0.15838684808543635
39	0xbfca625a49efbeee	-0.20612648592167865
40	0xbfe5c38d0c0c705a	-0.6801209674190531
41	0xbff133e4dc271b49	-1.075169429752082
42	0xc006cdb7df975bb3	-2.850448366934381
43	0xbfadaf90a89ec457	-0.057980080207365496
44	0xbfb223992acd0bd0	-0.07085568709321355
45	0xbfe2286099e787cf	-0.5674288755365015
46	0xbfee65799e6051a6	-0.9498870938573887
47	0xbfe3b063458aebc6	-0.6152817114119606
48	0xbfc866548326d525	-0.19062286762133698
49	0xbfc12bd986702c6d	-0.1341506868778625
50	0x3fc73bfa1b564b2b	0.18151785216158464
51	0x3fc9ef626f6e081c	0.20261793557080032
52	0x3fd1a49543329b54	0.2756703525760049
53	0xbfd1bd684f8394ce	-0.2771855141166498
54	0xbfd220f59afff8c4	-0.28326168190677614
55	0xbfbb7632f9cf009e	-0.10727232550471164
56	0xbfc1934db372fd12	-0.1373078466622038
57	0x3fcc1721b1fd9f16	0.21945592108681272
58	0xbfd679967092a4c4	-0.35117112153472996
59	0xbfe8e4655dc9acf1	-0.7778803664963602
60	0x3ffd69ea221a079b	1.8383580524536913
61	0x3fbe3b66e1624099	0.11809390070470939
62	0xbfe2fe477a87eb49	-0.5935399430448821
63	0xbfb6cff2c6c38e01	-0.08911053993829655
64	0xbfd3f88acc321dc7	-0.31204481068604334
65	0xbfa991484fc21547	-0.04993654225931237
66	0x3fc3082826c88418	0.1486864270564474
67	0xbfe9cd9439c8ec40	-0.8063450935945937
68	0x3fea53136b4311b3	0.822641095634529
69	0x3f7f3cc1a9a1f687	0.007626301283492182
70	0xbfcbf1fd3baa6f27	-0.21832242406241528
71	0xbfe8f0faab2dac48	-0.7794164031341859
72	0x3fa8143b2cf40ff8	0.047029351460906754
73	0xbfe13878c34ef069	-0.538143521749146
74	0xbf98c8b4f982d072	-0.024203136185591174
75	0x3fcb94448be8b493	0.215462272944397
76	0xbfe16de03053bb11	-0.5446625656021259
77	0x3fe5ae2a2c2e62f2	0.6775103438295373
78	0xbfe01f6069e921ae	-0.5038301533286835
79	0xbf6a10441dd5c6a7	-0.0031815843964800475
80	0xbfa8ff8a33bb7c49	-0.048824614348398195

weight f8 [81, 81]
0	0x3fb7199eb8cb8adc	0.0902346802863962
1	0x3fa3863e973dccc3	0.03813357921799245
2	0xbfbd71c2de7a7647	-0.11501710826493038
3	0x3fa0497c6a4e001c	0.031810653664251926
4	0xbffd3c66a92c83f2	-1.8272463425021184
5	0xbff0880c245b4c75	-1.033214704530818
6	0x3fb12b731bba8eec	0.06706923891993782
7	0x3fdb311a16dff190	0.42487194284310537
8	0x3fb41995ea7ceba3	0.07851540541461914
9	0x3fb2a89452af30e5	0.07288481730137482
10	0xbfdeb372fca2fb03	-0.47970270797297604
11	0x3faeeaa6af413fc6	0.06038399590818204
12	0x3fb4bfb65b176874	0.08105029796516466
13	0x3f9a43ae8a17c70b	0.02564881055690819
14	0x3faf72b99bb6560f	0.061422157533495995
15	0x3fa2c56432f2add2	0.03666222688601874
16	0xbfe00a9d8862879d	-0.5012958205954764
17	0x3fb07889fe3724d1	0.06433927971297072
18	0xbfee33fa5296f0d5	-0.9438449490621915
19	0xbff5237e68295429	-1.3211654728704707
20	0xbfb367f2be34022b	-0.07580487388259687
21	0x3fafd8a40fd5ceda	0.06219971364308004
22	0xbff2184ffad65f82	-1.1309356497131096
23	0x3f98cbb59414e6f5	0.02421458927458438
24	0x3fc65894a966104d	0.1745782687322638
25	0xbfd14792cc59d955	-0.26999349552297264
26	0x3fc7964dcff57a50	0.18427441267245337
27	0x3fb6c8a7d4f2b1c7	0.08899926136900325
28	0xbfd6d6e18301cfab	-0.35686528962764424
29	0x3fa3db98338b6032	0.03878474835590885
30	0x3fb7c56bd72fd509	0.09285615924439496
31	0x3fac0f1c6807086c	0.05480278749338727
32	0xbf9c89c243ce523f	-0.02786925829748754
33	0x3fc1fc4221bed8d6	0.14051081321458153
34	0xbfb263c1129c0b62	-0.07183462814650235
35	0x3fb0ad68c99a3030	0.0651460163300619
36	0x3f618825cef904ba	0.0021401155898109455
37	0xbfa744ce950391aa	-0.04544683045404281
38	0x3fa2f14d2240db81	0.03699723284846979
39	0xbf7f9451b4e46c8b	-0.007709807554671442
40	0x3fb7263b1df4c0f5	0.09042710763310764
41	0x3fc31ecc09263b8a	0.1493773502993146
42	0x3febe91a3d63f5c2	0.872204894927272
43	0xbfb15827e669976f	-0.06775140166572922
44	0x3fb9a230143b876b	0.10013103956182838
45	0x3f81fb12652b063b	0.00877966281166486
46	0x3fa21d13c082a953	0.03537809109669134
47	0x3fa36bf4eb3de3db	0.03793301936725132
48	0x3f874f077430f095	0.011381204827664507
49	0x3fbc046c513b01f4	0.109442491370835
50	0xbf9a4073b399c762	-0.025636489712673856
51	0xbfdfc157c8d10d8b	-0.4961757145976768
52	0xbfc84bd08e0db880	-0.18981368004046217
53	0x3fa5d701ab4b0c11	0.042655994567688656
54	0x3fb8037db6fc8b60	0.0938032695526494
55	0xbf92673541f07d96	-0.017971832418081833
56	0x3fb3567b9d025430	0.07553837378721151
57	0xbfb1536eaf188591	-0.06767932677077783
58	0xbfa3277fca79a9c0	-0.03741072985288296
59	0x3fc2feeec6c74cbf	0.14840492921812218
60	0xbff02404d6bcd606	-1.0087936771573154
61	0x3f96aea564e69b50	0.022150596889015717
62	0x3fac74981028296b	0.055577041599536546
63	0xbfa6384ea7403457	-0.04339834014545179
64	0x3fb4934b559e68fd	0.08037253227522352
65	0xbfb3b3bf92c1210e	-0.07696149189826348
66	0xbfb2c96bee2431f6	-0.07338594974516596
67	0x3fc52aea68c18762	0.16537218203580567
68	0xbfe30759c6cf1ac0	-0.5946473010052031
69	0x3fa05eb24a0efc45	0.03197247652087091
70	0xbfc981cafb7673ec	-0.1992734649510618
71	0x3fa44b53ecbe7b0b	0.039637205743238445
72	0x3fb38cf95d1985f7	0.07636984370176224
73	0x3fa062c6a2ae37a1	0.032003600462402255
74	0xbfb0049ea27df4c6	-0.06257049052324523
75	0x3fb068ab738e9c70	0.06409713336198464
76	0xbf8e766666a84ea1	-0.014874267585617775
77	0xbff3621a52be42e0	-1.2114508850246963
78	0xbf84bf02e422ff7c	-0.010129950129680536
79	0xbf6aa04d125a1313	-0.0032502656275162994
80	0x3fa2f03202252707	0.03698879505334501
81	0x3fc98fa08272235d	0.19969564790178654
82	0x3fc17d45ce1d0115	0.13663551868558757
83	0xbfacddef2130dd09	-0.05638072281038304
84	0x3fc3773e74230075	0.15207653685320435
85	0xbfdb2deb018f864c	-0.4246776118508009
86	0x3f93c33263028e6e	0.019299304287996248
87	0x3fa92169da74297d	0.04908304969474651
88	0x3fc5b8f4053ab0a7	0.1697068238767134
89	0x3fb0a6d9c81383ae	0.06504593977616821
90	0x3fb6d4dcd668417e	0.08918552622367845
91	0xbf9e5420f57b970e	-0.029617800696448753
92	0x3fc8c793d98da787	0.19359062311860617
93	0x3f9ad1a9ec102dfa	0.026190428765444175
94	0xbfc4781caef7efe5	-0.15991552871116635
95	0x3fc3b82784888272	0.15405744525289183
96	0x3f99f5b6be8f6e26	0.025351386433483246
97	0x3fc0d5f066f6d55c	0.1315289023165559
98	0x3f9b936b1bc89df9	0.026929544039516504
99	0x3fc2cf818ea893a1	0.14695758310076903
100	0xbfda732affec5676	-0.4132792948961205
101	0xbf8eb609ca95a9f3	-0.014995647902385811
102	0x3fb5cbbebcaccbf6	0.08514015299151353
103	0xbfd810dfbbaadda4	-0.3760299046220672
104	0x3fbf7d928d5f6295	0.12300983382682269
105	0x3fb3172bf9f7c29b	0.07457232334832968
106	0x3fb2d63ae279a9c5	0.07358139065914944
107	0x3fc2e3aed9d1d488	0.1475733340809351
108	0x3fc2be15bb9516b8	0.14642593058868214
109	0x3fa7e3ccb41cabf9	0.04665984820015718
110	0x3fc398c677a3f9f7	0.15309983102629562
111	0x3fc3d045e6827ef5	0.1547934890304458
112	0x3fc4ae0a1e61b891	0.16156126483423752
113	0xbfab58c6ba783e4e	-0.05341168428651298
114	0x3fa4ef5541939f13	0.040888466124498056
115	0xbf80409df9c4edce	-0.007935747322895727
116	0x3fc68b1a0a784521	0.1761200476762861
117	0x3fb2cc00e13a63a8	0.07342534540874956
118	0x3fb4ee650150e191	0.08176261217238891
119	0x3f9b941dac404abe	0.0269322048553231
120	0x3fb1fd3ba00cae9a	0.07027027757129148
121	0x3fb52b67acc489d1	0.08269355743372066
122	0x3f9bd41f0775422e	0.027176365690424635
123	0x3fb8f5dcd6207a79	0.09750156619745977
124	0x3fb46d1f595580c9	0.07979007655149241
125	0x3fc985eb10df766d	0.19939935993072613
126	0x3fc5befc010a8f36	0.16989088106958555
127	0x3f97e841f505a56a	0.02334693010326331
128	0x3fc1ea4552a1e4bf	0.1399618772009372
129	0x3f93c02f9e35c8bf	0.01928781893861564
130	0xbf88a529c4db9564	-0.012033773727533066
131	0x3fc7033ccad1a131	0.1797862997366422
132	0x3fab0215eaa6466c	0.052750286954631104
133	0xbfc6251051c3a74f	-0.17300609581371382
134	0xbf74c01bd4b09649	-0.005066021646631899
135	0x3fc2a1490b583a7e	0.14554703763902305
136	0x3fb7f42b0db898eb	0.09356946072566401
137	0x3fa90d3171cd66bb	0.048928780691040306
138	0x3faa9eee53f34902	0.05199379706177078
139	0x3fc5cee3cdc05851	0.17037627741291542
140	0x3fc864c78eca61ee	0.1905755469531551
141	0xbfeed3f6534186dd	-0.9633742929547356
142	0x3fbc4354c61fddce	0.11040239178679842
143	0x3fc11f14c9084a30	0.1337610227206638
144	0xbf9555de10125dd0	-0.020835370760861782
145	0xbf5fefd206c42f5a	-0.0019492674865117716
146	0x3fc440a53d30744c	0.15822282302625224
147	0x3fb1828ed2c1d30c	0.06839840550840054
148	0x3fa13dc9981842df	0.03367452603936782
149	0xbff3842780d3c922	-1.2197642357173852
150	0x3fb369d66707e860	0.07583370223429275
151	0x3fb31abce54930f6	0.07462673757362723
152	0x3fc1f51f8b94b53d	0.14029306712601822
153	0x3fc3227ea82dd664	0.14949019634120753
154	0x3fbeca280cf2dd4d	0.12027216259126768
155	0x3fa40963cf2fbc73	0.03913413910037713
156	0x3fb28a7d16790277	0.0724256687035537
157	0x3fc6d5d143066345	0.17840019009306665
158	0xbfc3dbfbf8105eba	-0.1551508866548284
159	0x3fc866744d97d2bb	0.19062665737842174
160	0x3fbdfb37a574b31e	0.11711452283334409
161	0x3fc0847a2204aa77	0.12904287968679615
162	0xbf8edf17fda9b07d	-0.015073954991031474
163	0xbf7d87914421a0bf	-0.007209365316249882
164	0xbf69dd28a1882084	-0.003157214505566998
165	0xbfc56189bbb599f0	-0.16703912415978506
166	0x3fb96a9d84ed2e97	0.09928307051921546
167	0xbfbc0c8ce3e51f0a	-0.10956650317995922
168	0xbfc2b4a8caa0211c	-0.14613828557799813
169	0xbfbdaad64b727d14	-0.11588801710103197
170	0xbfbaa44713a2e964	-0.1040691779079786
171	0xbfac49aa7250d747	-0.055249525503696044
172	0xbfa739e8b6538ed2	-0.0453636858526615
173	0xbf95091b6cae6e3c	-0.020542553432831165
174	0xbf97bade86fe01fd	-0.023173787106772526
175	0xbf9e0c5140eba26e	-0.02934386214011158
176	0xbfb5745f8309b2cc	-0.08380696248213865
177	0xbfbea6b0eae4b333	-0.11973100409222752
178	0xbf98b92b2feacfa8	-0.0241438625332219
179	0xbfb8bbbffce96785	-0.09661483692744184
180	0xbfbee0728530f87c	-0.12061229469051854
181	0x3f7389b318210b47	0.004769992434435383
182	0x3f975b790e75b1af	0.022809878833344118
183	0xbfc4b3facb3d253d	-0.16174254344722697
184	0x3fbe8d00d1e7d1a8	0.11933903813025515
185	0xbfc340d9c8af34db	-0.1504165868667887
186	0xbfc48c498d5b96f4	-0.16053122904047934
187	0xbfa16cc4f60a5ddd	-0.034032969507446366
188	0x3f97296934e6f1fa	0.02261890778912521
189	0xbfbe47953839d8c9	-0.11827976820663645
190	0xbfaa9887b9bc266b	-0.05194496290466762
191	0xbfbd9d179400742e	-0.11567828524899035
192	0xbfaf0355b5739ed8	-0.06057231750474806
193	0xbf865c2bc6a90de9	-0.010917989730962101
194	0xbfa7dbbb75425b1f	-0.04659829908739809
195	0xbfb996163fe441d0	-0.09994639453748921
196	0x3fa095cdb11a7ead	0.03239290987880614
197	0xbfc6190f9cdaef33	-0.17263980063386838
198	0xbfc2ce4f06f2c90e	-0.14692104186321625
199	0xbfbc0f20cac566b5	-0.10960583639589568
200	0x3f89f9139c9ecbf1	0.012682107178852294
201	0xbfb6019cd899d920	-0.08596210754499056
202	0xbf869ae14b2022c8	-0.011037597756528142
203	0xbfaa448dd512ace7	-0.0513042757605378
204	0xbfaabec88106d795	-0.05223681044610299
205	0xbf9c33c2005b0a60	-0.0275411904065187
206	0xbfc2d3852ea73864	-0.14708008554447638
207	0xbfc69ba8e95d81ec	-0.17662536043918864
208	0xbfb22d3db93a979c	-0.07100282451810219
209	0xbfb0033abf729998	-0.06254927801146548
210	0xbfc0b15539733fa6	-0.13041177087006622
211	0xbfc7d2caf976f327	-0.18612038784876825
212	0x3f9544478c09546f	0.020768278047701146
213	0xbfb3bed38fea6ae5	-0.07713053000990618
214	0x3f81dd590a01924b	0.008722968690741647
215	0xbf73ebf2bbbd4b23	-0.004863689591575934
216	0xbfa88a9a91ac864b	-0.04793246296163697
217	0xbfa99da30d5f4eec	-0.05003079927669582
218	0xbf9f025ad1d6daea	-0.03028242021329223
219	0xbfc292acd96e445a	-0.14510117165312658
220	0xbfa7e8dd4c4504f0	-0.04669848972344848
221	0xbfb10f12ce752602	-0.06663625278920196
222	0x3fe709bb05132865	0.719937810813701
223	0xbfc9b530864d4354	-0.20084196622567652
224	0xbf57cbac16c59d11	-0.0014523678356342421
225	0xbf5fd36bee0fd2ad	-0.0019424966815197273
226	0xbfa0fbf3a177ed1d	-0.03317223878908691
227	0xbfc6acd37a3575c2	-0.17714923350551542
228	0xbfbd1b79891c1fdc	-0.11370048139008254
229	0xbfb1522f6ec09812	-0.06766029790796349
230	0x3ff1c950d8d43146	1.1116493673208239
231	0xbfa489a947df7ff9	-0.040112772010388605
232	0xbf9a2e649e7cab84	-0.02556760041549523
233	0xbfbf0a837177da5d	-0.12125417251795896
234	0xbfb8d65a09cb0920	-0.09702074755754042
235	0xbfc3045363c39807	-0.1485695111397833
236	0xbfbcd7ef5e4d23d1	-0.11266990711477766
237	0xbfc7522323cdcc70	-0.18219413040387478
238	0xbfc0bba67e1607bf	-0.13072663456483544
239	0x3fae2ded6d409a99	0.058944148622960664
240	0xbfb9ac95009cc5b9	-0.10028964295340516
241	0x3f9c3e069560aa43	0.027580359332356485
242	0x3f7e87d1032db625	0.007453743414641366
243	0xbf8567e5f0ecd9ee	-0.010452076353982567
244	0xbf752bc48b21c331	-0.005168693302139358
245	0xbfc3518b70ffcda7	-0.15092604653874028
246	0xbfbad83232161fe1	-0.10486139033139309
247	0xbfc725c947e4da24	-0.18084064493605567
248	0xbfa255b0cf8d88eb	-0.035810017906230694
249	0xbfc1625656fc9905	-0.13581351516149467
250	0xbfc43695ee6a4dc2	-0.15791582242364482
251	0xbfb8da868e9d2d49	-0.09708443624292785
252	0xbfb8173bce8cc96d	-0.09410451691363671
253	0xbfc240cf8c7eaa5e	-0.14260286674592043
254	0xbfc2640d7947e43d	-0.1436783640090499
255	0xbfc29e7e7485a3f2	-0.14546185197403322

bias f8 [81]
0	0x3f9aa3dc6df45863	0.02601570530995224
1	0x3fa8e4646060a5af	0.048617493405184724
2	0xbf3444fa38c09e4c	-0.00030928715637166117
3	0xbfbd90d0d96bd399	-0.11549096401343063
4	0x3fb9e432d0e989f9	0.10113828277966509
5	0x3f999c2907e86e77	0.02500976668134888
6	0xbfbda33a8a1866bf	-0.1157719218394062
7	0x3fb867667d692be1	0.09532776414668788
8	0xbfc414b10d6b92d9	-0.1568814578560225
9	0x3fb6c4872752f9ce	0.08893627843915583
10	0x3fc3b62a9ce10549	0.15399677906138212
11	0xbfa36f6b990c2fad	-0.03795944445855013
12	0xbfb334ee3f494c02	-0.07502640767170024
13	0xbf8159f285d9702c	-0.008472342214354077
14	0x3fb162159e2cb5f5	0.06790289985357119
15	0xbfb567f9cf47fae3	-0.08361779509139526
16	0xbf7c644b8bad6c6c	-0.006931586360987212
17	0xbfb1b4f3f1784e8a	-0.06916737218153393
18	0x3fb2bc6b8139d5b5	0.07318756012849444
19	0xbfc29a65467e4da6	-0.14533677999552913
20	0x3fa55cf049ff5faf	0.04172469046869708
21	0xbfb51d75cdd14e57	-0.08248077654689588
22	0xbf96d4c3feeeb955	-0.022296011385770715
23	0x3fa1d30dc4415040	0.034813337523389
24	0xbfc2ba28dbd0be05	-0.14630614026235392
25	0xbfb872f9ae586f00	-0.09550438410263595
26	0xbfc50cb56898a875	-0.16445033652536592
27	0x3f8cad96ff94dcf7	0.014002971338966648
28	0x3fa15028328287c0	0.033814674535519895
29	0x3fa0201491d3ea20	0.031494753648037
30	0x3fb4809e0761e6fa	0.0800875442527306
31	0x3fa36fde326f9fd6	0.03796285978006579
32	0xbfb82927e66ade41	-0.09437798858095282
33	0xbfa34e9d28ec553a	-0.03770915150213701
34	0xbfb41a28e6339658	-0.07852416629938241
35	0x3f9d8afdc9f7b603	0.028850522472501094
36	0xbfa2b4486f12898f	-0.03653169971336744
37	0x3fb624341fe2cb44	0.08648992327179622
38	0x3fa296985fee5398	0.036305200300524365
39	0x3fbc97b69fb146d2	0.11168996237509113
40	0x3fc01fcba5903672	0.12597032150408755
41	0x3fa4e050cd078b79	0.040773892429362975
42	0x3f97c7ab750c34d3	0.02322261716749525
43	0x3fb177a1f4808176	0.06823169917379865
44	0xbfc0e857fcfbf3dc	-0.13209056713813438
45	0x3fb0e872350d86fe	0.06604684634433153
46	0xbf72427139a3bf29	-0.00445789555145363
47	0x3fc2a569397093d7	0.1456729441134985
48	0xbf8ab5d353303818	-0.01304211709614482
49	0xbf9fef9eb0117534	-0.031187514778470773
50	0xbf840949c04ffda9	-0.009783340627108244
51	0x3fbd750b1fd64438	0.11506719138402921
52	0x3fb17c834e937a8c	0.06830616634713688
53	0x3fb1166a1c623e4a	0.06674826806033099
54	0xbfc6a4c0b7faec2f	-0.17690285666853486
55	0x3fb89d1cd7efab50	0.09614734908943245
56	0x3fa788bf202a6a5a	0.045965168644404655
57	0xbfbda36aa3f99cff	-0.11577478888795055
58	0xbfa36b503c03b610	-0.037928111387241725
59	0x3fa359ce14003c0c	0.037794532720106216
60	0xbfbddd78defa5678	-0.11666064685626931
61	0x3fb3cab8887c3433	0.077312024423194
62	0xbf78c1c20942ab6f	-0.0060441569841412765
63	0xbfb004f978cae547	-0.0625759048370088
64	0xbf9216d8c49be68b	-0.017665278434810843
65	0x3fbc15566b8ddc27	0.10970058561166295
66	0x3fbfd5d9a224cc16	0.1243568440302599
67	0xbfacb5eb1e7e9730	-0.05607542750594374
68	0xbfc454551677ea75	-0.1588236198147858
69	0xbfb5fda0fcb1d142	-0.08590131921102276
70	0xbfc12f0e51fb2008	-0.13424853327728692
71	0xbfb37b44449b7f2a	-0.07609965014443945
72	0xbfaa9e674428800d	-0.051989771909802675
73	0xbfb0c719e97bd250	-0.06553804350171188
74	0x3fa14c4d73fe56ee	0.03378526726662111
75	0x3fb0502046e1d780	0.06372262697717979
76	0x3fbd88710b22d0f1	0.11536318323016183
77	0x3f6b7d2e2702114f	0.0033555890477733673
78	0x3f8b97e8e538ed34	0.01347333859950215
79	0x3f8afb1ec16e0bcf	0.01317428615380392
80	0xbf9e819e2e33ff5c	-0.029791328020109517

weight f8 [1, 81]
0	0x3fc018635432e1b7	0.12574426280276693
1	0x3fc5afe4a08474f1	0.16943033063663607
2	0xbfa60be403bfa2f6	-0.04305946870574033
3	0x3fa676a6bb035154	0.04387398751137775
4	0x3fbfc6cc5dc75330	0.12412717141644403
5	0x3fc159a8add99207	0.13554867256893052
6	0x3fa509be68ffb366	0.04108996421550763
7	0x3fbea10b72905790	0.11964484736412673
8	0x3f8d3f5ffcda91d2	0.014281034378037658
9	0x3fbf9f0edaf80dbf	0.1235207829086482
10	0x3fc8c3f5f758e33f	0.19348024919033865
11	0xbfa4f49798b4e3a8	-0.04092859019369338
12	0xbfa1090b80432cf1	-0.03327213230803661
13	0x3fc25af792b28c60	0.14340109503709453
14	0x3fbe847467aa4896	0.11920859843147222
15	0xbf8a0fc64e5f801d	-0.012725400225406297
16	0xbfa21190ee03759b	-0.035290268949874824
17	0x3fc0b24998bfd1d1	0.1304409023138207
18	0x3fc4c522db57f12f	0.16226611814625744
19	0x3fa80488a72833cd	0.04690959015361038
20	0xbf7f2a33f69cf426	-0.007608607274787215
21	0xbf97b52d16a76d95	-0.02315206957596912
22	0x3fc3975966219888	0.15305631148220677
23	0x3fc9ea7bb638c0b0	0.20246836087745157
24	0xbf75df653f0c5e36	-0.005339999669352438
25	0x3f9d51edd566c1d6	0.028632846975314617
26	0xbfa3694a91b04401	-0.03791268375801594
27	0x3fbfb34a0886c136	0.12382948597110474
28	0xbf8403e2ebd00206	-0.00977303774016126
29	0x3fc9ec5c70478dd5	0.20252566797635888
30	0x3fc083d4f120719c	0.1290231873871449
31	0x3f816705858bc245	0.008497279298780866
32	0x3fa41f62beb7cb0c	0.03930195406055334
33	0x3fc69403d0c8c6aa	0.1763920564131259
34	0x3fa3868e3c2c978c	0.03813595280216395
35	0x3fc6c6b66b673b9b	0.17793922657298542
36	0x3fbe8afcde538c4a	0.11930828502549776
37	0x3fc428b41b5fb9ed	0.15749217354409897
38	0x3f72aff178774d78	0.004562323803344419
39	0x3fc3e6caebaa0f07	0.15548073298497675
40	0x3fbf149b9816f9b1	0.12140819991234399
41	0x3fbf4fea28b14323	0.12231315129725977
42	0x3fc70b5c4ef50e16	0.18003419738134657
43	0x3fc0499fce39f295	0.1272468335117948
44	0xbf7957936c520615	-0.006187034484470573
45	0x3fc6ce0f2bba76c4	0.17816342959570453
46	0xbf811fc3b1557028	-0.008361367081924767
47	0x3fc766463f34bd6c	0.18280866705161303
48	0x3fc86328f356d079	0.19052612191956422
49	0x3fc8d740d2631b10	0.19406900666054883
50	0x3fc5e7538b7f9029	0.17112201987686262
51	0x3fc6376a7f59fde4	0.17356616228424493
52	0x3fc65fba88af6b9d	0.1747964064987543
53	0x3fc16d5288836544	0.13614875474631039
54	0x3f91ae6dc69f98bb	0.017266955612193807
55	0x3fc59b0325991497	0.16879309974516296
56	0x3fc2de07ecce2df9	0.14740084707987913
57	0xbf9d97c2a65b237e	-0.02889923229557522
58	0x3fa584dfe15a078b	0.04202937723040553
59	0x3fc02a66ba5a8b99	0.12629398440648457
60	0x3fa24f77593378e1	0.03576252902870337
61	0x3fc1ae60af5e195c	0.13813408434743735
62	0x3fa4f192b1d805eb	0.04090555592484776
63	0x3fc0478ed480ed3a	0.12718377472070036
64	0xbf94600404b68aed	-0.01989752081648082
65	0x3fc091a21c903f5e	0.129444374033933
66	0x3fc27e2293a79c48	0.14447433671668564
67	0x3fc0be72963dd8c0	0.13081199966445034
68	0xbf7fe8910a1cb49b	-0.0077901521306503975
69	0xbf8964d31d06a4f5	-0.01239933903055366
70	0x3f889cc798e20b27	0.012017783501737945
71	0x3faf98306af9e9ef	0.06170798593389636
72	0x3fa63da308ad7821	0.0434390018551627
73	0xbf907d48948fcaa7	-0.016102918689237324
74	0x3f8289653ac9371a	0.009051123482233293
75	0x3fc3a45e919fdfdf	0.15345365629741445
76	0x3fc2c7b24b50afa7	0.14671925237177882
77	0x3fbd72aef372b01e	0.11503117984347042
78	0x3fc12c4c740269db	0.13416438736460531
79	0x3f9752eb33a94c01	0.022777247455746167
80	0x3fc247ed9732d5e8	0.14282007105582228

bias f8 [1]
0	0x3f8c6a420476945c	0.013874545823293775
