pre-trained models/NO4394_YMR093W.pth (torch, 175383 bytes, 6 tensors)

weight f8 [126, 42]
000000 7d 9a 62 f9 db 97 c5 3f bf 1a e9 b8 5a a8 bf 3f
       0.16869687726030583 0.1236626340333755
000010 af fe 0a 77 92 c6 c1 bf 94 01 c6 88 ce 18 b4 bf
       -0.13887244045871713 -0.07850352133937682
000020 5e 5c b6 5d 49 d7 b5 3f cc c7 55 13 cb f6 c0 3f
       0.08531626260661215 0.132531532708127
000030 f5 1c 4e 9d 59 63 bb 3f be 1c 8c d7 57 0d b6 3f
       0.10698471155602703 0.08614110004792772
000040 27 7b f4 3a 8b 88 b9 bf 0f ba a5 c7 41 cd da 3f
       -0.09973974408465534 0.4187778901749945
000050 ef 53 19 33 62 1d c8 bf 29 41 58 9e 22 3f 97 3f
       -0.18839671607079775 0.022701779284092147
000060 cb 9f cf 28 ac f1 d0 bf db 07 5e 59 d8 b8 b2 bf
       -0.26475051866009086 -0.07313301259821918
000070 d8 c7 d1 a3 29 20 d1 bf fd ec 57 8b 26 30 eb 3f
       -0.26758805273050035 0.8496277543594314
000080 01 db a0 fc b0 42 c3 bf 4f 80 6f 3f e6 2d be 3f
       -0.15047275863044976 0.11788786934585115
000090 e0 dd 3f 10 a5 63 d6 3f c0 32 40 db 8c d9 ca 3f
       0.34983183466780865 0.20976410585025995
0000a0 1f 64 fa 6a 8f f6 7e 3f 88 37 ef 9d d3 07 c8 3f
       0.007559356905084718 0.18773884975092536
0000b0 48 c3 f0 91 cc 62 92 bf 5e 3d 0a 4d 62 32 86 bf
       -0.017955013663768754 -0.01083828733069819
0000c0 7c f9 fb 5f f7 4a b9 bf 11 a5 24 15 04 1a c4 3f
       -0.09880014508596519 0.15704394371395172
0000d0 2e 2a 62 3e 0a 2a da bf 6f ee 67 28 4c a3 c4 3f
       -0.408815918847412 0.16123344395588243
0000e0 2a 96 39 f9 b9 d2 c5 3f a3 20 48 d0 02 fb c8 bf
       0.1704933611792268 -0.195160247516701
0000f0 f0 e5 98 6e 04 06 c2 3f 05 40 cf 8b 00 48 89 3f
       0.14080863380677 0.01234436442055654
000100 88 29 4e 4b c3 bc cd bf 74 33 23 88 32 df d2 bf
       -0.23232308556573522 -0.2948728875606357
000110 5b 7e b3 76 b5 b7 ca 3f d9 1f 2c 9c a1 d8 bf 3f
       0.2087313489528125 0.12439928114702016
000120 3f bd 4c 99 3e 25 b9 bf e4 9b 9e 59 73 17 c1 3f
       -0.09822455637617099 0.1335281550975359
000130 b4 62 5c 80 6d 90 bb bf 43 fe 1b 97 7e 51 aa bf
       -0.10767254241762708 -0.051403003641095533
000140 f6 af 1a 93 5a d5 72 bf 11 bf f1 a2 36 88 d2 3f
       -0.0045980012961699315 0.2895638076069967
000150 b5 1a e3 19 38 6a b6 bf 23 13 df e7 92 7a c9 3f
       -0.08755827552804869 0.1990531570610524
000160 4e 05 d5 ad 2d 61 d0 3f 5e 28 2c 48 fb 2c ab 3f
       0.25593130088607985 0.05307755714427807
000170 87 65 d0 a6 cd b9 b5 bf 31 23 17 e5 dc 58 c9 3f
       -0.0848663837681639 0.19802437959722277
000180 85 2e dd 8b 7e 58 ca bf cd 59 c4 a2 3e 35 bf 3f
       -0.20582563237472953 0.12190619920543284
000190 8b 47 20 cf 7d fb c7 bf d7 55 d3 48 2d bb bd 3f
       -0.18736240972117132 0.11613734271971708
0001a0 2c 65 0e 7e 6c 6d c3 3f d5 6b b7 5c 30 da c0 bf
       0.1517768493184034 -0.13165859725162812
0001b0 40 00 f3 1e 63 a2 ae 3f 82 0f 37 a8 dd da 9d 3f
       0.05983266594694259 0.02915521945193645
0001c0 23 ec e5 f5 76 b0 b4 bf e1 93 bf 0b 4c 31 bb 3f
       -0.0808176374757044 0.10622096335244137
0001d0 18 45 8f 9d 11 4f c4 3f 25 c4 c7 0b 4d cb 83 bf
       0.1586629885992259 -0.009665109560019822
0001e0 4c 9d 47 20 55 d5 b4 3f b2 06 d5 3a f6 ae ce bf
       0.08138019598083196 -0.23971441147482647
0001f0 7b 8a 44 eb c8 fc d5 bf 7c f6 e3 99 2f 49 90 3f
       -0.34355376220097583 0.015904182212571602
000200 79 fc ba 50 6c 80 bd 3f 75 c3 23 26 49 46 a9 bf
       0.11524083109815021 -0.04936436262676739
000210 fc 61 4a 05 26 30 be 3f e8 3b c6 a3 1e 62 c0 3f
       0.1179221880833054 0.12799437519831192
000220 dd 21 18 34 b5 c4 a5 bf 37 bc de 98 92 d6 b9 bf
       -0.042516386613048 -0.10093036873034654
000230 ae ab 4d b5 39 46 a3 3f 16 f4 ad fe 71 f0 c7 3f
       0.03764515245605736 0.18702530799410572
000240 ca 0c e7 38 09 74 8e bf f4 e8 0a 54 3c ff b9 3f
       -0.014869758652713467 0.10155083705732065
000250 9a 73 95 16 28 fd a8 bf 87 25 98 6c 8c 18 d0 3f
       -0.04880643153840154 0.25149832348741835
000260 32 ff 12 ac de 31 bd bf 1f 32 20 d1 20 71 c9 bf
       -0.11404220295935089 -0.19876489840716347
000270 b3 94 4f 73 18 05 ca 3f f5 fb 45 09 33 86 cf bf
       0.203280502609379 -0.2462829394607692
000280 ea c1 3d eb b1 5d d1 bf 1b 38 c7 65 dc cf c8 bf
       -0.2713436887052284 -0.19384341210974373
000290 3f ad 94 c9 77 bd bc bf a0 12 74 33 92 9e c5 3f
       -0.11226605101972086 0.16890170585988518
0002a0 5c 8e cf e2 86 55 b2 bf a6 0a 5c 2d 57 99 b2 3f
       -0.07161753690120903 0.07265229089174827
0002b0 7f 17 96 a6 f5 aa a8 bf 5f 63 a8 3f 49 34 7b bf
       -0.04817931803249475 -0.006641660811987331
0002c0 65 02 ed 53 2b d5 a6 3f 9c e6 42 62 2e d3 97 bf
       0.04459510230527001 -0.023266529796024046
0002d0 30 c4 ca 61 0d 63 a5 bf 42 ee de 14 6b 6a c2 3f
       -0.04177133387327847 0.14387262839396625
0002e0 a4 75 70 db 54 e2 7d bf cd 5c a2 76 6a 63 b8 3f
       -0.007295924638154903 0.09526696583121748
0002f0 8c 96 9a 62 ec d3 b6 bf f4 53 1e 2a b5 06 c8 3f
       -0.0891711941463546 0.18770470196309896
000300 4e 02 9a 51 f7 3c 61 bf 8c 53 be 66 10 57 5f 3f
       -0.0021042662090738134 0.0019128475350715683
000310 4a c8 42 2e fa 04 81 bf 49 de 60 f5 59 33 bb bf
       -0.00831027463604896 -0.10625231018718141
000320 9c c2 e1 f5 32 30 b6 bf f5 a7 64 59 e5 f6 c1 3f
       -0.08667295935607416 0.14034716477300405
000330 18 ee 57 40 ee 6a 9f 3f 5a f6 2c 75 2a ca b0 bf
       0.030681345631803664 -0.06558480606778386
000340 85 fd 99 22 23 77 bc bf 81 46 da d1 10 0e c9 3f
       -0.1111928901172999 0.1957417511626325
000350 2b 94 1d b8 d6 66 b6 3f 1d bb 2d 41 d1 30 9c bf
       0.08750669474609711 -0.02752997360533548
000360 c1 94 87 b4 f9 cf c3 3f 07 57 04 ae 00 6b b9 3f
       0.1547844058506254 0.09928898094616666
000370 2f 6f c7 ab 4a 93 c8 3f 46 25 f6 85 6f 12 b2 bf
       0.19199498546265079 -0.07059380550903879
000380 53 5e 25 66 d9 d1 84 bf ae cc a6 9b c9 8a 83 3f
       -0.010165880613086353 0.009542059958084739
000390 7f 83 e2 ed a5 ae c4 3f aa 8d 62 d1 03 b9 b9 bf
       0.1615798389002769 -0.10047935354173512
0003a0 20 9e a4 cb f7 2d a5 3f f7 77 0e a4 4c 54 c6 3f
       0.041366332634705794 0.17444761286327523
0003b0 e4 df 50 7f 75 1a 81 bf 31 6d d7 65 55 33 c0 3f
       -0.008351247737763808 0.1265665766976354
0003c0 3e 83 74 ad 91 33 7e bf e9 3a cb 2f 3d c0 b1 3f
       -0.0073733988313343084 0.06933958451120827
0003d0 5a 96 81 f6 96 2f bd 3f d2 53 d2 f2 b1 f2 b5 bf
       0.11400741117685112 -0.08573448351155769
0003e0 e5 8e 48 b8 87 c6 c8 3f 26 30 28 df 61 26 c6 3f
       0.19355865953649878 0.1730463351854052
0003f0 66 8a fb 87 10 5d be bf f5 7e 1c be db c5 75 3f
       -0.11860755271804066 0.005315645570391094
000400 95 17 2a ce 0f ae c2 bf 7e b8 fb d8 d4 12 c5 bf
       -0.14593694273588356 -0.16463718981635006
000410 8f 99 a0 fa a3 fa 91 bf 7d 72 04 00 52 25 c3 bf
       -0.01755768029411225 -0.1495764255604576
000420 b9 85 3d 99 8d 8c b8 bf d1 95 90 73 8e 75 ae bf
       -0.09589467040270606 -0.05949063454344706
000430 49 1d 5f d9 7b 85 bd bf f1 49 4b bd a5 66 bd bf
       -0.11531805092737558 -0.11484752532422939
000440 78 6a c6 d2 0d be bd bf f6 29 10 47 d0 19 b4 bf
       -0.11618124385715045 -0.07851888403835247
000450 f3 d9 53 e8 c3 49 b8 3f 12 5e e1 fa 5f 7c a9 bf
       0.0948755686002654 -0.049777030348817544
000460 1d 70 6d d9 a4 85 78 3f b4 a7 f9 c2 a1 6d 58 bf
       0.00598682779567741 -0.0014909820273722842
000470 98 79 92 76 f4 fe b1 3f 1e f6 c1 07 bf 08 a7 3f
       0.07029655356243436 0.04498860330293673
000480 38 24 66 c4 2d ee bd bf 7e 09 50 68 e1 80 a0 3f
       -0.11691556973359318 0.03223328016612735
000490 cb f8 cb dd 79 dd c2 bf 3e ca f7 1e 44 b7 b6 3f
       -0.14738391237182777 0.08873391872456524
0004a0 dd f1 54 0f 5e 18 a0 3f fa 21 04 e3 bc f7 ba 3f
       0.031435908671912684 0.10534267942797007
0004b0 bf 90 24 ff 3e dc a9 3f 3d d9 b8 77 bf f6 bd 3f
       0.05050846924339813 0.1170463244714925
0004c0 01 a9 5c 90 f8 9a b8 3f cb d1 5e 64 4f 3e 9e bf
       0.09611466907941592 -0.029534569264528614
0004d0 57 d3 0b e9 85 16 90 bf 79 86 6a 5c e5 6a b7 3f
       -0.015710918759356342 0.09147485262158196
0004e0 df fd 12 43 f9 34 a4 3f 89 e2 48 00 37 03 82 bf
       0.039466657102362517 -0.008795194336117322
0004f0 9d b4 57 e2 11 75 9e bf f8 05 60 c5 0c 18 7d bf
       -0.029743461074691713 -0.007103013884262925
000500 68 e9 1a ea 7b f2 ad bf cf e6 cc 37 37 92 ac bf
       -0.05849063141563954 -0.05580303722531498
000510 1e 45 20 dc 73 87 9b 3f be 00 f8 49 e1 93 50 3f
       0.026883898077419414 0.0010118198478040043
000520 39 1d 77 b2 af 83 c4 bf 25 ed de af 83 cf b4 3f
       -0.1602687474644229 0.08129141849251605
000530 92 80 72 36 8f 09 a4 bf d2 63 a1 99 b5 07 a7 3f
       -0.039135432621379654 0.0449806928670068
000540 c7 98 49 b9 e9 40 af bf 47 0c dd 3a 49 b5 97 3f
       -0.061042121761418815 0.023152488916150096
000550 2e 15 7e 91 23 58 be bf 63 b4 fb ad e4 68 ab 3f
       -0.11853239347518205 0.05353464721506709
000560 ec 0d d8 21 5d 3e aa 3f a0 60 1f e3 89 e0 c0 bf
       0.051257048016875334 -0.1318523749348559
000570 b4 55 6c f9 66 27 d2 3f 10 85 17 57 6f 85 ab 3f
       0.28365492208225906 0.05375240266926984
000580 a7 f3 33 71 c3 75 93 3f 85 f3 f9 23 74 ce c1 bf
       0.019003919395789073 -0.13911296612414162
000590 38 df 40 2f 36 56 bf 3f a6 8e 12 78 b2 6b 9e 3f
       0.12240923551223382 0.029707707003253113
0005a0 68 1a fa bc 56 da cb 3f 5b 87 2a 95 67 6d c8 bf
       0.21760067202940836 -0.19083876403333985
0005b0 0b b3 e7 39 ef 3a c7 bf d9 ea 08 73 b4 14 d2 bf
       -0.18148603751560474 -0.2825137256037756
0005c0 8c 8c ea 7c 40 96 d2 bf d4 91 fa 22 0f 69 ce bf
       -0.2904206485638461 -0.23758115013073555
0005d0 63 82 bc 02 99 d4 dd bf f3 74 3e 33 82 9a c5 3f
       -0.4661009337160406 0.16877772810122557
0005e0 a3 89 61 37 4c d6 c1 3f 6a 2a 21 63 cb 14 cb 3f
       0.1393523474135466 0.21157209720907427
0005f0 66 ad 51 78 a4 ed b6 bf 7f a5 21 d8 0a 02 c2 bf
       -0.08956363618351801 -0.14068732789318614
000600 47 eb aa 6a 64 96 7a bf e0 11 ba b8 49 db cf bf
       -0.006491081478709421 -0.2488796379076481
000610 96 d9 23 4a 6c 89 db 3f 46 02 6a c0 c0 6b c4 3f
       0.43026263466108483 0.15953835864276494
000620 e0 35 52 aa 79 74 d0 bf 81 22 c3 a3 dc 0f 8f 3f
       -0.25710908539698885 0.015166972873332131
000630 95 a1 a3 0b c4 4b ae 3f 7f a9 35 a8 9c 1c a7 bf
       0.059171797200011124 -0.04514016679134424
000640 b9 3e ca 3e 7f 64 a8 3f 8d dc f8 e2 c7 13 ba 3f
       0.04764173165778857 0.10186433116256151
000650 8d 50 8e fb 94 13 cc bf bc 76 f2 ca 09 ae c1 bf
       -0.21934759409908047 -0.1381237259819751
000660 81 e6 69 16 15 91 c3 bf c8 e4 a4 14 42 d7 bd 3f
       -0.1528650626603856 0.11656582836157547
000670 7e f7 b6 9b 5f 11 d6 3f 11 5c b0 91 fe f0 87 3f
       0.34481039244189293 0.011690129109451804
000680 33 51 41 d1 00 75 ba bf e8 2b e2 87 77 87 b6 bf
       -0.10334782704132266 -0.08800456111400445
000690 d5 0a 92 53 46 49 af bf 0f ea 92 07 01 0f b3 bf
       -0.061105916692232455 -0.07444769320401455
0006a0 e1 a8 48 13 5c 31 ca 3f ea 04 f4 73 4d e5 b3 bf
       0.20463133756249532 -0.07771762925041839
0006b0 65 36 e6 6f 8a 70 97 3f 63 15 b9 50 34 9c 6e bf
       0.02289024646738937 -0.0037365934165644473
0006c0 76 5d ec c9 33 6f bc 3f 4a 2b 7b 56 77 96 ca 3f
       0.11107181243675321 0.20771686289512054
0006d0 da 94 31 ab 43 da 92 3f 43 cb 6b 6f 2b 41 b7 bf
       0.01841073734648977 -0.09083816023102735
0006e0 96 ab 9f 2b 26 a0 ab bf 47 20 ec b9 55 b7 ba 3f
       -0.0539562156917192 0.1043599680816679
0006f0 f1 6f c4 20 53 1d ba 3f f2 bb 0d 24 2f 9a b0 3f
       0.10200995969756811 0.06485266332832376
000700 19 1e 70 09 66 d8 c5 3f 74 31 99 a5 8d 33 cb bf
       0.17066646061742644 -0.21251078210697083
000710 d5 61 52 6f 5f 88 8b bf ae b6 57 62 99 7a c2 3f
       -0.013443704209110155 0.14436642934690752
000720 8a 93 58 5f 17 55 b9 bf 91 a9 b6 26 ac 4c b0 3f
       -0.09895464017661318 0.06366992898134628
000730 a7 08 00 30 bb a0 a6 3f ad ce e9 94 39 d0 b7 3f
       0.044195031747237316 0.09302101026133398
000740 61 76 cd 9b 87 27 c3 3f 0b e4 22 89 33 66 a2 3f
       0.14964385135219785 0.03593598412539486
000750 29 f9 ab 8c 11 c1 a2 bf 33 28 30 91 da d5 a9 bf
       -0.03662924616036129 -0.050459699843557713
000760 35 b1 60 63 38 85 a8 bf 86 d1 0a 0f cf 63 93 bf
       -0.04789138997179735 -0.018935427945238746
000770 59 81 88 5d 03 a0 c1 3f 37 08 7d 13 a2 3d b5 3f
       0.13769571368267 0.08297169662276437
000780 cb 2a a1 81 87 18 c3 3f 44 c1 cc 20 d2 4d a0 bf
       0.14918607549255677 -0.03184372568500973
000790 3d 5b 2d c5 5a ea b1 3f a8 82 e4 86 9f 10 89 3f
       0.06998221696754299 0.012238737396331814
0007a0 72 24 c2 5d 90 0b a1 3f c7 e5 ee f7 1f b8 b8 bf
       0.033291350789178234 -0.09655952265793309
0007b0 d1 49 ea 2d 9c 1d 78 bf c8 7c 13 a4 4e 71 b5 3f
       -0.005887613368616277 0.08376018052830425
0007c0 d6 a6 01 4c 75 99 bc 3f ad 4d 78 48 85 8c b1 bf
       0.11171658616663235 -0.0685504247597268
0007d0 de fe 8b 64 e7 54 66 3f e5 e5 1d 31 28 42 af 3f
       0.00272603219889321 0.061051612849904825
0007e0 87 74 27 54 b1 20 b8 3f e5 58 b4 a4 9b c1 7a bf
       0.09424885086578359 -0.006532295209828319
0007f0 74 a5 46 97 dc a7 b2 bf c3 bd 71 a9 a2 20 bf 3f
       -0.07287386601696771 0.12159172665427946

bias f8 [126]
000000 83 d4 79 b5 74 c9 d3 bf ca 49 19 de 55 29 ed bf
       -0.3091708919740272 -0.9112958276621665
000010 38 4d 4d 42 e5 c7 ba bf e2 7f 4c 50 ed b2 b7 bf
       -0.10461266392421897 -0.09257395944996419
000020 b5 fb 9d 8c 01 ad db 3f b8 91 7e 7e 46 2d c1 3f
       0.4324344514097292 0.13419419456944381
000030 ad 4a d6 7a 61 5c ab bf 22 bb 85 92 77 5e c3 bf
       -0.05343918442226445 -0.15132040647900974
000040 4e 60 85 2c e1 4d c2 3f 90 66 17 30 37 78 b8 3f
       0.14300169633748044 0.0955843441401163
000050 58 55 de de a5 6e bd 3f bd ce a7 a5 8e d2 bf bf
       0.11496960345387686 -0.1243065981323594
000060 de e0 47 16 d8 82 bf 3f 24 1d ee ad cc 3d 96 3f
       0.12309027236904366 0.021720121494152825
000070 01 bf 7d 9e 9d 3f c0 bf 8f e3 cc fe d7 f1 66 bf
       -0.1269413970835487 -0.0028008669527505646
000080 24 e0 79 03 a7 a4 b0 bf dd 70 52 4e 44 01 98 3f
       -0.06501239619126459 0.023442332535169242
000090 81 53 5c 33 d5 72 bd 3f 5a 13 46 c4 b6 eb b8 bf
       0.11503345970079516 -0.09734670917357616
0000a0 fd c7 8f ee a0 6a c2 3f f2 24 81 1d b1 d6 c2 bf
       0.143879047856501 -0.14717687550208997
0000b0 dc fb 52 01 f4 62 f4 3f e4 67 71 1b 01 39 d1 bf
       1.274158482716067 -0.2691042678831066
0000c0 93 29 a4 9d ab 7a b6 3f 2f 62 60 8d a4 db a4 bf
       0.08780930136359748 -0.040738241441605864
0000d0 d0 a2 da 6b 9a d4 e1 bf 5f dc 80 4c 93 e0 e8 bf
       -0.5572025400661804 -0.7774139875608731
0000e0 9c e8 b7 9c b2 56 de bf d6 58 7c bd 0c b7 df bf
       -0.4740416078999574 -0.49554747108903763
0000f0 d6 19 0f 17 34 fa 9a bf da e1 57 78 89 f9 c6 3f
       -0.026345075518998083 0.17949026466500478
000100 36 dc ea e6 87 7a c7 3f 07 51 b3 b3 ef 24 d2 bf
       0.18342684531464365 -0.2835044150244958
000110 1a f6 33 ba 78 b9 f5 bf c2 7f 71 19 60 d3 e8 3f
       -1.3577811502031012 0.7758026596966305
000120 db 9e d4 50 4f ab ae bf 09 e6 ba 40 13 fb eb bf
       -0.059900740258226746 -0.8743988289126615
000130 c4 4a d3 9b 4b 51 a8 3f 4b b0 19 11 27 83 b9 bf
       0.04749523427166971 -0.09965747992981837
000140 65 4b 10 b4 68 c8 96 3f b6 f9 c5 6c 2d 64 e2 bf
       0.022248874654973067 -0.5747286915282561
000150 c8 e1 9f 1c 50 b8 c1 bf e6 fe c1 e8 97 ef b2 bf
       -0.1384372844475037 -0.07396840508044597
000160 ff 0a 2c e8 9b 46 c3 bf 07 0f 1e a8 55 91 c5 bf
       -0.1505923160221627 -0.16849775990350954
000170 8b 70 3b e0 ce 0f da bf f7 1c 37 93 41 57 b7 3f
       -0.4072148504035417 0.09117517322657763
000180 69 a0 2b 96 e0 8c 88 3f 1b cd a2 e6 5b 1e d2 bf
       0.0119874521091818 -0.2831029655746577
000190 70 f4 f3 7e a2 14 c5 bf 63 d0 e8 88 96 33 af 3f
       -0.16469222258448069 0.06094046040780723
0001a0 5d 31 7b d8 64 7c b5 bf 2a 30 3c a1 ea 7d c5 bf
       -0.08392935071168979 -0.16790516732032873
0001b0 4f 6b c2 69 77 44 e5 bf 14 b4 fe 48 f1 50 d4 3f
       -0.6646077218641525 0.31744033935939453
0001c0 21 c2 38 69 aa ee ab bf 9c 40 c9 fe 33 eb b4 bf
       -0.054555249542662894 -0.0817139145885925
0001d0 f2 31 8d da 02 44 5f 3f 0c fd ca 3d fc b5 95 bf
       0.0019083049648599385 -0.021202031394520524
0001e0 25 6d 63 97 d0 45 c8 3f ab 53 71 73 1c 92 e6 3f
       0.18963057891856142 0.705335832094183
0001f0 da 2b f8 34 3d 94 d1 3f eb f2 44 b9 bd 0a af bf
       0.274672795989941 -0.06062882315243264
000200 e6 32 1f c1 88 54 a6 bf a1 79 cf 85 20 fb e3 bf
       -0.04361369473881442 -0.6244051564679475
000210 b0 10 26 61 cd 6c e8 bf 58 dc c9 40 9e 19 c4 bf
       -0.7632815263209718 -0.15703180469037892
000220 36 0b 72 8d a5 a8 b1 bf 40 fa d3 a6 15 8c b6 bf
       -0.06897959426173092 -0.08807502100896958
000230 0c 17 ac 48 69 75 a8 bf 86 f3 37 17 8b e0 a6 bf
       -0.04777077686416761 -0.04468187960080798
000240 8e 67 ba 11 a9 7f cc bf d8 b0 f8 be 70 a1 c8 bf
       -0.2226458870471188 -0.1924267704465652
000250 4f c7 69 e7 d8 8c a5 bf 87 f6 f1 7b 33 e3 a8 3f
       -0.0420902044760526 0.04860840690615214
000260 41 95 04 d4 72 79 c1 bf 7b 2e 40 9a 74 40 bd bf
       -0.13651881554066317 -0.11426476255308586
000270 39 75 b4 6b 20 61 e2 bf 47 f5 ac b2 70 36 ac bf
       -0.5743562797175975 -0.05510284596537445
000280 62 d6 8f f2 a2 1d a1 bf 9a 99 88 35 af dd b4 3f
       -0.03342923365555063 0.08150763565990929
000290 e5 f9 87 b0 8e 49 bc bf 2b 70 b0 c7 0d 63 e2 3f
       -0.11049739656298348 0.5745915317706979
0002a0 d4 a8 28 11 05 9a bf bf e7 ab eb 63 70 ef a1 3f
       -0.1234439055339494 0.03502989978536402
0002b0 8e a1 4b 76 aa 29 f1 bf a5 cc 6f 19 8d 60 e3 bf
       -1.0726723309436212 -0.605536031418883
0002c0 d0 ad 61 f5 60 25 c5 bf c6 49 d2 d9 a3 2b dd 3f
       -0.16520320874711425 0.4557885768091662
0002d0 4d 91 0b a5 57 e9 90 3f 62 1e 1c a6 6a c7 be bf
       0.016515130470808704 -0.12023035579124433
0002e0 c5 46 f9 30 e4 38 c7 bf 58 eb 8e 39 6b 0e f7 bf
       -0.18142368689819058 -1.4410202263231522
0002f0 2e 9c c5 5c 9e de d9 3f bc 34 7c 37 c2 f1 8e 3f
       0.4042125612235762 0.015109555547974877
000300 95 08 ee bb 56 85 c4 bf 1d fe a3 ad cb df e6 bf
       -0.16031917740116755 -0.7148188010614295
000310 c2 be 91 af 75 90 a4 bf a0 f3 c7 3f 29 42 c5 bf
       -0.0401646401231779 -0.16608157743749263
000320 b8 96 29 f0 92 b4 96 bf 20 3d 4e 25 9a 7f b6 bf
       -0.022173210056641607 -0.08788455401212447
000330 e4 f7 d7 b7 d4 20 b8 3f 07 4e 56 91 be a4 f7 bf
       0.09425096023912222 -1.4777208020431105
000340 99 af 11 d2 b0 4b eb 3f 02 13 62 0b ca 97 c0 bf
       0.8529895880615072 -0.12963223987403444
000350 ee 6a 20 bd 1f 12 c0 3f 66 34 b6 f8 60 4c ed bf
       0.12555309996317682 -0.915573583378898
000360 5a e4 d0 11 e1 52 05 40 c3 36 cd d7 bd 6b b3 bf
       2.6654683486818103 -0.0758627559527794
000370 c5 c5 90 a9 c9 09 f3 bf 12 cf 59 a7 fb c8 7d bf
       -1.1898895858433758 -0.00727175047142105
000380 3a c8 b0 5b b4 8c b5 bf f0 a3 10 e3 ef 9d d0 3f
       -0.08417823065318056 0.25963971304241706
000390 42 11 ec 6f d5 65 c4 3f 10 ba cd fd c6 e9 ae 3f
       0.15935771908710633 0.060377329332244156
0003a0 4f b1 0b 63 43 22 d3 3f c2 84 ed 4d 94 b0 a3 bf
       0.29896626160077217 -0.03845656825320411
0003b0 d5 30 af 2f 6e e1 ef 3f 7f 0e 31 a6 98 bc 6a 3f
       0.9962683612189048 0.0032637578420081077
0003c0 47 b6 fe 28 83 06 bc bf 6c a7 ab d5 67 a1 c0 bf
       -0.10947437048772556 -0.12992570813303972
0003d0 56 38 c3 4b 46 58 c6 3f 98 e4 a2 52 b7 22 c7 3f
       0.17456892680496833 0.1807469514367639
0003e0 79 59 bc 9a 75 09 ee bf 4a 7d c5 f1 c2 ed 89 bf
       -0.9386547109777857 -0.012660525325087452

weight f8 [126, 126]
000000 2c 9f 77 8d 56 d3 bb bf 62 e4 6f b1 3e 52 9d bf
       -0.1086935134295543 -0.028634051875972573
000010 34 47 04 4a 91 96 c1 bf 58 83 ec 61 48 4c ba bf
       -0.137407456532452 -0.10272648230285364
000020 3a e0 8b 4b e8 af c0 bf 8e ed 39 db 88 0a 98 bf
       -0.13036826790608008 -0.023477686291227644
000030 d3 a9 62 77 e5 84 9e bf b4 f6 d0 4e be 48 96 bf
       -0.029803834354120994 -0.021761869011462223
000040 86 15 a3 00 01 5d b7 bf 9b 6f fb 05 d8 4c 8e bf
       -0.09126287713578138 -0.014795005495606797
000050 de ab 6b 58 7d e1 bd bf 88 64 78 01 bf 4b 99 3f
       -0.1167219487066826 0.02470301100229169
000060 88 c8 51 30 02 b0 81 3f bd e1 06 d9 4c 3c a9 bf
       0.008636490916817743 -0.04928817891363078
000070 3a 68 a5 77 a5 c6 a1 bf 4f c7 4c bd 54 ce a6 bf
       -0.034718676429023224 -0.044542930705928734
000080 38 23 85 28 be b8 a6 bf b3 63 30 f0 3f 10 c5 bf
       -0.044378225752160494 -0.16455840328197055
000090 9a c0 71 da 25 e8 c2 bf 9e 76 de 11 3c 14 a9 bf
       -0.14770959058978833 -0.04898250311019335
0000a0 99 3a 8f 21 fd a5 bc bf ac 72 ad 42 25 23 b5 bf
       -0.11190778798411784 -0.08256752851361665
0000b0 f2 35 b6 d4 0e a1 98 3f 70 92 ff 88 33 0d 7b bf
       0.024051887257476375 -0.006604386624506561
0000c0 58 ef 86 c4 27 c0 77 bf 09 91 d9 60 4f 1b c0 bf
       -0.005798487989917188 -0.12583343724248433
0000d0 10 74 da d9 b6 ea b0 bf 86 bd 8f b4 a0 16 c2 bf
       -0.06608145540890598 -0.14131554428557197
0000e0 20 84 5f 68 70 04 99 bf ca 92 91 0e 9b a2 ad bf
       -0.024430996294430796 -0.057881207970046214
0000f0 ca 25 9b e9 24 ec b1 bf 65 29 a5 bc 63 fb 8d bf
       -0.07000952437660782 -0.01463964385461187
000100 5c 89 a2 b9 9d c6 a9 bf db 74 f8 eb 70 7b b4 bf
       -0.050343445692549976 -0.08000856171607344
000110 2f 10 77 ea 65 24 55 bf af d0 9d 79 5c 79 b4 bf
       -0.0012904162666567234 -0.07997682541992178
000120 95 b9 18 3a 5a c3 b3 bf 91 3c 4e ab 68 dc a1 bf
       -0.07719959181188181 -0.034884711181001234
000130 5e 56 36 70 c9 df 94 3f f9 b0 77 90 07 1d a8 bf
       0.02038492915524725 -0.04709647787589861
000140 1c dc f4 91 4f 0f ac bf 5c 23 56 24 7a 14 b2 bf
       -0.05480431229300839 -0.07062495600815794
000150 45 52 f2 cb 1b cc bd bf 80 2c 81 05 c2 12 b3 bf
       -0.1163956997791696 -0.07450497278584756
000160 5b ad 3c 15 3b 02 c1 bf 8b 8a 90 d2 25 0e a5 bf
       -0.13288057839359166 -0.04112356372231315
000170 69 e6 81 5d 56 6c 82 3f e7 46 dc 46 5e ad 9c bf
       0.008995699623699243 -0.028005097460726793
000180 a5 c1 7f 5c de 50 90 bf 13 f1 9f 9e 13 bc 97 bf
       -0.015933489223188286 -0.02317839294117714
000190 65 af 30 22 e9 e2 b8 bf aa f4 6f 4e e1 7a c3 bf
       -0.09721238217087842 -0.1521875031466256
0001a0 2f 5a 19 db 9a af 97 bf 16 e9 f3 49 f7 91 b7 bf
       -0.02313081705355041 -0.09207101397979431
0001b0 47 01 7f 54 19 16 89 3f 68 42 2e ba 07 82 a3 bf
       0.012249181643597352 -0.03810142657960541
0001c0 31 65 0d 3f 01 47 c0 bf a8 e2 ba e0 69 ed 86 3f
       -0.12716689661719152 0.01119501797744367
0001d0 30 b8 db bd 45 52 9d 3f f5 51 42 d0 f8 13 a5 bf
       0.028634156907109964 -0.04116799871659175
0001e0 14 e0 4b 6e a9 91 a4 bf a2 eb 10 4a f1 59 b2 bf
       -0.040173811639704265 -0.07168491419081005
0001f0 a8 2f 82 3c 84 9f 91 3f 35 21 e5 d3 91 26 b7 bf
       0.017210069840572523 -0.0904322759935255
000200 36 83 57 23 9b f9 23 3f 84 1c 61 f0 d8 69 a6 bf
       0.0001523973348147801 -0.04377630171125538
000210 14 cf 51 76 37 0b 86 3f 5e 74 a6 bb 58 80 a1 bf
       0.010763581560446357 -0.03418233194973007
000220 86 07 41 d4 a8 bc be bf c7 01 d8 56 4d cd c1 bf
       -0.1200662153433126 -0.13907782307070546
000230 97 77 de c1 5d 26 91 3f dd 01 c2 c0 56 88 b2 bf
       0.016747918088746507 -0.07239286619188286
000240 12 aa 6b 71 ed 78 72 3f 08 b2 45 68 74 e5 c0 bf
       0.004509856712255915 -0.13200240222376203
000250 a1 6b 3b ef ee 67 b1 bf 76 fb c3 9f a8 d2 ad bf
       -0.06799214687946044 -0.05824782324088222
000260 1e 7d e0 86 1d ff ad bf 00 91 09 0d f0 0c c5 bf
       -0.05858700057455678 -0.16445732723799011
000270 93 24 35 d8 f4 c6 bc bf b1 f2 1c 1c e4 ef 9a bf
       -0.11241083410745238 -0.026305736747633094
000280 9e 61 59 fe 0f 29 b3 bf ae ac b4 72 d2 19 87 bf
       -0.07484531364150945 -0.011279720426122655
000290 54 fc 83 89 27 9f c3 bf bb 8e 90 b5 4c cb bc bf
       -0.15329450811984435 -0.11247710640651125
0002a0 e4 1b 5c a7 37 d2 75 bf c8 1f a9 76 60 a4 ba bf
       -0.0053274320578173585 -0.1040706910799819
0002b0 a3 64 67 91 7d ad b4 bf 3c 8a fa 28 c0 f5 90 3f
       -0.08077225494288824 0.016562464238299976
0002c0 5d 49 fe ba 94 85 b1 bf c1 d9 a0 1b 22 b1 a6 bf
       -0.06844453397051127 -0.044320169327352506
0002d0 51 b0 b3 e2 e1 c6 b8 bf 01 f7 1e b6 61 ca bb bf
       -0.09678470406260088 -0.10855684944450773
0002e0 4a 76 c3 57 d6 52 bc bf 54 fa 24 a8 60 64 b2 bf
       -0.11063899653114465 -0.07184414010132772
0002f0 d8 1e 71 c8 01 5b 99 bf f8 6b 1c 96 44 39 b2 bf
       -0.02476122651958587 -0.07118633904285321
000300 60 4d ba e7 d7 24 93 bf 14 a9 fb 25 de 38 bd bf
       -0.018695233839549075 -0.11414898326225781
000310 12 a4 2a 2a d7 2a 9a bf 42 f0 11 de eb 0d 90 3f
       -0.025554048489230104 0.015678105763513146
000320 34 af 3f 5e 2a 84 a2 bf 70 5e c2 73 3e d4 b7 bf
       -0.03616459274766584 -0.09308233572152758
000330 3e 6d 28 73 7e fd 88 3f ce e1 68 8b 82 f4 94 3f
       0.012202251328793264 0.020463981398479984
000340 22 82 d8 10 a6 f2 82 bf f2 ea 77 45 3c fe a9 bf
       -0.00925187815579515 -0.05076778743747025
000350 fa 56 94 14 d0 d0 b5 bf 83 8a fe 9f cc 32 af bf
       -0.08521748068264037 -0.060934443026117634
000360 94 7c ef 57 41 0f f0 bf 94 bd 1e f7 33 e2 c4 bf
       -1.0037244257908116 -0.16315316740427177
000370 78 fa 2c 44 f6 5f b1 bf c2 57 48 74 0d 62 83 bf
       -0.06787051357694363 -0.009464364157832143
000380 7b 80 b8 42 9e 9c b2 bf 60 0a 3f 9a 8f 87 c4 bf
       -0.07270230416225047 -0.16038699180178906
000390 86 48 19 6f 74 3f bd bf a6 f8 b8 a5 4d f8 be bf
       -0.11424949371692791 -0.12097630783043431
0003a0 7e de 96 05 ac 00 b1 bf 1e c9 59 d6 17 ea 73 3f
       -0.06641650330026924 0.004861920465929507
0003b0 c9 a0 d3 9e 8a 77 8a 3f 25 7f 02 00 44 ad 9c bf
       0.0129233197898916 -0.02800470590648198
0003c0 38 12 7b 78 39 7b a4 bf 06 1e c3 5a 1e 26 94 3f
       -0.040002628285524755 0.01967666081398358
0003d0 16 42 40 c0 4e 9e a4 bf 4e a0 ec 61 b1 5b c1 bf
       -0.040270291298046754 -0.1356107452531909
0003e0 b1 99 32 3f ce 3e c2 bf 85 89 dd a0 f7 82 b8 bf
       -0.14254167638610007 -0.0957484023797744
0003f0 f1 df c6 dd 9f 23 7b bf fe 05 00 bb 4e a7 79 3f
       -0.006625771024509662 0.006263072529692602
000400 b4 77 12 bb fd d2 97 3f a8 99 17 ef e9 b0 a1 3f
       0.023265804808594928 0.03455287021261039
000410 e2 33 00 15 72 d2 c2 bf d9 47 36 ba c4 b8 b5 bf
       -0.14704729104451447 -0.08485059305374366
000420 af d1 38 0b 49 82 9f bf 19 5e 7e af ab 22 ac bf
       -0.030770436582501833 -0.05495201604133743
000430 b0 40 9a bf 30 a8 b5 bf 8a be eb 7c d7 fa ac 3f
       -0.08459763219639416 0.056601270674829854
000440 c9 2f b0 c6 ed 73 4a 3f 3c 33 a0 be 5a e8 9e bf
       0.0008072768226852152 -0.030183236966013313
000450 1a d8 0a a0 ff de bf 3f 7b b7 c5 44 e4 65 b5 3f
       0.1244964376190584 0.08358599356662737
000460 90 d4 4d 4e 2c d4 c0 bf c6 fa e8 e5 17 bf 93 3f
       -0.13147500823439318 0.019283650786969607
000470 6d e8 6d 51 49 44 9d 3f e3 3f a1 6e 5d a7 c0 bf
       0.02858080443864035 -0.13010757352685606
000480 87 fd 2f 0e 6a db a5 bf 80 04 3a 06 c0 70 a3 bf
       -0.04268962310015483 -0.03796958995827371
000490 cf 46 bd b3 11 16 a4 3f 36 10 ba bf 05 c3 b7 bf
       0.03923087424358373 -0.09281955653028792
0004a0 f5 0e c7 7a 5a 63 db bf 0a 0c 70 e2 1a ee 9c 3f
       -0.4279390524863936 0.0282520485598177
0004b0 43 0a fb a9 c0 8c 99 bf b5 80 ef 1d 5e 5f a5 bf
       -0.02495099103431132 -0.04174322238373077
0004c0 11 33 fe 48 1f d7 92 3f 7c 8f df 8e cb eb bd bf
       0.01839875109685624 -0.11687919843785538
0004d0 35 98 6a 8b 4f a9 3d bf 5f 4e 92 40 c6 9e 9e 3f
       -0.00045259658819885316 0.029902551356441594
0004e0 ad e9 20 cf 8d f6 bb bf 10 b1 b0 5f 6f c1 6b bf
       -0.10923086459016558 -0.00338813545888262
0004f0 d0 1a 2f 7b 0b 12 a3 3f 5c a4 16 46 a1 f4 95 3f
       0.0372470462676141 0.021441001799449175
000500 95 29 84 c9 28 6d af 3f 50 af 94 50 73 fe d8 bf
       0.06137969455638196 -0.39053042287081485
000510 72 e6 b1 3b 02 84 b4 3f 28 2c 1b 47 bb 9e 9c bf
       0.0801392932643468 -0.027949262824034232
000520 90 66 bd 4a ca 76 a2 3f 74 17 a4 94 c3 04 a5 bf
       0.03606254732467307 -0.04105197133507846
000530 2c 11 72 8d 37 68 a6 bf b5 9a 91 8a 5a 2e a2 bf
       -0.0437638626254134 -0.035509900488979985
000540 8d fe 79 82 dc 35 b4 bf 91 80 45 f5 42 1c 83 bf
       -0.07894685922109997 -0.009331248388378096
000550 d8 19 0c b3 72 af bb bf ad 10 84 b4 1a 86 b2 bf
       -0.10814587470313286 -0.07235876948476756
000560 26 36 49 94 45 a9 a5 bf 19 b8 65 c7 a4 14 79 bf
       -0.042307066298786375 -0.006123202960550266
000570 ab ad e7 8f fd 71 c1 bf 15 0a e5 75 02 94 2f bf
       -0.13629121328936597 -0.0002409222606250683
000580 1e 8e 87 fc 61 78 a5 3f 87 3c 9e 44 3a 25 cd 3f
       0.04193407256732605 0.22769859648221688
000590 80 89 58 21 03 d0 a8 bf 92 14 fb 69 bb 16 95 3f
       -0.0484620073514348 0.020594528525880458
0005a0 85 d2 ae af e0 db b1 bf d3 03 c2 31 ee ba c5 3f
       -0.06976131714947982 0.16976716451247728
0005b0 90 6d 9d a2 c9 d1 bd 3f 2c c5 68 bf ad 1f a5 bf
       0.11648235530940654 -0.04125731431521226
0005c0 f1 7c 0d 6e f2 f6 5c 3f ed 54 2e 6b 76 ef 95 3f
       0.0017678611258913869 0.021421289722259585
0005d0 97 66 24 31 67 68 b3 3f 6d ef b2 8e 8e 38 e6 bf
       0.07581181478271969 -0.6944039141740014
0005e0 b0 ad 86 3d c1 6b d0 bf 9a 47 1d 29 ed 9a 94 bf
       -0.25657683380515106 -0.02012224734728072
0005f0 00 e5 7f 01 a4 a8 84 3f 9f f4 3c 82 b8 ed b7 bf
       0.01008728150917415 -0.0934710805858736
000600 b3 4f f4 c5 31 3f ae bf 6d 40 fe 07 62 49 92 bf
       -0.059075885214184075 -0.017858058679451384
000610 e0 1d 61 cb 2f bd a0 bf 84 7e 87 14 2d de b5 bf
       -0.032693379952032364 -0.08542138816073402
000620 e4 de 77 94 9b c6 b9 bf 81 c8 fc 58 4a 0d b4 bf
       -0.10068676352227218 -0.07832779572052752
000630 e6 9a 21 e8 76 4d a7 bf 80 44 6c 09 92 22 c1 bf
       -0.04551288207658448 -0.13386750660041358
000640 80 d1 6f 45 e4 c6 ae bf f4 52 9a d2 04 d1 90 3f
       -0.0601111731301982 0.016422343591858415
000650 b2 3e ca 05 82 ef 50 3f be 66 3d 7d 6e 9d be bf
       0.0010336656334039404 -0.11958971555341244
000660 4b 60 76 be e9 d2 ad bf 52 bd 18 96 cf 78 b3 bf
       -0.05824976396542122 -0.07606217779606553
000670 fb c8 97 15 97 17 a6 3f 60 b3 1a e3 68 ff a9 bf
       0.04314872873864491 -0.05077674648541719
000680 d6 33 4f bf f3 1f c0 bf 04 53 d9 cc b7 16 d1 3f
       -0.1259751018646102 0.26701159481790193
000690 c8 d9 05 70 00 9a a7 3f 41 c4 47 d6 13 bb 8e bf
       0.04609681479898914 -0.015005259491745917
0006a0 98 cf e4 c1 0f e4 b6 bf 6b d1 59 5f 0c 63 a0 bf
       -0.08941744312033817 -0.03200567878676249
0006b0 db c6 21 57 77 13 be bf 16 a5 38 32 b0 fd c4 3f
       -0.11748453023190157 0.16399195148668672
0006c0 80 ae f5 7e 1d 55 bf bf f7 2e 12 8a 3f 50 96 3f
       -0.12239250516511824 0.021790497591196858
0006d0 44 f3 af 95 f4 0c a2 3f 22 86 a6 4d 46 13 b1 3f
       0.03525509192693346 0.066700357396734
0006e0 f5 ef 58 66 6e fe c0 3f 86 63 d2 7d 79 43 98 3f
       0.13276462552482796 0.02369489508109581
0006f0 c7 0b 05 fc df 1f 9d bf 91 ea 20 35 f7 4f a9 3f
       -0.028441905743658482 0.049438214526579156
000700 1e 01 b9 77 5a e1 7d 3f 0e 0d 82 32 7d 50 7e 3f
       0.0072949918645124606 0.007400979091588112
000710 cc 9a a3 70 ce 55 a6 bf 33 cf 53 c5 37 6e 6d 3f
       -0.04362340092648295 0.003592595031131207
000720 af 8e 4c 01 8c e7 8b 3f ee 40 82 5c 4c 31 63 3f
       0.013625234403270651 0.002342843192373426
000730 31 02 d6 95 a2 7d be bf 8c 8b fd 82 a6 92 a8 bf
       -0.11910453947167167 -0.04799385403636966
000740 4c a4 4e a4 73 06 a3 bf b3 05 3c 01 b0 1e 8d bf
       -0.03715859776213701 -0.014218688047097005
000750 44 33 2f 7f fd 62 0a c0 ea 6a 27 75 4e 60 94 3f
       -3.2983350693015456 0.01989863004733198
000760 8f 7c ad bc 1d c3 aa 3f 33 f9 a0 65 b3 f6 ca 3f
       0.05226986816591605 0.21065371000617858
000770 8e dd a5 97 57 5c b8 bf 5b a2 dd 0b a5 64 ca 3f
       -0.0951590295061264 0.2061964328707003
000780 cc 2b 27 83 aa af 7a bf dd 3e e9 7e 75 cc 97 bf
       -0.006515184463249345 -0.023240886565246355
000790 42 61 4e 59 1a c8 d9 3f a1 f6 7c a8 08 9e b9 bf
       0.40283831330591024 -0.10006765473823488
0007a0 8d 34 64 f9 56 86 d0 bf 96 75 83 df 05 0e c2 bf
       -0.2581994471991685 -0.14105294622178793
0007b0 26 31 30 5f 0f 0a 86 3f 81 8d be cc 6a 36 95 bf
       0.010761375515379767 -0.020715397593119803
0007c0 ad 8b e5 42 cc 7e c4 3f 8d 8d ad ba 53 2a c0 bf
       0.16011956469000435 -0.1262917195809731
0007d0 62 3e 53 fe 95 a4 b1 bf 85 d9 6e 32 f9 98 b2 bf
       -0.06891763171301471 -0.07264668923639846
0007e0 94 e8 5f 72 06 11 c2 3f b3 35 d9 7c 24 82 b2 3f
       0.14114456734370562 0.07229831741388786
0007f0 6f 6c 99 61 be 30 a4 3f 23 d6 5c f1 aa 43 b3 3f
       0.03943438474080884 0.07525127785341872

bias f8 [126]
000000 37 a8 cc 38 ff 3e 9e bf f0 0b aa 21 3d 3d 8f 3f
       -0.029537189332735827 0.015253522481776444
000010 a6 e3 8d f7 17 3c b9 3f 2c 8b 31 b2 fb 56 bf 3f
       0.09857320588879634 0.12242100811412787
000020 aa 02 a0 86 81 2f a8 3f 4b 17 01 c5 e6 6e b6 bf
       0.047237441714974196 -0.08762972173380239
000030 dd 4f 47 67 ea c4 bf 3f 57 24 fb 70 1f 4c be 3f
       0.12409844418954159 0.1183490420181824
000040 d6 08 a8 67 82 fa af 3f 89 33 91 d1 35 e7 b0 3f
       0.0624581100019143 0.06602798811327494
000050 45 9a 28 a9 07 f3 8a 3f 60 f7 a6 a5 70 8e b8 bf
       0.013158855295000946 -0.09592346233600102
000060 87 74 fc 37 e8 ab 89 3f 46 f4 6a ef 62 6a a2 bf
       0.01253491803032093 -0.03596791431980555
000070 07 68 80 20 58 43 ab 3f 63 9f d5 bf af ce bb 3f
       0.053248170821646616 0.10862253602465226
000080 3c 22 29 7d fe e8 9c 3f 35 8d 22 3d d4 ed c2 bf
       0.02823255194587858 -0.14788296685319727
000090 c8 9d 07 7b 1f 77 a1 3f a6 f7 e0 55 92 9e a6 3f
       0.03411196114376086 0.04417855547261178
0000a0 49 1c 7b 11 dc a2 99 bf 50 2a 28 e4 64 95 aa bf
       -0.025035322730016216 -0.05192103657835345
0000b0 2c 4b 58 9c 80 3d b2 bf b3 c0 66 97 f8 41 af bf
       -0.07125095192922676 -0.06105019424592353
0000c0 32 7a 73 ac a0 37 89 3f 55 8d 08 a3 42 1b 9f bf
       0.012313132536687286 -0.030377427292603915
0000d0 25 76 06 b5 54 0b aa 3f c3 5c 1d 17 3f 56 aa bf
       0.05086769780903592 -0.05143925816690278
0000e0 db 4c cd 87 e1 34 b8 bf 3b c6 68 8b ad c4 b2 bf
       -0.09455689969518082 -0.07331356671854732
0000f0 69 24 75 9b ec 61 be 3f fb ad 99 ae e8 c2 78 bf
       0.1186817054305195 -0.00604525462550098
000100 9f f8 c7 72 51 f5 c0 3f 01 6a 92 ee 2a 7c 9d 3f
       0.13248651604221082 0.028793974696421646
000110 41 93 5a 47 a4 be ad bf f5 3e 05 46 a0 6c 91 bf
       -0.05809510584848577 -0.017015938066207565
000120 f1 77 f5 72 3e 42 be bf 25 34 2b 90 c9 8b ab 3f
       -0.11819830233204677 0.05380086789009678
000130 e4 ef 43 d1 f3 38 85 bf fd d8 cf fb bb 8f bd 3f
       -0.010362534354946669 0.11547446153403836
000140 ea 43 6f d2 f7 e1 90 3f ff 90 e0 cd 1f d0 64 bf
       0.016486999720488095 -0.0025406476188597478
000150 c8 85 43 eb 36 de b1 3f 11 32 42 df 7e 82 c0 3f
       0.06979697459930556 0.1289824094896095
000160 55 66 3c 4b 90 19 bf bf 88 74 23 e7 14 b6 a6 3f
       -0.12148382031264167 0.044357922759197754
000170 3d 14 41 a9 91 08 be bf f4 e3 30 09 df e6 c1 bf
       -0.11731825239356027 -0.1398581309202026
000180 aa a4 60 51 72 74 b1 bf bb 43 e4 c3 a5 de ae bf
       -0.06818308340793303 -0.060292415773921935
000190 0f 0b 69 6f 91 9e 8b bf ff a6 d2 49 89 e0 a1 bf
       -0.013486038410638139 -0.034916200887279196
0001a0 86 35 fa f2 8c 86 84 bf 77 9f 0f bd 25 5a c0 3f
       -0.010022259869652893 0.1277510808133646
0001b0 ae 91 d6 d7 cc 3e c2 bf f8 ae 58 13 e9 3d a6 bf
       -0.14254150904629398 -0.04344108925974227
0001c0 dc 9f 56 fb a3 6d 83 3f 8c 84 a2 22 da 6b 77 3f
       0.009486466510523366 0.005718090144143716
0001d0 d0 d1 7b f8 83 f2 b6 bf e8 1e 25 77 fd 79 bf bf
       -0.08963799301620345 -0.12295517119229837
0001e0 bc db 8e 52 eb a7 b0 bf 4c 71 3f 5f 25 d1 ba 3f
       -0.0650622440870014 0.10475381446253101
0001f0 1f a4 63 f7 c9 cd 9e 3f 9c e8 a4 b1 3c 40 a6 3f
       0.030081897472801097 0.04345884006984699
000200 23 2a 8c d0 98 8b c2 3f da 8a 83 59 5d b2 97 3f
       0.1448851602838924 0.023141344631663376
000210 69 68 fa f3 f9 77 6a bf 77 57 da 12 74 96 a6 3f
       -0.00323103732064305 0.04411661844385056
000220 6e f2 31 f1 9a 08 bb 3f b9 89 15 3c d5 23 a2 3f
       0.10560005558540705 0.03542963369797598
000230 3e c1 37 95 62 95 a8 bf 07 fb ce 3d b3 dc c1 3f
       -0.04801471778398757 0.1395477344321636
000240 d6 2b 52 f5 a6 18 82 bf e5 44 92 c5 55 f5 9d 3f
       -0.008836082803346839 0.02925619142894655
000250 e0 24 2d 6a 5a 80 a7 bf a0 bf ea f8 fa 8e c0 3f
       -0.04590113206956814 0.12936341432714205
000260 a7 2c ab 62 75 a6 b1 bf 50 45 7b af 00 f8 71 3f
       -0.06894620570089903 0.004386904409061046
000270 76 8f 92 1f 6a cf a9 bf 2d e5 c6 32 be bd 15 3f
       -0.05041057238966477 8.293603304467398e-05
000280 81 3e d0 5c da 38 c3 bf 02 52 49 da 52 87 a9 3f
       -0.15017251521975442 0.04986056246403693
000290 cb a4 82 76 82 27 fb 3e 13 77 e1 6d c4 ae b4 bf
       2.589639135012061e-05 -0.08079173739085048
0002a0 3c 79 1f d4 67 d2 b1 bf e1 e6 f3 63 83 04 c1 3f
       -0.06961678437025837 0.13295023327355351
0002b0 6d c9 95 0b b2 2f a1 3f 73 d3 55 f1 26 ba a7 3f
       0.03356701270503746 0.04634210296618493
0002c0 c3 e2 d1 42 07 2f b5 3f a6 99 63 03 f1 de b6 bf
       0.08274884587616342 -0.08933931668034364
0002d0 f3 ed ab 87 82 d2 94 3f 60 50 e2 15 f9 8d c0 3f
       0.020334281473862913 0.12933267181927288
0002e0 f4 0e 83 16 75 c1 9e bf 42 4d 30 9c fe 5b a0 bf
       -0.030034856318493078 -0.03195186287498554
0002f0 95 5a 26 e7 41 ee 64 3f 8a f9 84 64 74 44 c1 bf
       0.0025550162474233342 -0.1349015703980963
000300 35 57 b2 6f f7 91 a1 bf 98 9d e1 54 0a da 8c bf
       -0.03431676138386167 -0.014087753978130377
000310 c1 c7 07 52 5d 12 bb 3f 35 7f f6 34 07 f3 9d 3f
       0.10574897053427802 0.029247391326520506
000320 37 6d 9d a4 90 28 72 bf 0b fc 41 f8 16 97 aa 3f
       -0.004433217059921993 0.05193397312631739
000330 4a 41 ac 19 5e df a9 bf e7 6a 90 c6 8a e6 b0 3f
       -0.05053228438748876 0.06601779315716848
000340 66 a9 f6 db 67 31 9f bf b7 84 82 c2 49 8f ba bf
       -0.03046190528918071 -0.10374890326285678
000350 c1 a4 78 1a c2 16 6c 3f 92 d6 c4 91 0d 65 a5 3f
       0.003428820713243214 0.04178659824758059
000360 b2 da 38 aa 2e 74 ae 3f 1b bd 2f 3f 5f f9 b7 bf
       0.05948015048891388 -0.0936488656295648
000370 b4 be 0a 22 44 ea be bf 68 ee 8b 1f f2 99 8a 3f
       -0.12076211768248407 0.012988940799451856
000380 72 47 d8 83 01 c3 a2 3f 4e fe 12 0d e4 1d ba bf
       0.03664402708467564 -0.10201859778589403
000390 f3 3c b4 36 39 e1 ad bf c0 10 64 04 58 d4 be 3f
       -0.05835894387029752 0.12042760951232179
0003a0 dc cc fd 66 22 03 a4 bf ed 91 d7 68 53 ef b6 bf
       -0.03908641345233274 -0.08958932218190059
0003b0 a9 ab c9 b4 65 c3 8b bf a3 8a 1f e3 72 70 c3 3f
       -0.013556284503655496 0.15186916437149475
0003c0 c0 3a f7 5d b8 50 81 bf 53 0c 27 5d 83 2e 74 bf
       -0.008454742782217806 -0.004927170887131532
0003d0 a8 76 1d c8 19 05 bb 3f f8 64 4c 34 61 7d be bf
       0.10554658065435751 -0.1191006424600295
0003e0 dd 8c fa 97 74 cc a5 bf 59 91 a5 b6 b4 7c b6 bf
       -0.04257549624642263 -0.08784036120556972

weight f8 [1, 126]
000000 e0 cd bf 56 90 c0 88 3f f7 47 f0 7c ec f9 ad 3f
       0.01208603634584099 0.05854739213113185
000010 76 1f a0 22 b6 e4 bf 3f ee 95 32 de 4b 32 bc 3f
       0.12458361001347193 0.11014246153589344
000020 ef 71 5d a7 52 40 c2 3f 85 92 a5 8c fd 8f 96 bf
       0.1425879780971537 -0.02203365488948574
000030 36 83 8f 16 36 43 c1 3f f8 e5 e6 1c 3c 2a b4 3f
       0.13486362554160686 0.07876945214857034
000040 57 75 50 f0 0d 2d b4 3f 3c b0 f6 b3 b3 d2 c0 3f
       0.07881247632072551 0.13143011367117363
000050 72 57 89 54 a8 a5 25 3f df 6a fb b6 c6 3b 94 3f
       0.0001651542645670318 0.019759278219548256
000060 a6 f6 a5 6e 40 71 85 3f de 8a b2 69 3a 3d 70 bf
       0.010469916702955228 -0.003964641738238154
000070 70 f1 e0 07 a4 4b bd 3f 5a 60 3c c8 f1 54 be 3f
       0.11443543617582974 0.11848364962168159
000080 23 7e 02 a7 c3 54 c2 3f b0 a1 aa bd f2 70 7c bf
       0.14321180014393162 -0.006943653303700989
000090 cb a5 46 33 34 8e 93 3f 63 fa ad 4b 54 ec b6 3f
       0.019097152356754948 0.08954359862944154
0000a0 95 d3 32 0f 99 24 b5 3f bb f7 38 47 bc 82 6e bf
       0.08258968945558672 -0.0037244489010665716
0000b0 03 47 20 15 f6 96 8c 3f a2 8c cb 2a 45 88 90 3f
       0.013959810752598672 0.016144829499250897
0000c0 48 87 ff 09 4a 1b c1 3f 71 00 4f 3c ce 46 70 3f
       0.13364530075255687 0.0039737754895555625
0000d0 6c a8 f4 1a a2 5d bd 3f 7b 02 37 2b 0b 86 9b bf
       0.11470997961137791 -0.026878523361804057
0000e0 6f 2b a8 a5 6d fb 70 3f 84 de 06 94 25 da 70 3f
       0.004146030720685852 0.004114290990791528
0000f0 65 c4 01 3f 0d 09 bd 3f 89 0a 59 ae 53 f9 9c 3f
       0.11341936863188236 0.028294856563898328
000100 21 94 c4 5a ba bf b5 3f 7d 13 8f ea f9 7f a7 3f
       0.08495678630841087 0.04589825618999208
000110 2d 75 68 91 55 85 b3 3f d4 31 cd e5 bb fa 9a 3f
       0.07625326919556548 0.02634709920975971
000120 a9 71 cd aa 01 cb 92 3f a2 43 4b 95 50 9d b4 3f
       0.018352533388097978 0.08052543301461282
000130 98 db 36 ea 6f 2f c1 3f cb ad fc f4 ed 47 c7 3f
       0.1342601674675421 0.18188261472947284
000140 b6 dc e3 5b 6b 3c 91 3f 67 5d e2 58 cd cc a8 3f
       0.01683204410889224 0.048437516307951616
000150 71 00 58 ff eb 0e b3 3f 52 4b 4a bb 10 2f bd 3f
       0.07444643959024845 0.11399941036715447
000160 52 b3 ed 00 63 e0 6b 3f 44 0c 80 92 c8 38 c1 3f
       0.0034028943695631276 0.1345453944523759
000170 20 2a e5 7b 5e f6 97 bf 55 8c 49 54 5d 4b 81 3f
       -0.02340076094814425 0.008444527754539669
000180 72 11 ec 83 be 4c 70 bf 52 b6 f1 58 a8 c8 78 bf
       -0.003979438972923398 -0.006050737006359679
000190 b4 fa 7a 02 6c a2 8d 3f 4b 40 4b 52 29 3a 80 bf
       0.014469951463408882 -0.007923434089576761
0001a0 33 e2 c0 6e 87 7b a5 3f 2a 2e 1c 29 50 07 c0 3f
       0.04195807673426479 0.12522317893341156
0001b0 d0 60 ad e6 2b 05 94 3f 55 f0 00 8e e7 2c 89 3f
       0.019550977663443103 0.012292679806812293
0001c0 4c 7f d4 97 8d 5a c1 3f 0b cc 78 71 54 09 7a bf
       0.1355759612424613 -0.006356553894465665
0001d0 7d 0f ae 36 c4 5b 96 3f 58 fd 6d 06 61 c4 93 3f
       0.021834436261556334 0.019303813950953014
0001e0 bb 59 cd 5b 91 10 5f 3f bf 39 d2 38 83 b7 b8 3f
       0.001896039916763222 0.09655017983661816
0001f0 21 27 db 97 82 ef b8 3f b2 49 4f ab f3 72 bd 3f
       0.09740463454650385 0.11503527576795738
000200 bf 0e d4 f6 a3 34 c3 3f f2 27 12 d4 03 c8 60 bf
       0.15004396011510399 -0.0020484995625951125
000210 4e 34 e0 42 52 91 57 3f 02 d0 b4 58 8c 4f bd 3f
       0.0014384558994635812 0.11449505963975073
000220 14 55 00 2e e2 6c c1 3f eb a7 11 0d 7a 34 bd 3f
       0.1361353611579622 0.11408198184076894
000230 c7 34 be 5e 8d c0 b0 3f c5 45 e3 8d e0 21 c0 3f
       0.06543811381398533 0.12603384903063222
000240 40 34 c9 f0 6f a9 90 bf 04 e9 ca 81 62 18 b9 3f
       -0.016271351882370277 0.09802833241238679
000250 70 58 78 9d 16 2b d1 3f 0d d8 9f 9d 9f d9 b6 3f
       0.2682549035829487 0.08925817106487006
000260 ec b3 5b b4 8e 07 9b bf f1 fb cf 3b ac 06 95 3f
       -0.026396016843978673 0.020533267164861205
000270 35 db cc 77 3c 99 82 bf f6 38 67 92 09 bb c0 3f
       -0.009081337362301415 0.13070792816728954
000280 c0 f7 da 5d 43 9c 8f bf d2 f0 fe ee e7 86 b7 3f
       -0.01543476705716873 0.09190225205287852
000290 2f 6d d0 69 4a 12 a6 3f e8 fc be b9 42 e6 8c 3f
       0.04310829679180938 0.014111062329787719
0002a0 6b bb 94 de bd cf 75 3f 34 d4 4b fe 4e 78 b5 3f
       0.005325071027342125 0.08386701305774197
0002b0 c9 26 1a 65 1c 5a bc 3f 38 1a 2f a1 e1 b2 b4 3f
       0.11074998348535837 0.08085451302677249
0002c0 9e be b1 21 d7 e5 be 3f 1e 52 2f 34 bb d0 9c 3f
       0.12069458553900822 0.028139996585951114
0002d0 2c 3d 60 b6 ad 21 9c bf f5 b0 cf 70 6f 50 b6 3f
       -0.02747222352632865 0.08716484550649624
0002e0 32 3d 7f a6 19 a7 a5 3f b8 33 fc 7b 72 ed a5 3f
       0.042290498327583484 0.042827203402431235
0002f0 fa be 64 c0 44 d6 b4 3f de 88 75 fb d0 b7 81 3f
       0.08139447877033126 0.008651383088992434
000300 cf 62 99 e6 a7 ab c9 3f 29 d5 ec 0c ec ca b5 3f
       0.20055102119183352 0.08512759509615776
000310 2b 30 e3 dc 1b bb bd 3f ab 05 33 1a 72 5f c4 3f
       0.11613630430946446 0.159162771980886
000320 15 c1 84 b1 2e cd 77 3f 89 dd 94 04 37 8e a6 3f
       0.00581091155645221 0.044053763684526244
000330 e5 ec 04 d5 94 be a4 3f 33 12 01 bf c2 cd b7 3f
       0.04051652050335423 0.09298340953052601
000340 f3 2d 65 e1 fb 1b 76 bf 92 6a e5 c2 3f d6 93 3f
       -0.005397781284340197 0.019371982832448405
000350 6b e2 2e a6 b2 19 96 bf 28 53 f1 dc c7 0c cc 3f
       -0.02158240451146513 0.21914003647057112
000360 2d 14 5a d0 6d 98 b6 3f 26 54 58 e2 63 99 97 3f
       0.0882633813544806 0.023046074571613805
000370 89 9c e4 05 d5 ae 7f 3f 18 a7 86 4a 78 29 c1 3f
       0.007735092278642893 0.1340780605217382
000380 b3 4e 87 6f bb 47 a6 3f df 16 44 df 01 69 a6 3f
       0.04351602302963666 0.04376989221968385
000390 d9 9c 68 ec 8e e8 be 3f f1 7c 5e 4a a9 44 b6 3f
       0.12073605796523469 0.08698518815662105
0003a0 64 3b b7 39 be 4b d1 3f 34 46 1c 30 54 1c 9b 3f
       0.27024799000076016 0.026475253521374323
0003b0 bb 8d 74 ad 2a 04 97 3f 85 c2 3a 11 ad fc bf 3f
       0.022476832234259208 0.12494928045885885
0003c0 55 35 d5 b4 3d 66 c1 3f 9f 34 1e c8 67 9d a6 3f
       0.135932648942268 0.04416965787741244
0003d0 27 b1 58 f2 41 a9 b3 3f 45 04 e9 6c 86 db 97 bf
       0.07680141607915357 -0.023298359296181088
0003e0 76 77 0f 21 f1 9a 91 3f 3b e0 47 be 9d c0 a5 3f
       0.017192618983123485 0.04248516986621139

bias f8 [1]
000000 e3 8b 42 1a 65 17 c0 3f
       0.12571395666336035
