pre-trained models/NO4419_YMR117C.pth (torch, 64919 bytes, 6 tensors)

weight f8 [75, 25]
-0.03137384436545055 0.26102067825998 -0.0049162320517291205 0.009360031886091691 0.013585589900029348 0.3154741254755758 0.03704343810389307 -0.02777218713432652
0.32822200801384976 0.2950273947030342 -0.03546366148902693 -0.06029762632556679 0.16555469586931168 -0.058986759264592036 0.2746971290523333 -0.001699675314075753
0.04729119807101045 -0.04240222470542106 0.18786989798954593 0.1420821719904259 -0.032985681084450116 -0.03286390976002062 0.22320487853144788 0.32443238036965605
0.2277504541240133 -0.06471968150108873 0.04714986993889219 -0.1354701499329072 -0.0448679527622809 0.03868206617666597 0.20408709692992272 0.05986439074443967
-0.09551015569777835 -0.06802839449731808 0.09579479019432208 0.07811571621757347 0.0471071804201445 0.015643413744656196 -0.0026657430184803856 -0.04727643932212187
-0.015677118280501137 0.24402865992773776 -0.08583359871860394 -0.10946080807388732 0.20839626238799044 0.14132160819604622 0.2196621319846721 0.16281213968560604
0.19118202136271314 0.20193090103325828 -0.035686747427990786 0.09082279044956838 0.1980369220369729 -0.03202148163255831 -0.058404967740519995 0.02178955718786968
-0.07852198319744623 -0.09955393831005989 0.14279140227591747 0.10280634187321759 0.19459346971372113 0.10016367818340742 0.05815732401604687 0.17559664531239452
0.08993905581998375 0.09012691174160732 -0.07726769714593856 0.058274991647116574 -0.09882358656002359 0.09630770266495262 -0.03360189198289843 0.09255452383172809
0.18805655676045532 -0.11703030399869682 -0.1144524010555693 -0.03436076755998956 0.003141927990858523 -0.0318210145627519 0.18836348703766212 0.23275341340643838
-0.11348346632320204 0.03588356391289808 0.14922338280023006 -0.006520635121830783 -0.04916943520787045 0.12500163012519752 -0.0021773947985159383 0.13872980282366482
0.24659486609104758 0.03536825984495544 -0.01594632020060244 -0.07675354811862388 0.05762042695962499 0.20881386321259682 0.036670487488771976 -0.03484454811046092
-0.1116925555603393 0.19163746809750393 -0.015241019569877485 0.0990382233692285 -0.059214476108058724 -0.0030750366403189287 0.017389264810428233 -0.013004410956784696
0.2791926831947925 0.12345857850985117 0.18391240384381632 0.14046904802092156 -0.10728807152666087 -0.07626866399845887 -0.06369330532776678 -0.0497519697096754
0.2597384677951602 0.03896342061873162 -0.06423286586510787 -0.09861141081045127 0.1606951503290527 0.10187207101479713 0.05920528162601712 0.1037013029040271
0.18385869266614419 -0.03693977120058694 -0.07599901630787972 -0.06936020449883351 0.23326449418822978 0.08341729644022124 0.15405682100725782 -0.05656940708114744
0.03915184953916451 0.0714573955256729 -0.166240182320574 -0.022379678811889132 -0.02390026720076457 -0.001287136098460921 -0.04520778974067504 -0.0655101979335856
0.04666274609975762 -0.14283910916503625 -0.20346247894346117 0.08431277061116621 -0.15855320551832108 0.16076341553372012 -0.19260903652775063 0.06951573649141915
-0.19233247520063165 -0.16261103860003098 -0.05582234321908257 0.04178641425081656 0.04409011772856653 0.1200577361229279 -0.07645086872756682 0.07272822326538338
-0.057921825363222226 0.09357934770304976 0.09326621049419384 0.1930715761137553 -0.14184034807231677 0.1441222571642639 -0.0694659573625309 -0.010774881605372549
-0.10908781553794805 0.14404720657129746 -0.006791596211842278 0.05638828854051155 0.2387821309792321 -0.1329567152959787 0.12455375562791106 0.08096509387292099
0.07088496846652657 0.0734786533540095 -0.044502458029713116 -0.09463368800794192 0.23477939563825903 0.15004468589611789 0.22890655817607508 0.2806593297721634
0.028512163936724757 0.027117901710379397 -0.08821375147750407 0.011569775044415266 -0.04850655013272162 0.28331373444672203 0.03731218849004341 -0.08373625452677304
-0.09301401815855817 0.13675996280011368 0.15789880223474922 0.07272718721231325 0.1425547580001413 0.1566991272940628 -0.08736056659232985 0.1686461109184482
0.27195257118954524 0.07430161439815387 -0.041802568632666175 0.12381031805353333 -0.08799558195226398 -0.11335460470252107 0.018529240361697372 0.088093062638737
-0.11185925764050861 0.09102365691864728 0.20446874987527508 0.03423709026152462 0.04038840129693366 0.08871639575211736 -0.29542143275912963 0.17502354536701636
-0.06958990765347055 -0.2566156285611435 0.16917272309527734 0.0021565531822031517 0.10741304028273665 -0.09592376035277168 -0.012604288639810128 -0.02341305846929896
-0.130339011020986 -0.034515352276496006 0.1681781746255275 0.13397093139624228 -0.19505032814900625 -0.028799456252368186 0.0924475056029835 0.05966863556668963
-0.07697344393679777 0.12854617942689384 -0.656121584104784 -0.009413505330819588 0.21394157908113787 -0.04483594691573074 -0.3166161992400828 -0.12701789490694482
0.3182000827802906 0.12858475458225674 0.2836710840649557 0.14375440354813285 0.05226236784414549 -0.7849298790552358 -0.23045743587242287 -0.08353308192578371
0.030411708877103923 0.16507256911256127 -0.2335493744698536 -0.11564021790894795 -0.08002755444862074 0.012387979353198074 0.17626432894613261 0.030924001623550232
0.001593522220256041 0.08789408571052627 0.20920964233993866 0.2385713451467715 0.05985488393154944 0.03376873687637207 0.026463367620209406 -0.03889322943123897
00000000: e1b1 ff86 3b10 a0bf e034 2d13 90b4 d03f
00000010: 288a 1bfe 0a23 74bf 40e5 b836 5a2b 833f
00000020: 463a 8a02 c3d2 8b3f 11b7 e962 ba30 d43f
00000030: dc0f 6086 5bf7 a23f 26da ebed 4f70 9cbf
00000040: c7cd 8fe1 9601 d53f 841c eb94 bae1 d23f
00000050: e364 9504 4b28 a2bf 8081 309a 54df aebf
00000060: 1f9d 3a72 e530 c53f 3b7c e033 8333 aebf
00000070: 656e 6544 a394 d13f 9149 d178 f4d8 5bbf
00000080: 5f11 354a 8d36 a83f ca5c c690 beb5 a5bf
00000090: 614c e2ed 1e0c c83f 4692 05a5 bf2f c23f
000000a0: 72ed fcca 7fe3 a0bf cfa5 46d3 89d3 a0bf
000000b0: 0cd4 cc3a fa91 cc3f e8de dc07 80c3 d43f
000000c0: fc4e 0e48 ed26 cd3f 0668 7413 7891 b0bf
000000d0: 47e0 cb1a 0724 a83f 11e5 c5fb 1557 c1bf
000000e0: a943 81ab eef8 a6bf 374a 57c2 22ce a33f
000000f0: b2bf 6ca7 861f ca3f 8979 e2a0 8ba6 ae3f
00000100: 4a67 2883 5a73 b8bf edbb 9011 4f6a b1bf
00000110: fc04 03e3 0186 b83f b545 753e 64ff b33f
00000120: b061 9fae 6e1e a83f 0971 b9b9 d304 903f
00000130: 886b afe2 77d6 65bf fd09 8511 9e34 a8bf
00000140: 07b9 3d99 a90d 90bf 4a92 d6c4 543c cf3f
00000150: d6f6 64d3 30f9 b5bf 05ff de9e 9f05 bcbf
00000160: af53 c88d baac ca3f 48c7 b592 d316 c23f
00000170: 509b 8584 e31d cc3f 04b5 ab37 07d7 c43f
00000180: e902 ab08 a778 c83f 14ad fe2b dfd8 c93f
00000190: 8a29 358a 8845 a2bf 0d5d b692 2940 b73f
000001a0: 794f c61b 4659 c93f 193a c3a0 1e65 a0bf
000001b0: f62a bd84 41e7 adbf 809c 106e 0050 963f
000001c0: b39f d945 041a b4bf 31ce 3aed 5d7c b9bf
000001d0: e467 7619 fd46 c23f a9b7 2a34 8451 ba3f
000001e0: b3c1 3756 70e8 c83f 3f78 0baa 53a4 b93f
000001f0: bcf5 57f9 cbc6 ad3f c9b7 736c f379 c63f
00000200: 5144 61f7 3e06 b73f 4570 6baa 8e12 b73f
00000210: 146f 47d8 d0c7 b3bf 9f1b 993e 38d6 ad3f
00000220: 2346 59a8 804c b9bf 5282 4c21 9fa7 b83f
00000230: a1f0 4c66 4434 a1bf 8541 f43c a7b1 b73f
00000240: a9d1 8abc 3c12 c83f 2eba 50b0 b2f5 bdbf
00000250: 077b 7ba7 c04c bdbf a708 df09 bc97 a1bf
00000260: c0ae f2be 19bd 693f 13c0 be11 d84a a0bf
00000270: f32b 4b74 4b1c c83f 7777 4e25 ddca cd3f
00000280: cfaf 7ea0 400d bdbf a58c f09a 545f a23f
00000290: 0876 7676 c019 c33f 1500 8fa9 61b5 7abf
000002a0: e376 5c78 bc2c a9bf 01ce aaac 0d00 c03f
000002b0: ac45 67ee 53d6 61bf 7ad8 0def e5c1 c13f
000002c0: 7a7c 9caa 6b90 cf3f 8676 b3de c91b a23f
000002d0: f134 036f 3b54 90bf df7d 05db 1ea6 b3bf
000002e0: 000d bfb2 6c80 ad3f e689 b9a4 69ba ca3f
000002f0: fd3c fc60 79c6 a23f a41a 2805 25d7 a1bf
00000300: 289c 5621 e297 bcbf 0061 1599 9387 c83f
00000310: 57ef e104 af36 8fbf 57be 6caa 915a b93f
00000320: 0df3 aa1c 5c51 aebf e6c5 bbb9 d130 69bf
00000330: de2a a6ce 7dce 913f 2de6 1a7e 0ea2 8abf
00000340: f2a9 e6fc 4ade d13f 0e47 1c3d fb9a bf3f
00000350: 7b41 eb0f 718a c73f 75d0 acc7 e3fa c13f
00000360: 103a 7526 3b77 bbbf 0f3f 95d9 5786 b3bf
00000370: db5d 5b57 344e b0bf 4b18 a115 1779 a9bf
00000380: 0c60 2c18 8e9f d03f f471 9872 03f3 a33f
00000390: ee0f 38aa 9071 b0bf b47c 71f0 983e b9bf
000003a0: bd00 a59f a891 c43f 5164 62bd 4914 ba3f
000003b0: ff1d ab98 2750 ae3f b67f 8628 2b8c ba3f
000003c0: 4c0f 0b80 ae88 c73f 57dc 740a c5e9 a2bf
000003d0: 360d 92e9 ab74 b3bf 8063 f721 97c1 b1bf
000003e0: 779f ed66 9cdb cd3f 29a9 2100 d65a b53f
000003f0: ccd7 f947 22b8 c33f 303b bc52 aaf6 acbf
00000400: e07e b212 b60b a43f ea10 d728 084b b23f
00000410: 6389 2cb9 5b47 c5bf d241 5ed2 b2ea 96bf
00000420: a7c6 f8c7 4f79 98bf df6e b2dc a316 55bf
00000430: 7bd9 ebb4 7925 a7bf 79e2 adbd 46c5 b0bf
00000440: 0f49 e1f0 2de4 a73f b70f 3a4b 8d48 c2bf
00000450: 893b 83fa 0e0b cabf e4fc 6890 8595 b53f
00000460: a446 30b0 784b c4bf b127 0e46 e593 c43f
00000470: 407f 66b4 69a7 c8bf 4eba c986 c8cb b13f
00000480: 4f04 79bd 599e c8bf a7bb 6042 70d0 c4bf
00000490: 062b 0605 bf94 acbf d5ac 3f65 0765 a53f
000004a0: b124 71db fa92 a63f 379f 4792 1abc be3f
000004b0: 4a89 efbc 4892 b3bf 2dc7 6b1c 519e b23f
000004c0: 52bf 51f3 eda7 adbf 5032 f7ed d0f4 b73f
000004d0: 5af8 e45b 4be0 b73f 760e 99c4 91b6 c83f
000004e0: 5aa7 1c14 d327 c2bf 2eb7 921e 9972 c23f
000004f0: cfb1 0e5f 85c8 b1bf 8322 e820 2411 86bf
00000500: 44a8 20d8 2ded bbbf 81e5 a68c 2370 c23f
00000510: c147 e139 81d1 7bbf 7a5c 51fe ecde ac3f
00000520: 1566 b6b1 6990 ce3f 766a fdc3 b904 c1bf
00000530: 010f 0443 c1e2 bf3f 8340 4dde 20ba b43f
00000540: 277b 576d 8425 b23f 300e 1c3d 7fcf b23f
00000550: e490 a8b3 06c9 a6bf f00e 18d3 e939 b8bf
00000560: 6d3e 0551 400d ce3f bd63 6e0d aa34 c33f
00000570: 9463 9a62 cf4c cd3f 0114 ac8c 52f6 d13f
00000580: 07f0 95ee 4a32 9d3f 99cb ed93 cbc4 9b3f
00000590: 0e42 a729 2d95 b6bf 87b2 80eb e4b1 873f
000005a0: 2c74 ecbc d9d5 a8bf 0434 fded cf21 d23f
000005b0: 2725 9d4a 951a a33f 0199 ae3a bd6f b5bf
000005c0: b280 0f46 c4cf b7bf 1778 d0b7 5981 c13f
000005d0: 4281 d627 0736 c43f 6461 9bba 3f9e b23f
000005e0: 7df9 bffb 3b3f c23f 3916 858d b70e c43f
000005f0: c25d 7918 435d b6bf 7504 7f1d 3296 c53f
00000600: 119f d4c1 ab67 d13f 814c e13b 6e05 b33f
00000610: 9f0a 5572 2567 a5bf 3581 f272 08b2 bf3f
00000620: 206e ade2 e086 b6bf bc5f 0cb0 ce04 bdbf
00000630: a92b 7e45 54f9 923f dbb0 0957 448d b63f
00000640: 6e21 52ed cea2 bcbf fcbe a08d 534d b73f
00000650: 0058 e230 082c ca3f 8a86 f71d 8687 a13f
00000660: 1086 6add c9ad a43f 93d4 5f22 1eb6 b63f
00000670: 293a 0f4c 2fe8 d2bf b0ce b0e9 2b67 c63f
00000680: 53d9 80e9 a4d0 b1bf 8e01 14f5 636c d0bf
00000690: b9e4 88a8 73a7 c53f 8bfd 77ac 9eaa 613f
000006a0: 0ea4 2dc7 6b7f bb3f f5de 9fa5 758e b8bf
000006b0: 8987 fafb 46d0 89bf 9c2c b3c1 97f9 97bf
000006c0: fc32 ddde f2ae c0bf 9a95 790a ffab a1bf
000006d0: 7f74 f5c7 dc86 c53f 1813 7ba0 f525 c13f
000006e0: acad 3cbe 68f7 c8bf 916b fcca 9a7d 9dbf
000006f0: 055e 29c5 a3aa b73f 2b35 b62c e38c ae3f
00000700: 2379 5e18 88b4 b3bf 6006 5582 3374 c03f
00000710: 9ac0 3db1 f2fe e4bf a3f0 4a4c 6347 83bf
00000720: 203c b40a 7062 cb3f 0a63 60bb bcf4 a6bf
00000730: aead 4797 7043 d4bf 6ce8 5054 1f42 c0bf
00000740: c70d 48e1 635d d43f 11f5 d819 7775 c03f
00000750: 7d4f 38c3 aa27 d23f 7896 f256 8b66 c23f
00000760: 2d7d 6711 22c2 aa3f 5141 0644 251e e9bf
00000770: dd95 1817 a17f cdbf 4a5d 018f 6c62 b5bf
00000780: 4fa8 2b3c 3f24 9f3f 2b0f e712 1921 c53f
00000790: 29b5 ac26 f2e4 cdbf 4f70 05ea 989a bdbf
000007a0: 47bc 2291 af7c b4bf 1fec 7b71 de5e 893f
000007b0: 0b34 235c d48f c63f 5cd4 899e 8aaa 9f3f
000007c0: d99e 9274 b71b 5a3f c976 a30f 3a80 b63f
000007d0: 74cf edad 61c7 ca3f b184 957e 8189 ce3f
000007e0: cbd7 fba1 4ca5 ae3f 33c2 05c9 224a a13f
000007f0: e21f e289 3619 9b3f 61d0 e238 d0e9 a3bf

bias f8 [75]
0.48249383202949325 -0.04309129685473151 -0.04738816687593509 0.01956585519455545 0.04474031485723221 0.1495197581341433 0.14387035059729836 -0.05875031947105953
-0.896349634614641 1.8059381335300797 -0.15124479593950674 0.2429461674095842 -0.12752146768620404 -0.4898513818522177 0.2773006467753503 0.1680535189974285
-0.26723177868512543 -0.037624312252871765 -0.0521024907730199 -1.5067892613438274 -0.06263425982468619 -0.39292863844112375 0.2327769746443162 -0.022220783917212487
0.04659320432585813 0.07246973800588156 0.050301153880720144 2.734188326104424 -0.12653211787036506 0.004084880855358522 0.13289048139737986 0.21975751634785096
0.9331038617911163 -0.2388627413714531 0.21581572650546296 0.19911935393328706 -0.10085934600744255 0.10347907479920515 2.040584011157416 -0.05683779833634123
0.04229049450338265 -0.1145377244960711 -1.1660571540329603 0.2547658938218816 -0.09172245743875915 0.0666653099903272 -0.18945367500679303 -0.817908875160694
0.04311627003681278 -1.30817949631274 0.12971491401322166 0.15324314701463132 0.19368664393331542 -0.7460875665646105 0.030932526001467602 0.2683431938275461
-1.3674549946388626 -0.036536641430597074 -0.2606341831125054 -1.047821265761693 0.14060385656558394 0.04439864052377244 0.007548239920547696 -0.11878856285554266
-0.6089515211037057 0.45822060670075515 -0.03265859910638687 0.16272320837449536 0.19741303849726424 0.26632761949969097 -0.15034947056105066 0.18434528422693935
0.5400566399969833 -0.018081281024534514 -0.2744212894301215
00000000: 32a8 45cf 2de1 de3f 0873 77fd 0f10 a6bf
00000010: 0529 e605 4343 a8bf 412e b750 1209 943f
00000020: b5c5 3fda 33e8 a63f 745f a5a3 7623 c33f
00000030: 3cf8 56f9 576a c23f 29f8 8399 8514 aebf
00000040: 2372 ce6d e5ae ecbf 8cc6 6162 1fe5 fc3f
00000050: 4a0c 204e fd5b c3bf ec39 db29 dc18 cf3f
00000060: 7a05 a09a 9f52 c0bf e929 3d9c b959 dfbf
00000070: 65d3 4336 4bbf d13f 7d2c 0918 c782 c53f
00000080: b7e3 7951 531a d1bf 0f37 526d 7e43 a3bf
00000090: e40d d27b 2dad aabf c6f8 760e cf1b f8bf
000000a0: b962 8e81 cc08 b0bf 450d f128 be25 d9bf
000000b0: eff8 adca a2cb cd3f 9e17 dd90 0bc1 96bf
000000c0: 823f 9781 10db a73f db58 af72 608d b23f
000000d0: a7cd bca5 12c1 a93f b2c9 0d21 9edf 0540
000000e0: 7ecb 1256 3432 c0bf 83bd e8da 4ebb 703f
000000f0: ae95 c627 8e02 c13f 7ad1 e1a8 0321 cc3f
00000100: b440 45a1 fcdb ed3f 9b2e 36e7 0d93 cebf
00000110: 3fd7 a687 d99f cb3f 6c72 9234 be7c c93f
00000120: e310 9908 ebd1 b9bf 803a 15ca 9a7d ba3f
00000130: f54a c5b5 1d53 0040 38fd 0f0a d819 adbf
00000140: 84bb a585 19a7 a53f 256f de24 5852 bdbf
00000150: 156a dd8b 2ba8 f2bf e579 869b 154e d03f
00000160: de1a 027b 1f7b b7bf 03a8 2f4e fa10 b13f
00000170: a16e 219d 0440 c8bf e68b bd3b 4f2c eabf
00000180: 779c 77f3 5513 a63f 2360 9f9f 4dee f4bf
00000190: 28c0 be90 7f9a c03f 7ec9 61b0 789d c33f
000001a0: 8acb ae54 b9ca c83f 781c 4b08 f3df e7bf
000001b0: 6b63 3cae c6ac 9f3f e6fb 65ee 882c d13f
000001c0: c19c 0b7d 18e1 f5bf cda5 1940 eeb4 a2bf
000001d0: 5406 2cff 3aae d0bf 2aff 473b e0c3 f0bf
000001e0: 1401 d2a2 4eff c13f 45ab 122a 6bbb a63f
000001f0: b529 9e39 e7ea 7e3f 2b78 9a60 ed68 bebf
00000200: 03ad 7fe6 877c e3bf 6e83 0886 7c53 dd3f
00000210: cab1 30be a0b8 a0bf 2763 2235 1dd4 c43f
00000220: a52a 1398 d444 c93f fe73 f1ff 820b d13f
00000230: 99eb 83c5 a63e c3bf 8298 7653 a098 c73f
00000240: 40ca d8dc 2448 e13f b73e ae3a e683 92bf
00000250: e96c db4f 1e90 d1bf

weight f8 [75, 75]
-0.07030016398475522 -0.0615799357438513 -0.04194044793746081 -0.16034961955233037 -0.013671573368119257 0.05671536501490648 -0.14015646662418021 -0.049527956348966645
-0.09848357879092082 -0.07373124329601502 -0.02398367780854339 -0.20649687920552942 -0.20111633127047068 -0.11436838767190198 -0.003912572419657037 -0.0839161079035297
-0.05936616198707737 0.008223481906276923 0.023194889067622446 -0.14538465173726006 0.04035610788495541 -0.1525999157373443 0.013918726193350599 -0.14786211520909004
-0.1334348765812892 0.04294517389521642 -0.07702281462881433 -0.020097311823742796 -0.07939129711627266 -0.10883552231999474 0.003441887011927286 -0.1852599538045543
-0.0724582553106609 -0.07853183976072123 -0.1303896664925767 -0.1881293085491059 -0.0961499607818474 -0.14507245282186038 0.04113067415280254 -0.08120097593613144
-0.17925878299821063 -0.1812898817823328 -0.0168613009180702 0.06103689684285516 -0.04760431121072688 -0.09487645078713154 -0.08155357886727482 -0.07645734518224577
-0.14673121608180165 -0.09334651814112198 -0.10937382142940555 0.009584007307582252 0.0007361291286996514 0.03492779525466818 -0.048111802160838185 0.039102542264837566
-0.0621584196157946 -0.12327293458755297 -0.1390834322348529 -0.08347834928377039 -0.1511926601908313 0.018901171109293215 -0.013043273057048919 -0.1344889471703858
-0.16349641657204808 0.06376491033503365 -0.02220420565055956 0.016102957357777496 -0.1733768461635791 -0.09411449764621607 0.03222631773662985 -0.10398315498852258
-0.09794932506807999 -0.0451066655634522 -0.057453519604429445 -0.2558475442327017 0.006592797817608657 0.04366861722768485 0.1071255402103447 0.04423002492340553
0.0701024831697922 0.09045574139203685 0.0218735451782807 0.021315896028961098 -2.6122255497562765 0.013886286578172787 0.19206948266888546 0.13155271205188937
-0.0026299731923145244 0.007509602771004383 0.13697618232376385 -0.008283212658204397 7.162538137269283e-05 0.11641310203041637 0.2716169570632122 0.1677805204676797
0.10959909132672727 0.11374056076048304 -0.006961553056431315 0.17236142207041477 0.18575660410162897 0.02453117831985568 -1.6289451914202786 0.12560988549231195
0.039377301236974735 -0.02114552497980688 0.1261915303185237 -2.0499250077995637 0.053721198408210984 0.05984494306180153 0.01409427245205585 0.01880307953289686
0.15580911222371516 -1.5184452393954158 0.02979408403608689 -0.056330683301640636 0.15200953907237605 0.15445096270204695 -0.2372114120625966 -0.013351574945433653
-0.22370536376583833 0.11194104837063552 0.042859430802103596 -0.031464668974219234 0.19809375208733204 0.0019746877828295535 0.18065674197673107 0.025978244362532744
0.16809218111625324 0.04892786195986339 -0.45248640028987286 0.16179742320912474 0.13433285822437369 0.1527601627515411 0.12327254737204234 0.037960478737364016
0.13862201794353635 0.16494858129973822 0.07996011625538814 0.08577722029788923 -0.5268041725277851 0.06479773506843144 0.11810628723710828 0.06955898567992658
0.1446034417838045 -0.010353011233790394 0.06973159919835643 -0.28396879398442804 0.0020702631017908584 -0.015635719784484133 -0.21471490713589755 0.054650687266852335
0.18396349507447415 0.038626992398806195 0.1142761323532551 0.1182424161616934 0.016697041275356365 0.0654163849088886 0.052760958412410665 -2.386797130863818
0.04031060631531841 0.028181189616705713 0.11789614191549454 0.09039697327985433 -0.13188994755078387 0.10321585188953536 0.05493748583324433 0.005797546879088112
-0.017389389402346647 0.09608804517613773 -0.03530827969715346 0.15238362510821177 0.15092429245175795 0.056980475987446655 0.005399983149837079 -0.017987997609867603
0.07791047024907438 -1.4850725860228182 0.19450956535821373 -0.019762535150021514 0.11194073163497535 0.004633677924387977 -1.5823524932561703 0.13752300974596918
0.15481387594234564 -0.05963305234389822 0.18514065309026256 0.005103366804771394 -1.6494243003153832 0.1365955012835616 0.09334316504367296 0.0029886872153107543
0.16169539109788664 -0.1564972398773174 0.020565964542782044 -0.11407434773007111 0.16729712641410416 0.02952894900266888 0.04122722458819968 0.08892010654407499
-0.011109510311471072 0.15146836917215406 0.046568177108714075 0.13198072022808996 0.07427318603079902 -0.2134081987511472 0.007286615777926662 0.18628074899187605
0.07557007905918775 0.05492872122250212 0.11660608917881853 0.13573078988424453 0.06538806478218774 0.10642474263354891 0.20276034775403148 -0.3189484510786382
0.030875529088876065 0.11107191491643076 0.0024589400006281756 0.10890362813410315 0.015127836549799888 0.11189563627436491 -0.24419168190805982 -0.004147397714943642
-0.008223206965222777 -0.18510780824724338 0.14411167367412925 0.1573817682337769 -0.017044288606188965 0.16000584965125347 -0.0343124262331725 0.17298360546948727
0.08316572164229054 -0.02461153285229004 -2.534823184983824 0.11115652732329752 0.1536072817982629 0.1543058617474991 0.11926024697119356 -0.11057090618061861
0.1656460879679723 0.09326852550373792 0.02477851273225564 0.045070966075396686 0.02913932424031286 -0.007865525814208275 0.17011492193204714 0.19596728999138893
0.16770833227044726 0.16255284883954335 0.08094727819314737 -0.0017292467176934282 -1.4816822990267065 0.004796893372012594 -0.027314232447316605 0.1268614371020037
00000000: 46cc 3709 31ff b1bf 7a20 38c4 6787 afbf
00000010: 86be 8ae8 3779 a5bf 5f9f f319 5686 c4bf
00000020: 24eb 0184 d7ff 8bbf 50e6 d6db cb09 ad3f
00000030: 7ba4 3ca8 a5f0 c1bf 8c57 8371 ba5b a9bf
00000040: 7e9c 1946 3836 b9bf 8a59 a6fe 0ce0 b2bf
00000050: 834e 4d5f 2d8f 98bf c5f7 745f 7d6e cabf
00000060: 28c4 bf10 2ebe c9bf e33f bf24 3f47 bdbf
00000070: 83db 5e29 a106 70bf eba2 0dab 867b b5bf
00000080: 4573 72d8 3d65 aebf 620e c60e 79d7 803f
00000090: 1c4d eba7 66c0 973f 0ea4 46da f69b c2bf
000000a0: 1795 1e47 8ea9 a43f 876c bbdf 6488 c3bf
000000b0: dc5a 6bce 6b81 8c3f 7af9 9152 25ed c2bf
000000c0: d1fd 87df 6414 c1bf 3a4e cdea e8fc a53f
000000d0: b06a e065 c4b7 b3bf 2efb 14c4 6394 94bf
000000e0: 9e8f b3f0 fc52 b4bf 9ae8 0111 a5dc bbbf
000000f0: 265e e304 2932 6c3f 10ad 6c21 99b6 c7bf
00000100: 0b6f e2cc 9f8c b2bf fa8d 77a3 a91a b4bf
00000110: 1d36 a9cc 9bb0 c0bf b399 d105 9f14 c8bf
00000120: fcd8 11a9 489d b8bf 72cf 35f0 bb91 c2bf
00000130: 5a8b b268 140f a53f 2389 0c50 96c9 b4bf
00000140: f0c0 3fa9 f3f1 c6bf dae7 acc0 8134 c7bf
00000150: b064 0bc0 1644 91bf bd2a 9467 3a40 af3f
00000160: 56ec 989f 975f a8bf 8d91 4ab5 d249 b8bf
00000170: d450 1b02 b2e0 b4bf 37c3 1865 b592 b3bf
00000180: add3 2fa7 16c8 c2bf 2391 9cb2 8ee5 b7bf
00000190: 60ed 133a ecff bbbf c503 9baf c7a0 833f
000001a0: 8b62 4644 191f 483f 932c ae54 0ee2 a13f
000001b0: 3c33 aa31 1ca2 a8bf 3195 6f98 3f05 a43f
000001c0: f07d d776 3ad3 afbf b115 89a6 d08e bfbf
000001d0: a99b 6e64 7ccd c1bf 470d 194c d65e b5bf
000001e0: 2f1a 75f5 475a c3bf ba01 151f d45a 933f
000001f0: 92dc b379 6eb6 8abf 7e98 e20e ef36 c1bf
00000200: 7956 1859 73ed c4bf aa76 85ac e552 b03f
00000210: 7947 6904 b3bc 96bf 6ed4 e12c 4b7d 903f
00000220: 35fe 1366 3631 c6bf c24f 7841 e317 b8bf
00000230: 2da8 7fc9 f77f a03f edb6 02da a39e babf
00000240: 4a2a d5fb 3413 b9bf 1d70 da8a 3818 a7bf
00000250: fe73 7b37 8c6a adbf 8f72 cf60 ce5f d0bf
00000260: 5e97 40b0 0c01 7b3f 4a7a b5a5 bb5b a63f
00000270: 380f c553 946c bb3f 9d36 185d 51a5 a63f
00000280: 6a28 9580 3cf2 b13f b2a4 0383 1b28 b73f
00000290: 2bd0 c0c4 0466 963f 5c3a 5191 d5d3 953f
000002a0: a4d4 4f82 d6e5 04c0 71a5 bad5 6970 8c3f
000002b0: 24ae 4f99 bb95 c83f 9942 fb21 b8d6 c03f
000002c0: 2c0c 361b 748b 65bf c92b eba4 63c2 7e3f
000002d0: 00ac b47f 6f88 c13f f34b c8fb c9f6 80bf
000002e0: 1015 a7ae b2c6 123f abea 0bc2 3fcd bd3f
000002f0: ba08 e816 2c62 d13f f142 2804 d579 c53f
00000300: 9e6b eba0 af0e bc3f ebe9 b1f4 191e bd3f
00000310: 02d0 4eab b783 7cbf c636 7167 f00f c63f
00000320: 48f6 d055 dfc6 c73f 4fe9 7682 b31e 993f
00000330: 6006 42d5 2810 fabf 5634 1f17 fc13 c03f
00000340: e6fb 08fa 4229 a43f f2e6 fa28 2ca7 95bf
00000350: 4008 e047 0b27 c03f 6c03 1e15 3f66 00c0
00000360: 6fc7 874c 5881 ab3f 3d16 9012 ffa3 ae3f
00000370: 7da0 f039 75dd 8c3f 06ab a14e 1d41 933f
00000380: 1bb7 b590 8df1 c33f f285 3f3c 8d4b f8bf
00000390: 8a73 3222 5782 9e3f 4671 1515 60d7 acbf
000003a0: 4d79 7f6f 0c75 c33f 880c d294 0cc5 c33f
000003b0: 9afe 858c f15c cebf 2004 ed0d 1258 8bbf
000003c0: 1633 a89a 60a2 ccbf 0df3 d425 2ba8 bc3f
000003d0: 2a8c 3ddb abf1 a53f b88d 7218 231c a0bf
000003e0: 20e6 60d5 225b c93f 7f58 4e6e 382d 603f
000003f0: afc5 4b97 c21f c73f 8a3e c777 0a9a 9a3f
00000400: 60c6 4d6a 0b84 c53f 7b2d f69d 120d a93f
00000410: 224e c884 89f5 dcbf 4550 a128 c7b5 c43f
00000420: b80a 6db0 d131 c13f 0723 931f a58d c33f
00000430: db20 7527 ca8e bf3f c759 6f4d 8e6f a33f
00000440: 8458 c9c4 5dbe c13f c81b 1afd 081d c53f
00000450: b91e 4d24 4478 b43f 2ed5 ebf3 7ef5 b53f
00000460: d7e6 8c6c 94db e0bf ff49 f998 9596 b03f
00000470: 1aa7 22b1 363c be3f 3062 a320 9ece b13f
00000480: 89dc ac96 5d82 c23f 7d62 50a5 f533 85bf
00000490: 2d02 0e1a eed9 b13f fdd9 cf72 8b2c d2bf
000004a0: 6530 1f0a a8f5 603f 0fc0 7e64 cf02 90bf
000004b0: b761 0e30 c77b cbbf 36b5 07c5 2cfb ab3f
000004c0: 3f59 80a5 1d8c c73f 5201 31ca eac6 a33f
000004d0: 52ac 2b5b 3341 bd3f 581c 6a8e 2245 be3f
000004e0: 2ed7 de78 0719 913f ba64 ced1 20bf b03f
000004f0: 5d1a c6fd 7b03 ab3f 4ef9 1918 2918 03c0
00000500: 58c9 9c7f 97a3 a43f 4983 109f 87db 9c3f
00000510: 0504 da09 712e be3f caf4 e48b 4124 b73f
00000520: 446d b311 c5e1 c0bf 7c59 4ba4 5a6c ba3f
00000530: e2dc f421 c420 ac3f 3424 e223 2bbf 773f
00000540: 3438 1f2b 86ce 91bf d46d 91e3 3999 b83f
00000550: 3293 2745 ed13 a2bf 9f91 247f 4e81 c33f
00000560: 6749 20ba 7c51 c33f 48d1 c081 8b2c ad3f
00000570: 3aa5 70f0 4a1e 763f 47d3 d115 726b 92bf
00000580: 785a bcc9 f0f1 b33f 6777 d278 dbc2 f7bf
00000590: 8481 fc7e b0e5 c83f 4e1f 9f48 a13c 94bf
000005a0: 7b68 76d5 25a8 bc3f 96bc 5372 c3fa 723f
000005b0: 1078 14d9 5051 f9bf ff38 a79e 5a9a c13f
000005c0: 10d7 11eb f0d0 c33f 2ac8 2733 3988 aebf
000005d0: a664 175d b0b2 c73f 696f 6a98 44e7 743f
000005e0: e950 31bc 0a64 fabf 7195 651d f67b c13f
000005f0: c4ee 2a71 56e5 b73f f5a0 203b bb7b 683f
00000600: 07f5 5640 6fb2 c43f eefa 97ff 1908 c4bf
00000610: 03df 7c84 3e0f 953f 0a2d d0f8 f933 bdbf
00000620: d2e8 5403 fe69 c53f 7dc1 0139 d63c 9e3f
00000630: fb50 9f1a bc1b a53f 8f4a 90d5 77c3 b63f
00000640: e7e0 b23b 95c0 86bf 8e86 fcc5 5063 c33f
00000650: ffb9 6ebb c8d7 a73f 9d84 8a86 bee4 c03f
00000660: 60d5 f848 9103 b33f 1acf 2ab9 f550 cbbf
00000670: 7e76 6f07 92d8 7d3f efb1 652e 0cd8 c73f
00000680: 4e87 1d8a 8f58 b33f cd03 860a 9e1f ac3f
00000690: 9f98 898b e5d9 bd3f 5679 ce63 a05f c13f
000006a0: 29c9 c9af 45bd b03f bda7 18e5 a63e bb3f
000006b0: 43bb 4313 0df4 c93f df86 9fc3 a669 d4bf
000006c0: 4ad2 bbae d59d 9f3f 50f6 1182 356f bc3f
000006d0: eb36 565c c524 643f a070 40b1 1be1 bb3f
000006e0: 46cc ecd9 57fb 8e3f e60e 5d42 31a5 bc3f
000006f0: 870b e04b ac41 cfbf 6f79 c998 dcfc 70bf
00000700: e2f7 de27 54d7 80bf b4fc 53d7 9cb1 c7bf
00000710: 987b b356 4072 c23f 1b7e c6f5 1525 c43f
00000720: f4b2 96d8 0e74 91bf a6dd b559 127b c43f
00000730: aa28 09f9 6591 a1bf 9e28 1ea8 5324 c63f
00000740: a114 9a46 594a b53f 89ef d102 c433 99bf
00000750: 462f c560 5147 04c0 912a 9711 c174 bc3f
00000760: 9d20 e045 67a9 c33f 82af e462 4bc0 c33f
00000770: ca43 74ec d687 be3f c151 eff9 5f4e bcbf
00000780: 2432 4419 e433 c53f dbe1 c832 72e0 b73f
00000790: 6671 50d7 895f 993f 19fe 95aa 8a13 a73f
000007a0: 4409 8ff2 b2d6 9d3f b45a 1a01 cd1b 80bf
000007b0: 043f 2165 53c6 c53f 49a4 ccc6 7415 c93f
000007c0: 8d23 2f75 7777 c53f a098 d120 88ce c43f
000007d0: 262f 8af8 f5b8 b43f 1b6f 5986 fc54 5cbf
000007e0: d71b 967f f8b4 f7bf ecab 7b42 e8a5 733f
000007f0: 8b67 4e1c 43f8 9bbf 6c03 bddd fe3c c03f

bias f8 [75]
-0.15215928407815799 0.1705088642030627 0.11249429183412643 0.08178400225936917 0.14076951011707659 0.01525660154779673 -0.024329947191589704 0.16200769633856862
-0.1778915017589793 0.12933520926636166 0.013320023012317096 -0.10739383308199471 0.07230563835580481 0.1445117322426293 -0.06955880164347689 -0.12374405825260892
0.012453450465534395 -0.03472678271365338 -0.016697352329712523 -0.15087894132760954 -0.15743456727148694 0.029333701947531796 -0.027900608484093488 0.008256638802260085
-0.12461714899738667 0.06507405046955611 0.04678147456111733 0.1594306142429555 -0.09239974312515654 -0.026432640866422812 -0.011954429505671126 -0.0021599832214106375
-0.10840477394001795 -0.015600934100964579 -0.18482290811044313 -0.02211726452969264 -0.013261901040107042 0.14292917581261042 0.1385230618559297 -0.14605556894031507
-0.012315853042834474 -0.17702830454157312 -0.168788894397462 -0.010332003111363793 -0.031513524369639695 -0.05353489970999194 -0.12010619895085455 0.14860464689548522
-0.0034866353383594924 0.1793214514908031 0.13098367955124524 -0.06678865580614952 0.1385259778427658 0.08813020533180303 -0.023753016907552344 0.053539673812222764
0.18167066369840645 0.005865049354243068 0.04338869837413184 -0.1109781799731089 0.11462698327046365 0.021580897226609653 -0.0056775089633458 0.14452822164548573
0.0659552356864555 -0.06215574286540543 0.012533203844111126 0.03271803855951112 0.046234487324960785 0.14198792866686127 -0.011763858890693195 -0.0302653084960173
0.04794063676505028 -0.01870460214544291 -0.10253203728820584
00000000: ce00 7396 f479 c3bf bd12 b705 3cd3 c53f
00000010: 7a0c 6a08 6dcc bc3f 2d3c 0adf cbef b43f
00000020: 4b07 1d3d bc04 c23f be2e 9165 da3e 8f3f
00000030: cf50 011e f3e9 98bf d1ba bc0e abbc c43f
00000040: 2944 2513 26c5 c6bf 7c9a 025f 0e8e c03f
00000050: da4a c239 8747 8b3f 8a16 e188 297e bbbf
00000060: 46f9 0d50 9f82 b23f 5269 ef45 5c7f c23f
00000070: cc2a 350a 9bce b1bf 28ef 44cb b0ad bfbf
00000080: d14c c6d3 3181 893f 31d3 1978 b5c7 a1bf
00000090: cd5d be58 1c19 91bf aa1e 544b 0050 c3bf
000000a0: ff70 d8de d026 c4bf 591b 246a a709 9e3f
000000b0: 6225 e923 fa91 9cbf a673 0b4d dbe8 803f
000000c0: c3eb 76d3 e8e6 bfbf 5cc2 9566 b1a8 b03f
000000d0: 4be9 98ce bdf3 a73f bdcc 13ed 3868 c43f
000000e0: 09a0 e172 82a7 b7bf fbd5 4580 2811 9bbf
000000f0: ac4f 275e 907b 88bf f1be 7729 d0b1 61bf
00000100: 7b7a cd4e 6ac0 bbbf df6b 01ee 61f3 8fbf
00000110: 5967 f1ec 46a8 c7bf 9efa 537f e8a5 96bf
00000120: 3c19 003a 0e29 8bbf e333 e1d3 804b c23f
00000130: 49dd 34aa 1fbb c13f 66a8 ffe9 f2b1 c2bf
00000140: 909d 54d0 0d39 89bf 1b77 3c0d dda8 c6bf
00000150: 7fbb aede df9a c5bf 644c b9fb f128 85bf
00000160: 0c3e 1969 8a22 a0bf 92ea e526 ed68 abbf
00000170: 3371 8aa4 47bf bebf fb90 3921 7a05 c33f
00000180: 3ae9 0a18 0190 6cbf 6be7 cf5c 01f4 c63f
00000190: 64bd fdbd 12c4 c03f f563 6eb4 0f19 b1bf
000001a0: ad94 3d20 38bb c13f 979a b07d b38f b63f
000001b0: 7574 32fb b552 98bf 0bbf 1f58 8d69 ab3f
000001c0: 3017 9dfb fb40 c73f a686 a732 f305 783f
000001d0: e0d8 1021 0b37 a63f d1d9 8de5 1069 bcbf
000001e0: 83c2 62a8 3158 bd3f 0dfc 397f 4d19 963f
000001f0: cc04 20b5 4c41 77bf d07f a898 e67f c23f
00000200: e4f6 453c 71e2 b03f 0823 bba5 e0d2 afbf
00000210: ab18 ff24 02ab 893f 7a69 3433 6bc0 a03f
00000220: ea1c 04f6 0bac a73f 8885 0613 a92c c23f
00000230: 7caa ae69 a617 88bf 2865 c678 defd 9ebf
00000240: 1851 1cd6 ac8b a83f 845a ff99 4c27 93bf
00000250: daf1 f122 8a3f babf

weight f8 [1, 75]
-0.004453368905109305 0.1423453934977374 0.21393176346395398 0.15731703212197656 0.19113041318052224 -0.003677467479474314 0.028347424974188008 0.12424617850839287
0.012281654207749883 0.19636570072537415 0.024982231084294624 -0.026688931538063274 0.19450659035929882 0.18317023819143094 0.04836302548246688 -0.01426236307496338
-0.011819990969629957 -0.01478013009148804 0.004134260021338099 0.01185427118661612 0.004335650473626024 0.20685264106996262 0.0321480151416783 0.1191338344698793
-0.013168405632999163 0.18794113914149388 0.1358454718896524 0.12973265384966076 0.04681426251575115 0.020772732804328668 0.04810104895666566 0.03169349776419405
-0.03288873397781883 0.15888848497005922 -0.023598153342180253 0.13916304669786203 0.12617046521231154 0.1829917167109973 0.1945991875818032 0.05126587611909543
0.04549740381954999 0.04004638899676467 0.01969107701831684 0.039060370959616376 0.034937314088515664 0.004161788341111505 0.039629376519944935 0.15083367891871574
0.12768840697327716 0.20969924741026746 0.1949519390751349 -0.029861763988742563 0.16169413019484188 0.1582925703099956 0.01657543258527945 0.11492512611104408
0.13598892894309653 0.12632526947872547 0.15058799850452573 0.03593550183897125 0.1613539407738269 0.1401828704070021 0.19636804956360854 0.1991775880873294
0.20117391901242268 -0.04083786301705779 0.17032032090419638 -0.006868971213205588 0.04689255914898213 0.18344458791745893 0.13452124213418576 -0.00886858805718475
0.04752782135927509 -0.021214379142628973 0.03550378596434395
00000000: 9f19 df1c b23d 72bf 668e e7b4 5f38 c23f
00000010: 029f d3b3 1d62 cb3f 70a9 08ea f622 c43f
00000020: c7ce f01c f676 c83f 4667 ce51 3520 6ebf
00000030: 8d82 c27c 1b07 9d3f e4b5 58f9 98ce bf3f
00000040: d4f5 4db9 1f27 893f 2bf7 55e3 8222 c93f
00000050: 39e0 f325 f194 993f 9c12 7ce0 5754 9bbf
00000060: 5f8e 398a 97e5 c83f 2bfd 5053 1f72 c73f
00000070: 75cc 90d9 09c3 a83f e6e1 c3f7 9535 8dbf
00000080: 0d86 3a55 1435 88bf 7f10 fd7a 0b45 8ebf
00000090: 005f 5bf9 15ef 703f 95f4 8358 0d47 883f
000000a0: e096 db4f 42c2 713f b54c 3eb8 257a ca3f
000000b0: 6f63 5463 b475 a03f 6c2c e512 8e7f be3f
000000c0: 4907 467c 09f8 8abf 13c5 178b 740e c83f
000000d0: feb1 8969 6263 c13f 6ef8 c060 149b c03f
000000e0: 2fa7 fbfc 09f8 a73f 5e2c 2c80 7245 953f
000000f0: 2e27 5860 b3a0 a83f 7f3f c950 213a a03f
00000100: 08e3 aec9 cad6 a0bf 6b25 5437 7556 c43f
00000110: b412 6743 1d2a 98bf 5384 303f 18d0 c13f
00000120: 036c e792 5a26 c03f 7637 5bc7 456c c73f
00000130: 51fa 3e4d a0e8 c83f 8623 aa5a 853f aa3f
00000140: 4a6e ea8a 6f4b a73f 6ac4 20d6 f580 a43f
00000150: dd49 44cf e529 943f 35af ae8f b8ff a33f
00000160: a42b d7ba 4de3 a13f a650 168d f30b 713f
00000170: a362 3a38 4d4a a43f 0aae 0b9b 844e c33f
00000180: faa7 03fe 1758 c03f 90bb cfc8 6cd7 ca3f
00000190: 694b 4f65 2ff4 c83f ad19 ee0e 1594 9ebf
000001a0: 732d 92ac 64b2 c43f f231 5752 ee42 c43f
000001b0: 54ba 7b73 26f9 903f 56b7 22aa bb6b bd3f
000001c0: 93de 36d1 1568 c13f cce5 882a 6d2b c03f
000001d0: d79e 5fb0 7746 c33f 56d4 535a 2366 a23f
000001e0: bf26 5af5 3ea7 c43f eac1 ed25 83f1 c13f
000001f0: d470 6d97 9622 c93f d732 77b5 a67e c93f
00000200: 89b6 7b25 11c0 c93f 9a8e 314c b3e8 a4bf
00000210: 115a 1068 0ecd c53f 5a73 7c6b a322 7cbf
00000220: 9cf5 f02f 4d02 a83f 52e9 ddbc 1c7b c73f
00000230: 3ab4 caf7 fd37 c13f d6a3 56bd b129 82bf
00000240: 59c4 c60c 9155 a83f 117a 7de2 38b9 95bf
00000250: a8bb 335f 8d2d a23f

bias f8 [1]
0.08988792663675081
00000000: 97c8 3529 e502 b73f
