pre-trained models/NO445_YBR225W.pth (torch, 3287 bytes, 6 tensors)

weight f8 [3, 1]
000000 63 2c 5a 20 7c a9 f6 bf 92 3a f8 a1 63 18 ea 3f
       -1.4163781417617194 0.8154771960706333
000010 c7 dc 66 63 82 4f d9 3f
       0.39547786433417936

bias f8 [3]
000000 f5 cb ea 61 ff a2 18 40 c3 dd 6c 66 cd c2 fd bf
       6.159177331882337 -1.8600591660486863
000010 92 f4 19 15 a0 6d ca 3f
       0.20647049932805267

weight f8 [3, 3]
000000 0d 81 de ed ad 05 f6 bf 6c 0f 5d 4c a8 be f8 3f
       -1.3763865749133999 1.5465472205114237
000010 0c de dc f6 d4 8f f0 3f b9 43 2e 55 a5 7d 14 c0
       1.0351152079655348 -5.12270100684048
000020 5d 8b 5a 78 5c 5e f6 3f 3b 80 39 37 5f eb e0 3f
       1.3980374051395394 0.5287319258313866
000030 1f bd c4 66 79 fd 0f c0 a2 cb ce fb 0f 20 f3 3f
       -3.9987667111196425 1.1953277431718807
000040 c7 29 68 78 50 ec e1 3f
       0.5600969649979611

bias f8 [3]
000000 56 42 f2 60 76 1f f6 3f 7e 8b de e9 5f 2f ec 3f
       1.3826812540975388 0.8807830398330763
000010 68 bb 23 6f f1 c9 e8 3f
       0.7746512575812234

weight f8 [1, 3]
000000 7b f2 03 31 5e 71 f5 3f bb 15 bf f7 91 e5 f4 3f
       1.340177718607406 1.3060474088282337
000010 c2 24 ee 44 31 bd f2 3f
       1.1711895649516895

bias f8 [1]
000000 cb 34 55 48 28 84 fc 3f
       1.7822649789334715
