pre-trained models/NO5267_YOR050C.pth (torch, 3287 bytes, 6 tensors)

weight f8 [3, 1]
000000 ad 07 77 ff 1e da ca bf 15 a0 29 93 02 64 fa 3f
       -0.20978152727007907 1.6494165180720348
000010 0f 26 5a 81 43 81 fa 3f
       1.6565585186784835

bias f8 [3]
000000 a4 ce 52 9d 1d b2 e0 3f 7c 63 dc 2d d2 f6 20 c0
       0.5217426369403779 -8.482072289612681
000010 cd cc 46 d9 da 5e 12 c0
       -4.592631716676988

weight f8 [3, 3]
000000 41 19 c6 4e 7f fa f0 bf ea 80 38 16 b8 7f 01 40
       -1.0611565663435416 2.187362836455681
000010 fa 69 cd f6 fe 00 fe 3f a6 30 91 b7 b0 5f c1 3f
       1.8752431526869473 0.13573273623695065
000020 10 07 38 2e f3 af 01 40 1a d6 a8 06 c0 29 f1 3f
       2.2109130488250983 1.0726928959023838
000030 a7 ff a8 49 9b 6b f2 bf 6b 8c 6a b7 86 aa 04 40
       -1.1512711407994887 2.583264763774016
000040 0f 77 bd 52 59 b9 fb 3f
       1.7327512008700443

bias f8 [3]
000000 40 b9 97 e3 b6 01 ee bf 45 86 ef 20 d2 94 f1 bf
       -0.9377092785996766 -1.098833206801275
000010 ba 9b cb 88 ed a7 f0 bf
       -1.0409980147903597

weight f8 [1, 3]
000000 1f e3 2b 0e 81 84 fb 3f 3b ba ec 9d d7 3e 00 40
       1.7198496392795233 2.0306846940868843
000010 80 3a 09 aa 93 cc fd 3f
       1.862445511058155

bias f8 [1]
000000 46 2b b1 c4 43 ec e5 3f
       0.6850909082071233
