pre-trained models/NO5378_YOR163W.pth (torch, 51159 bytes, 6 tensors)

weight f8 [66, 22]
0.2114446254990382 0.0026262170919909623 0.044975285898802786 0.06898436046694649 -0.050615676867765726 0.32218742917934357 -0.1119461122971985 -0.04365850382063789
-0.13270068745055205 -0.04444912088576292 0.12011718786592751 -0.06233386496786456 0.1746921076799398 -0.012955352082451747 0.02470976472641079 0.29252308302084895
0.04256671731302087 -0.047678428441663055 0.027007628323770454 0.10035064428083189 -0.02044557310043926 -0.028771287884845294 -0.18761928650802906 0.12636577544435737
0.026657571372275656 -0.16201065188756236 0.1677286058428752 0.037192848490632584 -0.11426286552000837 0.1663133886450935 0.11389543700889118 -0.07752135965958977
-0.0749325610895001 0.21591142223064788 0.12089275102269281 -0.040778090728762595 0.271973754615985 0.09122919450542913 -0.018125370309673716 0.2587813007437495
-0.11678709084644312 0.011038413176103025 -0.08262913175342672 0.0401554521158904 0.03665754809259193 0.2555395525237523 -0.022520767433694414 -0.10163285497860229
-0.0223797336166225 -0.06717611838856301 -0.10096889167220635 0.05798943035516089 0.13132725498643277 -0.11255559170634401 0.11107640820337944 0.20331457098876496
-0.13290569980549888 0.23504168911313217 0.1681192202776846 -0.09864690315037179 0.22489836459530185 0.04479520407682822 0.03851229071944913 0.1120123751683509
0.01604565208535548 0.05398636833821473 -0.06288697062888124 -0.006475164276485853 0.0014560458423209506 0.04333951340583262 0.07048389969134013 0.34926575673358556
-0.08959989551301703 0.0926198833594411 -0.011565910168343806 -0.25930563025919856 0.08149953488389232 -0.12009804369692913 -0.0770088742472737 0.07545733712174614
0.08600373330340484 -0.07478711729422576 0.10315698537558367 0.3734839021426046 0.10569693863757137 0.2030761397559553 -0.12649787716884034 0.1863282349544187
0.16013825286839375 -0.06665174507901439 -0.06486906550724733 0.2211354831832407 0.14100970091045872 -0.04447899988390718 0.17063943078376534 0.08236554296243674
0.1635404320895584 0.064127521365757 -0.1678635693718114 -0.03327886674348248 0.09682135145148751 0.059075820473720064 0.26444628802180253 0.01756763329549281
-0.15277735061487016 0.07568246078405061 -0.12002233428935083 0.26730546077214784 -0.07538351207679737 0.08866820560609906 0.09146032661597084 -0.04860659975741002
-0.24235314688948997 0.06679308750461065 0.06493801659278589 -0.40277636659001065 -0.007797516036658973 -0.20219498147580428 -0.10613029477400877 0.2041800059417989
-0.0166544084334477 0.13857610220310093 0.0011163333399150492 -0.04481801345835918 0.15455434046782038 -0.32653778935461353 0.3581016203160271 0.2864678946836659
0.37941818193005983 -0.29338313316169506 -0.2933199149485448 0.5010669455762247 0.015167685304622957 0.1927861659841481 0.2234416096137609 0.18417895708491938
-0.1253657486922454 -0.09319977600968292 0.17448806939887931 -0.0930123125284476 -0.05827602907513972 0.10770095435316843 0.14350868178973608 -0.07103224820734635
-0.013052305103707532 0.1609865691449383 0.26616242457299744 -0.019078795487073686 -0.12326767085344555 -0.0002222281566548045 0.235457726974948 -0.12143871602038836
0.2078318535732621 -0.042849158971397926 -0.17510183971276533 0.2280636233506841 0.13573746407877327 0.18522093534259396 0.1972648229724095 0.6256600170948899
-0.027516957227178264 0.12112498376371782 0.04309798551812629 -0.198171163508589 -0.06102329142507543 -0.450034319849764 -0.11125533534150003 0.17294998279296253
0.23172659601574522 0.17136574320380643 0.052826689472480766 0.18575884424955919 -0.05312242301424576 -0.13728195638783433 -0.24505688559810457 -0.039420887919277406
0.03458097034511755 -0.10330916430519764 0.6871570936738002 -0.1710125235630664 -0.3226934208195295 0.027615551507519164 0.011503057987652629 -0.051453927703739445
0.1926004431344955 -0.010559065114426138 -0.015827427912992773 -0.07074501171556333 0.008439933563120504 -0.04179276614894163 0.046768238019648176 0.4201085632465193
-0.11613931752535664 -0.29360180854831314 0.04928819870482518 0.05399658394530864 0.02384904095775179 -0.069252113343199 -0.02737246354673312 -0.10522946892240785
0.0965914537051474 0.09188371190380258 0.02465815903142071 0.08805479017930087 0.09225775197765919 0.14890798258397112 -0.050767233787197 -0.11750126663788905
0.12087797442292081 0.09441477066791894 0.07451058002648578 -0.13666281806368802 0.07700349666979177 0.16010759713775957 0.04679149474184525 -0.039755455891613986
-0.012863982882597306 -0.017615181033429714 0.2609565293700633 0.23601333866922122 0.20579502365087513 0.028399221264641433 -0.029359617955356417 0.04326423096839758
0.13043873803619455 0.17068331983962562 -0.10741520600552584 0.2632119993708774 -0.0068137011665379025 -0.14629867718116715 0.11613128040871146 0.08425297397528574
-0.11089733224398192 -0.042332920334560965 -0.0059851204583054205 0.19050297555953716 0.02422354832847308 0.21962046588715678 0.1587928974372879 -0.08211133061228854
-0.07895323655002684 -0.10203680030537718 -0.013525281387655809 0.02093319064914087 -0.10756127396253284 0.19426312804716916 0.1916589872942264 0.21522040562381917
-0.05046821560873856 0.04566217534771396 0.18962723066675224 -0.1048429036390466 0.12878888585161258 -0.1619339962974985 -0.050909397444423236 -0.06624150004420742
00000000: 9477 b713 9e10 cb3f 0da9 b690 9383 653f
00000010: 3891 202c 0007 a73f 4319 2484 f5a8 b13f
00000020: e5b8 9f49 4cea a9bf 777c e005 b89e d43f
00000030: 6e16 3b1b 80a8 bcbf 4630 344c 685a a6bf
00000040: 17e0 600c 56fc c0bf 81a2 1401 09c2 a6bf
00000050: 7057 9201 00c0 be3f b5c5 f06e 39ea afbf
00000060: 3c65 ad9c 4f5c c63f a2b3 04ec 5588 8abf
00000070: 1131 913d 844d 993f b093 b9bc b2b8 d23f
00000080: 41d7 8305 4ecb a53f 9363 c395 4e69 a8bf
00000090: 5e8d 9241 e3a7 9b3f 7b96 516f 94b0 b93f
000000a0: 9fe8 412f afef 94bf a2e9 1d72 3876 9dbf
000000b0: b04e d3a5 e803 c8bf 3d00 6ff4 c02c c03f
000000c0: c357 f054 1f4c 9b3f e8f8 bad9 c3bc c4bf
000000d0: 0c73 5986 2178 c53f 871f d3e7 f00a a33f
000000e0: 2d41 8ec6 5440 bdbf fd0d 8fd2 c149 c53f
000000f0: a2e7 1d59 4028 bd3f 6bb9 7a98 70d8 b3bf
00000100: d9f0 48c3 c72e b3bf 1d20 a848 fca2 cb3f
00000110: 9847 f7cb d3f2 be3f f08e 25ac dde0 a4bf
00000120: 038b 5c9b 0468 d13f 925b d7e6 cb5a b73f
00000130: b3ed d402 758f 92bf 0ab0 e071 df8f d03f
00000140: d8cb c73f c2e5 bdbf 9491 babc 4e9b 863f
00000150: 83ed 93ca 2e27 b5bf 3a0c 3063 418f a43f
00000160: 2220 6b34 c7c4 a23f a922 3b91 c25a d03f
00000170: f124 6f1e af0f 97bf 8f0b 555c 9c04 babf
00000180: 0306 e87f b6ea 96bf 0b15 8d3f 7432 b1bf
00000190: 083f a5e7 18d9 b9bf 3d36 c765 cab0 ad3f
000001a0: 46be 9edc 54cf c03f 4955 5c79 71d0 bcbf
000001b0: 8c35 97e4 806f bc3f d137 993c 3606 ca3f
000001c0: 1eed 0ed1 0d03 c1bf 1000 f897 d815 ce3f
000001d0: 76f9 753c ee84 c53f 3ded e166 ec40 b9bf
000001e0: 9b2b 6e38 78c9 cc3f 9d24 0ea1 65ef a63f
000001f0: eaa5 440a e2b7 a33f d568 18d0 d7ac bc3f
00000200: e462 cc7b 456e 903f c687 e2ec 19a4 ab3f
00000210: 0e10 324a 5c19 b0bf 6f18 dcac b385 7abf
00000220: f93b 8d51 19db 573f cdbb 67c1 9830 a63f
00000230: 2da0 119c 3b0b b23f e923 b2c2 5e5a d63f
00000240: ae13 f4cc 04f0 b6bf 5cf6 fcc9 efb5 b73f
00000250: e640 5f2f deaf 87bf 7971 68a4 7698 d0bf
00000260: e32c f74c 27dd b43f 79ec fdd1 bebe bebf
00000270: 34d1 6484 dab6 b3bf 9d5f 2e0b 2c51 b33f
00000280: 593d df35 5704 b63f 4bd9 f09e 3f25 b3bf
00000290: e5c5 8a06 7f68 ba3f a33c 5206 29e7 d73f
000002a0: 0a56 bc5e f40e bb3f b8c4 6c21 66fe c93f
000002b0: 610f ba1a 1531 c0bf 52ae b985 9ad9 c73f
000002c0: 2344 7407 697f c43f 28f0 55b9 1610 b1bf
000002d0: 762e e052 429b b0bf 2beb 20e2 2a4e cc3f
000002e0: f821 ea1a 9b0c c23f 1768 b893 f3c5 a6bf
000002f0: f9e9 4f4b 83d7 c53f 6b48 5781 e815 b53f
00000300: 89fd b293 e4ee c43f 8c1a 0a47 a96a b03f
00000310: 1a25 52ae 8d7c c5bf 8355 9f78 ed09 a1bf
00000320: b0e5 09ba 48c9 b83f 8086 d699 2f3f ae3f
00000330: 138b a61f b0ec d03f bc98 e3e9 3ffd 913f
00000340: 27ee 3a4e 358e c3bf c8c3 f2fd ec5f b33f
00000350: 98f5 8fa0 c8b9 bebf dfbf 035d 881b d13f
00000360: ff07 0777 554c b3bf 64f0 45a3 f5b2 b63f
00000370: 6273 b2a7 f169 b73f 53da a7d8 f6e2 a8bf
00000380: b18c fc8b 6d05 cfbf 1761 6e0e 5a19 b13f
00000390: 9a7a 8821 c79f b03f 79c5 8686 16c7 d9bf
000003a0: d138 e1c5 49f0 7fbf c44c 6d70 86e1 c9bf
000003b0: 2d51 2be1 5a2b bbbf b930 0208 9222 ca3f
000003c0: c739 396e da0d 91bf a917 7c99 dcbc c13f
000003d0: b57a edcb 3d4a 523f 0993 26fc 62f2 a6bf
000003e0: 45cf e1c6 6fc8 c33f bcea 8bc1 fee5 d4bf
000003f0: 7ab9 f90e 23eb d63f e14c c16f 7d55 d23f
00000400: c26e b932 6348 d83f da28 880c cac6 d2bf
00000410: 500c 7ee4 c0c5 d2bf 6c68 0b8c bd08 e03f
00000420: 730a b742 3c10 8f3f 60f6 0293 37ad c83f
00000430: 6ba8 ed12 bc99 cc3f 4c43 a512 2d93 c73f
00000440: ddfb 551f fc0b c0bf dbc3 f4c5 f0db b7bf
00000450: 7120 ce03 a055 c63f 0c5d 6fa8 a7cf b7bf
00000460: ee74 090e 5bd6 adbf 82e1 b12c 4a92 bb3f
00000470: 744f 7d13 7e5e c23f 5a0c 035f 2b2f b2bf
00000480: a273 76bc 2abb 8abf f64f c938 359b c43f
00000490: 0cc4 3d1f ce08 d13f bdfd a74a 6489 93bf
000004a0: 653a f856 788e bfbf eab9 8554 bd20 2dbf
000004b0: be54 7992 7a23 ce3f c89a c691 9b16 bfbf
000004c0: 3505 15f3 3b9a ca3f dbf2 e230 53f0 a5bf
000004d0: d293 84b1 bc69 c6bf d166 d955 3031 cd3f
000004e0: 1bb8 8760 d85f c13f 475d ead1 51b5 c73f
000004f0: 52ab a845 f93f c93f 99cb fa27 6805 e43f
00000500: 7a30 81bd 672d 9cbf 0f63 fe03 0c02 bf3f
00000510: 93cd a56c f010 a63f d8cb 2335 ac5d c9bf
00000520: 5c11 eee1 713e afbf 0f45 75bf 5ccd dcbf
00000530: f218 ccca 3a7b bcbf be42 f89b 3923 c63f
00000540: bd21 c093 37a9 cd3f d687 5b0b 50ef c53f
00000550: 29cf 478f 190c ab3f 864f 7f20 f2c6 c73f
00000560: e298 0fbb dc32 abbf 7b21 8284 7492 c1bf
00000570: 30d8 a626 065e cfbf faff c880 f92e a4bf
00000580: b277 64d1 98b4 a13f d762 112a 7872 babf
00000590: 5f63 91df 30fd e53f 5074 f405 bde3 c5bf
000005a0: bf78 434e 02a7 d4bf 83db 574a 4047 9c3f
000005b0: cb3e e34e ea8e 873f ad03 7a51 2b58 aabf
000005c0: 1398 3a9e 21a7 c83f 2e0b beba fd9f 85bf
000005d0: e97c 10b5 1035 90bf 4669 ac57 581c b2bf
000005e0: 9f76 12b5 f448 813f 7a5e a387 dc65 a5bf
000005f0: c665 92a9 01f2 a73f 4b74 fa06 0fe3 da3f
00000600: 3e19 8d6a 4ebb bdbf bbbb 703d 5fca d2bf
00000610: b52d 0883 4d3c a93f 7619 48b4 70a5 ab3f
00000620: aa6a d10b e26b 983f a6e8 fca9 81ba b1bf
00000630: f107 faee 8607 9cbf 73e1 9887 51f0 babf
00000640: c698 bcae 37ba b83f 7573 a9e1 b085 b73f
00000650: 2f63 7a0a fd3f 993f 6a84 133c c28a b63f
00000660: 19e9 8b3b 349e b73f 05df a7b1 6a0f c33f
00000670: 6817 a6b1 29fe a9bf 67c4 7221 9014 bebf
00000680: e802 f4e2 dbf1 be3f 692e 4700 912b b83f
00000690: 8e74 6b18 2013 b33f 9ad4 14cf 2a7e c1bf
000006a0: b7d8 df4b 80b6 b33f fc1e c6de 677e c43f
000006b0: 595b 4b07 0ef5 a73f 1ebb c8bd d35a a4bf
000006c0: d56a 378e 6e58 8abf 798a cec9 b609 92bf
000006d0: 0c9d d403 83b3 d03f 9b85 8061 af35 ce3f
000006e0: 7d49 21c8 7d57 ca3f db06 417a af14 9d3f
000006f0: d2e6 c39b 7210 9ebf 4d14 31b2 ba26 a63f
00000700: 9c9c ff70 37b2 c03f 098a 5776 f3d8 c53f
00000710: b407 e31c 907f bbbf bb9c 4d24 77d8 d03f
00000720: 03ca ccfa aee8 7bbf 6778 f840 eab9 c2bf
00000730: b8e4 6593 c7ba bd3f 0f89 d057 9a91 b53f
00000740: b198 337f c463 bcbf 3521 c318 a9ac a5bf
00000750: d3bf 188a da83 78bf b2d1 e8c8 6662 c83f
00000760: a499 74cf 0ece 983f 7041 42ff 851c cc3f
00000770: 1945 aa5e 5353 c43f e45e 9c87 3f05 b5bf
00000780: b84d e580 4736 b4bf e6d1 4c70 151f babf
00000790: e75b d589 24b3 8bbf 98ba f4a4 826f 953f
000007a0: 6c34 fcb9 2289 bbbf 1000 e43a 9ddd c83f
000007b0: 25e3 341d 4888 c83f 3807 cb9d 578c cb3f
000007c0: 1bd4 0d4f f8d6 a9bf 5bb7 905b 0861 a73f
000007d0: 2487 1281 b445 c83f 31ee 580a fcd6 babf
000007e0: fe14 697a 277c c03f ecaa 1ad1 40ba c4bf
000007f0: 1f6d 2aea cb10 aabf 34ee 53f4 33f5 b0bf

bias f8 [66]
-0.28418134245310556 -0.47236169558974017 -0.2421062888823426 -1.835638902560781 -0.177950723764795 -1.8445819876277292 -0.2074026198279146 -2.8950076586221076
-0.007171852938942069 -0.20572772472868625 -0.44422009975176574 -0.44975524370511927 0.5438898802472606 -1.258252069051211 -0.9138323199539998 -3.230816142275114
-1.0784838795716858 -0.2253823617347256 -0.5141482851933754 -0.09916514450165509 -0.6704672731914755 -0.23217239227944383 -0.3109434059480347 -1.0157002453922195
-2.3773990325069083 -3.7582658151581216 -0.14528623312788605 -3.3456485303597234 -2.2145940810984475 -0.1443399288704641 -2.4451236409392374 -4.0656733980493
-0.4609738300061273 -2.466809274152419 -0.7828674936426322 -0.5574778770408375 -0.5060591570030525 -3.605285894314644 -0.6118908008960288 -1.0624932790988189
-3.166227733138036 -0.9810227613384068 -3.1806822179923686 -0.11026906990609833 0.0671905674353154 1.1050082320995838 -2.531490373761204 -0.4916189955452042
0.4950304539800376 -0.13919099396422102 -0.267041915254244 -0.6067012595241839 -1.1068446743765656 0.5131430481098392 -0.5384465826339392 -0.35130842105497917
-0.7868529501826242 -1.901795778792918 -0.1293134787133935 -1.1863450167824445 -1.970984342533678 1.531295710353863 -2.080652132680924 -0.20840866095687297
-2.729094906019172 -1.757300811052369
00000000: b60b fef0 0630 d2bf 063a 9c8c 2c3b debf
00000010: 5eea 73c0 56fd cebf e038 dce5 c65e fdbf
00000020: 0746 6fdd 16c7 c6bf aa6d fa66 6883 fdbf
00000030: a7ff a146 2b8c cabf a49c 7bc6 f928 07c0
00000040: 800f 319d 3b60 7dbf 9b8b cb3c 4955 cabf
00000050: 6338 2a24 1a6e dcbf 77c0 ba37 cac8 dcbf
00000060: e531 09c0 8b67 e13f 4530 ebeb cc21 f4bf
00000070: 1b5e 0747 1d3e edbf 19af 3322 b6d8 09c0
00000080: a360 0050 7841 f1bf 4479 5f48 54d9 ccbf
00000090: a266 c61a e773 e0bf 34a8 890c e362 b9bf
000000a0: 73a9 6cc8 7774 e5bf dfe8 ef2f d3b7 cdbf
000000b0: c808 dd2b 7fe6 d3bf e9fa 87e6 4e40 f0bf
000000c0: 1146 b1c8 e904 03c0 373b eeaa ed10 0ec0
000000d0: 55f1 eb41 bd98 c2bf 9d71 6e60 e3c3 0ac0
000000e0: 31dd 011a 7db7 01c0 d0b7 0015 bb79 c2bf
000000f0: 7215 c4fb 9c8f 03c0 115b 23e3 3f43 10c0
00000100: 250b 0c61 9880 ddbf 13a2 2f80 06bc 03c0
00000110: b17d 4921 400d e9bf f648 44d8 dbd6 e1bf
00000120: 0d6c 25f9 a231 e0bf f87d 8621 a0d7 0cc0
00000130: 4b4b 5204 9c94 e3bf 0930 dff3 f8ff f0bf
00000140: ef20 ac34 6f54 09c0 f08f 92d8 8964 efbf
00000150: bdf7 c984 0972 09c0 bacc 0101 983a bcbf
00000160: 2aff bba9 6633 b13f 18db aa1c 1dae f13f
00000170: a68b 6b06 7e40 04c0 9d60 fd84 af76 dfbf
00000180: 2392 9736 94ae df3f 16ae 7caf 02d1 c1bf
00000190: 5367 2bf9 3617 d1bf ea25 83c2 186a e3bf
000001a0: 972f e3c2 a2b5 f1bf 01a6 39f8 aa6b e03f
000001b0: 8bc8 e153 f43a e1bf e664 cf50 d67b d6bf
000001c0: a474 f93c e62d e9bf 0862 1969 c16d febf
000001d0: 2cc5 0015 588d c0bf 96a6 8de9 44fb f2bf
000001e0: 6ac3 c1e0 2689 ffbf 5099 47ee 2f80 f83f
000001f0: dfbc 01f2 2ca5 00c0 69a7 818f 22ad cabf
00000200: a342 c8b5 2fd5 05c0 6744 8b74 e71d fcbf

weight f8 [66, 66]
0.17080669351460454 0.03835215015514846 0.188544722125586 0.02724507299598822 -0.0020459151019989823 0.06964324211135027 0.1812285943502929 0.20308189062847587
-0.8968091575803634 -0.0018689490555370437 0.1612598389816016 0.007036315277437894 -0.11688969666771815 0.060871072920339345 0.29206147621819045 0.12156775069688851
0.23563419941103123 0.028774015181494084 0.02572245972173017 0.08453529410131395 0.13300607930583389 0.1784632366455134 0.10228972184266949 0.09261544527704343
0.09356215499130026 0.22680191784585793 -0.007117797715783842 0.20928006050955622 0.14878975460593738 -0.009117725079333483 0.19673606554473985 0.2003486596731962
0.18295214291568848 0.24342884081865684 0.16566046226807907 0.0705275011100897 0.17400067935790786 0.1534053271146576 0.16436650116232668 0.14399540998447685
0.27090567970165164 0.08126152166541299 0.2962209320728654 0.06763085854956985 -0.0595096684824026 -0.6516770672357736 0.2533008924308562 0.1694176926015205
-0.8606235128306798 -0.03243883415215529 0.047288207101713164 0.0816662336155803 0.131209641911598 -0.4046709249891221 -0.01214246126225712 0.12151229343143768
0.06569266814867306 0.11520963442213057 0.006460736702985567 0.21600280720451429 0.21171776091600672 -3.4059319500278686 0.12031914031949816 0.004374528660294657
0.3576633283643233 0.1723246239298168 0.19428949035112614 0.038302594961106357 0.14379076275717048 0.15570185784297672 0.2020936607333182 0.062298804461870055
-0.03394530367826703 0.10341822653417078 -0.2581731433697145 0.08877339281716225 0.2035237636826104 0.21983130420752414 -0.1508761158862799 0.14261175899452208
0.029612619895080287 0.10275807687102413 0.09897966432161205 0.041785124275487084 0.19951265342185662 0.11664163350355924 0.12787789791676735 0.14775058339914868
-0.03614132247849585 0.026334160430208232 0.23213441471197913 0.06621090624852627 -0.007782392687732998 0.15300306099218752 0.1675287664848273 0.07103862604066398
0.14213363994161432 0.04379875118332995 -0.005413321915860145 0.16023543243775606 0.238422456806664 0.1957412291326375 -0.005125402975093136 0.14787825466435403
0.21565450913364562 0.09189754430997969 0.22930259376502557 0.0034837017372317805 0.23935657388814718 0.17827578079462017 -0.21703468773880172 -1.1720959347712039
0.24940656701996328 0.05324183110222782 -0.3112531605182383 0.002102736199217567 0.03339925479829887 0.09565655327321303 0.05071836911337898 -0.07312691456371904
0.062208039720845806 0.09190423272022466 0.14746607621711438 -0.001570252033666589 0.11347197178046514 0.2028001001848364 0.19137184097137838 -2.8164539568279556
0.0633619922711822 0.19601482922362104 0.08185933509022282 0.07770059230110625 0.1352032162836905 0.19798025348033602 -0.02291014883537574 0.2220547267359549
0.15169415532403432 0.13582591690739387 -0.008780756276668373 0.2225520451208232 -0.06367944344386842 0.009680159811906699 0.1714028318235174 0.16697474713677374
-0.15739251191658885 -0.00626313312218145 0.053583724739470824 0.2365811187193996 0.1995941052112221 0.16833213111681483 0.17812087807194255 0.19980419185898124
0.1838196031424466 0.1300438176029114 0.0024358572243656992 0.05931469108824151 0.11769762051045098 0.17319605305286737 -0.02259495049225056 0.19766676887097348
0.1422252636844124 0.0977367072040197 0.18108852357126656 0.23969353991093445 0.18400373604303843 0.01964770092457565 0.1019594691585731 0.0574445172692215
0.20656646125819692 0.15143410883813202 0.08662849504697054 0.027012033227746333 0.12079607732106319 0.10038752991276302 0.030599716453226566 0.19731874732987914
-0.12750208841725577 -1.386583778724632 0.12739620869822313 -0.004162352564491667 -0.20264497461695283 0.1428788769813293 -0.07442877918639937 0.05569077238108868
0.19674630814046418 -0.161888839947442 0.18145398431828608 0.002951938015015832 0.07088318164350002 -0.033148064085328985 0.07225649168443288 0.15488204110251086
0.15425051166216375 -2.5762703879809785 0.18291156659209337 0.06838554917060168 0.041361810426682445 0.13782123451417236 0.12855383963608977 0.0357883247388449
0.03862298447564166 0.06830897241468972 0.08469533695330146 0.21358889691134675 0.13243482197119166 0.09896700713440444 -0.9213319891879814 0.11946658531608745
0.0619572550033175 0.040427558087695326 -0.11317970016738052 0.08921000617123218 0.13252376457551215 0.18539917415984183 0.07493907418037545 0.07837589848986404
0.14200406465577875 0.1908556568606115 0.1816779587662901 0.18327275729491357 -0.026334613960055563 0.18746791833662005 0.25323162484579703 0.12884910099061425
-0.020116730707088734 0.26526261192125944 0.1500491107543037 0.10415680732371661 0.1962430996003188 0.09888183005740074 0.043933777606298435 0.13442403633426595
0.24171395781764202 0.20026370731515403 -0.016816522051051344 0.02175572862444396 0.21951223495973976 0.1613599978542287 0.06052191063381551 0.14000588871321903
0.2247745662224182 0.1508014645769384 0.0320292145339721 -0.7508754523904803 0.16541688951057484 0.15631047433828377 -1.9121505540117656 0.09498638102598767
0.1432707976397303 0.06596129681220045 0.1093064513952533 -1.0760786837955885 0.09104146272064546 -0.01608079993607748 0.11453278277579322 0.2068631595000874
00000000: bca3 4a65 fedc c53f fd97 4b9d e4a2 a33f
00000010: 3770 aec3 3b22 c83f a1c7 fae5 21e6 9b3f
00000020: 93e4 824e 98c2 60bf e572 41b7 23d4 b13f
00000030: cfd2 eaa2 7f32 c73f 1e5f 545f 96fe c93f
00000040: 7af3 511e a9b2 ecbf 482c 92c4 f09e 5ebf
00000050: 39c7 4a93 29a4 c43f a1da 0380 1cd2 7c3f
00000060: 9c5d 6db0 7bec bdbf 523a ee46 7e2a af3f
00000070: bed4 319e 22b1 d23f 87cd 7d69 101f bf3f
00000080: 0b0f 25ee 4229 ce3f 706c b778 ef76 9d3f
00000090: 252b 1c0d fd56 9a3f cddb 85e3 1aa4 b53f
000000a0: a1d4 64dc 5706 c13f 1624 7722 e2d7 c63f
000000b0: e0fc 07c2 a82f ba3f d6c2 9154 a5b5 b73f
000000c0: 07b7 d47b b0f3 b73f 7db5 e861 d807 cd3f
000000d0: ae96 8a46 8d27 7dbf 02f6 cb63 b0c9 ca3f
000000e0: 3995 01ed 8a0b c33f 73bc 3c58 50ac 82bf
000000f0: dfab babb a52e c93f 0602 8c5e 06a5 c93f
00000100: 032b 47cf f96a c73f b612 1c1f ad28 cf3f
00000110: 0840 d7ad 5c34 c53f 4387 bc1e 170e b23f
00000120: b878 a97d a745 c63f 68ac 7e27 c9a2 c33f
00000130: f56a 8625 f609 c53f fe26 540c 716e c23f
00000140: b5a1 a7c6 8456 d13f 97e4 f919 8ecd b43f
00000150: a630 e9a3 48f5 d23f d8b9 ab85 4150 b13f
00000160: 43fe da1f 0d78 aebf 3f96 6add 89da e4bf
00000170: e870 42f2 1436 d03f 082d 8b9c 7aaf c53f
00000180: 52d8 3852 3a8a ebbf 7c95 9ba7 d29b a0bf
00000190: c806 faed 2836 a83f 7500 910a 14e8 b43f
000001a0: 4810 7740 7acb c03f 311a 1ee1 20e6 d9bf
000001b0: ed5e 1d90 25de 88bf 5298 59fe 6d1b bf3f
000001c0: 9a18 4915 3cd1 b03f 65f4 06ec 607e bd3f
000001d0: b0e8 8ecd 9276 7a3f 7dcf 64e0 faa5 cb3f
000001e0: 9dec 8e4d 9119 cb3f 6c2b 0e40 593f 0bc0
000001f0: e54c c134 3ccd be3f 9388 8098 06eb 713f
00000200: e768 93ba f4e3 d63f de7a 09b8 bb0e c63f
00000210: 3ade 815f 7ade c83f 3476 6bd1 659c a33f
00000220: 0325 c157 bc67 c23f df56 aed9 09ee c33f
00000230: fa0c ca7f 34de c93f 2cbd 7cff a0e5 af3f
00000240: b748 4d62 4761 a1bf 114b c6ec 9d79 ba3f
00000250: cf9e dea5 e885 d0bf a998 e762 dab9 b63f
00000260: e9e1 7c12 110d ca3f ffaa 1aa3 6e23 cc3f
00000270: 6f52 bd97 e84f c3bf 6508 7424 1a41 c23f
00000280: ee34 fe47 c552 9e3f 5197 8f73 5a4e ba3f
00000290: 4dfa 3a35 bb56 b93f 30ed 711c dc64 a53f
000002a0: 23e3 ca70 a189 c93f 36f3 3fe1 39dc bd3f
000002b0: de84 b78e 4d5e c03f 9b06 d5b9 7de9 c23f
000002c0: db9d 288c 1d81 a2bf 2aee 4297 57f7 9a3f
000002d0: 0b66 bb9b 94b6 cd3f 5cd7 f9ac 32f3 b03f
000002e0: 344d 4121 6ee0 7fbf 881d 93b3 9a95 c33f
000002f0: d984 9826 9571 c53f e5f0 985f 962f b23f
00000300: 54f7 9a63 6f31 c23f 3b47 e037 ca6c a63f
00000310: 4a20 7689 472c 76bf a483 fd3a 9882 c43f
00000320: 91ec 4e87 a084 ce3f 2940 cd70 0c0e c93f
00000330: 1471 82e2 5ffe 74bf c156 c9b5 aced c23f
00000340: 6d62 fb23 919a cb3f 03e2 64f3 9886 b73f
00000350: cbeb 8d92 c959 cd3f fe45 f920 da89 6c3f
00000360: 5252 7778 3ca3 ce3f dd43 17a4 bdd1 c63f
00000370: dbc5 f7ea cac7 cbbf b3de b9aa e7c0 f2bf
00000380: 6a12 61ec 8dec cf3f 83f8 b966 8342 ab3f
00000390: 4df5 4c60 92eb d3bf 60ed a5e6 c139 613f
000003a0: e190 2306 b519 a13f 43df f4a7 f27c b83f
000003b0: 9bfd 4b11 c2f7 a93f f330 820a 72b8 b2bf
000003c0: 4671 4c70 bbd9 af3f f2b7 e529 0987 b73f
000003d0: 0c9c 4f1b 2be0 c23f 748a 6348 1dba 59bf
000003e0: a44a cfc7 7f0c bd3f c4ae f58a 5af5 c93f
000003f0: 0c77 2c5b df7e c83f 7e20 1a03 1988 06c0
00000400: c637 9dd4 7d38 b03f f9f2 8590 0317 c93f
00000410: 41b6 15bf bbf4 b43f 0f26 d09e 2fe4 b33f
00000420: c950 20c8 564e c13f add5 f9bc 6a57 c93f
00000430: 324c fa0f c275 97bf fe66 a00e 4a6c cc3f
00000440: 9937 0ece b66a c33f 1882 885f be62 c13f
00000450: 6ae9 5628 a5fb 81bf 49d6 b9dd 957c cc3f
00000460: 66d6 04c7 4b4d b0bf ee5e 7f0e 31d3 833f
00000470: 86d8 8f2a 87f0 c53f 88eb 1ab3 6d5f c53f
00000480: bf94 a815 7025 c4bf 305c e2fe 5ea7 79bf
00000490: 8131 b572 536f ab3f f91d e043 4a48 ce3f
000004a0: 7ba4 2db5 4c8c c93f 46a0 0143 e88b c53f
000004b0: d0e2 0639 aacc c63f 18ab d10a 2f93 c93f
000004c0: 1825 ee97 6687 c73f 2464 d39b 46a5 c03f
000004d0: 305a b9e3 5cf4 633f 11ed cac4 7e5e ae3f
000004e0: d1ce e866 6e21 be3f b144 d4cb 492b c63f
000004f0: 9b02 ad75 2123 97bf f145 e709 254d c93f
00000500: 7242 18fc 6f34 c23f a65b 0fd9 4505 b93f
00000510: abb2 35a3 e82d c73f 7c6e 7d25 47ae ce3f
00000520: f8c5 5236 6f8d c73f 768b a6e3 861e 943f
00000530: 36b8 8d09 041a ba3f fff9 0226 5e69 ad3f
00000540: cdf6 c611 c570 ca3f 14b6 7a60 3162 c33f
00000550: 36e1 20f9 482d b63f 761d 3fdd 0aa9 9b3f
00000560: dd3c 94e1 7dec be3f 41cb e645 ffb2 b93f
00000570: 80e2 bb35 8855 9f3f c6b2 559f bd41 c93f
00000580: 893f f609 fd51 c0bf 1395 ec78 722f f6bf
00000590: 1d23 ffda 844e c03f 4dfd 3802 8b0c 71bf
000005a0: 23db 5641 45f0 c9bf 2d46 f6e3 da49 c23f
000005b0: 529e 7cb4 c30d b3bf c3aa 213c 8083 ac3f
000005c0: 5a38 89a7 fb2e c93f adb0 9404 c6b8 c4bf
000005d0: a81e 3058 e239 c73f 357c 7fa7 a92e 683f
000005e0: 5ec9 fe72 6625 b23f 9e2a 5876 c8f8 a0bf
000005f0: 7455 b5c4 667f b23f 0ef2 a2ba 2cd3 c33f
00000600: 2879 7d13 7bbe c33f 9540 30a6 339c 04c0
00000610: 8b5d 496e a569 c73f 87ec 3421 b781 b13f
00000620: 0502 2c0e 602d a53f 4363 774f 20a4 c13f
00000630: e390 81c4 7374 c03f 86f7 a9e8 d852 a23f
00000640: 87c2 644e 64c6 a33f a261 8b62 b27c b13f
00000650: b18f 56f6 97ae b53f 04f0 8287 e156 cb3f
00000660: 86e2 9bce 9ff3 c03f d177 06db e655 b93f
00000670: ae45 4a39 8d7b edbf 50bb e5b4 5c95 be3f
00000680: f075 fa7f dcb8 af3f 7805 b0bf ebb2 a43f
00000690: 763c ca46 58f9 bcbf 0e3d fb8a 77d6 b63f
000006a0: 5fb6 65e9 89f6 c03f 2b68 dcfe 28bb c73f
000006b0: 4d17 cc08 352f b33f 38ff ce60 7110 b43f
000006c0: e83d cc6e 302d c23f ca88 3c4a f56d c83f
000006d0: 8312 a72d 3941 c73f c129 6a51 7b75 c73f
000006e0: 064b d806 76f7 9abf a509 27e1 f2fe c73f
000006f0: 13a4 c16a f234 d03f 0ed5 6f99 207e c03f
00000700: 5c21 f5f1 7a99 94bf 126a c308 10fa d03f
00000710: 23e7 bd2b cf34 c33f 6b73 1c41 05aa ba3f
00000720: 57ad 6c6f 7e1e c93f ebe1 43d2 5150 b93f
00000730: fc7f 04f4 7c7e a63f f10d ed8b ce34 c13f
00000740: a320 e8a3 7bf0 ce3f 4e45 bfbc 3da2 c93f
00000750: a487 f7b0 5938 91bf dd42 c53b 2247 963f
00000760: 66aa 1c17 fa18 cc3f 4351 d5c4 71a7 c43f
00000770: 4033 ba55 bafc ae3f 03a6 a284 b6eb c13f
00000780: 7ced 72b9 69c5 cc3f 47ff 455f 764d c33f
00000790: ce44 e119 2266 a03f b75c ecf4 2b07 e8bf
000007a0: 1bb5 5371 612c c53f 0210 a74b fb01 c43f
000007b0: 1b24 e82d 2b98 febf 606f 1208 0751 b83f
000007c0: 19d0 2a8f b256 c23f ca32 9cec d6e2 b03f
000007d0: 6003 fcf1 81fb bb3f 4a32 2d48 9e37 f1bf
000007e0: bd15 f748 7e4e b73f 82a0 4637 7c77 90bf
000007f0: 0587 573c 0552 bd3f e969 66f4 7d7a ca3f

bias f8 [66]
-0.031420633571990556 0.16674238414272738 0.061516640301939304 -0.041697641185564495 -0.046024294806148155 0.018984517674260293 -0.010312648950404959 0.07758913138914231
-0.06871768526453048 -0.18758871370562094 0.07687966655530756 -0.052867464192087446 0.02589225688919336 -0.0005317086205055689 0.13697020528343107 0.1122250314265242
-0.07618762737142153 0.033787928308694454 0.06183853663636924 -0.02847809187387413 0.1389629290268315 -0.16903587427283007 0.02208516010944968 0.07246040875058908
-0.05464439372783046 0.11659258441802635 0.10012146754524084 -0.05560075296450841 -0.12991753983282484 0.09273852397250944 0.013055559089940631 -0.06827943217681577
-0.04873933887176864 0.033893391872495314 0.0012799797655875574 0.06093822090759965 -0.03871488901691897 -0.11556786713120178 -0.17457170997989274 -0.01060462695648156
0.13317626188673795 0.01878818866166134 -0.056135852644008326 -0.04745268810575813 0.03013660044472047 0.04144734049378317 0.1625802083661193 0.1071119945267777
-0.200329629259966 -0.04169888041711438 -0.126924061648499 0.059748344510467406 0.03232573773795448 -0.054369357413665255 -0.1484401028019874 0.017004144822462413
-0.01506985284321525 -0.006817618014724999 -0.17857256018514128 0.0009661919101890772 -0.15962890901362678 0.11350896317421726 -0.07937711841532172 -0.031199993159464864
0.024818485058611565 -0.0856321094793106
00000000: 32fc 3883 5d16 a0bf b902 607f d057 c53f
00000010: 5664 83ec 1b7f af3f 1db8 6caa 6459 a5bf
00000020: d619 0712 7f90 a7bf d045 2a6a ad70 933f
00000030: 4123 d14f cc1e 85bf dc66 d79d e1dc b33f
00000040: e833 de72 7b97 b1bf c96f 3b2f e802 c8bf
00000050: 321a 95c5 62ae b33f 8276 74bb 7111 abbf
00000060: 1820 3cf2 7f83 9a3f 7cd4 6a91 4b6c 41bf
00000070: c4ff 1b5c 3d88 c13f 89fd c497 c7ba bc3f
00000080: 038b eb47 0881 b3bf 2cbe 2bbe a64c a13f
00000090: 29ae f8f8 4ca9 af3f 92ca 0065 5c29 9dbf
000000a0: f867 c389 89c9 c13f 1c21 edaf f7a2 c5bf
000000b0: d589 9601 7e9d 963f adac d6ed c38c b23f
000000c0: fe09 f197 59fa abbf 2913 08f9 02d9 bd3f
000000d0: 5efd bb7c 8fa1 b93f e227 3baf b377 acbf
000000e0: 0c1f 6150 23a1 c0bf b58e 8a3f b6bd b73f
000000f0: 0f0d 947a dfbc 8a3f 095a 30c8 c27a b1bf
00000100: b23f f7d4 5cf4 a8bf 8327 4983 795a a13f
00000110: 9837 e5ce 9ff8 543f d8c6 bf63 4b33 af3f
00000120: cc51 641c 70d2 a3bf 3507 cc11 db95 bdbf
00000130: dad0 95a4 5d58 c6bf bc06 b7ef e0b7 85bf
00000140: e51a b474 eb0b c13f 2662 69ff 353d 933f
00000150: 1f6a 7aa6 d6bd acbf 9604 0bff b74b a8bf
00000160: 2870 4a05 21dc 9e3f 7f9c daf7 9538 a53f
00000170: 8465 f4a2 6dcf c43f ab78 8011 b16b bb3f
00000180: a4b1 0bbb 66a4 c9bf 66b7 573f 8e59 a5bf
00000190: 908a ed32 0c3f c0bf 2140 53c3 5597 ae3f
000001a0: 06a3 cec4 ff8c a03f 8511 fee7 4cd6 abbf
000001b0: 6586 79d5 1500 c3bf ebbc a2d7 8869 913f
000001c0: 34e8 ef68 f1dc 8ebf e3cd 8e66 caec 7bbf
000001d0: 6ea5 fa34 77db c6bf 543f f553 01a9 4f3f
000001e0: 03d7 da57 b86e c4bf 83d9 a264 ec0e bd3f
000001f0: aaff a40f 0f52 b4bf ff73 0519 e4f2 9fbf
00000200: d1e9 a656 046a 993f 4c7d b365 fceb b5bf

weight f8 [1, 66]
0.1921826106357894 0.2263982003283803 0.2708573291269153 0.17978924929685938 0.2838231747351175 0.2285386373357224 0.025408651464576205 0.18983779083065927
-0.048483702738462336 -0.02751029719429722 0.29385942520960984 0.007585117870507354 0.2399871437939557 0.027069387475248435 0.2495533192439776 0.16492362718215461
0.19121092207279294 -0.02228812378462112 0.22421950153276168 0.241901760311077 0.18281831896139186 -0.009288126103516446 0.04798592297337647 0.19661614980297443
0.2269322139548496 0.24069711945808386 0.18373073397490305 -0.0014709180703996853 -0.00996063787220665 0.20879977467448477 -0.06150834002627966 0.020904556032386116
0.24878831500386894 0.03711940413570471 0.26592095401781024 0.2426206284386549 0.2014385622202818 0.026850406424082658 0.03619122874591721 0.2618676477856399
0.2855070673143729 0.279415639075054 0.18542014095406878 0.18975374779011547 0.20246397890690737 -0.003551708058394965 0.20898413467414456 0.19163380239889583
0.0033425419468660223 0.03447279426718439 -0.010601442163594857 0.20827611719427208 0.20059517661499124 0.27534525943382593 0.08394413509757094 -0.04018201880126285
0.20946241416941455 0.27774574699449595 -0.07890197675797428 0.23986591415987424 0.004027628523530273 0.22030826971393438 0.16982572069414528 0.18897797211033032
0.04017245787620399 0.030700715168957393
00000000: f232 c595 7099 c83f a34e 24c1 9dfa cc3f
00000010: 3ed9 9efa b955 d13f e981 f388 5503 c73f
00000020: e963 55ad 282a d23f c35a 9d0a c140 cd3f
00000030: 0da3 4dbc b904 9a3f 1acf 94cf 9a4c c83f
00000040: 1c26 4d1b dbd2 a8bf 24d0 02cb a82b 9cbf
00000050: 6c62 39c3 97ce d23f 36ca 0a93 9211 7f3f
00000060: 441a 0713 e6b7 ce3f 1b3d b7d7 13b8 9b3f
00000070: c06c 61f8 5cf1 cf3f f1e2 8aa8 371c c53f
00000080: 3a67 7878 9979 c83f cb01 faaa b2d2 96bf
00000090: 7fb4 1a81 39b3 cc3f 8bc1 b00a a3f6 ce3f
000000a0: 8741 8636 9766 c73f 6c87 d82e a705 83bf
000000b0: f394 ad63 9c91 a83f 8a75 a2ce b72a c93f
000000c0: 7327 ac62 1d0c cd3f 122d 28c8 29cf ce3f
000000d0: c99c d81a 7d84 c73f 3542 7a40 7a19 58bf
000000e0: 2975 442f 3e66 84bf 69cd d175 f3b9 ca3f
000000f0: 5b30 b069 057e afbf f169 fc01 0168 953f
00000100: aec6 48a6 4bd8 cf3f d3a5 9e85 5001 a33f
00000110: a4f7 3452 d904 d13f 8e4f 3d58 310e cf3f
00000120: edd6 7122 bdc8 c93f 4229 e745 ac7e 9b3f
00000130: 2446 bb1f a887 a23f 51aa c785 70c2 d03f
00000140: 3418 396f bf45 d23f f95e f421 f2e1 d13f
00000150: 886e b5e0 d8bb c73f 39a7 86ce d949 c83f
00000160: 40f8 02f4 56ea c93f b478 95be 7818 6dbf
00000170: b876 e7fb fdbf ca3f d441 0ed9 7487 c83f
00000180: 2410 1d8b d161 6b3f ec65 f507 6ba6 a13f
00000190: d589 107b 35b6 85bf cc91 f1b3 caa8 ca3f
000001a0: 4bfb a54d 1aad c93f 6c1f 18b9 419f d13f
000001b0: f160 efe2 5c7d b53f 3401 47d1 bc92 a4bf
000001c0: dfa6 4c15 aacf ca3f e071 fc18 96c6 d13f
000001d0: 88e7 c381 eb32 b4bf 68f3 5e20 edb3 ce3f
000001e0: b8bd 9f4c 467f 703f 4dd7 bab6 0f33 cc3f
000001f0: 7553 3366 d9bc c53f 1d6b f020 6e30 c83f
00000200: a874 8e01 7c91 a43f 103b 751e 0270 9f3f

bias f8 [1]
0.2136804058638136
00000000: 3a94 7d29 e159 cb3f
