pre-trained models/NO5437_YOR224C.pth (torch, 80279 bytes, 6 tensors)

weight f8 [84, 28]
0	0xbfddf02aab8fd74e	-0.46778361085977316
1	0xbfc522c7fbc2995b	-0.16512393753982732
2	0xbfdaff6b796e0abc	-0.4218395887220756
3	0xbfc156630bebb2a3	-0.1354488189894215
4	0xbfb8da83f91a2a02	-0.09708428222271695
5	0xbfb977e0888dd7ea	-0.09948542913284056
6	0xbfcb8cbd3b788ec8	-0.2152325191865343
7	0xbfca9be8068bf52f	-0.20788288421310017
8	0xbfc8d1a90c69f772	-0.19389832597874662
9	0xbfd0baf4eada152a	-0.2614109319186634
10	0xbfc021800c34e3f6	-0.12602234455133016
11	0xbfc5163d9f1e8e8c	-0.16474123258113982
12	0xbfd06bea71796d82	-0.25658665734746233
13	0xbfae0c036649fce9	-0.058685404049350805
14	0xbfbebbca0bf03b54	-0.12005293647255871
15	0xbfce5de4faac788c	-0.23724043121268712
16	0xbfd1bd1921f22f16	-0.2771666366104325
17	0xbfd7a4ad1bd89cb4	-0.3694260379729244
18	0xbfcfa87b04b0280b	-0.24732911805068655
19	0xbfd7875ed28bdf6b	-0.36763735352678023
20	0xbfc5bd21a49954e6	-0.1698343328195399
21	0xbfd2bd3ccf69a163	-0.29280014281405026
22	0xbfb316a8f909939f	-0.07456451492323744
23	0xbfb84d371937a5e7	-0.09492821088465285
24	0xbfb9c2623656a702	-0.10062230898497762
25	0xbfd22ff8ec4e5195	-0.2841780002284165
26	0xbfc93470aebfef81	-0.19691284687712243
27	0xbfbad58f02892632	-0.10482114612491314
28	0x3fc2cdf4fa395ac5	0.14691030710192457
29	0xbfb91839b043dd44	-0.09802589944216772
30	0xbfadee131bea1b78	-0.05845699039223623
31	0xbf6d391d1d07e86f	-0.003567273008454434
32	0x3f78469525b8c228	0.005926687819326072
33	0x3f9392e268bda006	0.01911500705992355
34	0x3fd0dc1bdf460439	0.2634343796162884
35	0x3fc092d48d5d2651	0.12948090460331454
36	0x3fcb90c1374711f4	0.21535506438352991
37	0xbfb886c0bc71ab8e	-0.09580616570171527
38	0xbfa674b96e0ee5a7	-0.04385928600772653
39	0xbfb8651305baac54	-0.0952922715174947
40	0x3fcf5dca711b9dd5	0.2450497677120739
41	0x3fb33358e131af39	0.07500224588301031
42	0xbfb3194b1c373367	-0.0746046966443835
43	0x3fc984a754ca70e8	0.19936076774764122
44	0xbfb9e3a1859c6562	-0.1011296225737133
45	0x3fc449fcb8c96293	0.15850790999208594
46	0x3fa9e592cc641275	0.05057963128095803
47	0x3fc4de47bfae8c24	0.1630334554621139
48	0x3fba2d5f89575c97	0.10225483992631933
49	0xbf968e31376ddcef	-0.022026795395018558
50	0x3fcc8cffd7b73a2c	0.22305295975680062
51	0xbfa006689cd96dc9	-0.03129889406838122
52	0xbf6b5db102da433c	-0.003340574002159617
53	0x3fcf46e1a49cc1ee	0.24435062921249034
54	0x3fb57c4e36bf7534	0.08392800175302711
55	0xbfb8012106505049	-0.09376722721236876
56	0x3fc3e2214ea69925	0.15533844318742598
57	0x3fa98617bd85456e	0.04985117138370297
58	0xbfa3643eb3b14ce6	-0.037874183116082524
59	0x3fc7229237e95049	0.1807425282482902
60	0x3fc5ce4146d3e668	0.1703569026793048
61	0x3f87f37083a9e305	0.011694792764715975
62	0xbfaab0614529a042	-0.05212692231435813
63	0xbfb179bd6fe08958	-0.06826385480284125
64	0x3f9ce2c0c508ccc2	0.02820874407389052
65	0xbfb5445eda050af5	-0.0830745012545256
66	0x3fac6ff8d61dc0de	0.055541778695330044
67	0xbfbacfce4dde6f56	-0.10473336602302416
68	0xbfbe1d7b00960ef8	-0.11763733639059726
69	0x3fce50dbeb96afb6	0.23684262278891105
70	0x3f9cf3d2de2d06f6	0.028273863611736304
71	0xbfc1ff4496078f6c	-0.14060265851650955
72	0x3f9c6775faca3403	0.02773842185210996
73	0xbfaa6a79810739e2	-0.05159358692218398
74	0xbf8ca7e0446b7d5b	-0.01399207314301403
75	0x3f9b9638c9570827	0.0269402382743992
76	0x3fcd4938912a407c	0.22879702652108225
77	0x3fcb4f1bb969788a	0.2133516936618814
78	0x3faeaa1579d60881	0.05989138710266762
79	0x3fc40cb0611be342	0.15663723699233328
80	0xbf918cf8022f9d1b	-0.017139315732404996
81	0x3fc20320511656c8	0.14072040519083928
82	0x3fa304560ccf2925	0.03714245706903999
83	0xbfbf8be7893b8f38	-0.1232285223045978
84	0x3f907a8346204562	0.01609234920039649
85	0x3fbc4292748646a7	0.11039080948674017
86	0x3fa2158d2b4fbac1	0.035320674454728536
87	0x3fb50b62922acaaa	0.08220497196706825
88	0xbfb4b7ffb07f666e	-0.08093259867691824
89	0x3fb3582fadbf156f	0.07556436530929543
90	0xbfbbe5ecffe07878	-0.10897713896744843
91	0x3fae92155089c6cc	0.05970827682621191
92	0xbfb0286076364099	-0.0631161011317566
93	0x3fc94dcd1af0c33f	0.19768680396512114
94	0xbfa39e5fd1cdfb74	-0.03831767498103647
95	0x3fc287aadd7f4bdd	0.14476524176879382
96	0xbf7c215abab7dfd8	-0.006867746745676549
97	0x3fc19f386fc5e695	0.13767152269047203
98	0xbfb38481530cfa92	-0.07624061849217359
99	0x3fbf620bb5cf73f9	0.12258980931024145
100	0x3fbc14b5ffcb751e	0.10969102377881199
101	0xbfbd1b90a9221331	-0.11370185975290494
102	0x3fcc5f641ca40c87	0.2216611041877494
103	0x3fcb312daf8a84cd	0.2124383074888442
104	0x3fb68a2d5b0fa613	0.0880459163014609
105	0xbfa463cfb2825e39	-0.03982399992053982
106	0xbfbc42bd80a74962	-0.11039337531045626
107	0x3f9394f716dc87e6	0.01912294461283883
108	0x3fc1966f62f226ae	0.13740341502516656
109	0x3fb40ec0cb5bdf2b	0.0783501144868494
110	0x3fc89b7f1b5114b5	0.19224537690948798
111	0x3fcc72aa52cceeb7	0.2222493080424692
112	0xbfbfe837c422c2dc	-0.1246371129843839
113	0x3fb3b3435b63a46c	0.07695408803160014
114	0x3fc582ad16321a57	0.16805041869902723
115	0xbfc874d8aa8262db	-0.19106586766863284
116	0x3fbf29f86dcb4bbf	0.12173416786690348
117	0x3fbfaa396b3b633b	0.1236911665722688
118	0xbfbdf6abacdaaded	-0.11704514474939005
119	0x3fbdd559c34db3d9	0.11653672235634306
120	0xbfc0fa2fcd43a18c	-0.13263509295144293
121	0xbf8a779bc0e2ec04	-0.012923447441030696
122	0x3fac063a5c2406d0	0.0547350156284786
123	0x3fab6cdbe1b570e5	0.05356490259393513
124	0xbfc92427677b2904	-0.1964158301619322
125	0x3fadc330a1601b8e	0.058129806231639866
126	0x3f730c128ee1836e	0.004650185101213162
127	0xbfae31540aa60e74	-0.05897009496677877
128	0xbf9517e783dd1be1	-0.020599000380823077
129	0x3fc20159295d1e2a	0.14066614646638814
130	0xbfb9e151c8c9f528	-0.10109435226509744
131	0xbf97355f951007c6	-0.0226645407419779
132	0xbfbfaf53c169e39f	-0.1237690303040737
133	0xbfbbf2d4df83b027	-0.10917406517882054
134	0x3f7c73afdaebd834	0.0069462651579126795
135	0xbfc2b5c2c2946520	-0.14617189885101656
136	0x3f810f3b710bbcd0	0.008329834353814652
137	0xbf91fadcd13e708a	-0.01755852725146715
138	0x3fbe2efce613dcb7	0.11790447823647097
139	0xbf47e5099123a46e	-0.000729207679140432
140	0xbfd7e543f8917cc8	-0.3733682563233285
141	0xbfaa885d6fc96085	-0.05182163228590845
142	0x3fc7c3ac61494868	0.1856589770346233
143	0x3fa75e514e04fd44	0.045641461156714885
144	0xbfcf0ce7935bfb1c	-0.24258131690290774
145	0x3fd7dbb90cafb33c	0.37278581847094805
146	0xbfad034c50beeb86	-0.05666578756014133
147	0xbfb37f8cc53880b5	-0.07616500678023182
148	0x3fb206d00a96c812	0.07041645296592972
149	0xbfc056766e1257d3	-0.12763862967102443
150	0x3fc7ba64b6c7c0a4	0.18537577557390705
151	0x3f6b665b4823571d	0.0033447058532186783
152	0x3fbcbbb717ce4962	0.11223930674740282
153	0x3fb2bc12777b8e0c	0.07318225304657505
154	0x3fa52f43727cb2e6	0.04137621662662187
155	0x3fcb1c31b507c26d	0.2117979177414954
156	0xbfce217c5eddea4e	-0.2353969062058518
157	0xbfd498b22ebed507	-0.3218198257921618
158	0x3fc0cf9096b0b2ea	0.1313343749801768
159	0xbfc68eb3aeb58767	-0.17622991591184275
160	0xbfce175dffd2402c	-0.23508810988687523
161	0xbfc9d5dafdf6fcb9	-0.20183885002731985
162	0xbfcf5045cccd05c3	-0.24463722705881538
163	0xbfa1b6eaea02a61f	-0.03459867579051611
164	0x3fd6f30d45ccbbfd	0.3585847074163551
165	0xbfc301ecd2c320b8	-0.14849624911426473
166	0xbface25862177d3f	-0.05641437718781583
167	0x3fcf75ff7ef24ca2	0.2457885141235226
168	0x3fc12abec72aee8b	0.13411698079095333
169	0x3fbf93dc13aa0cb8	0.1233499095924796
170	0x3fd09b1dd5a3e892	0.2594675623255479
171	0x3f9086c8a8d27850	0.016139159492574884
172	0xbf7b4cfd46b11a7b	-0.006665219650193617
173	0x3fc0a2acf13b5eb6	0.1299644639864163
174	0xbfa9e415dc579ca9	-0.05056827845310725
175	0x3fd0210dbe4ffb3a	0.25201743684003797
176	0x3fb2a4325d058480	0.07281794329675684
177	0x3fcc8ccf2c467e61	0.2230471578777609
178	0xbfa2797807053480	-0.03608298383424202
179	0x3fd34109f91efc12	0.3008446629355045
180	0x3fbf727c3595c465	0.1228406554053137
181	0x3f9632a80bbd0f66	0.021677613941633388
182	0x3fc31de894d4c1a0	0.14935023562567284
183	0x3f946f8a790ee924	0.0199567448032464
184	0xbfaba54a69e7ffd7	-0.05399544279862283
185	0x3fb59882e3c89a0d	0.08435838757632315
186	0x3faf07028bf5f688	0.06060035665994429
187	0xbf918ed639a8bb71	-0.017146441716416164
188	0x3fcbbca3b4acb1fb	0.2166943199348593
189	0x3fbe756255cec30b	0.11897863955415404
190	0x3fc3f7412981104f	0.1559831097275741
191	0x3fbe3b347221b01a	0.11809089456954816
192	0x3fc2a9e508d02051	0.14580977373430185
193	0xbf3fa7b07dd68791	-0.0004830175292572731
194	0x3fd28d9043eb7201	0.28989035256179824
195	0xbfa47c54a7d11219	-0.040011067853388656
196	0x3fb3f7760a19360a	0.07799470659775679
197	0x3fdb221636a47254	0.4239554914109125
198	0x3f976d5e05d716ba	0.022878140551049177
199	0x3fc2dc9495335660	0.14735657963926752
200	0x3fceb85416df3974	0.24000025860591345
201	0xbfc8e682b939e2f8	-0.19453462642902486
202	0x3fb2f19474624c23	0.0739987167492449
203	0x3fb72033ce9a17df	0.09033511919014313
204	0xbfcb2433b2e8a2a3	-0.21204229579713738
205	0x3fbc2b4ee57677b7	0.11003583051794306
206	0xbfc352b08f1edf11	-0.1509609888869297
207	0xbfa1fb54afee8920	-0.03512062690357909
208	0xbfb5d09f55bad7f3	-0.08521457522405722
209	0xbfc3eb2b64689b04	-0.15561430361523076
210	0xbfc955a85cd5e024	-0.19792656453114532
211	0xbfc3d21cf32c46fa	-0.1548496425025901
212	0xbfcf834644d93cc5	-0.24619367944476359
213	0x3fbe7fd6a66a4b9e	0.11913816035148136
214	0x3fa689118fb68e47	0.044014500420669615
215	0xbfd2c29854ce3b79	-0.2931271389178885
216	0x3fbe5efe4d0da096	0.11863698369200146
217	0x3fc43e381bacd115	0.1581487784511714
218	0xbfbad7aaabd28a3a	-0.10485331244357435
219	0xbfd523b91327103d	-0.33030535574312464
220	0x3fd2351299e3eb63	0.284489298137194
221	0x3fa8f364cbb16532	0.04873194681631289
222	0x3fc3d7e8fae0cf4b	0.15502655267629914
223	0xbf9de1f4d283f2b9	-0.029182267521707248
224	0x3fb7330c5f4d05ac	0.0906226856868872
225	0x3fc0829a7c32882c	0.12898570122075748
226	0x3fa4e9c9e9824838	0.040846166376596604
227	0x3fc7ad651f314805	0.18497909567901175
228	0x3fb7f1f1c25e00ae	0.09353552813809315
229	0xbf95f3f691dee676	-0.02143845811199304
230	0x3fc9c638bc0e29fa	0.20136174375905097
231	0x3fbf2ed8f676ab7e	0.12180858628441446
232	0xbfb563658d6982c2	-0.08354792311139206
233	0x3fb1d3215dee1a1f	0.06962784331526749
234	0xbfb62f446701692f	-0.0866587401846217
235	0xbfa0446dc6cfe3ad	-0.031772070426036116
236	0x3fc017d04ed1b747	0.12572673653215302
237	0x3fc3969743ed90de	0.15303316895290825
238	0xbf7ae6f2b075f130	-0.00656790543086698
239	0xbfa521d45da2760a	-0.04127372401238112
240	0xbf89ea072ac8bdf4	-0.012653404229324906
241	0x3fc4daddcb1869b0	0.16292927185788875
242	0x3fb9e57f4e382bcb	0.10115810069707647
243	0x3f97b239fc89ca2c	0.023140817679129608
244	0x3fa8356d97f890dd	0.04728262405504478
245	0x3fb4f41a5a2c5ad3	0.08184971524711253
246	0xbfbfcf4db9df906c	-0.12425695217058469
247	0x3fc4aae3505cfbbd	0.16146508621201675
248	0x3fc0094bcabd2f6b	0.12528369330754727
249	0xbf808baf5a73a8b0	-0.008078927944059039
250	0xbfc0a37d127be2af	-0.1299892750028184
251	0x3facc1298b32ce93	0.056161211244583197
252	0xbfc5d4ecffe1a4f0	-0.17056047910890682
253	0x3fd415785243e48e	0.31381042512618584
254	0xbf9a21e9ea725c35	-0.02551999562691894
255	0x3fc8173feb166fb2	0.18820952395333063

bias f8 [84]
0	0xbfe5cf604807ec7b	-0.6815644652227911
1	0xbfb19c7e2c42af01	-0.06879414158418841
2	0x3fbb02a5d0e92e76	0.10550915098536415
3	0xbfc261b10c772254	-0.1436063109270146
4	0xbfc8df8a10edeb7b	-0.19432187868718728
5	0x3ff6abae9f8dd103	1.4169145805909131
6	0x3fc3addfeb353ac2	0.15374373421442128
7	0xbfc8649bfe3de8fb	-0.19057035364296113
8	0xbf98172e0ecd4096	-0.023525924352100512
9	0xbf86453af7cc667e	-0.010874233901222437
10	0x3fea08560b8cf345	0.8135175920102503
11	0xbf7deab848be034b	-0.007303924426992857
12	0xbfb4e3ba2723afcd	-0.08159984069396771
13	0x3fb64c3df04e5791	0.08710085980268746
14	0x3fc29f2f4ff355a0	0.1454829349883484
15	0x3fcef16fa72d25cd	0.24174304640682323
16	0x3fc40bf01991a4a4	0.15661431549532268
17	0x3f920afa58e7fce3	0.0176200024379768
18	0xbf9719e5c085612e	-0.022559728503751923
19	0x3fb3361dceed04b2	0.075044501322753
20	0xbfcd22cd38175bd1	-0.22762456168012915
21	0x3fbe73e2a3404507	0.11895576940175455
22	0x3fb5fde8fb9a35e9	0.08590561049114566
23	0x3fcd8bc2ae3356c4	0.2308276510799968
24	0x3f73c2648722f1e1	0.004824059187907599
25	0x3fb66a47acc094b5	0.08755920379242606
26	0x3fc74f5296a6f323	0.1821082339864911
27	0x3fb66b7a14510ff8	0.08757746692668877
28	0x3fc57a5f0ca87d45	0.16779697530817309
29	0xbfd03123060890f0	-0.2529990729256175
30	0xbff03122d7dfd7db	-1.011996119746519
31	0xbfecdaaf9267db56	-0.9016950473295349
32	0xbfc0aeaec6494dc8	-0.13033089334440562
33	0x4007ac5d84458185	2.9591627439223793
34	0xbfa8bb1689d30f6a	-0.04830236847331444
35	0x3f98af1ff0d27162	0.02410554797516918
36	0x3f93398c435167f9	0.01877421532513066
37	0xbfd2a95291999743	-0.29158462733026996
38	0xbfba58047a39d42f	-0.10290554031401265
39	0xbfc1c0e83db68680	-0.13869956029252606
40	0xbfb81fa4d06626af	-0.09423284614436044
41	0xbf9e6e89d7f3b9a0	-0.029718545728366075
42	0x3fb023f518d53541	0.06304866653700449
43	0xbfd98aa09617c732	-0.3990861383200467
44	0xbfc6cc15a76e5c66	-0.1781031672987609
45	0xbfe1bf634283758a	-0.5546127604572331
46	0x3fa20fb17e2a906a	0.03527598061671784
47	0xbfb48af0330065ac	-0.08024502988009513
48	0x3fbfecea093ad568	0.1247087738546121
49	0x3fc45903bbb23ea1	0.1589665094838795
50	0x3fbb6f815e44edde	0.10717018653388474
51	0x3fd85c4ed6edee9b	0.38063403119279265
52	0x3fd9411c0f202d40	0.3945989749633618
53	0xbfb6fb8a983b277d	-0.08977571693972482
54	0x3fb2ef2ccd1d6856	0.07396202094733559
55	0x3fc8163f06a42a3e	0.18817889999657383
56	0x3fba00fa910dba97	0.10157743493412351
57	0xbfa1aaa8fd49cd7e	-0.03450515834711164
58	0xbfcf707c6b331401	-0.24562030062057263
59	0xbfc0086cca7f8ea8	-0.1252571095238768
60	0x3fb427e4363d4bcf	0.07873369526104955
61	0xbfc5d91badc6fcde	-0.1706881140253022
62	0xbfc2a178f4c32511	-0.1455527491691915
63	0x3fb1c0fbbe812a2f	0.0693509426211356
64	0xbfca7d889ab91dd0	-0.20695598177756702
65	0x3fcc7256083a0765	0.2222392597359956
66	0x3fb116c65688fe88	0.06675376522707144
67	0xbfb97f56528481b8	-0.09959926142301512
68	0xbff60e3961ea2610	-1.3784726929465059
69	0xbfc121ab60046d99	-0.13384000957817646
70	0x3fb7734605d50393	0.09160268442521007
71	0x3fe05d0d764c693e	0.5113589582936482
72	0xbfd87e16a2b21599	-0.38269582641836447
73	0x3fb41eb355135db5	0.07859345271150782
74	0xbfb2f46425bcfc33	-0.07404161378234235
75	0xbfc03593fb6944bb	-0.12663507247865433
76	0xbfe603b53f4a6c95	-0.6879526363512861
77	0x3fa079da20841c44	0.032179657429928926
78	0x3f9832bfaaab4ac8	0.023631090919318948
79	0x4009beaeeb09d94b	3.2181070673351875
80	0xbfbc0e4bcf6b26d2	-0.10959314168863024
81	0xbfbca3a6fccb8133	-0.11187213584662885
82	0xbf919b42c9a0d80b	-0.017193835789122185
83	0x3f87c278e67230ce	0.011601395161300234

weight f8 [84, 84]
0	0x3fc97b2083ceea93	0.19907003818464783
1	0x3fc61dde90577a05	0.17278654144224972
2	0x3fa284dbafe97f2b	0.03616987726559125
3	0x3fa4141fe81ef45e	0.039216038785050186
4	0xbf9a0551b89a4190	-0.025410916225668212
5	0xbff2720efce0df7f	-1.1528463247359182
6	0xbfc682d598ef7b4a	-0.17586774795105448
7	0x3fc9e24a04759fd8	0.20221829622027943
8	0x3fabfbff9a9a59f8	0.05465697061770308
9	0x3fb9634a46113a17	0.09917129717471372
10	0xbff1c7bc46d21f8b	-1.1112635389745005
11	0x3fbc4c3551800d7e	0.11053784599066849
12	0x3fc0ec57fec97237	0.1322126382900863
13	0x3fc52081b7e3e138	0.1650545261288785
14	0x3fa93e4f3745fcc9	0.04930350827907543
15	0x3fa5f8a942c1389e	0.04291275920751157
16	0x3fbd786ee30da67a	0.11511891406339628
17	0x3fbe1636e9a3d0fa	0.11752646640872291
18	0x3fc1c143cf661a88	0.1387104761781368
19	0xbf8f10b826ce3bb9	-0.015168608364346402
20	0xbf9cb8db48baf6fd	-0.02804892188463891
21	0x3fbfc2890d9d138e	0.12406212408411774
22	0x3fc43c9f3f10e598	0.15810003833193487
23	0x3fb4593f2302a77b	0.07948679547066988
24	0x3f409eede9c37e76	0.0005072271046877147
25	0x3f97ad36b13cb265	0.02312169510621444
26	0x3f71c3494c4f9ee1	0.004336630173362472
27	0x3fc06c59c0430ba0	0.12830659759319207
28	0x3fb6f6e5186a5eff	0.08970481725770794
29	0x3fc15a03dfe3b44b	0.13555954391577738
30	0x3faf2deb2f498798	0.060897206804624904
31	0x3fc818b221291d2d	0.1882536565701484
32	0x3fb2d8842498f65c	0.07361627477163196
33	0xc0011ea594ed0ee3	-2.1399642596096426
34	0x3fb9b71c61c64d5b	0.10045030009341842
35	0x3f84771b59c71fc9	0.009992803265859511
36	0x3fc87055c8f28e7d	0.19092819511307715
37	0x3fb34cdd79c4fa34	0.0753916189469031
38	0x3f95bd7465c3e2dd	0.021230524741414725
39	0x3fb56d68342c9520	0.08370066903861018
40	0x3fc24a738c84393f	0.14289707528264192
41	0x3fa18a4bc5791a73	0.03425823960838139
42	0x3f7ba406054e69e6	0.006748221891849293
43	0x3fb4ef5dc5e397bd	0.08177743989253279
44	0x3fbae84e90b5aa96	0.10510722191762975
45	0x3fb0e4f3f4f9c2df	0.06599354487276397
46	0x3fbfde85fcf13e34	0.12448918748236154
47	0x3fc5330f974e2429	0.16562075508071075
48	0x3fb7ab0bbfe6bf50	0.09245370326129643
49	0x3fc08a07e6910c67	0.12921236761221452
50	0x3f86ab6ffb3c330f	0.011069178442562526
51	0xbfde1ce08cf21fc8	-0.4705125214027217
52	0xbfe6463700f2356c	-0.6960711496810013
53	0x3f9d949bb5b573e6	0.028887207952141745
54	0x3fb29596ebc1f264	0.07259505515862369
55	0x3fb284576eadcfa4	0.07233187152979653
56	0x3f5c58641d5fc316	0.001730058449080645
57	0x3fc243a914ee92e3	0.142689833851498
58	0x3fbff0e8f28dd29e	0.12476974412659067
59	0x3fbfb25ab0a683b1	0.12381522000079205
60	0x3faa7587f023993a	0.05167794042954417
61	0x3f9dbdbeca1f043a	0.0290441332688298
62	0x3fa58178a26a5c7a	0.0420034120808674
63	0x3fbb91e102a5c73b	0.10769468607557268
64	0x3f9e0887062aa8f7	0.0293294045938319
65	0x3fc2843d5c559117	0.14466063507564605
66	0x3fc330f36dc58a17	0.14993136272376326
67	0x3fc571c14943e57c	0.16753402783778515
68	0x3fc7433e9bf8209f	0.18173964133916784
69	0x3fa80f86a576934e	0.046993453691618656
70	0x3f86528cb596f53d	0.01089963845412944
71	0xbfd680f0010ac1aa	-0.35161972142943887
72	0x3fc03677c3713bc4	0.12666222613412803
73	0x3f8bf893ac93f095	0.013657716468962891
74	0x3fbfaf2ae502c00e	0.12376659480173677
75	0x3fc0e6aaa87909e5	0.13203938699923792
76	0x3fb9c4844009381d	0.10065485537890635
77	0x3fc20853eb15b601	0.14087914446592723
78	0x3fa6281a3f659ce2	0.04327470802200552
79	0xbffaaa50b26bc2cf	-1.6665808648651141
80	0x3fc102d2c0c7a15b	0.13289865887714822
81	0x3fc9af901c9efbfb	0.2006702556372771
82	0x3fb6f7b27f214f40	0.08971706012499414
83	0xbf64d721429a8d52	-0.002543988190909432
84	0xbfb96c474cabb2be	-0.09930844899981658
85	0xbfb78afa1f7d27e2	-0.09196437138339733
86	0xbfb23d5f27c38df5	-0.07124895783231706
87	0xbfc3e630480741cc	-0.15546229855546156
88	0x3f8d2f4f4e21717c	0.014250392505510183
89	0x3f8e9e62605228e8	0.014950531544191084
90	0xbfba7e456b498bd5	-0.10348924512213327
91	0xbfc287af44fb97b9	-0.14476576679515832
92	0xbfa60e15107b8549	-0.04307618929102348
93	0x3fa9e027e2af22de	0.050538298055078576
94	0xbfcafec0654943d1	-0.21089940019240186
95	0xbf94e0188d4650f2	-0.020386108038636892
96	0x3fb6acd293ecc242	0.08857456313558834
97	0xbfbf14a368dfa595	-0.12140866575614091
98	0xbfb4f2c0842db2a8	-0.08182910182012881
99	0xbfb779b7c7cdbb7b	-0.09170101764696696
100	0xbfb757924566c08f	-0.09117998308534168
101	0xbfbd28f1933becee	-0.11390600056249742
102	0xbfab6795aa9ee73c	-0.05352466304562006
103	0xbfbc723de7ec7225	-0.11111819183538126
104	0xbfb7d5fa6267faf6	-0.09310879614347897
105	0x3fa78afb53287748	0.0459822215091053
106	0x3fafbcbadc3ac831	0.06198677004194087
107	0xbfa324b169b44d92	-0.03738932051978873
108	0xbf835493759cf741	-0.00943865969349711
109	0x3fa4e588a35a6583	0.04081370348030602
110	0xbfa58bb23404f336	-0.042081421709076514
111	0xbfbdc65783f73d18	-0.11630770656414702
112	0xbfbc249c3b845906	-0.10993362858821251
113	0xbfc194220b11c143	-0.13733315983291491
114	0xbfc1ba33da87cb2e	-0.13849495096618497
115	0x3fa2913a5626b1dc	0.036264250771043754
116	0x3fa85ba80ee7fe2e	0.04757428342781754
117	0xbff0af9ef65306dd	-1.0428762075466047
118	0xbfba173d4f805c02	-0.10191710654213185
119	0x3f9f5303d140a5d6	0.030590114256630795
120	0xbfbbb676eb7c3aba	-0.10825293778564574
121	0x3fa38a2a652bb37b	0.038163494920673245
122	0x3f83649db5000501	0.009469253622230502
123	0x3f70494e5217160e	0.003976159992310281
124	0xbfb4d2cdc5797e88	-0.08134161063343914
125	0x3fa56b37691407c0	0.04183362157529258
126	0x3f84450736e3521a	0.009897285807178458
127	0xbfa5ca275d9d91b1	-0.042557935884164684
128	0x3f887421d60e885a	0.011940254540437834
129	0xbfc276cf45de6e29	-0.14425078307691422
130	0xbfb51c9f2408bdad	-0.08246798162212228
131	0xbf673d7a4122f7ed	-0.002836931970789705
132	0xbf91241e5b361042	-0.016739343945588077
133	0xbfc36c82af9f2877	-0.15174897742537372
134	0x3f7b2b46cdb2ef5b	0.006633068634240259
135	0xbfaf85e03f784665	-0.0615682675817311
136	0xbfc994438cb6e95c	-0.19983715411019431
137	0xbfca25711ecbe31e	-0.20426763538105147
138	0xbf9c5793028656f5	-0.0276778192797655
139	0xbfb14a5fe0279865	-0.06754111502195455
140	0xbfbbecd3531431de	-0.10908242014210809
141	0xbf9dc2ae62a01d2a	-0.02906296231233544
142	0xbf9a855c72c2839d	-0.025899357323058692
143	0xbf801a5c206dfc7b	-0.007862777461694606
144	0xbfba770d91178ae0	-0.10337910454067467
145	0xbfa33107b367d467	-0.03748344483384685
146	0x3fa339712316603b	0.037547622235422705
147	0xbfaa3c92e8932394	-0.05124339188620933
148	0xbfc3903719b3afce	-0.15283859972930575
149	0x3f8bdec7dbaa95e1	0.013608514205155355
150	0xbf8a1ffa945afc8a	-0.012756307270477291
151	0x3f995df032ae5a68	0.02477240857441601
152	0xbfb85263e8b81ce4	-0.09500717574711676
153	0xbfb9d521e4b04ed0	-0.1009083922693279
154	0xbf92672513341f54	-0.01797159127912036
155	0xbfc74628d79b0107	-0.18182859923945946
156	0xbfb3370c2922653b	-0.07505870823151366
157	0xbfb613f7cc20cd52	-0.0862421868667316
158	0xbfb8d23c67c83c55	-0.0969579461454811
159	0xbfade3df4931f755	-0.05837915199752667
160	0x3f98d1a8e4a264c4	0.024237288431866913
161	0xbfb34cf2cfcdde02	-0.07539289067596402
162	0xbfbe1e3ce28f9022	-0.1176488927008568
163	0xbff2955feb23e285	-1.161468428150472
164	0xbfbf8450e7ed38c8	-0.12311273252746269
165	0xbf975a4bae28ad41	-0.022805387978377615
166	0xbfabd9b739f29d51	-0.05439541418427985
167	0x3f76050825dcf30f	0.005375892474884804
168	0xbfb610b4416e340f	-0.08619238469528077
169	0xbfc89ea14b91c5ce	-0.19234100522912317
170	0xbfb8bf2f7272d817	-0.09666725677638542
171	0x3f626a40c8da614b	0.002247931034457339
172	0xbfbb23fb42850ee0	-0.10601778387086425
173	0x3faf8a4de6925699	0.061602053066207314
174	0xbfcd4b9a0bf64c32	-0.22886968216025277
175	0x3fa8deb37ff2c977	0.0485740750967975
176	0xbfbd8f4e94ea7732	-0.11546794067041047
177	0xbf93ce781f5e3a00	-0.01934230510192414
178	0xbf7c495390234398	-0.00690586702167275
179	0xbfb0e679ed0bacbd	-0.0660167888378735
180	0xbfc9660f673444d1	-0.19842712916628227
181	0x3f918c36f79fae7b	0.017136439193491598
182	0x3fa05b65a57691b0	0.03194730419935199
183	0xbfc9565d310e68ef	-0.19794812102629275
184	0xbfb97d56f72823e1	-0.09956878217793942
185	0x3fa4a5ecc9fcedc7	0.04032840696023814
186	0xbfc045a8cb447dc0	-0.12712583470509564
187	0xbfbb5db73cb177d9	-0.10689873916405136
188	0xbf7fbccf18f00e40	-0.007748421644467707
189	0xbf1323ea3a0fe5fb	-7.301442248310718e-05
190	0xbfc15afe37741b03	-0.1355893870133614
191	0xbfa79c5380f82e3f	-0.046114549153653865
192	0xbfb1ccb6ab358489	-0.06952993087681326
193	0xbfb4666fc25d55a6	-0.07968805785397723
194	0xbfc3da4128e5899e	-0.1550980996790487
195	0xbfc5b7f0b5271df9	-0.16967591138221375
196	0xbfb67064bcf63ad2	-0.08765248883558321
197	0xbfbac2a68dd21eb7	-0.10453263246938148
198	0xbfa9cd3fd8ed15a0	-0.050394053678739725
199	0xbfc08e9462fac45f	-0.12935118515955232
200	0xbfa98a340d1ee499	-0.049882532693524335
201	0xbfd4429f09011ed0	-0.31656623725255617
202	0xbfbd1df89bd75a18	-0.113738573119328
203	0x3f7ec8f3ac029cdf	0.007515861361901715
204	0xbfb0971be1c3aaf0	-0.06480573903870002
205	0xbf638df22366be39	-0.0023870209945114043
206	0xbfaecec90bd84f6c	-0.060171396919172476
207	0xbf98120e5219265d	-0.023506377945784574
208	0xbfc77760e6da4ecf	-0.18333064338786761
209	0xbfbebdf500a7a34b	-0.12008601442324822
210	0xbfb89381f80b8d7a	-0.09600078874387022
211	0xbfbc7e5f0792843a	-0.11130327162619916
212	0xbfc4ce0082708242	-0.1625366818343697
213	0xbfbfdef76f47f7d1	-0.12449594942879051
214	0xbfbd3dd35269a90d	-0.11422463190107042
215	0xbf954e6ab7b1a234	-0.02080694910219645
216	0xbfc6e0006a418d20	-0.17871098697933352
217	0x3f7dc418bafcff31	0.007267090419020226
218	0xbf7314e0670a8bc2	-0.004658581325801716
219	0xbfc1be9f507c77dc	-0.1386298316000979
220	0xbfc21b98be6eabcb	-0.1414671830983408
221	0xbfbf5ae00d795655	-0.12248039559320863
222	0xbf8f02642e07ca8a	-0.015141279844987272
223	0xbfc36bb9ba360c36	-0.15172502128925353
224	0xbfb306e89f167568	-0.07432416805246123
225	0xbfc17fb3f2650881	-0.13670968375851447
226	0xbfc25dfcc8f7aab8	-0.14349326908935267
227	0x3f8450d2ae74369a	0.009919782589828775
228	0xbfa58d25d4175fd1	-0.042092497005512215
229	0xbf9a78a5ca83041a	-0.025850859151209084
230	0xbf95299c32096abf	-0.020666542581561084
231	0xbfba2eac9e415d07	-0.10227469314246572
232	0xbfaa729768115e9a	-0.05165551324233526
233	0x3f93898a02f21328	0.01907935755709214
234	0xbfbc806e997e074e	-0.11133471724863606
235	0xbfc59d85bf923476	-0.16886970380838634
236	0x3fa1f5d3190f60b6	0.0350786178675561
237	0xbfc1cdf403cdf073	-0.13909769235386057
238	0xbfa19ccb5852a9ec	-0.03439937070045915
239	0x3facc530b6f6f548	0.05619194253402299
240	0xbfc2af576d7f6de5	-0.14597599836893874
241	0xbfc4dfb2a3dfebf6	-0.1630767154855161
242	0xbfbc164306dd5967	-0.10971468846887476
243	0xbfc6f426aebfb330	-0.1793259003892671
244	0xbfc14b997fc6df7f	-0.1351196168814077
245	0xbfb1ea48997000a8	-0.06998113390000305
246	0xbfb3f3e2cab00b2e	-0.07794015358380754
247	0xbfd08de47f1071f0	-0.25866043480507894
248	0xbfb0af898c8d26c4	-0.06517848664693832
249	0xbfc5bbf600f69c17	-0.16979861304318497
250	0xbfb07a90649522d7	-0.06437017875317551
251	0xbfa3d079a3383757	-0.038699914144770524
252	0x3f871a4754ae9d2e	0.011280591270248577
253	0x3fb9a539c2a2d526	0.10017739297730496
254	0x3fc55842a12a3ba9	0.16675598973639907
255	0x3fc4d9a9ebdb149c	0.16289257065196672

bias f8 [84]
0	0x3f8b7483002dc0fa	0.013405822222666054
1	0xbf9c0561de8322ec	-0.02736428185088162
2	0xbfc36dde40c1b9b1	-0.15179041063261203
3	0x3f6461f994d7e857	0.002488124335966051
4	0xbfb01d9d1fd46863	-0.06295187022297592
5	0x3fbef29f99ac943c	0.12088963987169249
6	0x3faf89bf7ca43a4e	0.06159780880453934
7	0x3f78bfbfac4ce168	0.006042240832180169
8	0xbf8487881e5c5eed	-0.010024131228007127
9	0x3fbd0f3c66f44f57	0.11351373208554826
10	0x3fc6325e640c572b	0.17341213116804374
11	0x3fa7529dc512f217	0.04555218725861126
12	0xbfb2b795a72f19f3	-0.07311377841606496
13	0xbf9212c8bc93b744	-0.017649780759646974
14	0xbfbcbbf6ec9d4c05	-0.11224311138839489
15	0xbfc0c76a9df79bb2	-0.13108570779078615
16	0xbf9754b95c6a73d0	-0.022784134164442638
17	0xbf704c81ff7fffd3	-0.003979213528509678
18	0xbf96b69059bf22e0	-0.022180800893496833
19	0x3fb3e29211b9b60a	0.0776759427332864
20	0x3fa7478d662649d5	0.04546777603094979
21	0x3f8251bd35d5a041	0.008944967465780109
22	0x3f7596f354ee3c84	0.005270910753906514
23	0x3fc82af58a1dae4f	0.18881100887243682
24	0xbfa217632ee217b2	-0.03533468196205493
25	0xbfabe8d1196a6f0c	-0.05451062617541255
26	0x3fbf479fa89ecfb1	0.12218664042194295
27	0xbf9110214bcc8ca0	-0.016663093806653095
28	0xbfc07f7b3555589e	-0.12889041999978174
29	0x3fc82fd053b7c8b0	0.18895916068828944
30	0x3fb1282b10f6cd2f	0.0670191685119803
31	0xbfa7c10417ac6814	-0.04639447010977463
32	0x3f7af7a12e86ef33	0.006583814254948628
33	0xbf8e978899e34f5e	-0.014937464901244087
34	0x3fc796f2a7cdafb4	0.18429406350639754
35	0x3f9edfdc27c7f0ee	0.030150833061257147
36	0xbf7bc4c3203fe53e	-0.00677944394191715
37	0xbfb7b72d05888daa	-0.09263879189580018
38	0x3f5fa0853a0490d1	0.001930360893376327
39	0xbfb37084c3bb1921	-0.07593564776025065
40	0x3fb194be8380758f	0.06867590628140462
41	0x3f9004a321056f0f	0.015642689600425416
42	0x3fc744ca1580c7f6	0.18178678560212774
43	0xbfc0d42e8d1acd06	-0.13147527589681135
44	0x3fb6d1339185456b	0.08912966063259879
45	0xbf98dede8eec60be	-0.024287679169987746
46	0x3f81f70f12277b3f	0.008772008649371109
47	0x3f9ae7f38a35c5ee	0.026275449095413288
48	0xbfaa7e40559f067d	-0.05174447102718902
49	0x3fb96d72b257eb76	0.09932629446113403
50	0xbf8e8f5abdcee0fe	-0.014921864430889272
51	0x3fb61b904dfa2324	0.08635808852899324
52	0x3f8a85139fae5820	0.012949136076525092
53	0x3fb05780807c2800	0.06383517395821059
54	0xbfc4380a991ecbbc	-0.15796024777008977
55	0xbf940df98abfff16	-0.019584559529902533
56	0x3fc4c40409105b5c	0.16223192637036277
57	0x3fc380c9fa3f3f33	0.15236782759756692
58	0xbfb8c3e42edd0037	-0.09673906463740499
59	0x3fb2e3ef5fdd3349	0.0737905129473805
60	0xbfb7c1dc8271b8d2	-0.09280183968232628
61	0x3f999647e17095fc	0.024987338194611283
62	0x3f78213f82d3294b	0.005891082849482319
63	0xbfb50facbf5f368a	-0.08227042839208756
64	0x3fc2142ea6f205ec	0.14124091292983054
65	0x3fbe8636e045551d	0.11923544860231457
66	0x3f83dd077ca2cb6a	0.00969892357929832
67	0xbf765233520559bb	-0.005449486227311724
68	0x3f99c7326089817f	0.025173937933119724
69	0xbfa9f86129d8dd35	-0.05072311054066817
70	0x3fc494797db09edc	0.16078108441546746
71	0x3fc6ebc4edd00f28	0.17907010662030953
72	0xbf7f0df063f26ff0	-0.007581652665205482
73	0xbf9f579d66adac71	-0.030607661621087027
74	0x3fc7b9adea849770	0.18535398436614114
75	0xbf72440320e0d16e	-0.004459392757827236
76	0x3fb6cb7ad2d454dc	0.08904235503389962
77	0x3fc22310f1d2184e	0.14169513518953852
78	0x3fa843529197caf7	0.047388630173278594
79	0x3f9e35cf5f092b03	0.029502144027257603
80	0x3fc56d203651157d	0.16739275600609096
81	0x3fc2d7121437418f	0.1471884344778229
82	0x3f5de1f94f371f25	0.0018238958990525825
83	0x3fb319b46209bec4	0.07461097138888834

weight f8 [1, 84]
0	0x3fc500be585e25b2	0.16408519091446078
1	0x3fa0fecdf90545f5	0.03319400467684012
2	0x3f90fd485a630bd0	0.01659119655301905
3	0x3fc206da9dcb2288	0.14083416657219439
4	0x3fb9022289209741	0.09768882606348674
5	0x3fc461f4800fc297	0.15923935177808765
6	0x3fc5bb1fe5d64352	0.16977308962352794
7	0xbfa018de461fd80f	-0.03143972974787356
8	0x3fc72ee0e2f1d411	0.18111811715394358
9	0x3fc6d4d30a0aeb8a	0.1783698843990716
10	0x3fc5d03f5ddb3a27	0.1704177101405133
11	0x3fc9e4b02df8a73c	0.2022915100545165
12	0xbf9002ac8ab59d21	-0.01563520046820799
13	0x3f9051bac55d2022	0.015936773582581172
14	0x3fa8454e27c4d6e0	0.04740375743351222
15	0x3f9b154030a41782	0.026448252648172417
16	0x3fcaf1c354061547	0.21050302126620066
17	0x3fc19dd6bed315ba	0.1376293594131946
18	0x3fc2d0b9ede33b98	0.14699482074362602
19	0x3fcd20ca2f15b7a4	0.22756316470207338
20	0x3fc140a931ccf0e8	0.13478579456012274
21	0x3fcbfbe66e57e203	0.21862488162857127
22	0x3fca378cd8d9c863	0.2048202570763947
23	0x3fc404d0d0148bb2	0.1563969627396467
24	0x3f4bf2422b4586e7	0.0008528540698018145
25	0x3f702c4741d28c7a	0.003948477123375866
26	0x3fc94e644b7e4d99	0.19770482717704566
27	0x3fcb65758bfe7a7d	0.21403378806731502
28	0x3f9785d43e8b504d	0.02297145492305246
29	0x3fc7a2c6759cf805	0.1846550058634763
30	0x3fca530ec41ba96f	0.20565971923435764
31	0xbf9449c54d8d2c67	-0.01981266294323483
32	0x3fc2257a915733e9	0.14176876160345778
33	0x3fcb936ea59fb32a	0.21543677413083034
34	0x3fc487bc6a0b3427	0.16039233377378645
35	0x3fc66baf45bb4f25	0.17516127495638859
36	0x3f76f2b2a427bc63	0.00560254842501626
37	0x3f80a9983aafd56d	0.008135976115208188
38	0xbf8818995e1aecd0	-0.011765669044839916
39	0x3f77fe8dfe8d6fa6	0.005857996621525452
40	0x3fc3b030d3f74fe8	0.1538144145002882
41	0x3fa44acab524dacd	0.03963311635236764
42	0x3fc8c889602ff8c8	0.19361989208841224
43	0x3fa5a48fa57a5fc1	0.04227112669940381
44	0x3fcd9fe7be1f61b6	0.23144242080048877
45	0x3fa0c0a8c13e1a54	0.03271987303655935
46	0x3fb8d804ad35c87d	0.09704617718469595
47	0x3fc16739a076f009	0.13596268019853167
48	0x3fa4451de38b178c	0.03958981897953526
49	0x3fba17dac492d2d7	0.10192649172933997
50	0xbfa17746d09034d4	-0.03411313339175029
51	0x3fc0edb8dc9411c2	0.13225470323972216
52	0x3fc3946dc7c015c1	0.15296718839105775
53	0x3fc749469a18cc26	0.1819236996103381
54	0x3f9a73382e7c3233	0.025830152356365054
55	0x3fc4b189cef188d4	0.1616680393663673
56	0x3fc9cb72a9481383	0.20152123704624722
57	0x3fc1dc5c75dee49c	0.1395373893299493
58	0xbf9627b8ad306852	-0.021635900087950972
59	0x3fc2ca111148ccb5	0.14679158538783602
60	0x3f8cb37e8dfa18a9	0.014014233310501405
61	0x3fc47710200e6a56	0.15988351407289042
62	0xbf84bf23e5706b51	-0.010130196036745838
63	0x3fa18956b94a59d5	0.03425093662115201
64	0x3fc81c5703229ade	0.18836486485562082
65	0x3fc189a86f070674	0.1370134870649512
66	0x3fc514c79cbfdabe	0.16469664720326266
67	0x3fc9f369d7419eec	0.20274088869631812
68	0x3fc0e3e31d432efc	0.1319545643694865
69	0x3f9ad8728db29622	0.026216306589637146
70	0x3fcd9064abf4ce2b	0.23096903225233353
71	0x3fc02fdf968ac440	0.1264609799450529
72	0x3fc18b1273324130	0.1370566427690476
73	0xbf938005812f31c0	-0.019043050775324977
74	0x3fcc7aa58b4998e4	0.2224928789248174
75	0x3fc09b78bdb5b37d	0.12974461806461682
76	0x3fc3b05237562f75	0.15381839467988426
77	0x3fbfb008606edb62	0.12377979616472382
78	0x3fc83cfb2385a35a	0.18936099276040858
79	0x3fcb18026101ee63	0.2116702054662368
80	0x3fbda2c0be07bcaf	0.11576466216478097
81	0x3fc3832e02480441	0.15244078742401437
82	0x3fc23340f4213817	0.14218913956068555
83	0x3fc7018e061db51f	0.17973494814524657

bias f8 [1]
0	0x3f881b8f2199a749	0.011771314824006078
