pre-trained models/NO5700_YPL096C-A.pth (torch, 4247 bytes, 6 tensors)

weight f8 [9, 3]
000000 9f 65 8b df 34 8a cf 3f f7 7b 8a ab 8a d5 c1 3f
       0.2464052287603353 0.1393292749025645
000010 75 30 d6 3d 73 37 e5 3f 82 8f ec 5a aa 3d c4 bf
       0.6630188186404796 -0.15813188018466567
000020 7d fb 07 62 af 23 e3 3f 5b ba b4 17 51 1c cf bf
       0.5981060900374896 -0.24305165917890545
000030 94 07 47 06 95 27 ae bf e7 79 05 59 7f 2e a9 bf
       -0.05889573766354697 -0.04918287240683466
000040 73 5d d7 c3 3d 2a be bf 31 fd 40 20 7a bf c2 3f
       -0.11783205062180517 0.14646841597457574
000050 11 60 c6 c2 b7 cd fb bf a2 45 9b 81 3e f8 0a 40
       -1.7377240761179602 3.3712129712591414
000060 1d 53 4b 81 b7 65 ce 3f 04 e8 98 fe e1 6c e5 3f
       0.23747915089793362 0.6695413563350034
000070 49 e4 b1 1a a1 8d b1 bf 25 a7 16 02 6b 80 c0 bf
       -0.06856734182100967 -0.1289190063665099
000080 51 9c 4a 2e 63 61 e8 3f 97 18 27 36 ba 8a ba bf
       0.7618881134157026 -0.10367931196296563
000090 6b 5d 10 a8 02 c0 db 3f d0 0a 9d 76 f1 63 b9 bf
       0.43359438335888595 -0.0991812624534234
0000a0 ec 74 0a 89 e7 21 c1 3f 5e e2 28 09 09 0f c7 bf
       0.13384718123862827 -0.18014634082080055
0000b0 1f f4 f4 a8 85 5a ba bf 86 5f 22 1c cb e9 e8 3f
       -0.10294375777171226 0.7785392331597769
0000c0 37 ab ce 45 b8 3a e0 bf dd c0 b0 11 c3 2e e0 3f
       -0.5071679461883382 0.5057082505718672
0000d0 04 00 45 5f fe f5 b4 3f
       0.08187856508175179

bias f8 [9]
000000 ad 87 26 84 8f 24 11 c0 7f d1 05 bc bd ea b5 bf
       -4.285703720905002 -0.08561311569594031
000010 4a 5d 75 09 cc fb d5 bf 19 01 2a 59 f5 93 1f c0
       -0.34349347041775913 -7.894490616978396
000020 6f 41 0a 66 26 9d 09 c0 15 75 03 83 7a 14 e9 3f
       -3.201733395755745 0.7837498244149709
000030 8f 05 66 79 ea f8 c7 3f f7 69 ac 28 88 87 fe bf
       0.18728381087934706 -1.908088835602596
000040 49 db 43 48 67 5b e0 bf
       -0.5111576472689673

weight f8 [9, 9]
000000 c0 3d dc a9 37 8a e1 3f 9e 58 fe e6 2e a4 e0 3f
       0.5481222455581971 0.5200418960182736
000010 70 04 06 ab 5e 98 e1 bf dd 8f 76 32 26 5e da 3f
       -0.5498498287489735 0.4119964115909605
000020 99 f7 19 01 a0 4d d5 3f 91 31 5e ce 1c 14 e9 bf
       0.33286285502969687 -0.7837051420806792
000030 86 52 5d 7f ec 7e ce 3f 08 3b 3f 38 1b fe f0 3f
       0.23824840754481985 1.0620376774929259
000040 d7 1f 48 13 71 b0 c1 3f 7f dd be c3 54 67 e7 3f
       0.13819707337847717 0.7313636611133204
000050 4a af cb c0 7e a9 c2 3f a9 c2 6d 6f 15 f7 a0 bf
       0.14579758085107591 -0.03313509927000286
000060 c6 41 ae b1 bd c1 d7 3f 50 62 31 84 31 88 e0 3f
       0.3712000117457389 0.5166251737492278
000070 51 44 a8 d0 75 d9 f2 bf 1e ca 74 28 d2 1b d5 3f
       -1.1780908728290067 0.3298230547981421
000080 27 e3 46 8f 81 a7 f2 3f e9 7f ed 6a 43 88 e2 3f
       1.1658950421098753 0.5791337097580228
000090 76 33 7f b3 90 1c cb 3f 73 d1 f4 5d d4 a6 df 3f
       0.21180924190994305 0.49455746817991225
0000a0 84 2d db e5 49 ce cb bf 27 49 c7 d9 5a a7 e5 3f
       -0.2172329304070041 0.6766790631757303
0000b0 d5 ee e4 7b 0b 60 ce 3f bb 79 b5 7e 7b 50 c8 bf
       0.23730605649494999 -0.18995612799603898
0000c0 8b 38 eb bd 91 61 e1 3f f1 0e 83 87 0c 26 ed 3f
       0.5431603154518297 0.9108946463315687
0000d0 0b 9e c2 07 ff a2 de 3f d9 1d 03 b6 b7 8c e1 3f
       0.47869849927744273 0.5484274439740445
0000e0 87 d3 bc 40 34 82 c4 3f c6 93 93 20 d6 69 d5 bf
       0.16022351418510203 -0.334584743321383
0000f0 7c 81 49 a7 b8 90 eb 3f 9a 26 41 4e f2 d1 e1 3f
       0.8614161746336744 0.5568782356651412
000100 74 c4 f4 c4 1f 96 f1 bf 48 76 20 e5 c0 b2 cb 3f
       -1.0991513913725415 0.21639262378532664
000110 87 81 06 43 82 74 e6 3f f3 81 41 78 0a 0f b8 3f
       0.7017222699251285 0.09397950588164132
000120 89 98 82 cf 4e 1d d6 3f 92 fd 2c 1e d9 fe d0 3f
       0.34553880943929777 0.2655546946225168
000130 c8 30 27 f6 08 27 e8 bf c9 db b4 80 c8 33 e1 3f
       -0.7547650153806211 0.5375711931036388
000140 33 68 27 41 5b 0e d4 3f aa 82 0e 62 95 58 e0 bf
       0.3133762489575275 -0.510813418881374
000150 03 09 55 e9 ea 53 d9 3f 1c 89 3a c2 98 ea e6 3f
       0.3957469252237759 0.7161372941521083
000160 82 7b 96 f7 40 e9 db 3f e8 5d e1 fb 11 09 9f bf
       0.4361116807794404 -0.030308037756496292
000170 e6 32 37 71 40 b9 c5 3f b9 44 23 32 99 9c b3 3f
       0.1697159340677878 0.07660825227800928
000180 1c 0f d4 89 1d 95 94 bf 7c 06 01 71 86 d8 c8 bf
       -0.02010008004891893 -0.19410782354139033
000190 6a e1 7e ac ef 03 e4 3f 02 27 b9 1f 9b 56 d5 3f
       0.6254804963164535 0.33341100786184097
0001a0 8c ae 4e ac ff fe f2 3f 7f f9 34 86 d2 46 cb 3f
       1.1872555475955862 0.2130988269145284
0001b0 97 a5 16 98 43 24 ce 3f 15 bf e7 cc e0 d2 e8 3f
       0.23548169065660993 0.775741958814225
0001c0 e0 a4 1f 61 8d f2 d0 3f db 2d a2 d5 34 0b d1 3f
       0.2648042152855634 0.2663089834465759
0001d0 ae ef 79 e5 2c 7f e5 3f b7 68 56 9c 46 fa cc bf
       0.6717743379554031 -0.2263878119818565
0001e0 5e 23 4f 2a ec da d8 3f f6 bd 9b ee 93 c0 eb 3f
       0.388361970250619 0.8672580395049738
0001f0 b6 91 c4 2b 8e 72 c8 3f 0a 15 d2 bf 39 1b e6 3f
       0.19099595200635883 0.6908234354492901
000200 f9 d3 17 80 23 11 d3 3f 3f c4 f0 ab 4e 2f ce bf
       0.29792106160249393 -0.23581870456249196
000210 5e 67 b6 b3 85 98 cf 3f 97 3c 9c af 09 58 e7 3f
       0.24684211039567122 0.7294968061340964
000220 22 e6 a4 5f 9a bd db bf 69 92 d4 4e 0d ef e6 3f
       -0.43344745006797514 0.7166811504035425
000230 42 56 5c 4e f5 d4 e5 3f 01 ec bd df ea 7a ca 3f
       0.6822458773119211 0.20687614369293786
000240 72 f4 f5 42 54 00 b3 bf 4d b8 be bd 68 e7 d5 bf
       -0.07422377238067826 -0.3422490933397782
000250 41 74 32 d8 7f a9 ae 3f 42 d6 47 2c 09 cc 94 bf
       0.05988692773937788 -0.020309584930109155
000260 f1 10 3e 89 b5 1a c2 3f c9 2a 12 bd ad 8e dd 3f
       0.14144009782115277 0.4618334146877428
000270 c9 a1 c2 b3 82 9c d4 3f e7 7d 44 c4 cc c6 ff 3f
       0.32205264620509105 1.9860351244641323
000280 1c 25 93 d7 9d 9a c9 bf
       -0.20003102327454136

bias f8 [9]
000000 e0 53 40 61 e3 37 dc 3f b9 77 70 a0 71 68 c5 3f
       0.44091114518351837 0.1672498734851027
000010 a9 da ba 0c e8 ab e1 3f 73 53 25 58 78 04 d7 3f
       0.5522346733694877 0.35964783294666985
000020 f5 df d3 d4 7f c1 d4 3f 25 12 94 3a 17 21 c3 3f
       0.32431026252697787 0.1494473491694787
000030 52 f2 0a e1 e1 b4 e5 3f f1 7c 24 01 04 42 e0 3f
       0.678330363785401 0.5080585501017635
000040 08 3f f7 92 76 3e cb bf
       -0.21284372497620319

weight f8 [1, 9]
000000 0a 58 f7 ad 26 cf e5 3f 65 c6 20 f4 d9 07 e7 3f
       0.6815369985367863 0.7197084205747158
000010 a1 d3 ac ae 05 ce ef 3f 12 8d 98 d6 c1 2a ea 3f
       0.9938991939185265 0.8177193824125502
000020 6f b8 4d 3d 5d 91 e4 3f 85 3b f6 83 46 44 d1 3f
       0.6427446553550576 0.269792202824583
000030 7d a9 a8 a8 f4 e9 eb 3f 06 15 12 bf a0 60 ea 3f
       0.8723090452306647 0.8242953998421008
000040 7b d0 b3 12 ad d4 cb 3f
       0.2174278584785759

bias f8 [1]
000000 2c fc 81 75 85 4e e5 3f
       0.6658351225922892
