pre-trained models/NO991_YDR063W.pth (torch, 110039 bytes, 6 tensors)

weight f8 [99, 33]
000000 ea b8 36 38 35 b3 b7 bf ab ec c8 cd 39 a0 a7 bf
       -0.0925782453766463 -0.04614430081388695
000010 ea 15 9f 2e f1 3c c2 3f b2 66 d9 d9 b6 24 bd 3f
       0.14248480583607598 0.11384146517357399
000020 69 b8 e1 90 47 b7 c8 3f 12 96 b7 43 40 0a a4 3f
       0.1930932481222414 0.03914070917725722
000030 12 84 7a 80 f0 07 98 3f b3 99 f5 4b 51 eb ac 3f
       0.023467786637983386 0.056482830545792416
000040 84 b9 83 fd b3 98 c4 3f fa 30 c4 ea 89 9d b0 3f
       0.16091012838974106 0.0649038503799523
000050 84 21 7e 28 a3 9b ba 3f 72 77 75 04 7b 44 8f 3f
       0.10393733728972704 0.015267335008214398
000060 a5 07 43 83 8a 59 aa 3f 50 85 74 87 59 c1 c6 3f
       0.05146439411465956 0.17777556528111882
000070 18 05 9c 27 85 ed bc 3f da 58 47 20 16 28 c6 3f
       0.112999269647862 0.1730983407603109
000080 48 80 1f a3 11 e0 be 3f fa 6b 02 6d 3c 28 bd 3f
       0.12060652000900618 0.11389520322192928
000090 f9 e4 da 38 e7 31 b9 bf 99 58 1d 6a 05 a3 99 3f
       -0.09841771257460498 0.025035938836787428
0000a0 06 74 d9 1e bc 9a 97 bf a6 15 78 c1 b9 32 a4 3f
       -0.023051204092883658 0.039449505678969474
0000b0 58 8f 6e d1 02 27 bc bf 1f 84 b8 e0 29 3a a6 bf
       -0.10997026074488525 -0.04341250293897069
0000c0 16 b1 37 a2 b5 9b ba bf 1a 28 c9 7f 6c b3 8d 3f
       -0.10393843851460746 0.014502380037033236
0000d0 37 8b bf 7f af bd b1 3f 5c 00 2f 2f 57 12 b1 3f
       0.06930062168934802 0.06668610479300824
0000e0 89 99 88 d5 3d e9 c6 3f 68 ca 39 5a fe 0c be 3f
       0.17899296690411529 0.11738576605584117
0000f0 4c 8e 2b cf f5 cf 93 3f d7 35 67 81 6c fc b9 bf
       0.01934799267736613 -0.101507932274408
000100 5c d3 aa a7 99 df c4 3f a9 0e 3c 85 be 76 b3 bf
       0.16307373701934125 -0.0760306430129797
000110 93 b9 7b 60 53 4a cc 3f 00 1e 86 5e 94 12 a5 bf
       0.22101824008082058 -0.041157375849305566
000120 90 1a b8 f8 a4 56 ae bf 0e 10 5f 38 f2 a1 a6 bf
       -0.05925479446527959 -0.04420430124403661
000130 3c f9 cf 26 57 1d b7 bf 7f 44 05 a9 ff 0d c2 3f
       -0.09029144952362328 0.14105220559079965
000140 81 ae 87 69 4d dd bc 3f fd 07 23 ac ae 74 c4 3f
       0.11275180651107954 0.15981086163634464
000150 6f 20 a3 55 d7 f9 b4 3f 67 5e 57 af e2 65 b4 bf
       0.08193727341415678 -0.0796796491698558
000160 81 79 92 50 16 dc c1 3f c2 cc 67 5c 15 18 c0 3f
       0.1395290273112089 0.1257349682997298
000170 3c 2e e1 bc 5d d8 c4 3f c7 a1 81 d2 c5 7e b3 3f
       0.16285297129285137 0.07615314854923048
000180 a7 17 73 f6 ec 75 ba bf 6b 74 57 57 bf d7 ac bf
       -0.10336190239749375 -0.05633352223569762
000190 ce 2a 74 78 c9 4b ac bf 01 ab 14 69 95 e5 b9 3f
       -0.055265708879309025 0.10115941825339904
0001a0 d7 b6 d3 6e bd f6 9f 3f 14 ec fb 64 57 17 b4 bf
       0.031214675797790328 -0.07848116126471921
0001b0 86 9c 61 19 b9 a0 c7 3f 49 f0 d1 4b 5b a6 c7 3f
       0.18459237803765322 0.18476430132057178
0001c0 bf 79 8f 31 22 71 a0 bf e0 36 2d f6 bd e2 a7 3f
       -0.03211314063058834 0.04665177946172405
0001d0 3e da a7 2f 01 df b4 3f 78 2a 16 13 5d b1 aa 3f
       0.0815277806612835 0.0521344266699843
0001e0 fe eb 60 4e 4c d3 c9 3f fe 63 66 21 89 1d c4 3f
       0.20176080538826108 0.15715135699136334
0001f0 22 b8 bd 77 5a ab 9b bf a7 91 c4 73 76 2e bb bf
       -0.027020848806778137 -0.10617771459926094
000200 e8 0b 22 02 33 f0 92 bf 01 96 a7 c2 00 0f c9 3f
       -0.018494412427127488 0.1957703543150018
000210 c8 41 4c 8d e7 c8 c5 bf 53 0d 23 12 03 ec b9 3f
       -0.17019361876783834 0.10125750725551556
000220 b1 ce 58 9e 41 fc bd bf dc 3f 5c e0 0b 6e b1 bf
       -0.11713037601367195 -0.0680854246859321
000230 04 45 24 47 f9 cf a9 3f 2a 87 bc 76 8a 9a b4 3f
       0.05041483872822464 0.08048310660208516
000240 28 be eb ab 08 61 c1 3f 26 2b a3 35 a9 17 bf bf
       0.1357737388093352 -0.12145478782182959
000250 fc 9f 25 c3 e6 65 c2 bf 41 d2 1e 6c e4 ab c4 bf
       -0.14373478439961207 -0.16149573592487523
000260 2a ae 07 67 26 74 c5 bf 23 ea 26 4f 97 af 96 bf
       -0.16760711699258596 -0.022154201704078013
000270 ad bf ca 73 eb f6 bd 3f b2 3e 10 ce a0 b1 a7 bf
       0.11704894616082014 -0.046277070192556904
000280 86 5f 77 f1 14 2d c2 bf 52 fa f5 a8 3f 16 ad 3f
       -0.14200078764292473 0.05681036889562975
000290 ff 70 1c cc f1 c1 c0 3f e5 92 14 55 02 5e c6 bf
       0.13091871706354394 -0.17474393038096206
0002a0 f6 8d 72 d4 07 23 c3 bf ab eb e5 fc 5c 09 c0 bf
       -0.14950654862796825 -0.12528574322263117
0002b0 40 18 da 2b c8 e2 98 bf df fb 5a d8 9e 85 c1 bf
       -0.02430260436678844 -0.13689027370671078
0002c0 cc 51 35 9d 2b 3b af 3f 5c 5f ed fb 73 83 b8 bf
       0.06099830907865886 -0.09575581455771726
0002d0 99 01 c7 0d 5f a7 a8 3f 59 f8 74 5f 72 b4 bd bf
       0.048151941711242326 -0.11603464918604924
0002e0 f4 0d 90 c9 03 69 b0 bf 53 90 1f 16 99 37 ad bf
       -0.06410239859547301 -0.05706480403003469
0002f0 7b c8 58 d7 56 0a bb bf 4d df 19 1c 6a 75 c1 3f
       -0.10562651402941185 0.1363957059108948
000300 db 9e 0f 60 b6 be a0 bf 4a 3a 9c 6b 5e 30 99 bf
       -0.03270502016658635 -0.024598574941644004
000310 8e d9 5f c5 b5 d7 c3 bf 80 f7 f2 01 f7 10 d2 3f
       -0.1550204480879071 0.2822854537042687
000320 88 6d 3a c6 10 97 ef bf 63 78 24 6b 91 d3 ee bf
       -0.9871906158108894 -0.9633261768938265
000330 09 14 56 28 db 7f cb 3f ea 62 d5 e5 cd eb da 3f
       0.21483935803931356 0.42064235157663055
000340 8b 6d 1f 3a 2d 17 ca bf 98 31 69 26 44 70 d8 3f
       -0.20383229578042647 0.3818521857363293
000350 bc 11 95 6e 21 f4 d0 bf 37 6d 77 b2 26 1b cb bf
       -0.2649005489259044 -0.21176608766732283
000360 5d a7 30 75 08 47 c6 3f ae 34 c8 ab 9a 3d d3 3f
       0.1740427562920627 0.3006350209769363
000370 c2 06 fa c8 24 81 a2 3f ed 01 22 02 b7 5b e3 3f
       0.036141538174900414 0.6049456636101788
000380 e6 c7 29 d6 62 86 a6 3f a3 97 b7 d5 f4 5f a7 3f
       0.0439940344266601 0.04565396412708302
000390 d7 15 f0 ee 1d 93 de 3f f1 13 98 fd 6b bb 77 3f
       0.477729304635742 0.0057939737685090845
0003a0 ff f4 1f 15 19 8d d2 bf 6c 0d f6 c6 52 17 ec 3f
       -0.28986193716976055 0.8778470884284792
0003b0 dd b3 26 ab 55 6b de 3f c9 8e 7c 4e e4 fa e8 bf
       0.4753011866949331 -0.7806264431896689
0003c0 98 2a 1d 5b a6 20 c7 3f cf 78 e2 c7 66 4d c3 3f
       0.18068389367029591 0.15079960594170536
0003d0 5b 51 d5 66 8f f3 d1 bf b9 23 c2 50 46 ae bf 3f
       -0.28049073259650975 0.12375297042502965
0003e0 43 06 eb 88 81 dd d1 bf f9 b9 e3 8e cd ef bf bf
       -0.27914465304283825 -0.12475285280718386
0003f0 7c a8 84 11 1b cc ce 3f d3 7e 08 7b 86 fe c2 3f
       0.2406038127458635 0.1483924961803412
000400 cd ca e7 eb 27 ef e6 bf e2 d5 52 59 50 6c ee 3f
       -0.7166938407447901 0.950721907100782
000410 6e f4 ab f3 3d 23 bf bf ff 84 8f 13 3d c9 e9 bf
       -0.12163150023475719 -0.8058152563136501
000420 fa 20 3d 52 42 ee c3 3f 81 a3 d6 4c 14 33 bd bf
       0.15570858970227858 -0.11406065822542467
000430 64 e7 34 5c e9 ca a0 bf e7 70 d0 aa 38 5a c0 3f
       -0.032798092370696336 0.1277533372930357
000440 5f 35 62 1b b5 80 c5 3f af 0c 0a a2 c7 fd 86 bf
       0.16799033963290363 -0.011226234085603385
000450 47 55 94 85 7c a5 c4 3f 39 59 79 9a c8 4c ac bf
       0.16130024454529687 -0.05527331243199502
000460 e1 2a c5 10 4e f6 92 bf 38 68 24 e3 73 a7 af 3f
       -0.018517703794070143 0.061824437596627424
000470 24 ce 4e 80 64 c8 c3 3f ae f0 12 44 20 1c aa bf
       0.15455299630194574 -0.050995834646046276
000480 29 f2 fc 39 6e 59 be 3f c7 ed 60 b0 0e 6a c6 3f
       0.11855210223888747 0.17511161434400277
000490 a9 c6 56 66 e1 be c6 3f 92 99 55 e5 cb d4 94 3f
       0.17770020958919489 0.02034300410505236
0004a0 2c 09 2c 7d 8f 71 bc bf 61 c0 14 6e 68 47 bb 3f
       -0.11110779577214619 0.1065583485367383
0004b0 af 72 59 a7 49 5c bc 3f d6 e7 54 ae 0b 2d bb bf
       0.11078319869688856 -0.10615609174865823
0004c0 83 71 7f 8f ef e0 b3 bf 25 ad 79 01 6b 2a b3 3f
       -0.07765099767079246 0.0748659971811106
0004d0 4c 93 09 2b d0 fa c4 3f 28 53 94 de ca 43 a9 3f
       0.16390421010432943 0.04934534041436783
0004e0 5a 93 b0 3e 2d 65 bf bf e6 3a 56 a2 70 a6 b2 3f
       -0.12263758450042186 0.07285217250157991
0004f0 aa 69 62 7a 49 ac b1 3f 38 b8 24 32 84 77 9e bf
       0.069035141352663 -0.02975279384661908
000500 8b 8b 53 0a b7 a2 b7 3f bb 07 4c e6 d7 35 a1 3f
       0.09232658388240915 0.033613917219568155
000510 8b 36 3d d7 46 dc b7 bf b4 2f ab 71 2a 77 b5 3f
       -0.09320490603314562 0.08384957575907387
000520 74 69 d3 7c b9 57 b2 3f 16 34 dd 30 6a 86 cb 3f
       0.07165107057099879 0.21503951440755092
000530 11 8b d7 12 db ff b6 3f 26 46 5e e5 79 24 d1 bf
       0.08984154901513032 -0.26785132788890775
000540 73 ab fd 0a 7b 62 ba bf f5 92 55 5d 96 b3 9f 3f
       -0.10306519525845008 0.030958508917495704
000550 61 e5 24 04 ce c6 d3 bf f0 e9 f2 a2 4d 47 b8 3f
       -0.3090090790243121 0.09483800152057831
000560 5b 53 62 e4 b7 b4 d2 bf 6e 44 fc 83 38 95 b1 3f
       -0.2922801714242291 0.06868317816067002
000570 fe 86 fb 8b 29 78 99 3f 1d 20 86 66 c4 5e cb bf
       0.024872445267539504 -0.21382956510592602
000580 b3 31 9b f2 03 d6 a6 3f b3 76 8c 2e 6d b1 c9 bf
       0.04460155807973667 -0.20072712681660718
000590 c1 fe 0d 0d 32 e5 c9 bf 83 61 e8 bd 39 93 d4 3f
       -0.20230699193415627 0.3214859346931222
0005a0 f3 48 64 fa 85 e4 b6 bf 9b 1a 1e f9 96 5d d5 3f
       -0.08942448962287468 0.33383726432695376
0005b0 ae 19 90 30 0b c9 cc bf 1e 68 25 f6 8c 8c c5 3f
       -0.2248853671191688 0.1683517648587562
0005c0 0e 16 95 af 47 1d d1 3f 58 45 10 ae fb 3d 92 bf
       0.267412110774189 -0.017814571856495348
0005d0 bd b6 5f cd 22 5f ae 3f cf a0 d8 87 c9 a5 a3 3f
       0.05931957966809651 0.038374231179035705
0005e0 71 81 3c ef 9a a6 bc 3f 5d c2 8d a3 6c 42 d8 bf
       0.1119171938012238 -0.3790542218403397
0005f0 d2 3b ae 16 7e d6 c9 bf bb 49 b8 ad 00 e1 c8 bf
       -0.20185829265071092 -0.19436653597274564
000600 10 fc b5 bc 1d 14 a9 3f c8 b6 1e f6 f3 d3 d2 3f
       0.04898159912681177 0.2941865829005619
000610 84 d0 65 53 42 ef ba 3f 74 5a 12 ae b3 34 b4 3f
       0.10521330391003586 0.07892916679188905
000620 53 63 c0 a8 2d d8 d7 3f d2 22 51 f9 0c 2a c8 bf
       0.3725694797481555 -0.1887832848899707
000630 ff bc 73 8a a4 ce ca bf e6 59 30 da f5 df d8 3f
       -0.20943123588902066 0.38866945559985167
000640 53 ae 3b e1 ac 1e f1 3f 91 b2 d1 04 57 37 e9 bf
       1.0699890897912112 -0.7880053609965946
000650 27 b7 88 d0 6a 52 e2 3f cc 0a 66 79 08 13 d9 3f
       0.5725606987886963 0.3917866883786416
000660 67 3f 35 8f e3 d2 c5 bf 89 15 c3 04 31 d3 e0 bf
       -0.17049831860139905 -0.5257802098282564
000670 1e 03 d1 68 64 43 c2 bf dc 1a 55 bf 8e 28 ce bf
       -0.1426816474722949 -0.23561271994022703
000680 62 de 24 39 22 ed db bf 5c be 7d 59 34 ea e6 3f
       -0.4363484914824537 0.7160894153475499
000690 48 1f ef c9 c1 82 a0 3f 05 46 26 3b ad 26 db bf
       0.032247596645503196 -0.4242356374389547
0006a0 e9 93 94 48 00 21 e6 3f 2f 16 27 df 55 5e bf 3f
       0.6915284555039963 0.12253319452346355
0006b0 3f 4d 1a ce 78 15 d9 bf 98 2c d1 e1 09 63 f5 bf
       -0.39193554045887774 -1.33667934617805
0006c0 7a d9 32 43 59 a3 f3 3f 61 cf 47 46 16 d9 b8 3f
       1.227380049223568 0.0970624848922035
0006d0 7d ae 83 ec 2e 94 f2 3f fd b4 8b 41 ba 62 da 3f
       1.1611775626032845 0.4122758522124313
0006e0 0e 2b ee 82 31 b5 dd 3f c4 49 7b fe 3a 6b d7 3f
       0.4641841677300115 0.3659198270007915
0006f0 eb 35 5d 5b 96 0d dd 3f 55 49 d4 2f 26 f0 99 bf
       0.4539543049075678 -0.02533015887190378
000700 ed d0 1b f9 48 94 ca bf 59 7a 3a 64 27 25 cc 3f
       -0.20765030063160542 0.21988384622541693
000710 a6 d6 e2 1f ae 6a d4 3f 8f bc 60 e4 6c ea 91 bf
       0.31901124109149703 -0.01749582427890722
000720 22 46 67 c7 93 3e 5d bf ea 20 92 25 03 b6 e6 bf
       -0.0017849391129981592 -0.7097182973675704
000730 05 54 1b 13 c3 95 e0 bf f7 96 1b e9 c3 e3 b8 bf
       -0.5182814953974463 -0.09722542229755136
000740 5a 50 00 20 d7 1d 90 3f f4 91 55 f4 80 55 a9 3f
       0.015738831833076318 0.04948046667667319
000750 ac 26 90 fc 54 0b ba 3f 94 63 9f d4 aa 30 a7 bf
       0.10173541227427546 -0.04529317708483585
000760 92 cc 8d 61 42 2d b5 3f 26 0d cb c3 7a e0 c1 bf
       0.08272185212790564 -0.1396630722066245
000770 1e 4d 0a 48 de 50 b5 3f fb 22 9b 9d 6e 1b bd 3f
       0.0832652021293154 0.1136998305111198
000780 c8 52 68 fe 00 90 c7 3f 09 87 d9 51 d3 aa c1 3f
       0.18408214971773007 0.13802567955558967
000790 56 bb 64 00 09 16 c1 bf 43 a9 26 f3 c9 e5 a2 3f
       -0.133484959785586 0.03690939992096045
0007a0 5e 2e 98 43 ba 55 aa 3f f6 b8 2e ff fe 97 b5 3f
       0.051435299636150886 0.08435052614251845
0007b0 81 4e 32 82 ba f9 93 3f a8 27 50 1b 0a 31 7e 3f
       0.01950732631355701 0.007370986441864881
0007c0 65 76 dd 7b cf b7 b8 bf 10 5b 44 c8 95 59 b1 bf
       -0.09655472539949413 -0.06777320994693192
0007d0 d0 1b 24 1c d1 4f c8 3f 31 95 7f 7f 36 4a ae 3f
       0.1899358165175884 0.05915994936348524
0007e0 2c 9e 91 dd 09 c5 a6 3f 9b 96 d9 ef 27 e5 90 3f
       0.0444720347375632 0.016499160780219495
0007f0 e7 bf 3f 27 88 36 88 bf 00 4b cd 3d 9f 67 b7 3f
       -0.011822761247429937 0.09142489680133892

bias f8 [99]
000000 82 ac be ef 7f 68 a7 bf 98 1b 64 95 47 bc b1 bf
       -0.045719144836163586 -0.06927916905634246
000010 4e 3b 19 d3 3d 8f 9d bf 13 1b 0d 76 1f fc ea bf
       -0.028866735467370667 -0.8432767205893889
000020 30 46 f7 b3 fb 05 b3 3f 38 b4 47 dc f8 39 9e bf
       0.07431004661273088 -0.029518021054105698
000030 c1 1d cf 1d a7 20 02 c0 7d 1c a7 c5 a5 46 bc bf
       -2.2659437493163925 -0.11045299602038657
000040 af 38 a7 51 59 17 a6 3f 27 0b 0b 26 21 22 b2 3f
       0.04314688798659582 0.07083327463901111
000050 bc 40 18 6f 4a 09 b7 3f 39 b9 f0 f5 c5 ee bf bf
       0.08998551571153518 -0.12473714117434022
000060 21 ca e0 a9 72 2b f4 bf 3a ec fc 52 b1 3b c9 bf
       -1.2606073985922495 -0.19713417579791487
000070 1b af ca 99 d2 ba c1 bf a5 a9 e2 41 6a 4f b9 3f
       -0.13851387509691268 0.09886802776842403
000080 21 8e ba 8f 18 26 b9 3f b4 65 3e c0 ce 31 c3 bf
       0.09823754796030261 -0.1499575079622396
000090 96 85 0f 47 fb 71 01 c0 21 ee 4d d6 48 c5 f0 bf
       -2.1806550551998027 -1.0481651660219387
0000a0 7f 9d 58 f2 8e c4 f3 bf a0 30 21 2c ce 52 a5 3f
       -1.235487887062703 0.041647379767341564
0000b0 6b 70 bc 4c 53 d4 db bf ae a4 fb 41 2d 7f c1 3f
       -0.43483431333311867 0.13669362756562492
0000c0 8f 06 af bc dc 1d f6 bf 47 be 11 1b 67 42 a6 bf
       -1.3822905893761435 -0.04347536282955083
0000d0 15 e3 ed 77 23 8f c0 3f 06 00 c1 f3 27 45 c8 3f
       0.12936824184341647 0.18961047555967542
0000e0 8d c8 7b a9 58 f8 b9 bf e4 22 52 94 3a ae fe bf
       -0.10144571435719936 -1.917536334398556
0000f0 71 40 4b c1 c6 e7 c7 bf 8e 2e b6 1e c5 4c 02 c0
       -0.1867607539957166 -2.2874853515002718
000100 93 f5 93 54 c6 d2 bf 3f 44 8d 49 13 ac 2b c6 bf
       0.12430991711513277 -0.17320776883853217
000110 6d 27 98 78 0b 09 a7 bf 15 b9 d7 a7 e0 40 7c 3f
       -0.044990881415357765 0.00689780956370913
000120 0d 7d 88 b2 02 45 64 bf 8f 06 3d 2b 5f 36 b4 3f
       -0.0024743130382060053 0.07895464711784882
000130 ce 83 c7 24 fb 16 b1 bf ae 77 fb 08 b9 37 c7 bf
       -0.0667569126885745 -0.1813880246981489
000140 14 eb 66 e2 ab bb d3 3f f9 97 c7 d2 75 c2 bb bf
       0.30832955464909273 -0.10843597789752825
000150 18 25 e7 c4 01 90 f9 bf dc 13 9e 2f c6 6d c8 3f
       -1.5976579371948159 0.190850041628578
000160 60 4b e5 60 21 b8 a3 3f 58 e5 86 9c bc 18 f9 bf
       0.038514178350530726 -1.5685392488797643
000170 5d 85 7c d5 26 27 a8 3f 4c 5c 10 64 c3 d0 a3 bf
       0.047173703728058604 -0.03870211216433769
000180 1b c3 40 47 1b dd a4 bf 36 1d d8 ac 88 38 b8 3f
       -0.040749409149048975 0.0946126386626148
000190 5c 9e 62 d4 38 be a7 bf 64 87 3d 10 a4 4b 91 3f
       -0.04637315361588598 0.016890109530670286
0001a0 cb 61 3d 10 36 b3 c5 bf c4 5e 1c 69 5c c2 ae 3f
       -0.16953159134824455 0.06007660658923222
0001b0 d3 89 f3 be 29 06 7e 3f 97 b1 ad 03 69 b6 bd bf
       0.007330096311508122 -0.11606460895354186
0001c0 2c 7a 27 0f aa 17 d8 bf 3d c3 36 20 76 b4 b3 3f
       -0.3764443538656532 0.07697237287972043
0001d0 11 3e 5d 8b 66 82 c5 bf 9c 4e 94 ba ab 6a 02 c0
       -0.16804200940031014 -2.3020853592405057
0001e0 91 f6 e2 e6 6d 18 02 c0 bd 43 13 83 a8 d9 90 3f
       -2.261928371240011 0.016455300331305035
0001f0 0a df 55 c1 e0 60 0d 40 56 cf c7 84 c4 6b c1 3f
       3.6723036865549874 0.13610130771086898
000200 97 fd c9 48 ca 0e c6 bf c2 f1 f4 aa 4c 62 e6 3f
       -0.17232636026527068 0.6994994486809036
000210 0d c2 5f e6 4d 7b d2 bf 25 85 33 40 8e 01 c7 3f
       -0.2887758970018986 0.1797349751932781
000220 8e ce d9 ec 2b 58 c3 bf c3 4b 9d 47 93 5c a6 bf
       -0.15112828316670285 -0.043675043575283755
000230 f6 35 f5 f3 d3 64 03 40 d5 a1 c6 cb 4d 32 df bf
       2.4242323931891816 -0.48744530582419304
000240 f3 a3 68 27 29 c8 e5 bf 1a 48 2d f5 e5 0f 60 bf
       -0.6806836862280065 -0.001960705887008818
000250 ba 30 76 ba da d9 8e 3f 49 17 b6 35 34 4f bf 3f
       0.015063961806639593 0.1223023062831007
000260 f9 76 df 0e ec da ba 3f 82 14 c4 61 b9 4e ac bf
       0.104902986174661 -0.05528811758453235
000270 b1 49 5c f1 1e cc f2 bf 81 3a ab 89 e4 0d 58 bf
       -1.1748341968674192 -0.001468156033911733
000280 47 fc b4 fe bd 67 b0 bf 67 bd 0e d5 5b b9 a6 3f
       -0.06408297985488885 0.04438292480278499
000290 71 ec 9f c3 b1 c2 e3 bf 0b 93 85 c0 9c 83 b1 bf
       -0.6175164051814034 -0.06841449451674124
0002a0 ef 79 09 bb d4 a2 02 40 61 7a 0f c2 31 42 03 c0
       2.3295073139445246 -2.407321468446114
0002b0 a4 93 ae 3a 61 36 ae 3f ae 7d 96 aa 9e 6f b0 3f
       0.059008634961436074 0.06420318283789214
0002c0 5b 8a 7d 78 04 12 c0 bf 90 cd 43 71 e8 40 aa 3f
       -0.12554984935111943 0.05127645857455854
0002d0 fe 7c 7e b7 e4 67 c7 bf 20 23 9c fd 3c 9f e0 3f
       -0.18285807571098894 0.5194382623022626
0002e0 33 53 e6 b1 3b 22 b2 bf 79 2d 14 8e b8 ab b9 bf
       -0.07083485692267004 -0.10027650326462902
0002f0 8b 98 73 77 10 18 01 c0 a9 39 0f 58 5c 45 a5 bf
       -2.1367501575614987 -0.041544805287787874
000300 e8 8b 90 47 8f 74 f4 bf 97 0c bf 96 3c 60 aa 3f
       -1.2784569545262858 0.051515477563520644
000310 c4 24 1b 87 ef 90 d1 bf
       -0.27447117036770075

weight f8 [99, 99]
000000 b7 42 92 b1 d8 b5 9d bf 5d 26 23 b0 17 8a c5 bf
       -0.02901400169190779 -0.16827674961523345
000010 92 e3 66 41 fd 0a be bf 13 c9 a1 70 f0 71 b1 bf
       -0.11735518309332196 -0.06814482450298369
000020 f7 4f 72 88 91 79 c1 bf ba d4 2e f1 7b 9b b6 bf
       -0.1365224758379779 -0.0883099998307725
000030 42 b3 d8 f0 73 da 7a 3f d1 79 57 10 3f 36 c1 bf
       0.006555989164138522 -0.13446796701368993
000040 cc 55 65 d6 14 8a b4 bf 14 38 a7 0a 25 58 a1 bf
       -0.08023195490144203 -0.033875615644873985
000050 6b 5e a5 2f 82 59 69 bf 4f d1 65 6b 64 a4 b7 bf
       -0.0030944388101195506 -0.09235217687620899
000060 61 15 3c 71 d4 f4 a4 bf 03 03 c8 ad a3 47 b4 bf
       -0.040930403540225375 -0.07921813004214688
000070 a3 24 3d 10 85 f3 c4 bf 07 62 d6 0a 5e f8 91 3f
       -0.16368163388168452 0.017549008761848863
000080 17 b9 d4 30 8b 0e 9a bf ea 55 58 70 17 fd 9c bf
       -0.02544610486546003 -0.028309217674253796
000090 c8 a4 f4 57 9a 03 b6 bf 7d bf 13 fd 92 74 a3 bf
       -0.08599247596125104 -0.03799876536675038
0000a0 3f 39 a6 1e 91 bf c0 bf 4d fd 89 25 e9 03 b9 bf
       -0.13084615704105748 -0.09771592298965466
0000b0 dd 3e 95 20 1c 57 a3 3f 88 3e 97 6f f6 07 a0 bf
       0.03777397058240493 -0.031310750123904774
0000c0 e5 c1 f3 98 7f 3b b7 bf fd 73 48 97 98 ca b8 bf
       -0.09075162395652787 -0.09684137051995374
0000d0 c4 49 92 28 11 ec c1 bf da 51 15 a7 77 3b a0 bf
       -0.14001669388797044 -0.03170370020476172
0000e0 62 24 f4 65 8e 8e ba bf 3d 65 02 a0 94 e5 a7 bf
       -0.10373773564437408 -0.04667343571891045
0000f0 4a ce b5 8a eb 64 ad bf 73 6d 9e a4 2d 17 c5 bf
       -0.057410584146876234 -0.1647698453715339
000100 1a 30 a8 f8 2d ee ba bf c7 76 13 40 96 c2 ba bf
       -0.10519683190085552 -0.10453166069370488
000110 d4 c0 11 d7 4f ff c0 bf 42 92 5e 7e 3a 6b 90 bf
       -0.13279150010521923 -0.016034044230439422
000120 4b 95 65 43 4a 1f c3 bf 05 5f 70 a1 0c e8 80 bf
       -0.14939239779338673 -0.00825509898827149
000130 10 15 cd 45 cd 55 c1 bf e2 cc 7d 27 ca 53 a5 bf
       -0.13543096454865422 -0.04165488941262098
000140 32 1c d8 82 53 67 a2 bf 41 24 7c 06 2e f2 b2 bf
       -0.03594456646174428 -0.07400787027667467
000150 90 de ca 3a bb 43 be bf e6 75 69 7d 0a 59 b7 bf
       -0.11822099862444646 -0.09120240747275651
000160 44 bb 62 8a b8 7b 68 3f 20 ab 0a 74 24 6a b3 bf
       0.002988682204054712 -0.07583835442589448
000170 9d 62 1d 05 81 4b ad bf 1e c2 07 a4 00 2b a2 3f
       -0.05721667468487122 0.03548433306048458
000180 fa 9c c8 a1 f3 c8 b8 bf cf e2 dc c0 55 5e ba bf
       -0.09681627940937068 -0.10300193747105911
000190 92 29 01 6b d4 7e bb bf d5 d3 a4 4f 20 b4 a5 bf
       -0.10740401852050344 -0.042389878961706685
0001a0 da ea f4 fa 8c d7 c3 bf 7c 90 cd bb 93 63 c1 bf
       -0.15501558545823607 -0.13585135145251914
0001b0 3e cd 33 2c f8 91 b0 bf 68 b3 4d 3d 57 3d a7 bf
       -0.06472731665762851 -0.045389868005122846
0001c0 1e 4b e1 ac 4c da be bf 83 4f 03 75 3d 87 b0 bf
       -0.12051848622040182 -0.06456359965096507
0001d0 13 02 d5 aa 83 2f b1 bf 72 f8 18 85 5a 8f af bf
       -0.06713126106934224 -0.06164057612157671
0001e0 09 8c 85 ad 5b b3 96 bf 2a ca ac 91 e8 f5 c6 bf
       -0.022168571916505928 -0.17937953103099008
0001f0 fd 19 37 ec 20 3c fd 3f 7f 80 c2 7f a1 e2 86 bf
       1.827179835048468 -0.011174451552790508
000200 93 c5 36 f2 50 1f b1 bf 79 a0 4f 1a cc 0b d4 3f
       -0.06688409722734993 0.31322004861295444
000210 13 fc 97 70 ba a7 99 bf b4 33 fb 56 7d 13 b6 bf
       -0.025053895113156765 -0.08623488782468663
000220 05 90 40 9b d6 8f b5 bf f2 55 02 e9 aa 09 b7 bf
       -0.08422604837738852 -0.08999126614283862
000230 f3 03 79 46 f6 68 90 bf 1e 7c 57 fa 1e aa 95 bf
       -0.016025398303330673 -0.021156772641799042
000240 ff 93 c9 b6 10 36 bd bf 5a 55 9c 8b 62 a8 b5 bf
       -0.11410622084220277 -0.08460060032333186
000250 e9 32 b7 56 ca 01 83 bf 77 f6 b9 e3 fb e5 c5 bf
       -0.00928075863967011 -0.17108105296567874
000260 1c 4e fc 95 10 42 ba bf a2 2f 0b a4 82 30 b2 bf
       -0.10257056867367748 -0.07105270867322003
000270 7d 72 53 40 62 7d c1 bf 43 89 2c 72 25 7a 9a bf
       -0.13663890973011297 -0.02585657605517012
000280 1e 7f 43 58 f5 f9 af bf 01 58 81 82 ae 96 c6 bf
       -0.062453906082508434 -0.17647343990637412
000290 32 11 cc 7a 09 08 b2 bf 4f 01 94 f3 6d 05 9e 3f
       -0.07043513534523951 0.029317586891012323
0002a0 dc bb 80 0e 5a 22 76 3f 1c c9 b4 48 5d d9 ba bf
       0.005403854163929158 -0.10487921738675648
0002b0 4a f4 52 dc bf 98 c1 bf 57 30 c3 0f 32 81 ad bf
       -0.13747404344568032 -0.057626308845642064
0002c0 0a b2 3b 35 c7 2c 9f bf e4 5e 77 51 45 4f c2 bf
       -0.03044425260934428 -0.14304415204855225
0002d0 03 e0 75 65 03 4f 75 bf 61 78 e9 99 0b 5f a5 3f
       -0.005202306048310848 0.04174076322372922
0002e0 bc 16 0f f9 3e 58 bb bf 9f 32 8c 41 db bc 96 3f
       -0.10681527691402953 0.022204805255614187
0002f0 cf d7 c0 5d 0f c2 c3 bf 27 09 0f 65 81 d4 c3 bf
       -0.15435974195287236 -0.15492265161999194
000300 46 fc e9 f9 61 f6 61 3f 90 d7 01 39 ea ae c3 bf
       0.0021926797483611564 -0.1537754801135489
000310 69 ae c8 f7 20 7e 99 bf 96 02 5a 4d d5 1d b6 3f
       -0.02489520561554884 0.08639271868197293
000320 bc b8 c5 5c 36 74 bd 3f 6e 3a 57 32 e4 8c ba bf
       0.11505450978231385 -0.1037123320486246
000330 f4 0c 86 63 4e 7c d5 3f 45 f0 87 c8 33 2f c4 3f
       0.33571204871277804 0.15769049922517034
000340 b9 71 f4 72 98 58 d1 3f 06 21 88 4b 0e b3 d3 3f
       0.27103244043407987 0.3078037011732849
000350 1f 85 23 13 d6 7c 9b bf e7 23 13 33 91 11 bb 3f
       -0.026843399923454855 0.10573680397932571
000360 7b 09 13 0c f1 60 b4 3f 17 24 3a 17 65 04 91 bf
       0.07960421128067267 -0.016618327658339007
000370 3d f9 3d 53 75 5a b1 3f b9 75 47 81 2c 46 b5 3f
       0.06778653414037179 0.08310201793889051
000380 2d 9c b2 4f 39 43 b7 3f 22 78 56 2b bc ce b8 3f
       0.09086950488800545 0.09690452631045379
000390 f2 22 cc fa d6 51 b6 3f ea 85 97 e6 29 05 b8 3f
       0.08718627570136642 0.09382879142460579
0003a0 be 2d 40 9d ed fb c3 3f a4 bb eb e5 31 b8 88 bf
       0.15612573793656098 -0.01207007391846366
0003b0 f1 75 f4 3b 0b 0b dd 3f 1d 3f 0c 88 d4 b1 d1 3f
       0.4537990651604949 0.2764788940994423
0003c0 dc b0 0f c8 63 d1 c5 3f a4 f2 e5 52 28 18 ec bf
       0.1704525687085895 -0.8779489153963209
0003d0 bc 25 03 8a 39 24 b5 3f 44 09 97 5a ae 8a d0 3f
       0.08258399600449357 0.25846442076376186
0003e0 c7 38 36 43 92 c5 bd 3f 26 77 ad 86 45 d2 97 bf
       0.11629594937241726 -0.02326305994517166
0003f0 90 d5 56 0f bd a7 c4 3f 0f 48 c5 f9 06 a7 bb 3f
       0.16136897324546995 0.10801738355556288
000400 1b 70 d2 f1 bc 06 bb 3f cc 59 ab d2 aa 26 b4 3f
       0.10557156471117006 0.0787150158242646
000410 31 72 cc e1 2a 8a c5 3f 63 4a 0a bf 8c 4a b0 3f
       0.168279037717086 0.06363753952090571
000420 a4 c3 16 e4 54 fe c3 3f e5 1e 20 81 05 bd 61 bf
       0.15619908463625365 -0.0021653277881375937
000430 54 03 ac a7 03 74 c2 3f c8 9e 70 af fe 88 8c 3f
       0.14416547476869346 0.013933171967507887
000440 22 6b d2 15 86 d6 b7 3f 5e 62 22 76 2b a2 a2 bf
       0.09311712296259292 -0.03639350716656929
000450 34 e0 96 30 ff ee 86 3f 53 de 4f 85 af 8a d2 bf
       0.011198037786798044 -0.28971469897030494
000460 67 22 27 c5 28 d4 7b bf 3a 37 3d 64 18 c0 a0 3f
       -0.006794127710641896 0.03271557067510718
000470 ed 15 a9 ad cc 89 98 3f 4d 6c 1c 62 ae d8 bc 3f
       0.023963163470645133 0.11268129248894461
000480 22 a2 8f 37 8d e0 bc 3f 3f 14 8b 3c 93 ca a1 3f
       0.11280138594123248 0.03474865068486865
000490 f6 fb dc db 37 f2 ae 3f aa 3e c7 87 e6 f4 35 3f
       0.06044172819974129 0.0003350317781753801
0004a0 68 e4 49 27 7d b0 ae 3f 3c 3c 7f 7c b6 ea 8d 3f
       0.0599402533015983 0.01460783545908672
0004b0 c8 24 91 66 d7 f3 c2 3f 68 ad bc 45 7c 17 94 3f
       0.14806644924309453 0.019620839840326282
0004c0 aa 47 81 fd a0 97 c1 3f c3 0b 3c 77 3e 15 c5 3f
       0.13743984583066765 0.16471081563949327
0004d0 07 ed 07 a0 40 5d c1 3f a2 5a 6c 8c c1 74 d6 3f
       0.13565833868037933 0.35087622369011673
0004e0 d3 33 b8 24 af 64 9f 3f 99 80 16 dc b3 fb b3 3f
       0.03065751706713 0.07805942652930965
0004f0 c1 6f 9f c5 1c 08 da 3f 3a cd 41 04 56 30 a4 3f
       0.4067451410207888 0.03943127443280976
000500 70 56 ec f2 24 1a 81 bf ec 7c c9 e3 8b b4 08 c0
       -0.008350647605350064 -3.0881574436058283
000510 a7 a6 4a d4 95 b6 ba 3f 69 88 b8 d2 bf 87 99 bf
       0.10434853012943766 -0.024931905018214105
000520 16 d0 47 8c c3 f7 f1 bf 31 b6 79 e2 23 9a 9b bf
       -1.1229892234523553 -0.026955185602153434
000530 fd 71 e0 ba cd 9c 68 3f cb 05 27 23 4e 13 b8 3f
       0.0030044572986425142 0.09404457433904338
000540 98 3a b4 cc 36 8a 8b 3f 40 fa 51 ba 35 9a f3 bf
       0.013447216150351424 -1.2251488950856952
000550 17 10 a0 da d0 3d b8 3f 3e 6d e4 38 b6 7b d0 3f
       0.09469323480158241 0.25755076938522226
000560 91 4d 91 eb 86 11 b3 bf f5 a2 10 65 3c fb c7 bf
       -0.07448619128381596 -0.18735461172879977
000570 c0 43 3e 84 b8 71 b0 bf 58 11 5d 46 9e f6 be 3f
       -0.0642352412089755 0.12095059602603919
000580 8c bd 3c a0 79 0d 58 bf 62 fe 32 96 a7 a2 90 3f
       -0.0014680564644996312 0.01624547819369438
000590 10 f9 ae d0 23 6e aa 3f 48 27 3d a2 26 29 be 3f
       0.05162155077367647 0.11781541310224697
0005a0 3d de a3 78 8c d5 b9 3f 95 8f 1e bb 51 9c ab 3f
       0.10091474480929548 0.05392699631855106
0005b0 0b d8 71 0b 6b 18 c2 3f 5d da 43 5c 1e ab 03 c0
       0.14137018259833697 -2.458554001637181
0005c0 b9 d0 1c 52 a9 66 c0 3f 1a 5c d4 de 02 14 b2 3f
       0.1281329775753244 0.07061784687208253
0005d0 67 38 41 e6 ab d8 64 3f 77 7f 0a c8 6b 53 bc bf
       0.002544723263816318 -0.11064790376485499
0005e0 5e f6 b6 ae 51 1f c4 3f f9 02 86 04 aa 12 c2 3f
       0.15720578223219922 0.14119458409188448
0005f0 6a a2 a8 c7 f2 3f ea bf d3 3a 82 1f a9 b6 93 3f
       -0.8203061961731468 0.019251482532633823
000600 9c d4 39 c3 8b 74 a1 bf b4 98 02 4f 62 48 b6 3f
       -0.034092300015722915 0.08704199246367034
000610 5f 6c 06 5b 12 0d b6 3f a9 06 e4 12 de b4 9b 3f
       0.08613695833484901 0.027057142165182544
000620 e7 5c be 08 40 36 bd 3f f5 93 b2 75 a1 80 d0 3f
       0.11410904134241982 0.2578509950056394
000630 dc 83 ae 51 17 94 ba bf fa da da 2e 40 8a 87 3f
       -0.1038221907060825 0.011494161062143505
000640 f0 24 42 5c 86 0c b8 bf 6b ab d5 0e 7d 6f b4 bf
       -0.093941113971727 -0.0798261796204948
000650 f9 85 fe 0c c1 97 8a bf 48 03 4f bf b8 f7 b9 bf
       -0.012984760483791812 -0.10143618269559085
000660 d7 f1 8b b4 9c 84 c3 bf c4 28 5e c8 03 26 a3 bf
       -0.15248450103525954 -0.037399404725037694
000670 88 16 57 6e d3 ce bb bf c0 cd 06 fa f5 e1 b6 bf
       -0.1086246628174995 -0.08938538889088132
000680 cf 2c 79 ba dc a9 8b bf f6 c8 c2 d0 c5 03 b7 bf
       -0.013507580223765107 -0.08990131708813806
000690 40 49 a9 31 dc f8 b0 bf 85 44 d2 a0 4a 5f b3 bf
       -0.06629730427201697 -0.07567278314879118
0006a0 80 93 e6 0a 2a c6 bd bf b2 92 b0 06 bb c8 ba bf
       -0.11630499616746981 -0.1046254054386491
0006b0 ce 3f 15 8a 6b c0 91 3f 3d 65 3d 21 fe bd 5e 3f
       0.017335586836736465 0.0018763524758099303
0006c0 82 ed 89 a0 a7 99 c3 bf c2 1b a9 20 a6 d8 a2 bf
       -0.1531266721611751 -0.036809150206458266
0006d0 ef 28 fd 24 49 3f c0 bf 7a 53 7b 8e 1e e1 35 bf
       -0.12693132692431372 -0.0003338527298926624
0006e0 b3 6e 5c fd 55 be a1 3f f2 6d de fd 86 a1 b1 bf
       0.034655272653450274 -0.06887096116991367
0006f0 14 3e 03 be fd 19 60 bf 43 0f b4 b2 dc 5a c0 bf
       -0.0019655185607019374 -0.12777289129018685
000700 e2 3d cd 46 1f 12 a7 bf 14 04 76 dc 6a b7 a4 bf
       -0.04506013621596218 -0.04046186391043008
000710 49 47 cf b6 01 09 af bf 06 8c 69 41 50 a0 ac bf
       -0.06061559063495154 -0.05591059492578414
000720 ac 3e e1 43 2a 6d ac 3f 6a 85 ea 6b 10 68 8f bf
       0.05552036360370258 -0.015335205357873877
000730 60 8d f4 cb 75 af 71 3f 6d b5 48 7f 1f 37 c5 bf
       0.004317722457275991 -0.1657447215560909
000740 df 81 89 ea c0 df b2 bf a0 c2 e2 49 86 94 94 bf
       -0.07372670866016716 -0.020097826251631035
000750 ff c2 a9 a7 31 44 b8 bf e1 05 fd 70 25 5c bd bf
       -0.09479055732095885 -0.11468729027276182
000760 2f 76 09 bc 4e fb b4 bf 0b 52 82 24 c0 90 32 3f
       -0.08195964899774631 0.0002832860086610384
000770 bd aa 0f 25 f6 7b b7 bf 25 f9 35 81 fe 98 85 3f
       -0.09173525242628507 0.010545719450189292
000780 16 e5 2c 3f 08 e8 9e bf 01 06 02 39 70 a4 c4 bf
       -0.0301820076522051 -0.1612682607993037
000790 f3 4c ef 11 a7 ca bc bf ba e1 91 55 7f e7 bd bf
       -0.11246723354206604 -0.11681361998660736
0007a0 b3 c9 4e 9d 19 13 8d 3f 17 e8 7a d8 0c e6 a2 3f
       0.014196586716796888 0.03691139357165712
0007b0 91 53 a8 f3 f4 3b c0 bf 9f dc 9d 67 79 5a b7 bf
       -0.1268297376379022 -0.09122427730277359
0007c0 5b c1 9d 38 0b ed b3 bf a6 2f 97 65 68 cc b3 bf
       -0.07783575184089868 -0.07733776550520463
0007d0 fa 39 9b 5c a8 b5 b5 bf af 9a 29 c4 43 41 c2 bf
       -0.08480312596223163 -0.14261672094581487
0007e0 77 83 1f 5c df 17 c0 bf 62 cf cf 8c 53 61 82 bf
       -0.12572853086660604 -0.008974697813733893
0007f0 27 bc ad 76 9d 82 a2 bf a5 48 ac 78 09 36 ae bf
       -0.03615276406969086 -0.059006019573773195

bias f8 [99]
000000 9d e8 a4 5c b6 6a 77 3f 38 11 ee 06 25 68 b4 3f
       0.005717003203523555 0.07971412104786146
000010 6c 83 ad 71 0b bc 9a 3f 63 2b 20 48 fa 0b c1 3f
       0.026107958615628687 0.13317802926789132
000020 a0 df 7b fd af ce b7 bf cd f8 ed b6 2e b7 c3 bf
       -0.09299755037852586 -0.15402778560741695
000030 54 6f 85 e4 ea 35 be bf 64 6e a8 79 e1 3c 82 bf
       -0.118010216513935 -0.008905183339314955
000040 7f 7c b9 43 ae 1d b6 3f f3 f9 97 66 39 c3 95 3f
       0.08639039185935536 0.021252533804721762
000050 e2 2c 9f e6 01 90 9b 3f 29 68 7e 0e 5a ce 9f 3f
       0.026916532231365482 0.031060607084875045
000060 68 0e 17 f2 76 71 b1 3f 43 f3 31 96 b5 32 5e bf
       0.06813758287813132 -0.0018431447322477402
000070 77 76 e1 cc 4e 11 9a 3f 19 47 96 ab f1 7f 7f 3f
       0.025456649069715866 0.007690376305065327
000080 7e f7 a2 41 e4 74 af 3f e3 cb 67 a0 89 32 97 bf
       0.06143868733623402 -0.02265372315919113
000090 36 97 9a e6 35 b9 8f bf 90 c3 27 79 4b 3f 6c bf
       -0.015489979839297879 -0.003448150070874019
0000a0 49 97 ec 5c 03 67 a6 bf de 4a 91 22 f8 84 c5 3f
       -0.04375467786148463 0.1681204003130778
0000b0 d6 3f 05 54 dd 85 85 3f 8b d0 e0 52 64 8f b0 3f
       0.010509232641794524 0.06468798659699553
0000c0 d8 18 87 6b 27 27 b7 3f 42 33 1f a3 ad fb 78 3f
       0.09044119239033266 0.006099394102375312
0000d0 81 37 df d2 c9 4b a9 3f cf 95 ba 58 b1 2e a3 3f
       0.049406344405368514 0.037465612488897564
0000e0 0a bd fe 69 18 d3 a1 3f 84 ae f3 57 c4 d4 82 3f
       0.034813654841281474 0.009194883283689899
0000f0 28 1a 6e 13 1a ae b7 3f 32 15 c4 5b 10 54 89 bf
       0.09250033354155873 -0.012367370415186405
000100 21 61 8f df b4 69 8b bf dd 8f ec fd 59 9d 80 3f
       -0.013385212967407302 0.008112624227187776
000110 6b ef cb c4 8b 9a 9a 3f 52 8f a3 28 fe a0 ac 3f
       0.025980171095383236 0.055915777645877754
000120 7a 7c 8e 13 0e c5 7a 3f 04 ad 2b 34 20 74 b6 bf
       0.006535582528982004 -0.08770943902679923
000130 65 8e 4b 25 58 09 ae 3f 8a c6 ef 55 9d a8 bb bf
       0.05866504149687727 -0.10804160450040903
000140 2e 70 77 ea 4f 25 a5 bf 2c 16 ac fa b6 2e 86 3f
       -0.04130029427662439 0.010831288838299612
000150 58 51 32 3d 1c 92 76 3f 02 b7 f4 13 e8 c6 b0 bf
       0.005510435398850731 -0.065535073158312
000160 88 ec 23 0c bb 54 aa bf 5d e7 f9 dc 1e a4 b9 bf
       -0.05142769358823168 -0.10016053099562101
000170 67 42 9f ef d7 2d 96 bf ba 69 4d e1 d0 0a ad 3f
       -0.021659254074452152 0.056723144057019906
000180 58 c6 c2 28 89 2e c3 3f f4 91 58 c7 14 f3 74 bf
       0.1498576592471632 -0.005114632765558447
000190 24 22 d7 07 2d af af bf fc 94 c0 7b dc 14 b5 3f
       -0.061883361060214775 0.08234956761642204
0001a0 c0 8c c3 39 0b 15 b8 bf 26 47 29 82 31 92 90 3f
       -0.09407110367060323 0.01618268353406118
0001b0 c8 e5 d5 99 f3 6d b5 bf 47 a3 4b 1d 6d 45 b8 bf
       -0.08370897775412012 -0.09480936017247386
0001c0 dd 42 06 a7 db 60 a1 bf 84 d5 60 c9 1d 3d c4 bf
       -0.03394209302780891 -0.15811512310908082
0001d0 dc fa b7 b2 45 a7 9a bf b7 fc 6b 94 c0 33 c4 bf
       -0.026028718026277584 -0.15782935378226678
0001e0 c9 47 6e b9 c2 c8 bd bf e6 30 64 1e 13 98 b6 3f
       -0.11634461428755495 0.08825797550179323
0001f0 e2 94 48 81 d0 0c c0 3f bc 05 0e 52 0b 36 c1 bf
       0.12539106667205774 -0.13446179873066721
000200 d9 1b 65 a7 53 77 75 3f 01 59 b6 63 82 5b be 3f
       0.005240752003664328 0.11858382162458626
000210 1d 8a b5 f9 e6 29 b5 3f 02 9f 46 a9 ed 3f a9 3f
       0.08267062755980033 0.04931585971217879
000220 96 9d d4 e5 3b 97 b4 bf 5f d0 fc 41 2e f4 bf bf
       -0.08043264733406938 -0.12481965170883445
000230 98 22 7e 60 12 83 9b 3f 6d 52 ec 5a 19 7d b3 3f
       0.02686718667931362 0.0761276099186234
000240 46 5f c9 f3 f0 61 94 bf aa 6d 40 6e d9 da b6 3f
       -0.01990486610370048 0.08927687589350933
000250 6d 88 aa 45 63 ba a8 3f 75 5e eb fd 23 3c b4 3f
       0.04829702592293548 0.07904267262653682
000260 e1 1a 2d 7c 08 b9 c0 bf 0a 37 40 85 0a 71 c6 bf
       -0.13064676345148654 -0.17532474047077812
000270 71 7a fc 03 7e 16 ae 3f 05 b3 a7 a8 c0 e1 c2 bf
       0.05876535223636815 -0.14751442179785826
000280 03 c8 a2 c4 12 30 c4 3f f1 f8 6f b3 1e 90 25 bf
       0.15771708108292168 -0.00016451239363841173
000290 8b ef 3e 39 13 64 96 3f 59 44 44 1e 97 38 c4 3f
       0.02186613118077178 0.1579769990717377
0002a0 86 f4 bc da 33 54 9c 3f a6 75 50 ff 4f c0 b9 3f
       0.027664957261766897 0.10059070571192893
0002b0 1b 09 50 da ae 41 93 bf 2f 43 7c 61 ca 10 a5 bf
       -0.018805248331781415 -0.041143726730416545
0002c0 7a 1a 10 fb 15 a9 98 3f 69 c9 0f 01 5e 15 84 bf
       0.02408251137606008 -0.00980637970676375
0002d0 30 dc 83 9f 57 be a7 bf cd 20 7d f1 c4 ed c1 bf
       -0.046374071332984435 -0.14006864348835393
0002e0 79 fc 46 38 ae dd be 3f b3 98 ec 9f 28 77 90 3f
       0.12057007669408105 0.016079554329871026
0002f0 63 2a 03 3f 27 6c c1 3f 1d 4e 7b 54 93 21 b1 bf
       0.13611307694221172 -0.06691857159176391
000300 5d 2f bf ff 96 4a 9f 3f 47 45 de 90 de e2 9d bf
       0.0305579751582593 -0.029185750572257942
000310 12 89 09 89 1e 0b a7 bf
       -0.04500670836275068

weight f8 [1, 99]
000000 71 26 a7 2b 9e 63 9a bf 5a e3 4a 58 85 80 c2 3f
       -0.02577063695370047 0.14454714594992418
000010 b3 6f 21 b1 17 a9 9d 3f e8 43 86 a7 b4 76 ca 3f
       0.028965349374956605 0.2067476099005312
000020 25 a1 5d b7 5e cd 93 bf 60 6d cc 4b c5 fe 94 bf
       -0.01933811182189617 -0.02050312304627988
000030 f0 1a 72 12 7b 42 93 bf f0 13 ed 86 30 a6 86 3f
       -0.018808291436040514 0.011059168927781443
000040 df d5 e7 5b 61 ad cb 3f c7 61 bf 27 86 7d c2 3f
       0.21622864711359477 0.14445568981933674
000050 85 11 4e 74 3e 14 cb 3f e3 51 b9 e4 da f5 a0 3f
       0.21155529669716713 0.033125725193403864
000060 f5 a1 fc f2 9d cf c7 3f d0 38 c2 3e 8a d9 c8 3f
       0.1860234676799021 0.19413879455937044
000070 0d 4d 76 67 f0 5a ae 3f ac ca e6 17 4b 2a c6 3f
       0.05928756010976075 0.17316569010798355
000080 4f fe 4d 2d ea 58 cc 3f be ea 49 5d c7 69 cb 3f
       0.22146346294538197 0.2141656117926995
000090 d6 64 7f 50 06 57 a7 3f 23 8d 93 89 df b5 9b bf
       0.045585820509310856 -0.027060978672023183
0000a0 0e 1c fe 89 54 d4 91 3f 7f 40 3a 16 65 a5 c3 3f
       0.01741153805008016 0.1534849508793776
0000b0 24 27 5a 2b 51 f6 77 3f ad 57 bf 84 0e 28 c9 3f
       0.005850140636207066 0.19653493387039359
0000c0 a9 e4 37 c8 c3 6e c2 3f 85 1d 45 e9 48 93 87 3f
       0.144005272639139 0.011511392229876414
0000d0 38 3b d6 d4 19 28 c1 3f 1e 0c 58 a0 9e e4 c6 3f
       0.13403628246711619 0.17885191754621216
0000e0 ae 85 77 1b 57 f0 b8 3f ca 76 09 ab 8f 0d c3 3f
       0.09741730137422763 0.14885135508932584
0000f0 6e 82 29 85 12 fc c3 3f 78 aa 85 be a6 04 a6 3f
       0.15613013746316845 0.043004236943336716
000100 84 81 d4 db ce 46 c6 3f d2 c2 08 01 88 d2 9d bf
       0.1740358899487654 -0.0291234255439033
000110 b9 a3 27 a2 ba 69 c3 3f b2 e8 18 d2 34 e2 c4 3f
       0.1516640941402139 0.16315326937348612
000120 43 45 e0 04 a3 3a cb 3f 54 fd 70 a2 6a 52 79 bf
       0.2127269529160377 -0.0061821141635499295
000130 7e f9 98 d3 f9 24 cc 3f 2d 52 67 0e 3a d6 72 3f
       0.2198784144583889 0.00459883383014818
000140 ed d9 17 46 17 6d 8f bf e3 07 b8 32 c0 80 9d 3f
       -0.01534479315431 0.028811457725176026
000150 01 35 f1 9f 0a 28 78 bf f5 cd 55 c3 27 44 97 3f
       -0.005897561553024789 0.022720929429352627
000160 ab 71 94 4b ce 64 7c bf d4 5c e7 d2 3f a7 a0 bf
       -0.006932073441273816 -0.03252601098545829
000170 e7 2e 38 8f 0c 5d c1 3f 38 a7 07 74 23 29 b8 3f
       0.13565213196886036 0.09437772352944485
000180 dd 75 a4 f6 e9 43 c3 3f 0e 58 78 51 0a 86 c3 3f
       0.15051006835066874 0.15252808549911417
000190 11 08 4e c0 05 2e 90 bf 8b 55 71 79 8a b7 c9 3f
       -0.015800561773637926 0.2009137242300024
0001a0 53 52 f2 92 9d 8f 97 3f 93 ac 7b 4f bc c2 6c 3f
       0.02300878724470785 0.003510825914295143
0001b0 59 e4 24 6e 85 ef 9a 3f 61 c5 bf 9a 95 80 9c 3f
       0.026304325912154123 0.027834260530601344
0001c0 52 94 72 1a b7 99 c2 3f 27 0c ea a5 21 c9 a6 3f
       0.14531601706872493 0.04450326109238061
0001d0 32 63 21 cf 50 ea 91 3f f4 a0 26 f9 0d 4a 89 3f
       0.017495405809629 0.012348279157621246
0001e0 84 f9 19 92 a7 40 a2 3f 00 da af cd aa e7 c7 3f
       0.035649525246287644 0.18675742190653466
0001f0 15 36 7f ae b1 7e c4 3f 20 62 65 0e 48 e5 90 bf
       0.1601163961444604 -0.01649963939539323
000200 f1 de 87 9c d1 91 c6 3f dd ab e3 cc 73 0a ca 3f
       0.1763250364599496 0.2034439802585827
000210 3e 22 e7 59 6d d9 c7 3f 8c cf 92 3d fa ec c3 3f
       0.18632285012997046 0.15566947943227338
000220 56 4c f4 f0 0a 07 6e 3f 0f 21 f2 ca 9c 63 9e 3f
       0.0036654676147321137 0.02967686642344441
000230 a6 b1 7d 53 5c d1 9e 3f 5a 07 fb c0 51 b2 ca 3f
       0.030095522495160808 0.20856687472228935
000240 48 26 be fa 24 79 c4 3f 34 81 b7 14 d7 ef c2 3f
       0.15994703524875065 0.14794434081614727
000250 0b c7 a4 3f d6 bd c6 3f a5 36 74 cf 44 9b c2 3f
       0.17766836268997852 0.14536342744434197
000260 a4 cb 39 d2 77 f2 92 bf 01 b4 2c 3b 6a 25 68 3f
       -0.01850306721321328 0.002947528345791373
000270 df 08 b4 c9 44 83 c4 3f 74 9d 09 f9 9c cf 94 3f
       0.16025600289146433 0.020323231411024392
000280 4b de 89 ab fd aa c8 3f a4 68 ba db b9 a4 c6 3f
       0.1927182281103675 0.17690203884996436
000290 13 05 5c ef ca d4 cb 3f 5d 73 93 20 0b 34 c3 3f
       0.21743141829942 0.1500257405340574
0002a0 47 11 ca 5d bb 0d 98 bf 0c 3e 93 36 e0 17 c7 3f
       -0.023489883040853667 0.1804161325912762
0002b0 af 4c 97 33 48 af 45 3f 0f 70 0b fe 0c 18 9b 3f
       0.0006617643877525804 0.026458933835655837
0002c0 c5 96 57 44 db 1f 91 3f a6 25 a5 d0 7f 3a cb 3f
       0.01672308544757219 0.21272275626897147
0002d0 cb c0 86 c4 d1 22 72 bf b7 cf 77 5f 49 01 93 3f
       -0.0044277376222654026 0.018559595539002518
0002e0 b4 fb 9e 29 c9 b5 c7 3f 57 87 e1 98 56 68 9c bf
       0.18523516208912627 -0.027741768914331413
0002f0 f6 e3 a8 c5 44 18 c6 3f 1a ec 95 f1 d6 44 9c bf
       0.17261562014917303 -0.02760635232469264
000300 5f 90 05 a2 f0 82 9b bf 91 c4 07 93 a6 8e 95 3f
       -0.026866683854123937 0.021051981662769285
000310 12 80 fe f0 50 91 8d 3f
       0.014437324862058207

bias f8 [1]
000000 33 d3 9a 34 55 78 96 3f
       0.021943408332577973
